results/alpha_1.0/agent_1000.pt (torch, 43191 bytes, 8 tensors)

fc1.weight f4 [32, 104]
00000000: 3bea 84bd 7401 373e ff94 433c 7339 1a3b
00000010: cdbc 21bb 5069 69be 957d a4be 2518 1d3d
00000020: 111a 053e 2735 703d 3066 d2bd 7c20 e23b
00000030: ca8e 03be 69de 2ebc e13d 443d cc7d f43d
00000040: 26d9 56be b7e0 bc3c f470 58be 71e5 973d
00000050: de5a f6bd 4fcf 09be b01c 6d3d 1c4b 4ebc
00000060: 6d42 05be 1b5b 3fbc a80a a3be 1466 2fbe
00000070: a57c 97bd 063d cebd a9ad ebbe e52a 893a
00000080: 823d d3bd 9707 db3d 9560 05be 940f 0dbe
00000090: 6e8e 683c 2ecf 8bbc 84c6 1b3e 6f2e a0bd
000000a0: eecb bb3d 25be e4bd 3f85 3b3e d64b f4bd
000000b0: 20b0 853e b5c1 283d f8af c43d 6dba 1d3e
000000c0: c008 eb3d e9a0 b4bd 3e54 e53d 68bb d43d
000000d0: e965 aa3d f577 5d3c 9525 b83d 1628 acbd
000000e0: 9ea8 0b3d b375 ccbd 7607 983c 277c 8dbd
000000f0: 812c ccbd 8ec1 ff3a 8d7e 8c3d ed86 09bd
00000100: fb47 ea3d 7fc1 11bc 1bbb 5f3d 08d3 2c3d
00000110: 5cfe a3bd ab26 c7bd eaf3 0bbe 5898 02bd
00000120: 58c8 99bc 0479 8b3d 4a21 f4bc ed13 c8bd
00000130: eaba 94bd dae3 523d 51f7 30bd 6b23 14bd
00000140: 4907 71bd 6699 ccbd f234 17bd 6164 143d
00000150: 9013 d6bd bcb2 bf3d ff98 9bbd 2972 cd3d
00000160: 9cb5 70be 6441 47bd 2c23 a33d 78d0 253d
00000170: 7183 39be a949 73bd 70b7 c43d 9aed 96be
00000180: e357 c2be 4e92 5e3e e00c aa3c 457e d8bc
00000190: 512b 193d a6b2 af3d 2fa5 85bd 6143 10be
000001a0: 9c1a 2fbe 43ed ff3d 10d5 953e d199 ea3d
000001b0: c58a bcbd 8d3d ef3c 0175 09bd a661 81bc
000001c0: dc24 43bd 1ffc 323e 0869 c43d 2268 bb3b
000001d0: 5aaa 60be 97b4 393d 7a8a 603d 09e2 7b3e
000001e0: 8519 1a3e fadf 9e3d 9074 87be 1e31 4e3d
000001f0: b6a5 dc3c b809 89bd 71b7 91bd 91a1 133d
00000200: e679 823e 2b81 03bd 77a1 203e 727d d83d
00000210: 0167 e2bd e24c 1dbd 7f94 62be e600 a6bc
00000220: f02a ffbc f7b2 aebd ab28 6bbe 90fe 34be
00000230: c199 acbd 8309 5a3d c499 803d 9d15 ae3d
00000240: ae88 003e 0e2f c4bd 0f2c cb3d 307f 173e
00000250: 2167 543d 79d1 133e 69fa 13be 6842 f2bd
00000260: f7d5 16be 8c3b d8bd 48d1 18be 6d15 553c
00000270: f54e 86bd b069 08be 8e73 03bc 3260 093e
00000280: 45a7 76bd c5b5 a93d d288 f73c c205 9bbc
00000290: 1648 1d3e 4142 093d 9be0 96bd 9534 9cbd
000002a0: 36ee 55be 3063 d53d 5f4e 3cbe 1a81 7cbd
000002b0: 0f3f ec3d e435 40be 50f6 853d 28b8 d43d
000002c0: d55a 763e 6a50 973d 392e 223d 94ec 273d
000002d0: 7ee6 31bd b6d7 44bd 3a3b 5bbd 51b2 a03d
000002e0: 4739 473e 24fb 6b3c 4e8e bf3d 40d4 083e
000002f0: 50ca 4c3c 06ac 3c3b 7f72 00be 2a7d 213d
00000300: 7345 1dbe a17e d6bc 9182 e23c 150d 04bd
00000310: a361 95be acbc 323d a124 2cbd c97d 763d
00000320: adc8 20be 7083 633e 6af4 9ebd ad68 cd3d
00000330: 91c6 a2bd 3eeb 29bc d580 8ebd 6bda 93bc
00000340: b3ad 183e cc0f 8cbe e98e acbd 6a45 afbd
00000350: 2df3 323e e43d 053e 97fb 903e 0d3d d53d
00000360: a226 2d3e 0a7e 433d 95ac 0f3d 89d1 41be
00000370: 0f67 93bd 4dea 143b 4348 0dbd 3829 0c3d
00000380: 69f4 47bd 1e09 d93d 5862 903d 537e e2bd
00000390: 9443 30bd b2fd 14bb e497 883d 21de b53c
000003a0: 62a2 7abd d03a f3bc 17fa 89bd f19e 15bd
000003b0: f92f c13d 7335 2a3e 3314 aebd a144 f13c
000003c0: b41b 88bc ad44 dbba 11be 01be 923f dd3d
000003d0: 7492 c9bc 8a74 593e 9f3c 9dbd 1483 363e
000003e0: 9ecf 0abe d83e bf3d ff8f f83d d96f cc3d
000003f0: de7f c9be a333 a5be 7b55 76bd e710 a6bd
-0.064899884 0.17871648 0.011937379 0.0023532778 -0.0024679184 -0.2279408 -0.3212706 0.038353104
0.12998225 0.05864444 -0.10273397 0.006900845 -0.12847438 -0.010673144 0.047910575 0.11938056
-0.20981273 0.023056371 -0.21136838 0.07416809 -0.1202905 -0.13457988 0.057888687 -0.01259115
-0.1301362 -0.011679436 -0.31844068 -0.17128783 -0.07396821 -0.10070233 -0.4603093 0.0010465054
-0.10314466 0.10694807 -0.13025124 -0.13775474 0.014194114 -0.017066564 0.15212446 -0.078213565
0.09169756 -0.1116908 0.18312548 -0.11928527 0.26110935 0.04120036 0.09603876 0.15403147
0.11476278 -0.08819754 0.111977085 0.103873074 0.08320219 0.0135173695 0.08991543 -0.08406083
0.034096353 -0.09983387 0.018558245 -0.06908446 -0.09969426 0.001951264 0.06860075 -0.03357594
0.114395104 -0.008896231 0.054621797 0.042193443 -0.080074996 -0.09724172 -0.13667265 -0.031883568
-0.01877229 0.06810191 -0.02980103 -0.097694255 -0.072622135 0.051486827 -0.04320461 -0.03616659
-0.05884484 -0.09990196 -0.036915727 0.03622854 -0.1045295 0.09360263 -0.07597541 0.1003154
-0.23506778 -0.048646346 0.07965693 0.040482014 -0.18116547 -0.05939642 0.096053004 -0.2947815
-0.37957677 0.21735498 0.020758092 -0.026427398 0.037394825 0.08578996 -0.06525647 -0.14088203
-0.17099994 0.12496426 0.29264116 0.114551194 -0.09206156 0.029204154 -0.03355885 -0.015793633
-0.047642574 0.17478989 0.095903456 0.0057192007 -0.21939984 0.04533824 0.05481956 0.24597944
0.15048797 0.07757564 -0.26456118 0.05033981 0.026934486 -0.06691307 -0.07115067 0.036042754
0.25483626 -0.032105606 0.15686594 0.10570802 -0.11054803 -0.0384034 -0.2212696 -0.0202641
-0.031148404 -0.085302286 -0.22964732 -0.17675233 -0.08427764 0.053231727 0.062793285 0.08500216
0.12552139 -0.095792875 0.09920513 0.14794612 0.051856164 0.14435376 -0.14450993 -0.11829072
-0.14730059 -0.10558233 -0.14923584 0.013005597 -0.065580286 -0.13321567 -0.008023156 0.13415602
-0.060218114 0.08286623 0.030216608 -0.018923644 0.1535953 0.03351045 -0.07367059 -0.07627217
-0.20891652 0.10419309 -0.18389271 -0.06164656 0.11535465 -0.18770558 0.06541121 0.103866875
0.24058087 0.07388385 0.039594863 0.040997103 -0.043432705 -0.04805728 -0.05352328 0.07846511
0.19455443 0.014403138 0.09353314 0.13362217 0.012499407 0.0028789057 -0.12543677 0.039426006
-0.15358524 -0.026183428 0.02765015 -0.03223904 -0.29176053 0.043636963 -0.04202712 0.06017855
-0.15701552 0.22218108 -0.07761462 0.10029731 -0.0794803 -0.0103710275 -0.069581665 -0.018048486
0.14910011 -0.27355802 -0.084256954 -0.085581616 0.17475577 0.1301189 0.28316948 0.10412035
0.16909268 0.047727622 0.035076696 -0.18927588 -0.07197391 0.0022722662 -0.034492742 0.034218997
-0.048817072 0.10597442 0.070500076 -0.11059251 -0.043033198 -0.0022734222 0.06669596 0.022200646
-0.061190017 -0.02969113 -0.06737154 -0.03652853 0.09432978 0.16621952 -0.084999464 0.02945167
-0.016614772 -0.0016728841 -0.12670161 0.10803141 -0.024605967 0.21235862 -0.07677578 0.1782344
-0.13555762 0.09338158 0.1213684 0.09982271 -0.39355367 -0.32265958 -0.060140114 -0.081086926

fc1.bias f4 [32]
00000000: fb8e 05bd a86c e1bc 82a2 983c 033f bb3c
00000010: a451 dcbc 0450 ffbc effc 883c d19e 3f3c
00000020: 5d4c f83c fbba 163d d6fc 88bc 66f2 f93c
00000030: abc1 443d 334c 38bd 772a 373d ef3b 0b3d
00000040: d448 0abd 292a 85bc b142 3f3d 20c5 a03c
00000050: 7f75 8c3d 98f0 0fbd ede1 f2bc 0df5 b23d
00000060: 6e07 643d 0580 07b9 03ba f03c aaa0 423d
00000070: 0dd8 0a3d 6f1c 02bc 6510 8ebc 4b4a 323a
-0.03260706 -0.027517632 0.018632177 0.022857195 -0.026894398 -0.031166084 0.01672217 0.01169558
0.03030985 0.036799412 -0.016722124 0.030511092 0.04803626 -0.044994544 0.044718232 0.033992704
-0.03376086 -0.016255455 0.04669446 0.019625247 0.06858348 -0.035141557 -0.029648745 0.08738146
0.055671148 -0.00012922294 0.029385572 0.047516502 0.03389745 -0.007941349 -0.017341802 0.00068012316

rnn.weight_ih f4 [96, 32]
00000000: e106 63bd 3d46 2c3e f1ec 0a3e 09e8 753e
00000010: 9699 a4bd c79d 35be e3b7 67bd 92b4 493e
00000020: 5700 533d db6d a2bd 842d 06bd a0e6 0a3e
00000030: 0ff1 19bc 8db0 4cbd f113 0b3e 0156 f23c
00000040: b502 fd3d 0bec 83bd 0bb7 12be 6049 6d3e
00000050: c654 533d 4c8a 14be 05cd fcbd 12e0 54be
00000060: 24da 1a3c fb10 d4bc e7ae 9fbd c7ee e13c
00000070: 2eb5 a43c 9c48 52bd 954e f33d da74 fe3d
00000080: 0448 103e a27e a93d aa4b 07be ce4d edbc
00000090: 59f7 cf3d 592e d8bd d312 b13d 0508 dc3d
000000a0: ffd7 68bc bce8 db3c 5b31 173d 3b65 2c3d
000000b0: 9a02 b1bc 5d7f b93d bca8 8d3d 060f 13be
000000c0: bc6b 27be 2e25 adbc 4a73 1a3e 4fb3 af3d
000000d0: 71c1 203c 91b9 3a3e 8b4f a7bd 6f4a 4c3e
000000e0: 15f1 04be b9ca 1c3e 6128 723d 6e3b 3c3e
000000f0: 5eeb 2f3b 209a c43d 4f13 0c3d 20ee 593e
00000100: 957a 383d 7750 febc dd16 40be 576c 22be
00000110: d67c 3d3c ce51 80be 2092 a23d c1be 25be
00000120: e485 713d c045 5ebe fa59 ebbd 428e db3d
00000130: 27ff 20bc 3a9a 8bbd 4e5b dabd be61 3c3e
00000140: 3760 263e e68d 88bd 5eeb 28be 0286 90bc
00000150: a991 90bd bc4d 8cbd 5e7c 263d cce3 03be
00000160: 235d 253e cd10 133e bb5e dcbc 6a98 45be
00000170: a25c 993d 4ccd eb3d c081 5bbd a59d 5cbe
00000180: 85e3 d2bd 3a50 e3bd 6053 38bd 88cb be3d
00000190: 9fd6 3ebe a435 f4bc 47ed b1bd 45a4 693d
000001a0: 3c02 cfbb 6a0d e03c 3b1e 86bd 0f4b e8bd
000001b0: c040 85bd 0ef9 5cbe 30c4 20be 63e5 44be
000001c0: 4ed3 083e c82d e93d 64d6 48be 0edc a83b
000001d0: b053 183c e1cc 8e3d 126b fb3c 7409 f7bd
000001e0: 80b1 e5bd 798f 67be d45a 1dbe 03d0 bb3d
000001f0: 0cd7 3cbe 88b5 12be b7ff 5d3d fe9a 59bc
00000200: 761a 2cbe 565e 53be 0d1a b6bc a98a 223e
00000210: c164 023e 2348 dc3d a0de 553e aa23 f43d
00000220: c071 4d3e 0127 0c3e e5d0 2abe 15eb 4e3d
00000230: 2077 553e d62e 60bd f252 56be c7b0 cc3d
00000240: 9d3d a6bd e10e 9d3c a890 7c3e 3cc9 2bbe
00000250: 4995 acbd 358a 8abd f137 fe3d 85df b2bc
00000260: 4928 fe3d c41c 67bd 35a2 00bc 3165 fbbd
00000270: fdef 12be 3b11 f0bd 9c79 34be b6d3 143e
00000280: 5a15 7cbe 6bd7 32be 944f e6bd 6ea0 7c3d
00000290: d340 fe3a 40d2 ec3d 1b39 aebd 1187 1dbe
000002a0: f466 8fbd 82a4 d13c fad3 a93d 5040 c53d
000002b0: 7671 323d 666b af3d 616e 68bd 9ade 09be
000002c0: ee4a 1fbe 9087 ff3d c35d 893d ffb9 49be
000002d0: fab7 ff3d 2e8e e7bd 4248 0a3d 4e8d e1bd
000002e0: 2d2f 2b3e 6b3b 043a 279d 34be c9f2 a4bd
000002f0: 6b10 4abd 3528 a2bc 861e 99bc c5f2 803d
00000300: 81e9 8f3d 4bae aabc 523e bd3c 6f76 88be
00000310: b072 13bd accd e03d d918 933d 70b0 02be
00000320: 87be af3d 4ec8 b13d 0aef 93bd 3d99 83bc
00000330: e0be ecbd 72b7 b2ba 9da5 73be d075 de3d
00000340: 3df1 f03d d057 153e 0ae5 313e c1a3 e13d
00000350: de85 2fbe 42ed 383e 30b9 a2bd 7d6f 2a3d
00000360: ac36 3dbd f607 6d3d ff42 3bbd 83bc f53d
00000370: 0893 60be 79c9 753c 5eb3 adbc 041f 2a3e
00000380: 8a31 8a3e ecfb 6b3e 444c 69bd 20a8 a73e
00000390: 90c0 c03d 8912 cfbd 2464 8cbe 592a fdbd
000003a0: f8b7 8cbe 2fa7 37be 1eb3 24be 0748 6a3e
000003b0: 6ea4 933d 449b d0bd 8533 6c3e 7974 9bbd
000003c0: c092 f8bd 6cc6 88be 067f 4ebd 2aff ebbd
000003d0: 8a67 e7bd 8600 da3d 0c3d 943d 5202 323c
000003e0: 3e1b c73d e790 0fbe 38b5 2b3c eff2 0cbe
000003f0: 981f c9bd 34d6 62be 523a 2f3e 5380 fcbd
-0.055426482 0.16823669 0.13566948 0.24014296 -0.08037107 -0.17735969 -0.056571852 0.19697788
0.051513996 -0.079311095 -0.03275825 0.13564539 -0.009395852 -0.04997306 0.13581826 0.029582025
0.12354032 -0.06441506 -0.14327638 0.23172522 0.051594518 -0.14505881 -0.12343792 -0.20788601
0.009451423 -0.025887003 -0.07797032 0.027579678 0.020105924 -0.051338777 0.11880223 0.124246314
0.14089972 0.082761064 -0.13212457 -0.028967764 0.101546 -0.10555715 0.086461686 0.10743717
-0.014211654 0.026844375 0.036912303 0.04208873 -0.021607686 0.09057496 0.06916949 -0.143612
-0.16349691 -0.021135893 0.15083042 0.08579122 0.009811745 0.1823485 -0.081694685 0.19950269
-0.1298259 0.15311708 0.05912054 0.18382046 0.002684317 0.095997095 0.0341981 0.21282244
0.04503878 -0.031044228 -0.18758722 -0.15861641 0.011565408 -0.25062412 0.079380274 -0.16186048
0.05896558 -0.21706295 -0.11491771 0.10720493 -0.009826458 -0.06816526 -0.10661946 0.1839666
0.1624764 -0.0666769 -0.16496035 -0.017642025 -0.070590325 -0.06850764 0.04064595 -0.12879866
0.1614881 0.14361878 -0.02690064 -0.19296423 0.074883714 0.11513767 -0.053590536 -0.21544512
-0.10297302 -0.110992864 -0.045001388 0.09316164 -0.18636559 -0.029810734 -0.08687835 0.057041425
-0.006317405 0.027350146 -0.06548735 -0.11342441 -0.06506491 -0.21579382 -0.1569984 -0.19228129
0.13361856 0.11385685 -0.19613034 0.0051531857 0.009297296 0.06972671 0.030690704 -0.1206235
-0.11215496 -0.22613324 -0.1536668 0.091705345 -0.18441409 -0.14327061 0.054198947 -0.013281582
-0.16806969 -0.20641455 -0.022229219 0.15873207 0.12733747 0.107559465 0.20885706 0.11920865
0.20062923 0.13686754 -0.1668125 0.05051716 0.20846224 -0.054732166 -0.20930079 0.09994655
-0.081172206 0.019172134 0.24664557 -0.16775984 -0.084269114 -0.06764642 0.12413014 -0.021835098
0.124100275 -0.056423917 -0.007851173 -0.1227516 -0.14349361 -0.117220365 -0.17624515 0.14533886
-0.2461752 -0.17464988 -0.11245647 0.061676435 0.0019397981 0.115635395 -0.08506986 -0.15383555
-0.070020586 0.025591139 0.082923844 0.09631407 0.043565236 0.085654065 -0.05674589 -0.13463822
-0.15555927 0.12477028 0.06707337 -0.19699858 0.124862626 -0.113064155 0.033760317 -0.1101328
0.16717215 0.00050442544 -0.17638074 -0.0805412 -0.049332064 -0.019794563 -0.018691313 0.062963046
0.07026959 -0.020835062 0.023101006 -0.26652858 -0.035998046 0.10976729 0.07182474 -0.12762618
0.08581262 0.08680783 -0.072233275 -0.01606428 -0.11559844 -0.0013634993 -0.23793645 0.10862315
0.117647626 0.14584279 0.17372528 0.11017562 -0.1714091 0.18059257 -0.07945478 0.04161023
-0.046194717 0.05786892 -0.04571819 0.119988464 -0.21931088 0.015001648 -0.021203693 0.16613394
0.2699092 0.2304532 -0.0569575 0.32745457 0.094117284 -0.10110957 -0.2742015 -0.12361593
-0.27484107 -0.17934869 -0.16083953 0.22879039 0.07209097 -0.101858646 0.23066528 -0.07590575
-0.12137365 -0.26713884 -0.050414108 -0.11523278 -0.112990454 0.10644631 0.07238206 0.010864811
0.09721993 -0.1402012 0.010480218 -0.13764547 -0.09820479 -0.22152025 0.17112091 -0.123291634

rnn.weight_hh f4 [96, 32]
00000000: 6462 4a3d b0ca b13d ee8e cabd 097f cc3b
00000010: 7ea9 b9bb cab8 2f3d 3f3d 3bbe 3474 ffbd
00000020: 5384 1a3e c262 fa3d 7d9f a1bc b2a7 dc3d
00000030: bc0b f1bd c918 c53d 938e efbc c97b 913d
00000040: 4a1b 1e3c 8b53 48be 0f80 91bc 5acc eebd
00000050: 34c5 513c 2be1 7bbd 360d de3d a64b 413e
00000060: 267a 71bd 604c bc3d 8edc 1abc 1787 a2bd
00000070: 0ccb ce3c e978 f1bc 0e86 ea3b ab27 e6bd
00000080: 5832 1e3d 6a08 783e a9f8 163d cf0a debc
00000090: a65e 953d 248f 503e 8ffd 4a3e b0dc 273d
000000a0: ca60 5ebd 1d85 0dbe c9de 37bd 4407 183c
000000b0: d8f3 ba3d 4c35 13be 8d0c 5e3e f107 1c3e
000000c0: 6fd7 4c3d b257 193c 8055 babd 6468 1f3d
000000d0: 4834 3fbe 4dcf 09be 7618 13bd a446 993d
000000e0: b1f0 adbd db15 95bc 4287 f73d b884 a5bc
000000f0: 86d1 1f3e fa54 7abd 8fc3 dd3d 7e81 b83d
00000100: 3b74 aebd 397c 143e 575b f53d c92f 25be
00000110: f130 c33d db27 12ba 5c2b 03bc 23be 0dbe
00000120: 06fb 2e3e 1417 333e 9713 90bd 609c 11bd
00000130: b5ed bfba ba64 ccbb 383b d03c 0fb9 a5bd
00000140: d30b 05bd fbf8 31bc a056 ddbd 42d2 d2bd
00000150: 3d66 5dbe 4871 aabc e79b 9fbd b539 133d
00000160: 8320 9bbc 44a1 06be a59d aebc 5247 c43d
00000170: 9c3d 0cbe f3b3 a5bd 16a7 e9bd 540d 2b3d
00000180: 8fbe 84bd 3723 3ebe ffee d1bd bb50 ce3d
00000190: f271 0b3e d314 e5bd 452c 9e3c c792 afbd
000001a0: caf8 b03d 30d9 ef3d 189a fdbd 88bf 85bd
000001b0: 9d37 22be d35a 5f3c 2a37 413d 9a7c 2f3d
000001c0: 237a cbbd 464d 313e d84b 293c 56e2 cb3d
000001d0: c90c a5bd 9859 733e de05 9b3d 4239 543d
000001e0: d2e9 16bd c76d 8a3c 78a4 46be 609b d4bd
000001f0: b2be 6cbe 8bd0 15be 7272 e53d 30dc ccbc
00000200: ddda 233e 7021 6d3e dc9a 313e 921d c2bc
00000210: a96d a83d 2307 d0bc 26c6 0d3e aa6c dfbd
00000220: 84c1 f93d 0269 873d 273d afbb b066 e3bd
00000230: 7e79 aebd da17 e53d 6f29 613d 74e4 41bd
00000240: 1787 3f3e b058 5bbd 8abf 703c 1c1b 6bbd
00000250: c6e4 54bc 3806 0d3e 446a 92bd 19ef d8bd
00000260: da46 553c a3f4 563e c0f6 293c 489a c33c
00000270: 9fa9 9cbc 3167 7e3e a074 90bd c470 613e
00000280: 2f04 063d 5521 42bd 66af 24be e730 83bd
00000290: 1b3c 993d 2365 f93c ac60 d6bd 3e0f 11be
000002a0: d4b1 e83d a8c3 eebd d864 a23d b704 e33d
000002b0: 1e53 7f3c d46a a4bd 43e1 bc3d 8534 283e
000002c0: ae9b d13d 9e6f ee3d 2f26 c23c 3457 223e
000002d0: 39ef ddbd 8dd0 9c3d 266f b3bd c551 0dbd
000002e0: 8bf0 473d b54f 9bbd 7081 313c b120 e43d
000002f0: 1015 2dbe 6b3e f73d 15fe ffbd 7a8e 043d
00000300: 9f70 f23d 7d70 e5bd c10d bebd b8e2 f03d
00000310: be64 373e a135 283e 78bc 63bd fbdd 513d
00000320: d5f0 22be 0f15 cbbd 500d d8bd 659c 5bbd
00000330: d5ac ea3d 1471 05be 7943 0b3e 32f6 343e
00000340: d8dd 4e3e 30c4 72bc 334d f93d 34f0 2ebe
00000350: d28b 41bd 89ea 573e e661 833d dd32 0abd
00000360: 21be 26be d5c3 3f3e 5b84 c4bd c6f1 183e
00000370: 1b79 843d 10c2 78bd 9c11 9abd 1929 c93b
00000380: fc6a b7bd edcc 423c 0bdc cfbd 6603 3a3d
00000390: 202c 43bd f593 313e 067c 013e 4a03 a23d
000003a0: af83 2b3e c20d b2bd 7b5c bf3d 7d97 243e
000003b0: 9b96 783d a031 09be dd6c 21bc 8164 96be
000003c0: 76de fabd 1d73 febd 60f0 6f3e 4d26 d33d
000003d0: bbb7 14bd 7c0d 82be 8a57 28bd 5a13 ccbd
000003e0: a668 26be c3c7 823d 8050 28be b411 2abe
000003f0: 51d5 343e a712 913d 8699 2ebe 6a19 fd3c
0.04941024 0.08681238 -0.09890543 0.0062407297 -0.005665957 0.042900838 -0.18285082 -0.12473336
0.1508954 0.12225868 -0.01972937 0.10774173 -0.11769816 0.09623868 -0.02924279 0.07103688
0.009650061 -0.19563119 -0.017761258 -0.11660071 0.012803365 -0.061494034 0.108423635 0.18876514
-0.05895438 0.09194255 -0.009451998 -0.079359226 0.025243305 -0.0294766 0.007157094 -0.11238035
0.03862223 0.2422196 0.036858235 -0.027104763 0.072934434 0.20367104 0.19823287 0.04098195
-0.054291524 -0.1382031 -0.0448902 0.009279076 0.09128541 -0.143758 0.21684475 0.15237404
0.05001014 0.009359287 -0.09098339 0.038917914 -0.18672287 -0.13457985 -0.035912 0.07484177
-0.08493174 -0.018198898 0.12086345 -0.020204887 0.1560727 -0.061116196 0.108283155 0.09009074
-0.08518263 0.14500512 0.11980312 -0.1613151 0.09530819 -0.0005575397 -0.008005943 -0.13842063
0.17087945 0.17489272 -0.070349865 -0.03554952 -0.0014642986 -0.0062375935 0.025418863 -0.08091938
-0.03248198 -0.010862584 -0.10807538 -0.1029401 -0.21621032 -0.02080597 -0.07793408 0.035943706
-0.018936401 -0.13147455 -0.021315405 0.09583916 -0.13695377 -0.08090963 -0.11408822 0.041760758
-0.06481659 -0.18568121 -0.10250663 0.10073992 0.13617685 -0.111856125 0.019308219 -0.085729174
0.08641203 0.11711347 -0.12382907 -0.06530672 -0.15841527 0.013632494 0.04717175 0.04284344
-0.09935405 0.17314634 0.010333024 0.099552795 -0.08059079 0.23764646 0.075694785 0.051812418
-0.036844082 0.016898049 -0.19398677 -0.10381198 -0.2311962 -0.14630334 0.11203469 -0.025007337
0.16001458 0.23157287 0.1734423 -0.02369574 0.08224041 -0.025394028 0.13845119 -0.10909398
0.12195113 0.066118255 -0.005347866 -0.111035705 -0.085192665 0.1118619 0.054971155 -0.04733701
0.18703876 -0.053551376 0.014694104 -0.0573989 -0.012993997 0.13771904 -0.07149175 -0.10592479
0.013017381 0.20991759 0.010373771 0.023877278 -0.01912385 0.24844052 -0.070534945 0.22015673
0.032718834 -0.04739507 -0.16082534 -0.06405812 0.07482167 0.030443734 -0.104676574 -0.1416597
0.11362043 -0.11658412 0.07929391 0.11084884 0.0155837815 -0.08028188 0.09222653 0.16426285
0.10234772 0.11642383 0.023699848 0.15853578 -0.10836644 0.076569654 -0.08761434 -0.03450181
0.048813384 -0.07583562 0.010834083 0.11139048 -0.16902566 0.12072452 -0.12499634 0.03236244
0.11837887 -0.11203096 -0.09279967 0.11761993 0.17909524 0.16426708 -0.05559966 0.051237088
-0.15912183 -0.09916126 -0.10549414 -0.053615946 0.11458746 -0.13031417 0.13599958 0.17672041
0.20201814 -0.014817283 0.12172928 -0.17083818 -0.047252484 0.21085562 0.06415157 -0.033739913
-0.16283466 0.18727048 -0.09595557 0.14935979 0.064684115 -0.060731947 -0.0752289 0.0061389324
-0.089559525 0.011889678 -0.10149392 0.045413397 -0.047649503 0.17341597 0.12644967 0.079107836
0.16749452 -0.0869403 0.09343811 0.16073413 0.060690504 -0.13397837 -0.009852615 -0.29373553
-0.12249462 -0.124243 0.2343154 0.1031004 -0.03630803 -0.25400913 -0.04109911 -0.099646285
-0.16250858 0.06385758 -0.16436958 -0.16608316 0.17659499 0.07083636 -0.17050752 0.030895907

rnn.bias_ih f4 [96]
00000000: bfd8 f8bd d35b 833c 4e1f 1ebe 518f 4dbe
00000010: 1503 7dbd 6d3a 2dbe 5377 89bd e9a9 cf3d
00000020: bfa7 19be a939 8a3d 4bf9 d33d 8109 ca3d
00000030: f82a 33be a45b ef3d 74fd ebbc fbc1 23bd
00000040: 6e0d de3d c7e0 46bd ea7c 3b3e 70de 083e
00000050: 7052 ae3c 4028 03be 05c1 613c aba3 9cbd
00000060: b1a7 58bd 84d8 903d 831a 073d 9c19 a23b
00000070: 182d 193d 491b 493d b370 e53c cb4f f23d
00000080: 3372 ecbc 2025 c93d d593 f33d 6f8f 983d
00000090: 6dc1 79bc f34e 053e 2fa3 ad3d 99c8 0ebe
000000a0: 62d2 a6be b0b8 ea3c 307b 6dbe 71e7 6ebe
000000b0: f861 19be 1eca d4bb e2dc 5abd 6aca 75be
000000c0: aff8 71be dceb f23c 27a8 5a3c 524a c2bc
000000d0: ed92 eebd 22f9 6abe 916c 05be 8c3c 0bbe
000000e0: 90ec d13d cf85 0dbd 0459 4a3d 166c 05be
000000f0: 9a56 e5bd 5d5d 4c3d 959f 7fbe 095f 33be
00000100: 7b06 e93c bc8f 473e 1297 99bc 69b6 fabd
00000110: ecb5 043e f500 02be 56dc 81bd d334 b1bd
00000120: 0c57 0b3e b890 c2bd a093 16bc e52b 6abd
00000130: f49e d33d 1758 f8bd 02ea c83d f9cc c03d
00000140: be32 7fbc 139b 6f3d 46d6 9a3c d395 9e3d
00000150: 3f14 ccbd 28f0 323e 662d d53d a377 e1bc
00000160: 51b0 20be 6a4c e0bd e763 2b3d 4bb2 d23d
00000170: 6184 93bd 8154 4e3d 2900 5b3e fefd 553e
-0.12150716 0.016034996 -0.1544163 -0.20074202 -0.061770517 -0.16916819 -0.067122124 0.1013983
-0.15005396 0.06749279 0.10350283 0.09865094 -0.1749686 0.11687401 -0.02880738 -0.039979916
0.10842405 -0.048554208 0.1830937 0.13366103 0.021279544 -0.12808323 0.01377893 -0.07648405
-0.052894298 0.07072547 0.032984268 0.0049469005 0.03739652 0.049098287 0.02800784 0.118316256
-0.028863048 0.09821534 0.11893431 0.07449233 -0.01524387 0.13018398 0.084783904 -0.1394371
-0.32582384 0.028652519 -0.23191524 -0.23330475 -0.14978778 -0.006493821 -0.053433307 -0.24002996
-0.23630022 0.029653482 0.013345755 -0.02371708 -0.116491176 -0.22946599 -0.13029696 -0.13597316
0.10250199 -0.034551438 0.0494013 -0.13029513 -0.111981586 0.049893726 -0.2496322 -0.17516722
0.028445473 0.19488424 -0.018748794 -0.12241823 0.12960023 -0.12695678 -0.06340854 -0.086526535
0.13607424 -0.09500259 -0.00919047 -0.057170767 0.10333052 -0.12126177 0.098102584 0.094140954
-0.015576063 0.0584975 0.018901002 0.077434205 -0.09964799 0.17474425 0.1040905 -0.027522868
-0.1569226 -0.10952075 0.04184332 0.10287913 -0.07202984 0.050373558 0.2138678 0.20897672

rnn.bias_hh f4 [96]
00000000: f56b 183d cab5 493e 8707 bdbc 73f2 60bc
00000010: 67d7 4f3e 7a34 2f3e f5b0 413d 5b58 14be
00000020: a6f1 973d 0cb9 92bd 63d9 a93d 9c4e 0a3e
00000030: 2bc6 bcbd 7a77 a9bd dac5 ff3d dd1a e1bd
00000040: 6f06 6dbd 08fe bbbd 250d bfbd 5c11 873d
00000050: 0698 d43d 1085 463d 484c 453d e5ab 38bc
00000060: b1cb af3d 8650 a6bc bd97 91bc 44ef 1cbd
00000070: 6b6f dcbb 9cb7 153e c2a6 e3bd c475 07be
00000080: d353 633c b6e3 53bd c103 da3d 4e5e 813e
00000090: db39 5dbd 911b eabc c68d 593b 523f 37be
000000a0: c8f4 b9bd befd 8ebe 3461 7fbe 8d63 633d
000000b0: 53cc 4abe a0ce 1b3e e889 66be c1a5 0abe
000000c0: 473b 79be 9dd2 8cbe 2a6b 37be 3128 3ebe
000000d0: 7a19 aebe ae2c 91bc cae3 10be 76cb 4dbe
000000e0: 07e5 2c3e ec9c 03be c010 4abe 6e9b 36be
000000f0: 57a3 7b3d d9c3 cbbd 6617 79bb d2f2 953d
00000100: 0f2c 353e 8392 313e 2706 c53c 18d8 14be
00000110: 523b 8d3d ab45 133e 45ee 373e 0713 12be
00000120: c1b3 c5bd 82a2 cbbd 3e23 4ebc f120 053e
00000130: 25fa 6b3d 0b3c 3dbd 417d 513d 4229 0abe
00000140: 1f40 10bc 6aae 7ebd cb07 32be aa44 cf3d
00000150: 34f7 9b3d eca3 61bd 88a6 bc3d c2e6 a43d
00000160: ad71 10be 461e 0dbe 4ff6 8dbd 6b8a 153b
00000170: 88ae 713e fc92 04be 8724 75bd ee39 353e
0.03721233 0.19698253 -0.023074878 -0.013729679 0.20297013 0.17109862 0.0472879 -0.1448683
0.07419138 -0.07164201 0.08293416 0.1350655 -0.09217485 -0.082747415 0.12488909 -0.10991452
-0.057867464 -0.09179312 -0.09328679 0.06595108 0.10380559 0.048466742 0.04816845 -0.011271452
0.08583773 -0.020302068 -0.01777255 -0.03831412 -0.0067271492 0.14620823 -0.11115791 -0.13228518
0.013874966 -0.051730834 0.10645247 0.2526726 -0.054010253 -0.028577598 0.0033196076 -0.17895249
-0.090798914 -0.27927965 -0.24939424 0.05551486 -0.19804506 0.1521554 -0.22513545 -0.13539793
-0.24339019 -0.27504435 -0.17911974 -0.1857002 -0.34003812 -0.0177215 -0.14149395 -0.20097145
0.16884242 -0.1285283 -0.19732952 -0.17832729 0.06143507 -0.09949464 -0.0038008331 0.07321705
0.17692588 0.17341046 0.024050785 -0.14535558 0.0689608 0.14382045 0.17961986 -0.14265071
-0.09653426 -0.09943105 -0.012581645 0.13000847 0.057611603 -0.04619984 0.051144842 -0.13492301
-0.00880435 -0.062178053 -0.17385785 0.101205185 0.0761551 -0.05508797 0.09211451 0.08051826
-0.14105864 -0.1378108 -0.06931745 0.00228181 0.23601735 -0.12946695 -0.05984929 0.1769788

fc2.weight f4 [6, 32]
00000000: c57c 143e ef10 b23e 21a0 063d 8bdc 96bc
00000010: adb8 473e 7739 77be 98a7 1c3e df66 f83d
00000020: 7d89 4f3d 1926 70be 34ad dcbc 0787 a3bd
00000030: 3b6c 8e3e 2fe8 cfbd 8a7c c1bd 6892 b13d
00000040: 244f 9e3e acd0 113e 095f b1bd 4f2e 003e
00000050: 1fa8 803e 5914 803e 1e4b cb3c 1154 1f3c
00000060: f48a 37be d37d 113d d259 06be f752 d1be
00000070: 1b65 373e 713b f63d d835 40bd b042 c6bc
00000080: 3c71 9b3d 3ab5 c9bc 50f7 15be 256b 0cbd
00000090: d416 a03d 66f7 d73c fc64 bb3e 5ca3 a8be
000000a0: c883 7ebd 979e bbbd 4604 6d3e 2238 833e
000000b0: 1aff 8ebd 387c a9be d32c 77be e159 893d
000000c0: e16f 7abd a16e 4b3e eb07 00be cf74 abbc
000000d0: 0bd4 2d3e cd06 babd acc3 8ebd 0ce0 223c
000000e0: 52d5 55bc 6d9a e3bd 424d 293e 4e35 9dbd
000000f0: 7a35 713e 1161 40be e129 883e 1847 a23c
00000100: d95c b6be 274c 303e 4a03 88bd 9815 c43e
00000110: ee7d b63e dcd0 53bc f8d0 ec3d 8d13 093e
00000120: 014e 00bd d2fb 48be b359 883c dbf5 b63e
00000130: 1647 38bb a7d9 7abd 7231 023e c0a0 05be
00000140: a70f 01be 6f30 ddbe 9932 893e 92f5 a1bc
00000150: eda0 883e a0ed b3be 519d a73e 6fae edbd
00000160: 4e51 b83d 8f88 0bbe 7163 793d 834d 1dbc
00000170: eae3 81bd 68cd 243e 9d0b 86be dade 75bc
00000180: f598 023e 6909 37be c048 a7bd f33b 153e
00000190: 3043 4abe 1bf5 f3be 2d65 51bd 8058 fbbd
000001a0: 0373 c2be d8cc d5bc 28cb e73d 10d2 7a3d
000001b0: e7e1 093d bd92 c13d e624 133e 7402 9ebd
000001c0: 090c fdbd daa2 d1be 5c97 343e afa4 933d
000001d0: 258f d83c 2382 d0bd 87ba 9e3d fd81 643e
000001e0: f14f aebe f5d0 9abe 5be9 35be 5cad 923d
000001f0: 80fa 833e f6b0 d83c 9be7 133e fa65 5dbb
00000200: 2014 f13d 1e73 08be b72a 45be ac9c a03d
00000210: cfe0 983e 16bc 42bd 4d61 72be 8fa6 13be
00000220: cea9 3fbe 8e24 e93c b101 d3bc 5ac1 943e
00000230: 0f38 05bc 0ec0 0abe c2ab b6bd c5ad ea3c
00000240: d570 8d3e 2418 adbd 4dd5 80be 226b 513d
00000250: ed4c 5cbe a322 2e3e df4d 7cbe 1365 353e
00000260: ce34 973d 4687 cb3c fc57 7b3e 0ab5 86bc
00000270: 0207 85bc 239d 253e c5fa 2dbe 6f3c a33e
00000280: 4b67 863e 56da c13e 3c0b 62bd 6dcc ab3e
00000290: 07cd 493e 83b7 ccbc bb10 433e 0691 97be
000002a0: 94a9 b33e c395 803e d116 6dbe 3d72 a3bd
000002b0: 4480 c03e 6c91 29bb 2d4d ef3d 36bb 4fbd
000002c0: f2cf 98be 5f88 98bd d67e 823d 8929 c0be
000002d0: 2abf 71be edb5 ce3e c488 72be 23fb e13d
000002e0: a298 81bd d71d fd3c b09a 223d c7e8 9a3e
000002f0: 12ea 40be 71a5 7b3e 2efb 883e d87b c73e
0.14500721 0.34778544 0.032867555 -0.01841571 0.19504042 -0.24143015 0.15298307 0.12128996
0.05066823 -0.23452033 -0.026938058 -0.07984739 0.27816948 -0.101517074 -0.09447582 0.08670503
0.30919755 0.14239758 -0.08660705 0.12517665 0.25128266 0.25015524 0.024816092 0.009724633
-0.179241 0.035520386 -0.13120201 -0.4088361 0.17909662 0.12023056 -0.04692635 -0.024201721
0.07589957 -0.024622548 -0.14645123 -0.03428187 0.07816854 0.026363086 0.36600482 -0.32937133
-0.062137395 -0.09161108 0.23146161 0.25628763 -0.069822505 -0.33102584 -0.24138193 0.06706596
-0.061141852 0.1986642 -0.1250302 -0.020929722 0.16975419 -0.090833284 -0.06970915 0.009941112
-0.013051348 -0.11113439 0.16533378 -0.07676183 0.23555556 -0.18787028 0.2659445 0.01980929
-0.35617712 0.1721655 -0.06641252 0.38297725 0.35642952 -0.012928214 0.11563295 0.13386364
-0.03132439 -0.19627312 0.016644334 0.35734448 -0.0028118542 -0.061242726 0.12714174 -0.13049603
-0.12603627 -0.43201014 0.26796415 -0.019770417 0.26685277 -0.3514223 0.3273721 -0.11605536
0.08999883 -0.13626312 0.06088585 -0.009601 -0.06342299 0.16093981 -0.26180735 -0.015006745
0.12753661 -0.17874683 -0.08168173 0.1457365 -0.19752192 -0.47647938 -0.05112188 -0.122727394
-0.37978372 -0.026098654 0.11318046 0.061235487 0.033662703 0.09451816 0.14369544 -0.07715312
-0.12355811 -0.40944558 0.17635864 0.07209145 0.026435444 -0.101810716 0.07750421 0.22315212
-0.34045365 -0.30237547 -0.177648 0.07161972 0.25777054 0.026451569 0.14443819 -0.0033782707
0.11771417 -0.13325164 -0.19254576 0.07842383 0.29859015 -0.047542654 -0.2366993 -0.14419006
-0.18717119 0.028459813 -0.025757642 0.29053766 -0.008131041 -0.13549826 -0.08919479 0.028647313
0.27625147 -0.0845187 -0.25162736 0.05112756 -0.2151372 0.170054 -0.2463908 0.17714338
0.073831186 0.024844777 0.24545282 -0.016443748 -0.016238693 0.16173224 -0.16990192 0.31882045
0.2625068 0.3786189 -0.055186495 0.33554402 0.19707118 -0.024989849 0.19049351 -0.29602832
0.35090315 0.2511426 -0.23153235 -0.079807736 0.3759786 -0.0025874032 0.11684642 -0.050715648
-0.2984615 -0.07447886 0.06371848 -0.3753169 -0.2360808 0.40373173 -0.23684984 0.11034229
-0.063279405 0.030898018 0.039698303 0.3025572 -0.1883929 0.2457483 0.26754135 0.38961673

fc2.bias f4 [6]
00000000: b549 403c cc0b 323c 8577 5b3c 6fce 8f3c
00000010: 9a63 023d c045 523d
0.011736323 0.01086707 0.013395195 0.01755449 0.03183327 0.05133605
