results/alpha_1.0/agent_500.pt (torch, 43177 bytes, 8 tensors)

fc1.weight f4 [32, 104]
0	0x3d6c3b2a	0.05767361
1	0x3e0b487d	0.13601871
2	0xbd06fe5f	-0.03295743
3	0x3d9a47cc	0.075332254
4	0x3b8bed75	0.0042702504
5	0xbd40e49a	-0.04709301
6	0xbdbebfd6	-0.093139336
7	0x3d1d1825	0.038353104
8	0x3e3b2b8b	0.18278329
9	0x3c5edabe	0.013601957
10	0xbdd26630	-0.10273397
11	0x3be2207c	0.006900845
12	0xbd8f09fa	-0.06984325
13	0xbbd695a2	-0.0065485993
14	0x3d443de1	0.047910575
15	0x3df47dcc	0.11938056
16	0xbc9cca23	-0.019139355
17	0x3cbce0b7	0.023056371
18	0xbd9b6848	-0.075882494
19	0x3dc9a9cf	0.098468415
20	0xbdf65ade	-0.1202905
21	0xbe09cf4f	-0.13457988
22	0x3dcf3e52	0.101193085
23	0xbbc8dc23	-0.006129758
24	0xbce60613	-0.028079068
25	0x3d18828d	0.037233878
26	0xbe3d59c4	-0.18491274
27	0xbdb8e962	-0.09028889
28	0xbd977ca5	-0.07396821
29	0xbe0698e3	-0.13144259
30	0xbeab7b6a	-0.33492595
31	0xbd7fc41d	-0.062442888
32	0xbdd33d82	-0.10314466
33	0x3ddb0797	0.10694807
34	0xbe056095	-0.13025124
35	0xbe0d0f94	-0.13775474
36	0x3c688e6e	0.014194114
37	0xbc8bcf2e	-0.017066564
38	0x3e1bc684	0.15212446
39	0xbda02e6f	-0.078213565
40	0x3dbbcbee	0.09169756
41	0xbde4be25	-0.1116908
42	0x3e37ec7f	0.1796131
43	0xbcd8c669	-0.026461797
44	0x3e0dd824	0.13851982
45	0x3d86f0eb	0.0658892
46	0x3e28ded5	0.16491254
47	0x3e315f43	0.17321496
48	0x3d85e748	0.06538254
49	0xbc3673a1	-0.0111359665
50	0x3e927775	0.28606763
51	0x3d01cff7	0.03169247
52	0x3dcf4e6d	0.101223804
53	0x3c5d77f5	0.0135173695
54	0x3dd12a61	0.10213161
55	0x3c355fb6	0.011070183
56	0x3d0ba89e	0.034096353
57	0xbdcc75b3	-0.09983387
58	0x3c21e476	0.0098811295
59	0xbc5d99ab	-0.013525407
60	0xbdcc2c81	-0.09969426
61	0x3affc18e	0.001951264
62	0xbb6447ba	-0.0034832791
63	0xbd0986ed	-0.03357594
64	0x3e2a9871	0.16659714
65	0x3d355288	0.04426816
66	0x3d5fbb1b	0.054621797
67	0x3d2cd308	0.042193443
68	0xbd169ccb	-0.036770623
69	0xbdb9eb02	-0.09078027
70	0xbd0dc906	-0.03461554
71	0x3c8b81dd	0.017029697
72	0x3deb0517	0.1147558
73	0x3e18add5	0.14910062
74	0xbcf4214a	-0.02980103
75	0xbe038457	-0.12843452
76	0xbc847b1c	-0.016171984
77	0x3c9f48ad	0.019443834
78	0xbd30f751	-0.04320461
79	0xbd14236b	-0.03616659
80	0xbd710749	-0.05884484
81	0xbdcc9966	-0.09990196
82	0xbd1734f2	-0.036915727
83	0x3d146461	0.03622854
84	0xbdd61390	-0.1045295
85	0x3dbfb2bc	0.09360263
86	0xbd9b98ff	-0.07597541
87	0x3dcd7229	0.1003154
88	0xbe2cfbe8	-0.1689297
89	0xbd1d2a4d	-0.03837042
90	0xbcbb4ee0	-0.022864759
91	0x3ce56e68	0.028006747
92	0xbe02db2b	-0.12778918
93	0xbe1b1c21	-0.15147449
94	0x3dc324d3	0.09528508
95	0xbe6cd7ec	-0.23129243
96	0xbe9da2f1	-0.30788377
97	0x3e359f2e	0.17736503
98	0x3e150858	0.14553964
99	0x3dc6e6dd	0.097120024
100	0xbccf1bfb	-0.025281897
101	0x3be0942b	0.0068536005
102	0xbdac370b	-0.08408936
103	0xbd2ecdce	-0.04267674
104	0xbca425e9	-0.020037608
105	0xbd89b1de	-0.067233786
106	0x3e24dc84	0.16099745
107	0x3d78ecef	0.060772832
108	0xbd9dcd8a	-0.07705219
109	0x3c8f458b	0.017489215
110	0x3e055710	0.13021493
111	0xbc8161a6	-0.015793633
112	0x3cc8cc0b	0.024511358
113	0x3db63f6b	0.08898815
114	0x3dc46908	0.095903456
115	0x3bbb6822	0.0057192007
116	0xbe35cb11	-0.17753245
117	0x3d938eb6	0.07204954
118	0x3d608a7a	0.05481956
119	0x3e7be209	0.24597944
120	0x3e16139d	0.1465592
121	0x3d9edffa	0.07757564
122	0xbe3e7921	-0.18600895
123	0x3db5a397	0.08869093
124	0x3cdca5b6	0.026934486
125	0xbd8909b8	-0.06691307
126	0xbd45957b	-0.04823826
127	0x3dba4053	0.090943
128	0x3e2f38c2	0.17111495
129	0xbd126631	-0.03574199
130	0x3d8b7eb5	0.06811277
131	0x3d032bdb	0.032024246
132	0xbde26701	-0.11054803
133	0xbd18e953	-0.03733189
134	0xbded5c78	-0.11589903
135	0xbc3dcd15	-0.01158454
136	0xbcff2af0	-0.031148404
137	0xbdaeb2f7	-0.085302286
138	0xbe6b28ab	-0.22964732
139	0xbe34fe90	-0.17675233
140	0xbdac99c1	-0.08427764
141	0x3d5a0983	0.053231727
142	0x3d8099c4	0.062793285
143	0x3dae159d	0.08500216
144	0x3e0088ae	0.12552139
145	0xbdc42f0e	-0.095792875
146	0x3e193f4c	0.14965552
147	0x3d7682ad	0.060183216
148	0xbd286354	-0.04111035
149	0x3e2d4282	0.16919902
150	0xbd88bfca	-0.06677206
151	0xbe0c4877	-0.13699518
152	0xbe2ff23a	-0.17182246
153	0xbde3727f	-0.11105823
154	0xbe203ed6	-0.1564897
155	0x3d46ed44	0.048566118
156	0xbd9fcb90	-0.07802498
157	0xbe0869b0	-0.13321567
158	0xbd345361	-0.04402483
159	0x3ddf3859	0.10899419
160	0xbd76a745	-0.060218114
161	0x3da9b5c5	0.08286623
162	0x3ca7b09c	0.020469956
163	0x3c96faa6	0.018430065
164	0x3e1d4816	0.1535953
165	0x3d094241	0.03351045
166	0xbd225dd9	-0.03964028
167	0xbd9c3495	-0.07627217
168	0xbe3bffaf	-0.18359254
169	0x3e0a6519	0.13515128
170	0xbe3c4e5f	-0.18389271
171	0xbd7c811a	-0.06164656
172	0x3e0d95e4	0.1382671
173	0xbe07fe19	-0.13280524
174	0xbc95ff65	-0.018310258
175	0x3dcd459e	0.10023044
176	0x3e1b78b9	0.15182771
177	0x3951c8d5	0.00020006609
178	0x3d222e39	0.039594863
179	0x3d2c5023	0.04206861
180	0xbcea3d8d	-0.028593803
181	0xbd7c07e6	-0.06153097
182	0xbd5b3b3a	-0.05352328
183	0x3da0b251	0.07846511
184	0x3e473947	0.19455443
185	0x3c6bfb24	0.014403138
186	0x3dbf8e4e	0.09353314
187	0x3e08d440	0.13362217
188	0x3c4cca50	0.012499407
189	0x3b3cac06	0.0028789057
190	0xbe00727f	-0.12543677
191	0x3d217d2a	0.039426006
192	0xbde66dc1	-0.11251403
193	0xbd000075	-0.031250436
194	0xbcac295f	-0.021015821
195	0xbd49014c	-0.049073502
196	0xbe6b3a8c	-0.22971553
197	0x3dad1243	0.08450749
198	0xbd2babaa	-0.04191176
199	0x3d52f07e	0.051498882
200	0xbdc9400d	-0.0982667
201	0x3d817f80	0.06323147
202	0xbda127cb	-0.07868918
203	0x3dcfd9e2	0.1014898
204	0xbe0e7595	-0.13912041
205	0x3da79c8c	0.08184156
206	0xbdbca52f	-0.09211194
207	0x3d3685ef	0.044561323
208	0x3dbd94e0	0.09256911
209	0xbd9a846b	-0.07544788
210	0xbc9e6f75	-0.019340256
211	0xbdbb1e50	-0.09136641
212	0x3e313b93	0.17307882
213	0x3cb829d6	0.022480886
214	0x3e2f7eea	0.17138258
215	0x3dd53d0d	0.10412035
216	0x3d93b077	0.072113924
217	0x3d5590f3	0.052140187
218	0x3d0fac95	0.035076696
219	0xbe41d189	-0.18927588
220	0xbd89a3a2	-0.067206636
221	0x3ca94dfa	0.020667065
222	0xbd0d4843	-0.034492742
223	0x3d0c2938	0.034218997
224	0xbe1a8f9c	-0.15093845
225	0x3dd9091e	0.10597442
226	0x3da2ccd9	0.07949228
227	0xbdd585e2	-0.10425927
228	0xbd304394	-0.043033198
229	0xbb14fdb2	-0.0022734222
230	0x3d86833e	0.06568001
231	0x3d22d787	0.039756324
232	0xbd6d2f03	-0.057906162
233	0xbd02ed44	-0.031964555
234	0xbd7272ef	-0.05919164
235	0xbd1652a5	-0.03669991
236	0x3dc12ff9	0.09432978
237	0x3e25f3de	0.16206309
238	0xbd01f067	-0.031723406
239	0x3d2bd0ca	0.041947164
240	0xbc881bb4	-0.016614772
241	0xbadb44ad	-0.0016728841
242	0xbe01be11	-0.12670161
243	0x3ddd3f92	0.10803141
244	0xbcc99274	-0.024605967
245	0x3e59748a	0.21235862
246	0xbd9d3c9f	-0.07677578
247	0x3e368314	0.1782344
248	0xbe0acf9e	-0.13555762
249	0x3dbf3ed8	0.09338158
250	0x3e0adc45	0.13560589
251	0x3d733d3d	0.059384573
252	0xbe667cd3	-0.22508554
253	0xbe2412c9	-0.16022791
254	0xbd7ffb1d	-0.06249534
255	0xbdee3ae9	-0.1163233

fc1.bias f4 [32]
0	0x3c2f43da	0.010697329
1	0xbb96e75d	-0.0046052174
2	0x3c904ff4	0.01761625
3	0xbcb2be7d	-0.021819348
4	0xbc7a5889	-0.0152798975
5	0xbcccdefd	-0.025008673
6	0x3c7a5b67	0.015280581
7	0x3bb893ab	0.005632838
8	0x3c500f24	0.012698922
9	0x3c8a12f8	0.016854748
10	0x3a7b77be	0.0009592733
11	0x3c810362	0.015748683
12	0x3d14d53a	0.03633616
13	0x3caeb93c	0.021328561
14	0x3d80d29e	0.06290172
15	0x3cf9b4ae	0.030481663
16	0xbcf7bd2f	-0.030241577
17	0xbc017142	-0.007900538
18	0x3d3f7fe8	0.04675284
19	0x3c437a6d	0.011931044
20	0x3d368b07	0.04456618
21	0xbc318bbc	-0.010836538
22	0xbc2adf30	-0.010429189
23	0x3da3d9e3	0.08000543
24	0x3d47addb	0.048749786
25	0xbcfc99b4	-0.03083501
26	0x3c6647e2	0.014055224
27	0x3cdfc29b	0.027314475
28	0x3c9a36bc	0.018824928
29	0xbb8ecb29	-0.0043577147
30	0x3cbdbbff	0.023160933
31	0x3c5344ea	0.012894848

rnn.weight_ih f4 [96, 32]
0	0xbe0a6aa3	-0.13517241
1	0x3dab2dec	0.08358368
2	0x3ddc3c67	0.10753708
3	0xbca3c1ea	-0.019989926
4	0xbdffa8e1	-0.12483383
5	0xbde04d6d	-0.10952268
6	0xbc4a7f0c	-0.012359392
7	0x3e70a063	0.23498683
8	0x3db1b33c	0.08676764
9	0x3d34fe66	0.044187926
10	0xbc082cd0	-0.008311465
11	0x3d9a0bfb	0.07521816
12	0xbc8a82e4	-0.016908117
13	0xbcbd6f88	-0.023124471
14	0x3dea95e5	0.11454371
15	0x3cb57555	0.022150675
16	0x3df2bcbe	0.11852406
17	0x3aa4e7d6	0.00125813
18	0xbe23d457	-0.1599897
19	0x3e76610b	0.24060456
20	0x3d85fe9d	0.06542704
21	0xbdd9ac0e	-0.1062852
22	0xbde0edb4	-0.10982838
23	0xbe5fd557	-0.21858726
24	0x3cb16168	0.021652892
25	0xbcff2cc0	-0.031149268
26	0xbd93c3b8	-0.07215065
27	0x3d80eb8a	0.062949255
28	0x3d498804	0.04920198
29	0xbda13d68	-0.078730404
30	0x3d112c19	0.035442445
31	0x3e17d895	0.14828713
32	0x3def678f	0.11689674
33	0x3d8a0267	0.067387395
34	0xbe0bc82f	-0.13650583
35	0xbdc7df7b	-0.097594224
36	0x3dd96923	0.10615756
37	0xbdd46a80	-0.10371876
38	0x3da56328	0.08075553
39	0x3de205a4	0.11036232
40	0xbc66cd17	-0.014086983
41	0x3c7f9881	0.015600325
42	0x3ca341c7	0.019928826
43	0x3c66f343	0.014096084
44	0xbd0bb0f1	-0.03410429
45	0x3da19094	0.07888904
46	0x3d6a97e5	0.057273764
47	0xbe0bf00a	-0.13665786
48	0xbe2ab26f	-0.1666963
49	0xbc43f875	-0.011961092
50	0x3e0e8090	0.1391623
51	0x3dae80b8	0.08520645
52	0x3b253c60	0.0025212988
53	0x3e383d40	0.17992115
54	0xbd998930	-0.074968696
55	0x3e47cd0e	0.19511816
56	0xbe0784c3	-0.13234238
57	0x3e0c72cc	0.13715667
58	0x3d583088	0.052780658
59	0x3e3a3389	0.18183722
60	0xbcadf738	-0.021236047
61	0x3db50b60	0.0884006
62	0x3cc71fb0	0.024307102
63	0x3e5649be	0.20926568
64	0xbbe1cc31	-0.0068907966
65	0xbda77f7c	-0.081786126
66	0xbe2d9101	-0.16949846
67	0xbe22518d	-0.15851422
68	0xbd857038	-0.06515545
69	0xbe585fdd	-0.21130319
70	0x3da7a197	0.08185118
71	0xbe26575f	-0.16244267
72	0x3d807445	0.06272177
73	0xbe2e95c1	-0.17049314
74	0xbded2c90	-0.11580765
75	0x3caed3eb	0.021341285
76	0xbd546e5e	-0.051863067
77	0xbdd6274d	-0.10456715
78	0xbe085739	-0.13314523
79	0x3e096e58	0.13420999
80	0x3e25ffcc	0.1621086
81	0xbd47048c	-0.04858832
82	0xbe3e8b42	-0.1860781
83	0xbcc177b5	-0.023616651
84	0xbd9f91b8	-0.077914655
85	0xbdddcf74	-0.10830584
86	0x3cb23edb	0.021758487
87	0xbe238c5d	-0.15971513
88	0x3e0beec9	0.13665308
89	0x3e076deb	0.13225524
90	0xbd51b655	-0.051199276
91	0xbe39f3d6	-0.18159422
92	0x3d7dca22	0.061960347
93	0x3e0221fd	0.12708278
94	0xbe018bf3	-0.12651043
95	0xbe662388	-0.22474492
96	0xbd5ca812	-0.05387122
97	0xbd97dcd7	-0.07415169
98	0xbd52e55e	-0.051488273
99	0x3dc67cc2	0.096917644
100	0xbe378899	-0.17923202
101	0xbd1d03e5	-0.038333792
102	0xbd9e7d2f	-0.077387206
103	0x3dbc0d5d	0.09182236
104	0xbc5ca977	-0.013468138
105	0x3d97c1e3	0.07410028
106	0xbd376021	-0.04476941
107	0xbccff73c	-0.025386445
108	0xbc4bffbe	-0.01245111
109	0xbe50f1fc	-0.2040481
110	0xbdee41d3	-0.11633649
111	0xbe2fc82f	-0.17166208
112	0x3e09246f	0.13392805
113	0x3dc7ebe5	0.0976179
114	0xbe5464ae	-0.20741531
115	0x3d36c9d5	0.044626076
116	0x3d03211d	0.032014
117	0x3d914f0f	0.07095157
118	0x3d5a8d33	0.053357314
119	0xbdc9cf17	-0.098539524
120	0xbd905e63	-0.07049253
121	0xbe390487	-0.18068133
122	0xbe015658	-0.12630594
123	0x3deda1fd	0.116031624
124	0xbe04ee2a	-0.12981477
125	0xbe076b54	-0.13224536
126	0x3de22c2a	0.1104358
127	0x3b00c20c	0.001964691
128	0x3bc1bc9d	0.005912377
129	0xbd74b5d0	-0.059743702
130	0xbd7e252f	-0.06204718
131	0x3e030aa2	0.12797025
132	0x3dbb3ffc	0.091430634
133	0x3b475da0	0.0030420795
134	0x3e2ebbae	0.17063782
135	0x3db226b6	0.0869879
136	0x3e24761c	0.1606068
137	0x3de9ec7c	0.11422059
138	0xbe0dd906	-0.13852319
139	0x3dbf0805	0.093277015
140	0x3e41977c	0.18905443
141	0x3b729883	0.0037017174
142	0xbdf9f2d7	-0.12204521
143	0x3d51e2d9	0.05124173
144	0xbda6ab83	-0.08138182
145	0xbd9201d2	-0.071292534
146	0x3e34908d	0.17633267
147	0xbe01f63f	-0.12691592
148	0xbde7850e	-0.11304675
149	0xbd9f5be6	-0.077812
150	0x3d0ce8c1	0.03440166
151	0xbd132dae	-0.035932235
152	0x3d89c1df	0.06726431
153	0xbd1cfc4a	-0.03832654
154	0xbc43da8b	-0.01195396
155	0xbe185a29	-0.14878143
156	0xbd716503	-0.058934223
157	0xbd3eba50	-0.0465644
158	0xbd28fcb4	-0.04125662
159	0x3e09bc6e	0.13450786
160	0xbe14b961	-0.14523841
161	0xbe327293	-0.17426519
162	0xbe37f2eb	-0.1796376
163	0xbdb66be4	-0.08907297
164	0xbc88d8b0	-0.016704887
165	0x3dee37af	0.116317146
166	0xbdf65468	-0.12027818
167	0xbe1e2b18	-0.15446126
168	0xbdcb6343	-0.09931042
169	0x3dab59ae	0.083667144
170	0x3df4f831	0.11961401
171	0x3da9c2eb	0.08289131
172	0xbd3228ef	-0.04349607
173	0x3c665c20	0.01406005
174	0xbc2f3170	-0.010692939
175	0xbe1ed494	-0.1551078
176	0xbe201bdc	-0.15635628
177	0x3e01f49e	0.1269097
178	0xbb8aff81	-0.004241884
179	0xbe383b19	-0.17991294
180	0x3da76037	0.081726484
181	0xbddc0284	-0.10742667
182	0x3cfeb6a8	0.031092957
183	0xbe067652	-0.13131073
184	0x3da27871	0.079331286
185	0xbc7e4c54	-0.015521128
186	0xbe4cd53f	-0.20003222
187	0xbd7a9fe1	-0.06118763
188	0xbd7a7307	-0.061144855
189	0x3d3a2035	0.04544087
190	0xbcdad484	-0.026712663
191	0x3d930402	0.07178499
192	0x3e1cebf0	0.15324378
193	0x3dbad0a6	0.09121828
194	0x3d3cf674	0.046133474
195	0xbe127030	-0.14300609
196	0xbc5a25b7	-0.013314656
197	0x3dc170fd	0.09445379
198	0x3d297770	0.04137367
199	0xbe0ab0e6	-0.13544044
200	0x3d9747ae	0.07386719
201	0x3e154e9c	0.14580768
202	0xbd83c0cf	-0.0643326
203	0x3d86c517	0.06580561
204	0xbd3b64a6	-0.045750283
205	0x3c164e52	0.009173946
206	0xbe4da20b	-0.20081346
207	0x3dccbe4f	0.09997236
208	0x3df2a16f	0.11847197
209	0x3df9e476	0.122017786
210	0x3e377a24	0.17917687
211	0x3e053049	0.130067
212	0xbe22dab1	-0.15903737
213	0x3e476fc8	0.19476235
214	0xbda49896	-0.08036916
215	0x3d80858f	0.06275474
216	0xbcc6f53d	-0.02428686
217	0x3dd4c5be	0.10389279
218	0xbc967d51	-0.018370302
219	0x3de6879f	0.112563364
220	0xbe34eefa	-0.17669287
221	0x3ce7f515	0.028315106
222	0x3d2e7f4c	0.04260187
223	0x3e312c0e	0.17301962
224	0x3e0d149e	0.13777396
225	0x3d864541	0.06556178
226	0x3cf7cb3d	0.030248279
227	0x3dd714a9	0.105019875
228	0x3d87b531	0.066263564
229	0xbd4a56e8	-0.049399287
230	0xbe4df524	-0.20113045
231	0xbde1488d	-0.11000166
232	0xbe26f542	-0.16304496
233	0xbde833ff	-0.113380425
234	0xbdf2b03a	-0.11850019
235	0xbd53e409	-0.051731143
236	0xbd83f5d7	-0.064433746
237	0xbda5a11f	-0.08087372
238	0x3dfd8d67	0.12380486
239	0xbe007e53	-0.12548189
240	0xbe0d61f5	-0.13806899
241	0xbd8bb646	-0.06821875
242	0xbc487578	-0.012235038
243	0xbdaeb255	-0.08530108
244	0xbe02c126	-0.12768993
245	0x3e028d3d	0.1274919
246	0x3d26ac5a	0.04069171
247	0xbd105d62	-0.035245307
248	0x3c481911	0.012213008
249	0xbe1ceb56	-0.15324149
250	0xbd04081a	-0.03223429
251	0xbdd181eb	-0.10229858
252	0xbe24ab0f	-0.16080879
253	0xbe2e97fd	-0.17050166
254	0x3d8f31af	0.06991898
255	0xbdc0b0a5	-0.09408692

rnn.weight_hh f4 [96, 32]
0	0x3db0fd19	0.086420245
1	0x3dc48300	0.09595299
2	0xbdfea0b5	-0.12432996
3	0xbbee7202	-0.0072767744
4	0xbc2d9fd0	-0.010597184
5	0xbaf2bca7	-0.0018519358
6	0xbe25acd6	-0.16179213
7	0xbe086240	-0.1331873
8	0x3e04ea6f	0.12980054
9	0x3df06645	0.11738256
10	0xbcd91b26	-0.026502203
11	0x3dc56734	0.09638825
12	0xbdb18773	-0.08668413
13	0x3da757b3	0.08171024
14	0xbd7a7436	-0.061145984
15	0x3e07f601	0.13277437
16	0x3d8f2ad6	0.06990592
17	0xbe471112	-0.19440106
18	0xbdf6b58c	-0.12046346
19	0xbdf31446	-0.11869101
20	0x3c953db0	0.018217891
21	0x3c58b2f9	0.013226264
22	0x3dccaf3e	0.09994362
23	0x3e5c71f1	0.2152784
24	0xbd90bd4c	-0.070673555
25	0x3dd8a8e3	0.105790876
26	0xbae83219	-0.0017715126
27	0xbdcea37c	-0.10089776
28	0x3d2ef7fe	0.042716973
29	0xbc70070c	-0.014650118
30	0x3a9b0b98	0.0011829017
31	0xbdd58be0	-0.1042707
32	0x3d137ae8	0.036005884
33	0x3e7433e9	0.23847927
34	0x3d015c4a	0.031582154
35	0xbcec7990	-0.02886656
36	0x3d9a17b9	0.07524056
37	0x3e47b7d3	0.19503717
38	0x3e4c212a	0.19934526
39	0x3d204a87	0.039133575
40	0xbd316094	-0.043304995
41	0xbe0347ee	-0.12820408
42	0xbd400f33	-0.046889495
43	0xbc2e5360	-0.010639995
44	0x3dcb6fb8	0.09933418
45	0xbe10eb92	-0.14152363
46	0x3e636f7d	0.22210498
47	0x3e25b6a2	0.1618295
48	0x3d7ae5a3	0.061254155
49	0x3d1613fa	0.036640145
50	0xbdb0c861	-0.08631969
51	0x3ce5fcd7	0.028074665
52	0xbe16e787	-0.14736758
53	0xbda2dc02	-0.079521194
54	0xbd32eb19	-0.043681238
55	0x3d8e1caf	0.06939065
56	0xbdaae4af	-0.08344399
57	0x3c229929	0.009924212
58	0x3ddde964	0.10835531
59	0xbc59e0cb	-0.013298224
60	0x3e1c5f89	0.15270819
61	0xbd693fe7	-0.056945708
62	0x3dab1be0	0.08354926
63	0x3db1add8	0.08675736
64	0xbd8b4d7f	-0.068018906
65	0x3e067790	0.13131547
66	0x3e09ce0f	0.13457511
67	0xbe0d2373	-0.13783054
68	0x3d997796	0.07493512
69	0x3d36b71f	0.04460823
70	0xbc3a239f	-0.011361032
71	0xbdf946f7	-0.121717386
72	0x3e30d4e9	0.17268719
73	0x3e4b72df	0.19868039
74	0xbd922c2a	-0.0713733
75	0xbd7cf5c2	-0.06175781
76	0xbc92352d	-0.017847622
77	0x3c208751	0.009797887
78	0xbd62d10d	-0.055375148
79	0xbd9f2f7b	-0.07772728
80	0xbd31c4b5	-0.043400485
81	0x3cb1a20b	0.021683713
82	0xbe4c0d6c	-0.19926995
83	0xbdfa8dfb	-0.12234112
84	0xbe64fa43	-0.22361092
85	0x3cd14106	0.0255437
86	0xbdf3f80e	-0.11912547
87	0x3c9f743f	0.01946461
88	0x3bd4be48	0.00649241
89	0xbdea7cae	-0.11449562
90	0xbd1fd9b2	-0.03902597
91	0x3dfbec6c	0.12300953
92	0xbe235ee7	-0.15954171
93	0xbdc79242	-0.09744693
94	0xbdd163fc	-0.10224149
95	0x3cce50f1	0.02518508
96	0xbd191f23	-0.03738321
97	0xbe25b8db	-0.16183798
98	0xbdeccabd	-0.11562107
99	0x3d56f163	0.052476298
100	0x3e1e3514	0.15449935
101	0xbdfd6d6d	-0.12374387
102	0x3d1390b9	0.03602669
103	0xbddaa276	-0.10675518
104	0x3d3dcb9a	0.046336748
105	0x3da1f891	0.079087384
106	0xbe1250aa	-0.14288583
107	0xbcb487ca	-0.022037406
108	0xbe124bb2	-0.14286688
109	0xbc2c83a3	-0.0105294315
110	0x3db71f74	0.08941546
111	0xbb6ec43f	-0.003643289
112	0xbe0e9d3d	-0.13927169
113	0x3e02bfd6	0.12768492
114	0x3c76116e	0.015018804
115	0x3e0f9a74	0.14023763
116	0xbdf4d69d	-0.11954997
117	0x3e3a5744	0.18197352
118	0x3df17ef2	0.11791791
119	0x3d9d3814	0.07676712
120	0xbd86e3a1	-0.065863855
121	0xbce5b3eb	-0.028039893
122	0xbe2acc04	-0.16679388
123	0xbe14202e	-0.144654
124	0xbe367976	-0.17819771
125	0xbdfffb59	-0.12499113
126	0x3e139c9e	0.14415213
127	0x3a9fdf21	0.0012197235
128	0x3e46ee94	0.19426948
129	0x3e58c88f	0.21170257
130	0x3e512b20	0.20426607
131	0xbcbd3b82	-0.023099665
132	0x3d459d69	0.04824582
133	0xbbfc170e	-0.007693178
134	0x3de30b3c	0.11086127
135	0xbd8006e9	-0.06251318
136	0x3df3f56e	0.119120464
137	0x3d9ea1d1	0.07745708
138	0x3d44abed	0.048015524
139	0xbdbea39d	-0.093085505
140	0xbe0204af	-0.12697099
141	0x3e074db6	0.13213238
142	0x3d32018a	0.0434585
143	0xbd9e7e41	-0.07738925
144	0x3e3ab0bf	0.18231486
145	0xbdc2f39b	-0.0951912
146	0x3cd65e35	0.026167968
147	0xbd73d0fa	-0.059525467
148	0xbc49a3ae	-0.012307091
149	0x3d9b7895	0.075913586
150	0xbda39a3b	-0.079884015
151	0xbdf43a9d	-0.11925242
152	0x3caafed9	0.020873474
153	0x3e30f062	0.17279199
154	0xbae7b9f1	-0.0017679316
155	0x3d255447	0.040363576
156	0xbd12a5b6	-0.035802566
157	0x3e619964	0.2203117
158	0xbd536fdd	-0.051620353
159	0x3e4d54dc	0.20051903
160	0x3e023505	0.12715538
161	0xbd8a94cb	-0.06766661
162	0xbe2800bc	-0.1640653
163	0xbe13be42	-0.14428046
164	0x3d610d30	0.054944217
165	0xbd07a1dc	-0.033113346
166	0xbe05f7b9	-0.1308278
167	0xbdeda133	-0.11603012
168	0x3db8cdeb	0.09023651
169	0xbdd22fe3	-0.1026304
170	0x3de9c5d0	0.11414683
171	0x3dbba770	0.091627955
172	0x3d040451	0.03223068
173	0xbd825b91	-0.06365121
174	0x3daed76d	0.08537183
175	0x3e01660a	0.12636581
176	0xbc021fd5	-0.00794216
177	0x3e1034ee	0.14082691
178	0xbb06e477	-0.0020582953
179	0x3e10f118	0.1415447
180	0xbdcd15d5	-0.1001393
181	0x3e0eef72	0.13958529
182	0xbdd7bad3	-0.10533681
183	0xbd143a04	-0.03618814
184	0x3d8b06f0	0.067884326
185	0xbd70e390	-0.05881077
186	0xbc53daeb	-0.012930612
187	0x3dd3095d	0.1030452
188	0xbe495ac5	-0.19663532
189	0x3dc83280	0.09775257
190	0xbde8bc45	-0.113640346
191	0x3c87459d	0.016512686
192	0x3e1243df	0.14283703
193	0xbdd0eb8d	-0.10201178
194	0xbdeacc97	-0.11464804
195	0x3df39756	0.118940994
196	0x3e3d07f9	0.18460073
197	0x3e15049a	0.14552537
198	0xbd56df81	-0.052459244
199	0x3d11038b	0.03540377
200	0xbe2f0c7d	-0.17094608
201	0xbdf515c7	-0.11967044
202	0xbde8573f	-0.11344766
203	0xbced5d41	-0.028975131
204	0x3df67eae	0.12035881
205	0xbe10bb3d	-0.14133926
206	0x3e1db842	0.1540232
207	0x3e0e70cc	0.13910216
208	0x3e422055	0.18957646
209	0xbd42603f	-0.04745507
210	0x3df5f272	0.120091334
211	0xbe21037f	-0.1572399
212	0xbd56a4aa	-0.05240313
213	0x3e2cc12f	0.16870569
214	0x3dba32e4	0.09091738
215	0xbc9c0c1c	-0.019048743
216	0xbe37e7fe	-0.17959592
217	0x3e1bb550	0.15205884
218	0xbda53012	-0.08065809
219	0x3de11984	0.10991195
220	0x3d945461	0.072426565
221	0xbd37beb9	-0.04485962
222	0xbd34b00e	-0.04411321
223	0x3c8c58f3	0.017132258
224	0xbd3948b0	-0.045235336
225	0x3c058f92	0.008151906
226	0xbe183bc4	-0.14866549
227	0x3d0969b6	0.03354808
228	0xbd7c8b96	-0.061656557
229	0x3dd84d7a	0.105616525
230	0x3e120113	0.14258222
231	0x3d8e44af	0.06946694
232	0x3e184590	0.14870286
233	0xbd8fb6a2	-0.07017256
234	0x3da1c8c7	0.07899623
235	0x3e1c26b5	0.1524914
236	0x3da26f0c	0.07931337
237	0xbe0d2431	-0.13783337
238	0xbdc86067	-0.09784012
239	0xbe630729	-0.221707
240	0xbd1b0831	-0.03784961
241	0xbdd50b78	-0.10402578
242	0x3dbd6bf5	0.09249107
243	0x3db6504d	0.08902035
244	0xbd81e134	-0.06341782
245	0xbe4951e3	-0.19660144
246	0xbd757b09	-0.05993179
247	0xbdb68c01	-0.089134224
248	0xbe14ed74	-0.14543706
249	0x3d78f996	0.0607849
250	0xbe2da40f	-0.16957115
251	0xbe34dc57	-0.17662178
252	0x3e2ed6ad	0.1707408
253	0x3d8e5c46	0.069511935
254	0xbdf2ddd5	-0.11858717
255	0x3ce58f74	0.028022505

rnn.bias_ih f4 [96]
0	0xbded35b1	-0.115825064
1	0x3c4335ba	0.011914665
2	0xbe2e5a5b	-0.17026655
3	0xbe339a44	-0.17539316
4	0xbda5332c	-0.08066401
5	0xbe3e6a0e	-0.18595144
6	0xbd739461	-0.059467677
7	0x3dc2e750	0.095167756
8	0xbdc2839a	-0.09497757
9	0x3d060d3e	0.032727472
10	0x3dd4d0b0	0.103913665
11	0x3e002707	0.12514888
12	0xbe25c28f	-0.161875
13	0x3dd46b3e	0.10372017
14	0xbd554a62	-0.05207289
15	0xbcc2c3bc	-0.023774974
16	0x3e006dc6	0.12541875
17	0xbc8cccee	-0.017187562
18	0x3e0882a4	0.13331085
19	0x3dac4035	0.08410684
20	0x3b87a327	0.0041393223
21	0xbdea1280	-0.1142931
22	0xbc887f82	-0.016662363
23	0xbdbd337e	-0.09238337
24	0xbd7aec4a	-0.0612605
25	0x3d5929bc	0.053018317
26	0x3d0f3491	0.03496224
27	0xba927dee	-0.0011176446
28	0xbbe18559	-0.0068823514
29	0x3d5706b4	0.052496627
30	0x3d9e601e	0.07733177
31	0x3dca13a2	0.09867026
32	0x3cd559ef	0.02604386
33	0x3dffc27b	0.12488266
34	0x3e2ca04c	0.16858023
35	0xbc7aa960	-0.015299171
36	0x3d7273f2	0.059192605
37	0x3dc3341f	0.09531426
38	0x3dc65cec	0.09685692
39	0xbd4c15c5	-0.04982545
40	0xbe75fb7e	-0.24021718
41	0x3d92ae14	0.07162109
42	0xbe26a533	-0.16273956
43	0xbe44ee12	-0.19231442
44	0xbdcd947a	-0.10038085
45	0x3ce78ce5	0.028265426
46	0xbd084a40	-0.033273935
47	0xbe519c7e	-0.20469853
48	0xbe3b590b	-0.18295686
49	0x3d7a6f14	0.06114109
50	0x3d08754d	0.03331499
51	0x3d9ff190	0.07809746
52	0xbd89e9d5	-0.06734053
53	0xbe4fec62	-0.20305017
54	0xbe25f3a3	-0.16206221
55	0xbdd7318b	-0.105074964
56	0x3e06bd98	0.13158262
57	0xbc0569b9	-0.008142882
58	0x3da01345	0.07816175
59	0xbe001a91	-0.12510134
60	0xbe120e09	-0.14263166
61	0x3da810d3	0.08206334
62	0xbe466fec	-0.19378632
63	0xbde3167b	-0.11088272
64	0x3d0e1812	0.034690924
65	0x3e305c9d	0.17222829
66	0xb9c37bc0	-0.000372855
67	0xbe09f72d	-0.13473196
68	0x3e0a7dd9	0.1352457
69	0xbe030bcd	-0.1279747
70	0xbd976587	-0.07392412
71	0xbdd29f37	-0.10284274
72	0x3e0b8629	0.13625397
73	0xbdc083d1	-0.09400142
74	0x3a5f41fb	0.0008516607
75	0xbd9b2cc6	-0.07576899
76	0x3dbc71c7	0.09201389
77	0xbdfb17be	-0.12260388
78	0x3dc1b37d	0.09458063
79	0x3dbd08be	0.09230183
80	0xbc899cb5	-0.016798357
81	0x3dcbbbbf	0.09947919
82	0x3d8199cb	0.06328162
83	0x3d9c5544	0.076334506
84	0xbdac0b9c	-0.08400652
85	0x3e3e6942	0.1859484
86	0x3db6f7f9	0.08934016
87	0xbd3f6c5f	-0.04673421
88	0xbe168507	-0.14699183
89	0xbdc07ee0	-0.093991995
90	0x3d167d10	0.036740363
91	0x3ded4bb4	0.11586705
92	0xbdd6d155	-0.10489146
93	0x3d3a6fab	0.04551665
94	0x3e46a8a7	0.19400273
95	0x3e47a6cf	0.19497226

rnn.bias_hh f4 [96]
0	0x3d2fb1fd	0.042894352
1	0x3e457db0	0.19286227
2	0xbd1f6fed	-0.0389251
3	0x3c3e5f03	0.011619332
4	0x3e3c7e93	0.18407659
5	0x3e1e04d9	0.15431537
6	0x3d610b45	0.054942388
7	0xbe1ab99b	-0.15109865
8	0x3e045eca	0.12926784
9	0xbdd9ec1b	-0.10640737
10	0x3daab0c8	0.083344996
11	0x3e2570dc	0.16156334
12	0xbda1f574	-0.079081446
13	0xbdc467e0	-0.09590125
14	0x3dd02001	0.10162354
15	0xbdbfead4	-0.09370962
16	0xbd276a38	-0.040872782
17	0xbd7781d4	-0.060426548
18	0xbe1280d3	-0.14306955
19	0x3c865321	0.01639706
20	0x3db17da8	0.08666545
21	0x3d7f00ef	0.06225675
22	0x3c913895	0.017727176
23	0xbcde954b	-0.027170798
24	0x3d9ea96a	0.07747157
25	0xbd1baf91	-0.03800923
26	0xbc81639e	-0.015794571
27	0xbd35c666	-0.04437866
28	0xbd50ebb6	-0.05100604
29	0x3e193271	0.14960648
30	0xbd7d4599	-0.06183395
31	0xbe1b93e9	-0.15193142
32	0x3d8cdd7f	0.068781845
33	0xbccd51f8	-0.0250635
34	0x3e1fd83d	0.15609832
35	0x3e26ca48	0.16288102
36	0x3ca754de	0.02042621
37	0xbd81f0a8	-0.0634473
38	0x3c7c31a1	0.015392692
39	0xbdb6f854	-0.089340836
40	0xbbaa24d5	-0.005192379
41	0xbe71fb82	-0.23631099
42	0xbe388b37	-0.18021856
43	0x3dc5a476	0.09650509
44	0xbe183498	-0.14863813
45	0x3e3f668a	0.1869146
46	0xbe51e546	-0.20497617
47	0xbdccefa8	-0.10006648
48	0xbe429ba3	-0.19004683
49	0xbe7966e8	-0.24355662
50	0xbe22f85b	-0.15915053
51	0xbdabcc4b	-0.08388575
52	0xbe94ef26	-0.29088706
53	0x3c0e72d1	0.008694367
54	0xbe316add	-0.17325921
55	0xbe2e27af	-0.17007326
56	0x3e4aac55	0.19792302
57	0xbdd12435	-0.10211984
58	0xbe2c9d5c	-0.16856903
59	0xbe3149dd	-0.17313333
60	0x3cfc3054	0.030784763
61	0xbd89e1ac	-0.067324966
62	0x3d552d33	0.05204506
63	0x3e0ccd3a	0.13750163
64	0x3e41db14	0.18931228
65	0x3e173b1c	0.14768642
66	0x3d3cf3a1	0.04613078
67	0xbe1ced65	-0.15324934
68	0x3db8c1cf	0.09021341
69	0x3e132cd1	0.14372565
70	0x3e357d6e	0.17723629
71	0xbddb9ab1	-0.107228644
72	0xbde98c40	-0.11403704
73	0xbdd80436	-0.10547678
74	0xbd93b412	-0.0721208
75	0x3df4bfa2	0.119506136
76	0x3d2ff4e0	0.04295814
77	0xbd423883	-0.047417175
78	0x3c92fdbe	0.01794326
79	0xbe00949d	-0.12556691
80	0x3c5a9706	0.013341671
81	0xbda87f44	-0.08227399
82	0xbe02facb	-0.12790982
83	0x3e0ec0ab	0.13940684
84	0x3dd4c3ca	0.10388906
85	0xbd4384bc	-0.047734007
86	0x3d9308b5	0.07179395
87	0x3d8df121	0.06930757
88	0xbe05ccdd	-0.1306643
89	0xbdff23b2	-0.1245798
90	0xbdb5a899	-0.08870048
91	0x3d25b938	0.04045984
92	0x3e51bbcb	0.20481794
93	0xbe094549	-0.13405336
94	0xbdc20901	-0.094743736
95	0x3e1ddf34	0.15417176

fc2.weight f4 [6, 32]
0	0x3e0b08a5	0.13577516
1	0x3eacc459	0.3374355
2	0x3d240394	0.040042475
3	0xbdb5920a	-0.08865745
4	0x3e3da599	0.18520202
5	0xbe5b34ae	-0.21406814
6	0x3e1846d7	0.14870773
7	0x3dcc8771	0.09986771
8	0x3d854b8f	0.06508552
9	0xbe76a3d7	-0.24085937
10	0xbd26c224	-0.04071249
11	0xbd2cbee2	-0.042174228
12	0x3e90f639	0.28312853
13	0xbdbac264	-0.09119108
14	0xbe1e57e2	-0.15463212
15	0x3d85a5d9	0.065257736
16	0x3e87d159	0.26526907
17	0x3e22798d	0.1586668
18	0xbdf94291	-0.121709
19	0x3e01b21b	0.12665598
20	0x3e61a900	0.22037125
21	0x3e9e31eb	0.3089746
22	0x3cfb4e48	0.030676976
23	0xbbc17f2c	-0.0059050526
24	0xbe2b2ab4	-0.16715509
25	0x3d139261	0.03602827
26	0xbe01a9dd	-0.12662454
27	0xbed3d8c5	-0.4137632
28	0x3e4f0ea4	0.20220429
29	0x3de793f8	0.1130752
30	0xbcf8d352	-0.030374203
31	0xbd060f92	-0.032729693
32	0x3ca3cb57	0.01999442
33	0xbce33432	-0.02773485
34	0xbe126319	-0.14295615
35	0xbcf4201b	-0.029800465
36	0x3d1e6aed	0.03867619
37	0x3db65b1a	0.08904095
38	0x3ebdb48b	0.37051806
39	0xbea6d635	-0.32585302
40	0xbd935f5f	-0.07195925
41	0xbdb3398b	-0.0875121
42	0x3e805635	0.2506577
43	0x3e84c7b7	0.2593362
44	0xbddf88cf	-0.10914766
45	0xbea3fae5	-0.32027355
46	0xbe7afb56	-0.2450994
47	0x3c2e7429	0.010647812
48	0xbdf1da2f	-0.11809193
49	0x3e01ede7	0.12688409
50	0xbdd5670e	-0.10420047
51	0xbce3094a	-0.02771439
52	0x3e2db6a5	0.16964205
53	0xbe289526	-0.16463146
54	0xbd94356c	-0.07236752
55	0x3bd9fd55	0.006652514
56	0x3b1edec2	0.002424166
57	0xbe26c784	-0.16287047
58	0x3e32f629	0.17476715
59	0xbd91d22c	-0.07120165
60	0x3e69bb0b	0.22825257
61	0xbe4eb8bd	-0.2018766
62	0x3e945201	0.28968814
63	0x3c93bc32	0.018034074
64	0xbeb7d82d	-0.35907117
65	0x3e1ebaac	0.15500897
66	0xbd706ae8	-0.058695704
67	0x3ed68cc4	0.4190427
68	0x3eaecb76	0.34139603
69	0xbc381cfd	-0.01123738
70	0x3dc3992f	0.09550702
71	0x3e127a09	0.14304365
72	0x3c00d816	0.007864019
73	0xbe2bab3b	-0.16764538
74	0x3c9e97e5	0.019359538
75	0x3ea72b87	0.32650396
76	0xba18e776	-0.000583283
77	0xbd1ccdd3	-0.038282227
78	0x3dd581b5	0.1042513
79	0xbd9dae6f	-0.07699286
80	0xbe001f26	-0.12511882
81	0xbea5c6a0	-0.323781
82	0x3e78ad77	0.24284922
83	0xbd4628a2	-0.048378594
84	0x3e7d7a0a	0.24753585
85	0xbe8fca78	-0.2808416
86	0x3e9c9267	0.30580446
87	0xbdee4178	-0.11633581
88	0x3dece6ff	0.115674965
89	0xbdeb32b1	-0.11484278
90	0x3d1ae9eb	0.037820738
91	0x3c522b14	0.012827653
92	0xbdc21f1d	-0.09478591
93	0x3e0a8110	0.13525796
94	0xbe6025f1	-0.21889473
95	0xbcff7efc	-0.03118848
96	0x3e297ea9	0.16552223
97	0xbe3f5bcb	-0.1868736
98	0xbdc5afba	-0.09652658
99	0x3e2b4151	0.16724135
100	0xbe4b3a8a	-0.1984655
101	0xbeebd548	-0.46061158
102	0xbd3362e4	-0.04379548
103	0xbdf3138d	-0.118689634
104	0xbec2358d	-0.3793148
105	0xbcb20602	-0.02173138
106	0x3de06298	0.10956305
107	0x3d957ca3	0.07299163
108	0x3d0c13fa	0.03419874
109	0x3dd00201	0.10156632
110	0x3e2eb762	0.17062142
111	0xbd816779	-0.06318564
112	0xbe2d4331	-0.16920163
113	0xbebc132d	-0.3673338
114	0x3e4281a2	0.18994763
115	0x3d97cee2	0.07412507
116	0x3d5b5748	0.053550035
117	0xbce6fcca	-0.028196711
118	0x3d85fa16	0.06541841
119	0x3e64d733	0.22347717
120	0xbeaa5a04	-0.332718
121	0xbe872b2a	-0.2640012
122	0xbe2e12c9	-0.16999353
123	0x3db33d8c	0.087519735
124	0x3e831812	0.25604302
125	0x3c932371	0.017961236
126	0x3de99b3d	0.114065625
127	0xbc7de55f	-0.015496581
128	0x3d86b893	0.065781735
129	0xbe1a7c46	-0.15086469
130	0xbe32ca3e	-0.17459962
131	0x3d895574	0.06705752
132	0x3e8f8e7f	0.28038403
133	0xbce6b597	-0.02816276
134	0xbe8410dd	-0.25794116
135	0xbe00c048	-0.1257335
136	0xbe507ec9	-0.20360865
137	0x3ce8d98f	0.028424053
138	0xbcb7cc79	-0.022436367
139	0x3e99edf4	0.30064356
140	0xbd33d28c	-0.043901965
141	0xbdeb84fe	-0.114999756
142	0xbe124e10	-0.14287591
143	0x3d625ace	0.05526238
144	0x3eb71f7d	0.3576621
145	0xbdf26e8f	-0.11837494
146	0xbe902068	-0.28149724
147	0x3d34abb4	0.04410906
148	0xbe40d20a	-0.18830124
149	0x3d99c4c8	0.07508236
150	0xbe740529	-0.23830093
151	0x3e244af0	0.16044211
152	0x3de1d93e	0.11027764
153	0xbc89b8bb	-0.01681172
154	0x3e6a7cf4	0.22899228
155	0xbc8366a5	-0.016040156
156	0xbc6daa1c	-0.014505889
157	0x3dfea1e6	0.124332234
158	0xbe5dff4b	-0.21679418
159	0x3e994f25	0.29943195
160	0x3df64f5f	0.120268576
161	0x3ec0c3ce	0.37649387
162	0xbd198dbb	-0.03748868
163	0x3eb887e0	0.36041164
164	0x3e239e7f	0.1597843
165	0xbcf1ed21	-0.029532017
166	0x3e47d9b4	0.19516641
167	0xbe57e38d	-0.21082897
168	0x3e98cfd0	0.29846048
169	0x3e781a91	0.24228884
170	0xbe260970	-0.16214538
171	0xbde9c5e3	-0.11414697
172	0x3eb94146	0.36182612
173	0xbbbd9109	-0.005785112
174	0xbaaae348	-0.0013037706
175	0x3dcbadf2	0.09945287
176	0xbd66f8ec	-0.056389734
177	0x3d0d84f0	0.034550607
178	0xbcfce890	-0.030872613
179	0xbeba0c8b	-0.36337695
180	0xbe105fe9	-0.14099087
181	0x3ec81919	0.39081648
182	0xbe8812dd	-0.26576892
183	0x3dc86f9e	0.09786914
184	0xbd85aeb3	-0.06527462
185	0x3d1a0494	0.037602022
186	0x3caa2e3e	0.020774003
187	0x3e9a6307	0.30153677
188	0xbe34cdfc	-0.17656702
189	0x3e7d8fb2	0.24761847
190	0x3e59ea64	0.21280819
191	0x3ec424ab	0.38309225

fc2.bias f4 [6]
0	0x3b8ae621	0.0042388593
1	0x3be93a57	0.0071175504
2	0xbac20dda	-0.0014805153
3	0x3bf23b78	0.007392343
4	0x3c553759	0.013013684
5	0x3d32a2a2	0.04361213
