results/alpha_1.0/agent_1500.pt (torch, 43191 bytes, 8 tensors)

fc1.weight f4 [32, 104]
00000000: 0e10 5bbc 7cf5 893e b776 81bd 6f93 dabd
00000010: 6784 51bd 4067 8fbe c5c9 b3be 2518 1d3d
00000020: cbb6 453e 919b 4f3e 3066 d2bd 7c20 e23b
00000030: c07e e9bd 9af0 94bc e13d 443d cc7d f43d
00000040: d7a8 86be b7e0 bc3c 0888 4abe cc30 863d
00000050: de5a f6bd 4fcf 09be 4066 443d af86 0abd
00000060: 2ad3 0ebe 8c0e 0dbd 2703 acbe f008 08be
00000070: a57c 97bd 67e4 d8bd 0c10 e0be 7732 443c
00000080: 823d d3bd 9707 db3d 9560 05be 940f 0dbe
00000090: 6e8e 683c 2ecf 8bbc 84c6 1b3e 6f2e a0bd
000000a0: eecb bb3d 25be e4bd ab00 353e 9d69 03be
000000b0: 251b 743e b5c1 283d 3864 ac3d 9cbd f43d
000000c0: 7dac 0b3e 1ede bbbd 50d5 133e 5a9d ce3d
000000d0: d6da 9b3d f577 5d3c 91a2 193d 8cfd fdbc
000000e0: 9ea8 0b3d b375 ccbd ee3a 033d fc32 8fbd
000000f0: 812c ccbd 8ec1 ff3a 9583 923d ed86 09bd
00000100: 09a3 d83d c4d4 1cbc 1bbb 5f3d 08d3 2c3d
00000110: 9059 b8bd 9aa0 f2bd a784 15be 1bd0 5fbd
00000120: ffa7 14bd 4933 da3d 4a21 f4bc 4ebb d2bd
00000130: 6122 9cbd a77a 8e3d 51f7 30bd 6b23 14bd
00000140: 4907 71bd 6699 ccbd f234 17bd 6164 143d
00000150: 9013 d6bd bcb2 bf3d ff98 9bbd 2972 cd3d
00000160: 9c84 5cbe 79c0 a2bd 7f4a d73c 6489 1b3c
00000170: 853f 27be 6fd3 babd a336 a83d 0886 9cbe
00000180: 638e 8cbe 4732 873e ae9e 09bc ab40 0abe
00000190: 63af 85bd 623f 153c 88ed b3bd 0d7c 0abe
000001a0: 6def b3be 1206 af3e 43e1 893e 4dfb 963e
000001b0: 9d06 e3bd 747b 413e d553 2c3e a661 81bc
000001c0: 012e 14be e77c 0cbd 0869 c43d 2268 bb3b
000001d0: afad 74be 28f5 553c 7a8a 603d 09e2 7b3e
000001e0: feaf 9e3e fadf 9e3d 6953 a8be 2531 e93c
000001f0: b6a5 dc3c b809 89bd 6a33 92bd 6b29 c1bd
00000200: 5435 3f3e 4013 2bbc 0658 8f3e 466b 5d3e
00000210: 0167 e2bd a87c ebbc 002f 90be cf7a 48bd
00000220: f02a ffbc f7b2 aebd ab28 6bbe 90fe 34be
00000230: c199 acbd 8309 5a3d c499 803d 9d15 ae3d
00000240: ae88 003e 0e2f c4bd 7395 4c3d 3744 7c3e
00000250: bb9a cf3d d8ac 25bd bd6f 2cbe e34d e8bd
00000260: a5be f4bd 1166 e4bd efb9 cabc 2bca 4b3d
00000270: 2540 92bd b069 08be 94ce 45bc c2da 073e
00000280: 45a7 76bd c5b5 a93d 7730 713c c149 e4bb
00000290: 1648 1d3e 4142 093d 097f eebc 9534 9cbd
000002a0: 9958 5fbe 71e6 d03d 5f4e 3cbe 1a81 7cbd
000002b0: 16c3 eb3d 83d9 a2be 41d5 30bb 2b8b 003e
000002c0: b634 ba3e c5d4 3c3e 392e 223d 217b 4f3d
000002d0: 3014 92bd bade 4abd 3a3b 5bbd 51b2 a03d
000002e0: 4739 473e 24fb 6b3c 4e8e bf3d 40d4 083e
000002f0: 50ca 4c3c 06ac 3c3b 7f72 00be 2a7d 213d
00000300: 63d0 23be c309 b5bc 484d f23a b0ec 99bd
00000310: 664d a6be c667 1cbd 1235 e1bc 09fc b53d
00000320: 8a37 2abe e229 5d3e 0f81 ecbd bb62 133e
00000330: dcd0 98bd 7dac acbd 6cb2 64bd ee40 ffbc
00000340: e019 403e 9572 ccbe 1343 c0bd 0b18 98bd
00000350: e43d 773e d05f 9b3e 47a3 2e3f 0d3d d53d
00000360: 8ace 823e efe9 c33d 95ac 0f3d 89d1 41be
00000370: 2505 18bd 9ef3 54bd 4348 0dbd 3829 0c3d
00000380: f12d f93d 1e09 d93d 1a78 a23d 1c46 f0bd
00000390: 9443 30bd b2fd 14bb 023b 8f3d 64e3 d5bd
000003a0: d7a6 f9bc ed9c 05bd 9ccb 9bbd 5abb a03d
000003b0: f92f c13d 1602 2a3e 84eb 88bd 9fb5 413c
000003c0: b41b 88bc ad44 dbba 11be 01be 923f dd3d
000003d0: 7492 c9bc 8a74 593e 9f3c 9dbd 1483 363e
000003e0: 9ecf 0abe d83e bf3d b0fc d23d 1f9a 1b3e
000003f0: bdb8 aebe acd8 71be 334c c7bc 579a 74bd
-0.013370527 0.26945102 -0.06321471 -0.10672652 -0.05115166 -0.2800846 -0.35114875 0.038353104
0.19308011 0.20274188 -0.10273397 0.006900845 -0.11401129 -0.018181134 0.047910575 0.11938056
-0.2630069 0.023056371 -0.19778454 0.06552276 -0.1202905 -0.13457988 0.047949076 -0.03381985
-0.1394774 -0.0344377 -0.33596155 -0.1328466 -0.07396821 -0.10590439 -0.43762243 0.011974922
-0.10314466 0.10694807 -0.13025124 -0.13775474 0.014194114 -0.017066564 0.15212446 -0.078213565
0.09169756 -0.1116908 0.17676036 -0.12833257 0.2383848 0.04120036 0.08417553 0.119502276
0.13640018 -0.09173225 0.14436841 0.10088606 0.07610099 0.0135173695 0.03750855 -0.03100469
0.034096353 -0.09983387 0.03203862 -0.069921464 -0.09969426 0.001951264 0.071540035 -0.03357594
0.105779715 -0.009572212 0.054621797 0.042193443 -0.09001458 -0.118470386 -0.14601384 -0.054641824
-0.036293026 0.10654313 -0.02980103 -0.10289632 -0.07623745 0.06956988 -0.04320461 -0.03616659
-0.05884484 -0.09990196 -0.036915727 0.03622854 -0.1045295 0.09360263 -0.07597541 0.1003154
-0.21534961 -0.079468675 0.02628064 0.009493206 -0.16332825 -0.09122359 0.08213546 -0.30571008
-0.27452382 0.26405546 -0.008399649 -0.13501231 -0.06527593 0.00910935 -0.0878554 -0.13523884
-0.35143605 0.3418432 0.26929674 0.29488602 -0.11085246 0.1889475 0.16828854 -0.015793633
-0.14470674 -0.034298804 0.095903456 0.0057192007 -0.2389438 0.013058938 0.05481956 0.24597944
0.30993646 0.07757564 -0.32876137 0.028465817 0.026934486 -0.06691307 -0.07138713 -0.09431728
0.18672687 -0.010441601 0.27996844 0.21622953 -0.11054803 -0.028745964 -0.28160858 -0.048945244
-0.031148404 -0.085302286 -0.22964732 -0.17675233 -0.08427764 0.053231727 0.062793285 0.08500216
0.12552139 -0.095792875 0.049947213 0.24635397 0.10136934 -0.04044804 -0.168395 -0.11342981
-0.11950425 -0.1115228 -0.024746863 0.04975335 -0.07141141 -0.13321567 -0.012073178 0.13267043
-0.060218114 0.08286623 0.014721028 -0.0069668 0.1535953 0.03351045 -0.02911331 -0.07627217
-0.21811141 0.10200203 -0.18389271 -0.06164656 0.11511819 -0.31806573 -0.0026982578 0.12553088
0.3636834 0.1844054 0.039594863 0.050654534 -0.07132757 -0.049528815 -0.05352328 0.07846511
0.19455443 0.014403138 0.09353314 0.13362217 0.012499407 0.0028789057 -0.12543677 0.039426006
-0.15997462 -0.022099381 0.0018486166 -0.07515848 -0.32480925 -0.038184904 -0.027491126 0.088859625
-0.16622749 0.21598008 -0.115480535 0.14393131 -0.07461712 -0.08431337 -0.05583422 -0.03115889
0.1875987 -0.3993117 -0.093877934 -0.07426461 0.24144703 0.30346537 0.6821789 0.10412035
0.25548202 0.09566104 0.035076696 -0.18927588 -0.03711428 -0.051990144 -0.034492742 0.034218997
0.12166966 0.10597442 0.07933064 -0.11732122 -0.043033198 -0.0022734222 0.06993677 -0.10443762
-0.030475063 -0.03262036 -0.07607195 0.078482345 0.09432978 0.16602358 -0.06685546 0.011823087
-0.016614772 -0.0016728841 -0.12670161 0.10803141 -0.024605967 0.21235862 -0.07677578 0.1782344
-0.13555762 0.09338158 0.103021026 0.15195511 -0.3412532 -0.2361781 -0.024328327 -0.059717502

fc1.bias f4 [32]
00000000: 6c45 2ebd 895c e3bc f32e b33c 8ece 153d
00000010: 5516 b5bc add7 44bd 7a63 863c e979 463c
00000020: a850 9b3c 8077 be3c 836c 66bc 2ea7 dd3c
00000030: fb97 773d 46e7 60bd 6471 4d3d 5b3d 2b3d
00000040: a1cd 17bd 2d04 29bc f6ab 573d 9cec 893c
00000050: bf86 9f3d 6cce 07bd 4cb8 aebc 67dc c03d
00000060: f806 8b3d 4f5e a53b 9d22 e83c 76d0 223d
00000070: 0f35 bc3c b2db 36bc 6efc d3bc ee68 fa3b
-0.042546675 -0.027754085 0.021872973 0.03657394 -0.022105375 -0.048057247 0.016404856 0.012114027
0.018959358 0.023250341 -0.014063957 0.027057257 0.060447674 -0.05490806 0.050156966 0.04180656
-0.037061337 -0.010315937 0.05265423 0.016836457 0.07789373 -0.033155844 -0.021328114 0.094170384
0.067884386 0.005046643 0.028336817 0.039749585 0.022974519 -0.011160778 -0.025877204 0.007641903

rnn.weight_ih f4 [96, 32]
00000000: d736 c3bc 56aa 553e 4a05 f43d 3972 853e
00000010: 853d b4bd 60c8 f1bd c0ca 77bd 82d4 6e3e
00000020: 6e00 583d 9b2e 3fbb a169 90b8 cf4e 033e
00000030: d646 bb3c 9298 4dbd 1e39 1d3e fab9 c03c
00000040: a45f fc3d 1005 843c a5e0 18be 0eb6 7c3e
00000050: 3f0a 633d abe8 28be 3650 10be 77ee 38be
00000060: 9951 9f3a 08e7 0c3d 5cb0 89bd fe99 8d3d
00000070: 6333 933a 1816 873d bbce 1f3e f054 183e
00000080: eef5 133e a391 ad3d 5de4 04be 5540 b33c
00000090: 0a32 d13d 858f cbbd 4f8a b93d fe05 ed3d
000000a0: 0934 3fbc 24d6 5f3d 8041 2d3d 7972 723d
000000b0: 82ca 6fbb bfa5 b83d 7d35 913d 5a62 10be
000000c0: d57f 27be 1109 8dbc d900 213e 2493 be3d
000000d0: 21b7 873c 94a2 3b3e 2d0a a1bd dd19 533e
000000e0: 7787 fabd 365b 333e ed33 893d 8d32 463e
000000f0: 8ace 1e3c a39a dc3d 196a 143d c198 5b3e
00000100: 467b fe3c f6cf 2abc 65b6 febd 9cf5 18be
00000110: 068b c53c a3c6 8ebe a9b9 963d 5d5d 38be
00000120: 174c 8f3d 5b1a 7dbe 9aea 05be b588 e33d
00000130: efbc e4bb a7c9 5ebd fe98 eebd c9af 473e
00000140: 1d0f 263e 6be9 87bd 4d30 18be 61da 2fbd
00000150: be42 9cbd a4a1 a5bc ad0a 0b3d 55d7 fcbd
00000160: b803 293e 7f28 fe3d a6db debc cfbc 5cbe
00000170: 514f 5c3d 7dba ad3d 04e9 6ebd 3931 53be
00000180: 1480 d7bd d566 f7bd 8b7d 42bd 6e92 af3d
00000190: c30c 3dbe 56ab dcbc 21e0 dabd f327 2e3d
000001a0: 8138 56bc b858 c03b 55b6 a7bd f169 e7bd
000001b0: 7ca8 a7bd 4be9 5cbe 8d3a 2bbe f1d0 46be
000001c0: bcb1 083e 1ea4 cf3d f827 50be f930 0abc
000001d0: 0577 09bb bf1e 7b3d d6c0 1b3d 9aaa 02be
000001e0: 245b fdbd 9793 74be d757 27be 3270 a73d
000001f0: 9e91 55be 6f1d 15be cd58 5d3d 463e 5dbc
00000200: 7d2e febd 38c3 36be 82ec adbd fbf1 1f3e
00000210: a22a d93d 2e29 f8bc d00d 503e 15bb dd3d
00000220: 954e 583e cb34 013e be48 2abe 6392 f03c
00000230: 6185 3c3e 17f9 32bd 7c0b 38be f08c c33d
00000240: 438e a5bd 5e18 7c3c 4968 7e3e d2c3 2ebe
00000250: c6ed b3bd 088c 67bd 812b e43d d9c6 98bc
00000260: d398 e63d e0fd 7dbd 7ac4 8fbc be37 01be
00000270: 24a0 0bbe 637c 15be 1a90 0ebe d0fa 1f3e
00000280: be17 82be b776 dfbd 5f55 fbbd 03dc fc3c
00000290: ed7e 45bc 87a6 8b3d 76a8 9bbd 7a16 21be
000002a0: a697 a2bd cc16 5d3c 96d0 a13d c5a0 d63d
000002b0: 58a7 953b d11b b93d b0e0 1fbd 9bff 0fbe
000002c0: 1cd9 1fbe ba5a 9c3d a5a1 323d c1a5 33be
000002d0: 6fdd e83d 21ec 20be 5010 273c c795 f6bd
000002e0: 72d5 1a3e a104 87bc 0327 40be 152b babd
000002f0: a4d9 6ebc f8c8 9ebd 32d2 60bc 72ba 613d
00000300: 164f 3b3e 0182 18be 1202 63bc 01b7 79be
00000310: d8f7 27be 1030 7e3b c070 f93d c973 02be
00000320: 30a2 ef3d a7c1 773d 201a 33bd b7cb a7bd
00000330: e1cc d9bd addc 3cbd 315f f2bd 2cf9 ea3d
00000340: f40a f23d cc59 99ba 8895 3f3e 571b db3d
00000350: 970d f1bd b641 2f3e a799 47bd 93c0 5c3d
00000360: b14e 84bd accc 973d afa3 90bc 72e9 243e
00000370: 5d22 30be 181a d13d 84f2 1c3d 23c6 353e
00000380: b3e0 7c3e c35b fd3e b820 f43d 8b4c c03e
00000390: a9fb 1cbe 75d8 8abe 0bab 4dbe 34ee 15be
000003a0: 989e 48be d67d 4dbe c474 e5bd 9e8e 303e
000003b0: 47a7 483d 923d 72bd d781 953e ae6e dbbd
000003c0: 2ec0 02be ef4e 66be 9315 efbc 0d4a f6bd
000003d0: e2cb d2bd ce0c 2a3e f8cd 55be ff04 063c
000003e0: 43f7 8f3d 08b0 44be 808e bfbc 4cf1 0cbe
000003f0: 1f0e 64bd 2ade 9ebe 8481 2d3e 60b8 afbd
-0.02382986 0.20865759 0.11915071 0.26063707 -0.088007964 -0.118057966 -0.06049609 0.23323253
0.052734785 -0.0029172066 -6.88613e-05 0.12823032 0.022860926 -0.05019433 0.1535382 0.02352618
0.123229295 0.016115695 -0.14929445 0.24678823 0.055429693 -0.16495006 -0.14093098 -0.18059717
0.0012155055 0.034400016 -0.06723091 0.06914137 0.0011230524 0.06596011 0.15606205 0.14876151
0.14449283 0.084750436 -0.12977739 0.021881262 0.10214622 -0.099394836 0.090595834 0.115734085
-0.011670121 0.05464758 0.042298794 0.0591912 -0.003658921 0.090159886 0.0709028 -0.14100018
-0.16357358 -0.017216237 0.1572298 0.093054086 0.016566815 0.18323737 -0.07863269 0.20615335
-0.12232869 0.17515263 0.06699357 0.19355221 0.009692797 0.10771682 0.036233995 0.2144499
0.03106464 -0.010425558 -0.12437133 -0.14937443 0.024114143 -0.27885923 0.073596306 -0.18004365
0.06996935 -0.24717085 -0.13077775 0.11110059 -0.0069805305 -0.05439153 -0.11650275 0.1950065
0.16216703 -0.06636318 -0.14862175 -0.04293287 -0.076299176 -0.020218678 0.033945728 -0.12345759
0.16505325 0.12410068 -0.027204346 -0.215564 0.05378658 0.084828354 -0.05832769 -0.20624246
-0.10522476 -0.120801605 -0.04748301 0.08572851 -0.184619 -0.026937168 -0.106872804 0.042518567
-0.013074995 0.005869951 -0.08189074 -0.112995036 -0.08186433 -0.21573369 -0.16721554 -0.19415642
0.1334905 0.10138725 -0.20327747 -0.008434528 -0.0020975482 0.06130862 0.0380257 -0.12760392
-0.12370899 -0.23884426 -0.16342102 0.081756964 -0.2085633 -0.1456201 0.054039765 -0.013503617
-0.12411211 -0.17847908 -0.08492376 0.15619652 0.10603835 -0.030293074 0.20317769 0.10826699
0.21123727 0.12617795 -0.16629311 0.029366678 0.18410255 -0.04369458 -0.17973131 0.09548366
-0.08083775 0.015386669 0.24844469 -0.17066887 -0.08785586 -0.05653003 0.1114111 -0.018649505
0.11259618 -0.062009692 -0.017549742 -0.1261892 -0.13635308 -0.14598231 -0.13922158 0.15623021
-0.2540874 -0.10911315 -0.122721426 0.030866629 -0.012054187 0.06818872 -0.07600491 -0.1573123
-0.07939081 0.013494205 0.07901113 0.10479883 0.004567068 0.09038509 -0.039032638 -0.1406235
-0.15610164 0.07634492 0.043611187 -0.17543699 0.1137036 -0.15715076 0.01019676 -0.120402865
0.15120485 -0.0164817 -0.18764882 -0.090902485 -0.014578257 -0.077531755 -0.0137219895 0.05510945
0.18291888 -0.14893343 -0.013855474 -0.24386217 -0.16403139 0.0038785972 0.121797085 -0.12739481
0.11700857 0.060487416 -0.043726087 -0.081931524 -0.10634781 -0.04610889 -0.118345626 0.11473307
0.118184954 -0.0011699735 0.18709385 0.10698574 -0.1177017 0.1711491 -0.04873052 0.05389459
-0.06460322 0.07412085 -0.017656175 0.16104677 -0.17200609 0.10210055 0.03831722 0.17751364
0.24695091 0.4948407 0.11920303 0.37558398 -0.15330376 -0.2711827 -0.20084779 -0.14641649
-0.19591749 -0.20067534 -0.11203912 0.17241904 0.048987653 -0.05914075 0.29200622 -0.1071447
-0.12768623 -0.22491048 -0.029185092 -0.12025843 -0.10292794 0.16606447 -0.20879352 0.008179902
0.07029583 -0.19207776 -0.023383379 -0.13763922 -0.05567753 -0.31028873 0.16943938 -0.085800886

rnn.weight_hh f4 [96, 32]
00000000: 98e3 993d 7dec d23d d430 a1bd 1dfd 3e3b
00000010: 3f8f 8fbc 8b34 a83d 159d 31be 055a cbbd
00000020: 4539 1e3e 0131 c43d 06e5 b0bc f837 0a3e
00000030: 11e8 abbd 245d b83d 624a 813c fd75 51bc
00000040: 57e3 27bd a787 65be cebd 20bd 0ff3 b1bd
00000050: 7b95 38bc ce23 debd e932 e13d 993e 563e
00000060: 706b 96bd 3fe5 843d 6c3a 323c ff44 b1bd
00000070: 0a2e 413d 5c68 8d3c 10d0 263d 8993 c1bd
00000080: 6597 1a3d 3af2 7c3e 8e13 203d 84a5 d1bc
00000090: 6312 943d b360 573e 8c2a 4f3e 00cb 3a3d
000000a0: 8988 6ebd beaf 15be 6e72 3fbd 4f74 b63c
000000b0: 84b6 c03d fac8 14be bb6a 653e 5324 153e
000000c0: 6e83 443d b5c4 a5bb abde c3bd 7a0f 403d
000000d0: ea85 4bbe 38b7 1cbe 189d ffbc 2334 a33d
000000e0: 5d6f b5bd 81d0 02bd 05a8 023e c5c7 babc
000000f0: 69db 2a3e 9aac 53bd 49ab fb3d 2fe4 c03d
00000100: 0b49 01be f591 0f3e cde3 f23d 90db 19be
00000110: 7d7e cc3d e7c0 f3bc c8f8 65bc 7963 05be
00000120: 918a 2f3e 66c3 383e dd75 50bd 40be 24bd
00000130: 05ab 22bc fefc dfbb 50eb ac3c 59ee 43bd
00000140: 7ce2 053d bb9d 9abb ebdb d5bd 5938 debd
00000150: 5866 4fbe 6aec d0bc aa77 a4bd 0034 f23c
00000160: bad3 9fbc a6ea 03be 1f2b d7bc 56cd bf3d
00000170: 854d 11be ac6b bbbd 01c8 f8bd 8762 173d
00000180: ef24 4abd 7227 49be 0881 c0bd 00df b33d
00000190: 5b80 043e 40f3 f6bd 9a06 353c b2d9 a8bd
000001a0: 4ea2 b23d 7224 043e 9d62 f2bd 46fc a3bd
000001b0: e5ea 29be 9756 bd3c 795a 123d 1f9e c83c
000001c0: 58fb f9bd cadd 403e 5194 b83c 45a8 b23d
000001d0: 6085 89bd d4f1 843e d56b 803d 3664 273d
000001e0: f4c9 c5bc 1023 073d dd60 52be c3c7 bcbd
000001f0: 34ca 79be fffa 18be 547d c83d 1d7f 13bd
00000200: 4913 1b3e 58d7 653e f255 193e c69e e8bc
00000210: 17fd b43d 7015 e7bd b467 093e f4da 04be
00000220: d570 073e 1f3e 9b3d f77a 57bc e09e f5bd
00000230: 3ca2 a2bd 4006 e53d 27be 5a3d ba00 32bd
00000240: bed3 343e e1c4 33bd b1ac a93c 73ec 8ebd
00000250: 81ae 04bc 49c7 1e3e 56e7 9bbd b995 e3bd
00000260: 19fd cf3c f1a3 623e 8523 2e3b 90c8 d03c
00000270: 1d46 dfbc a3d3 743e 862a a2bd 7c1f 5a3e
00000280: 0df1 cc3b e9c2 72bd 5a61 1fbe 45fc 3cbd
00000290: f933 973d 912d 7e3d 1311 e2bd 6b8a 0cbe
000002a0: 473a 023e 3e96 d6bd 3f9a ae3d 388a c93d
000002b0: 5680 943b 40b9 91bd fa1c a63d e53b 3c3e
000002c0: b581 ed3d 1801 013e 0fda 103d bc4b 143e
000002d0: c357 cbbd 0f27 b63d 6e41 c5bd 9c9f 39bd
000002e0: 820d 833d 6b71 7ebd e3da 97ba 93f2 f53d
000002f0: d3e6 3abe 4421 cb3d 7f69 0bbe fa83 a63c
00000300: 2b71 323e 6837 c4bd 9836 c6bd dac5 0d3e
00000310: c290 3e3e a8a9 633e e551 03bd d82e 2a3d
00000320: 7dcb d0bd ab7a f3bd a26e eabd aca0 10bd
00000330: 0617 e83d aa4e 1abe 1f54 0c3e 72cf 3f3e
00000340: edd7 263e 5e16 1ebd eb32 cf3d 094c 1ebe
00000350: 0b4f a5bd 849a 503e 7002 d13d 38b0 6bbc
00000360: cde2 37be 6611 303e e5b5 9abd a2c0 033e
00000370: 4fd9 b43d f61c 21bd bb90 5fbd 53ca be3c
00000380: 252e 28be 1f19 89bb 5739 16be c698 0d3e
00000390: 9c7e f6bb be00 063c 1e42 cf3d b1d0 503d
000003a0: 3d02 803e eb8b 94bd 5014 ed3d cb18 173e
000003b0: b28d 5a3d ff9c 1ebe 0391 8dbc 2ca0 18be
000003c0: d6bc e03c 82cc dcbd 46e2 783e fc79 b73d
000003d0: 1e8f 1ebc 0102 87be 020a 44bd 7440 eabd
000003e0: b231 27be 2699 9e3d 01f4 38be 53a8 3fbe
000003f0: 968e 213e 7d40 5e3c 8a2a 3cbe 76fb 873c
0.07514113 0.10299013 -0.07870641 0.0029142566 -0.01752436 0.08213147 -0.17345078 -0.09929279
0.15451534 0.09579659 -0.021593582 0.13497913 -0.083938725 0.0900214 0.015782539 -0.012784478
-0.040988293 -0.22415029 -0.03924351 -0.08688938 -0.011266108 -0.10846673 0.109960385 0.20922317
-0.07344711 0.06489038 0.010878187 -0.08655738 0.047163047 0.017261676 0.040725768 -0.09451968
0.037742037 0.24701777 0.03908115 -0.02559162 0.072300695 0.21032982 0.20231074 0.045603752
-0.05823568 -0.14617822 -0.046739988 0.022272257 0.09409812 -0.14529791 0.22403996 0.14564638
0.047976904 -0.0050588497 -0.09563955 0.04688976 -0.19875303 -0.15304267 -0.031202838 0.07968929
-0.088591315 -0.031937126 0.12759407 -0.022800336 0.16685261 -0.051678278 0.122885294 0.094185226
-0.1262552 0.14020522 0.11859856 -0.15025163 0.09985063 -0.029755069 -0.014036365 -0.13026227
0.17142703 0.18043289 -0.050893653 -0.0402205 -0.00992847 -0.006835579 0.0211083 -0.047834728
0.032686695 -0.00471851 -0.10442337 -0.10850591 -0.20253885 -0.025503356 -0.080306366 0.029565811
-0.019510139 -0.1288248 -0.026265679 0.093653366 -0.14189728 -0.09151396 -0.12147523 0.036959197
-0.04935163 -0.19643953 -0.09399611 0.08782768 0.12939589 -0.12058115 0.011048937 -0.08244647
0.087223634 0.12904528 -0.11835215 -0.08007102 -0.16593511 0.023112578 0.035730813 0.02448946
-0.12206143 0.18834606 0.02253166 0.08723501 -0.067148924 0.2596575 0.06270567 0.040867053
-0.02414415 0.032992423 -0.20544763 -0.09217789 -0.2439354 -0.14939497 0.097895294 -0.036009897
0.15144075 0.22445428 0.14974192 -0.028396022 0.088373356 -0.11283386 0.13418466 -0.12974149
0.13226636 0.07580208 -0.013151876 -0.119931936 -0.079411 0.11182833 0.053404 -0.043457724
0.17658898 -0.04388893 0.020712228 -0.06978693 -0.008098246 0.15505709 -0.07612483 -0.11112542
0.025389241 0.22132851 0.0026571464 0.02548626 -0.027255112 0.23908858 -0.07918267 0.21301073
0.0062543214 -0.059267912 -0.1556448 -0.04613902 0.0738296 0.062055174 -0.11038413 -0.13724677
0.12717544 -0.10477875 0.08525514 0.09840816 0.0045319004 -0.07115412 0.081109956 0.18382223
0.11597005 0.12598073 0.035364207 0.14482015 -0.099288486 0.088941686 -0.0963162 -0.04531823
0.06399061 -0.062119883 -0.0011585619 0.12009158 -0.18252115 0.09918454 -0.13614462 0.020326603
0.17425983 -0.095808804 -0.09678382 0.13845006 0.18609908 0.22232687 -0.032060523 0.04154858
-0.10195062 -0.118886314 -0.11446883 -0.03530948 0.11332516 -0.1506907 0.13703965 0.18731478
0.16293307 -0.03859555 0.10117134 -0.15458693 -0.08071717 0.20371443 0.10205543 -0.014385276
-0.17957611 0.17194137 -0.07554225 0.12866452 0.08830511 -0.03933426 -0.054581385 0.023289835
-0.16423853 -0.004183903 -0.14670311 0.1382781 -0.007522417 0.008178888 0.10120033 0.050980274
0.25001708 -0.0725325 0.1157614 0.14755552 0.053357787 -0.15489577 -0.017281061 -0.1490485
0.027433794 -0.10781194 0.24305066 0.089588135 -0.0096776765 -0.26368716 -0.047861107 -0.11438075
-0.16327551 0.077440545 -0.1806183 -0.18716554 0.15777048 0.01356518 -0.18375602 0.016599398

rnn.bias_ih f4 [96]
00000000: a8e4 c8bd 07b2 b73c 2844 23be e505 57be
00000010: 1d90 8cbd 38be 3bbe f232 42bd 7288 b03d
00000020: 8935 08be 1180 af3d 4055 b13d 74d1 e03d
00000030: 6d95 29be 7ca0 f03d 2209 edbc e2f9 b43c
00000040: baf1 ea3d 4331 72bd 731f 3c3e d6eb e33d
00000050: 2b0f 1b3d ede2 f5bd c1dd 883b 1e13 99bd
00000060: ab58 28bd 33b2 913d dfce 253d 13bb 2eba
00000070: ee75 463d 951c 8c3c 7683 0e3b 6bc9 f93d
00000080: 3abd 0fbc c2f3 78bb a594 8b3d 03dd b33d
00000090: 0c08 a2bd b7aa 933d 7486 173d 281c 38be
000000a0: 4189 abbe 5f16 3c3d 60b3 8dbe 221b 7bbe
000000b0: e628 43be 4ebe 703d 08fd 7ebd c66e 93be
000000c0: b279 7bbe 89ba 273c c4a6 4d3c b428 9bbc
000000d0: 1f90 05be 5579 2cbe 7edc 5bbe 2a87 6dbe
000000e0: 1156 9e3d 95bf 74bd 91bf 643e dbc0 35be
000000f0: e5af 4bbe 9f66 663b 8893 78be f5fa 9bbe
00000100: 10f6 293d 98d7 523e 13d6 4bbc 2249 dfbd
00000110: aaa1 0c3e e427 f5bd 70e3 96bd f9af a8bd
00000120: 1132 1a3e e4bc d4bd 5f25 c1bc 9665 6abd
00000130: 9b36 e13d ee5a f2bd c9c9 e73d d5b4 a93d
00000140: 0f43 efba 9829 703d 6c3b 053d 35d2 b03d
00000150: d774 ebbd 6ca2 303e e3e7 af3d c2c9 86bc
00000160: 960c 2abe 61da fcbd 9aca 0d3d 8476 c13d
00000170: 49ff 77bd 7cc9 653d 5d19 5c3e 9afe 593e
-0.09809238 0.022423757 -0.15943968 -0.20998342 -0.06863425 -0.18334281 -0.047411866 0.08619775
-0.13301672 0.085693486 0.08658838 0.1097745 -0.16560908 0.1174936 -0.028935019 0.02209181
0.11471887 -0.05912901 0.18371372 0.111289665 0.037856262 -0.12006173 0.0041768258 -0.074743494
-0.041100185 0.07114067 0.04048049 -0.00066654495 0.04845231 0.017103473 0.0021745837 0.121966206
-0.0087731425 -0.0037987088 0.06815461 0.08782389 -0.07911691 0.07210296 0.03699346 -0.17979491
-0.33503154 0.045919772 -0.27675915 -0.24522069 -0.1905857 0.05877524 -0.06225303 -0.2879545
-0.24558142 0.010237345 0.012551967 -0.018940307 -0.13043259 -0.1684316 -0.2147083 -0.23196092
0.077312596 -0.05975302 0.22338702 -0.1774935 -0.19891317 0.0035156382 -0.24275029 -0.30464903
0.04149443 0.20590055 -0.012441176 -0.10902621 0.13733545 -0.11970499 -0.07367599 -0.08236689
0.15058161 -0.103875905 -0.02357739 -0.057225786 0.10996743 -0.1183375 0.11317784 0.08286444
-0.0018254238 0.058633417 0.032527372 0.08633844 -0.11496895 0.17249459 0.08589151 -0.016453627
-0.16606364 -0.1234634 0.034617044 0.09446433 -0.060546193 0.056100354 0.2149405 0.21288529

rnn.bias_hh f4 [96]
00000000: 0354 783d 9240 503e 532e e6bc f52d bcbc
00000010: 1bd0 483e afb0 203e 5a36 893d 0ee9 23be
00000020: 14d6 ba3d 43e5 5abd 5835 873d 9db2 153e
00000030: 0d9b a9bd a232 a8bd f582 ff3d d9f6 43bd
00000040: bc3d 53bd 48a6 d1bd 08c8 bdbd b380 323d
00000050: 0c8b f63d 3060 673d bdf7 1d3d a027 1cbc
00000060: 42f3 c73d c1e9 a2bc 155e 28bc 5ced 33bd
00000070: 0fd7 8d3b a9e8 e93d 6a47 0cbe efb8 03be
00000080: c61e 0b3d 4c6f 1dbe 2309 643d b531 883e
00000090: d36c f1bd 157a b1bd 0727 36bd e192 60be
000000a0: 5cd0 ccbd 8126 86be 63a6 96be c594 323d
000000b0: 4193 74be 89a4 5e3e f491 6fbe e5b8 3bbe
000000c0: 235e 81be 87c3 96be 4b3b 38be fc43 39be
000000d0: cb3c b5be cc68 313d b753 67be 080b 98be
000000e0: ce19 133e 626b 1dbe c33b bfbc 33f0 66be
000000f0: f8dd d0bc ab5f 15be 50ec 493b f575 66bd
00000100: f44c 3c3e 7b83 3d3e 06ed 1e3d 8f6c 0fbe
00000110: 66bc a33d dbc1 203e 9174 413e cc36 18be
00000120: 5ad7 9dbd 40f0 debd 3919 8c3c d3e4 043e
00000130: 31b9 ae3d fb54 2bbd bc41 963d 71a1 a9bd
00000140: 5860 96bc c67c 80bd e8fe 26be 238b d63d
00000150: a16e 693d b69a 7dbd df39 9c3d 2ea0 b93d
00000160: f360 15be abe4 1ebe 7646 39bd 8ea7 13bd
00000170: 8558 7d3e 0db3 f1bd 36fe 50bd e369 3a3e
0.060626995 0.20337132 -0.028098261 -0.022971133 0.19610636 0.156924 0.0669982 -0.16006872
0.091228634 -0.053441297 0.066019714 0.14618917 -0.08281527 -0.082127824 0.1247615 -0.047842834
-0.051572546 -0.10236794 -0.092666686 0.04357977 0.1203824 0.056488216 0.03856634 -0.009530932
0.097631946 -0.019886853 -0.010276337 -0.043927535 0.0043286155 0.114213295 -0.13699117 -0.12863515
0.033964895 -0.15374488 0.055672776 0.26600423 -0.11788335 -0.086658634 -0.044470813 -0.2193103
-0.10000679 -0.2620125 -0.29423818 0.04359891 -0.23884298 0.21742453 -0.2339552 -0.1833225
-0.25267133 -0.2944605 -0.17991368 -0.1809234 -0.35397944 0.043312833 -0.22590528 -0.29695916
0.14365312 -0.15372995 -0.023343926 -0.22552566 -0.025496468 -0.14587276 0.003081102 -0.056264836
0.1838873 0.18507187 0.038800262 -0.14006256 0.079949185 0.1569895 0.18892123 -0.14864653
-0.07707091 -0.10885668 0.01710187 0.12977915 0.08531416 -0.04182909 0.073367566 -0.08282746
-0.018356487 -0.06273799 -0.16308177 0.10475757 0.05699027 -0.061915122 0.076282255 0.09063755
-0.14587764 -0.15516917 -0.045233212 -0.036048464 0.24740799 -0.11801729 -0.051023684 0.18204455

fc2.weight f4 [6, 32]
00000000: b0e9 b13d 4788 b43e 8647 9c3d 0da4 1dbd
00000010: e21c 3c3e 72f4 40be 7220 0e3e fa32 413e
00000020: 0db3 edbc ebf5 67be 8189 90bb 469d 9fbd
00000030: 929d 8e3e c96f 93bd e886 babd c172 bcbc
00000040: 8fb0 943e c18d e33d c2a3 94bd 55c0 ed3d
00000050: a91d 723e 4043 613e 5f79 513c 59e8 3f3c
00000060: db7d 2abe 59c4 6e3c a250 08be 638b c6be
00000070: 2fc8 353e 18db ff3d be30 4abd c09a b1bc
00000080: 327d d93d 5fb1 19bd 6d78 00be 256e 6dbd
00000090: 7964 aa3d 3220 3bbc 0252 bf3e 6c86 afbe
000000a0: aaee 3abe cddc 9ebd 49cd 683e fd57 7b3e
000000b0: d07b 53bd ba60 a5be df62 75be 6203 273e
000000c0: 07a9 bb3d 811c 673e 2a10 f9bd f51c dfbc
000000d0: 4bc7 603e 8fca bcbd de6d bdbd 2765 cbbb
000000e0: 5b85 d6bb 1fe3 e0bd 7c23 173e 0651 bbbd
000000f0: 1f90 5f3e 9d30 26be 8a27 793e e03f cd3b
00000100: fd4d 6dbe 9c07 303e b452 3ebd af86 bc3e
00000110: 42a3 b23e a34c a33d 8f55 053e 8e0b ea3d
00000120: c667 ad3c 9f54 48be d4ce efba 143d b53e
00000130: d2f5 c5bc 318f 6bbd fd2a ea3d 71e8 04be
00000140: ebdc 3cbe be4d dabe 481b 8c3e 9ccb 9cbc
00000150: 35bb 813e 2085 a7be 6098 aa3e 2ebd f7bd
00000160: 33fb b23d f1dc eebd 2f62 803d 54cc abbb
00000170: 4937 7abd 85c9 2a3e a24c 83be fc84 8dbc
00000180: fb24 063e b405 35be acf2 febd d9bd 463e
00000190: c641 2dbe 9197 cbbe 4214 2dbd 589f 20be
000001a0: 47af 9cbe a628 05bd b467 7f3d 5c6f 893d
000001b0: 4e8d 303d 9272 ae3d 6c43 163e 2847 b0bd
000001c0: 47c3 07be 9256 d5be e969 433e d04f 983d
000001d0: 041e ab3c 213c d6bd 9a56 a93d 90a3 633e
000001e0: 2014 a9be 759b 99be d4c8 35be c154 b23d
000001f0: 92a2 833e 22f8 9b3c 6be8 073e e79c bebb
00000200: 06ac d63d 94ae 0cbe 5cdf 3dbe a23c b73d
00000210: 1378 923e 1312 a43b b147 73be 7a7f eebd
00000220: 0fd0 1dbe c36c f43c 0c6d 793c fca3 903e
00000230: a5ed e0bc 6394 06be 4299 ddbd 3f06 afba
00000240: 4513 3b3e fd10 a4bd 01f0 6fbe 482b 4a3d
00000250: c2dc 47be e5b0 423e b8e1 79be ebd4 303e
00000260: df4d 903d c9ea 493d c735 773e f3bb 97bb
00000270: 035c 99bc 7c72 273e 8330 3dbe e8cd a03e
00000280: a0d5 963e 9035 c03e 8a83 9abd c868 b03e
00000290: b40e 4c3e afd4 8fbc 0308 3e3e feca a3be
000002a0: 7b05 e13e 1019 883e 6e07 90be 678b aebd
000002b0: 6de5 ce3e e022 4a3a dd61 123e 7ce6 01be
000002c0: 0aa7 c4be ea60 9abd 109b ad3d 5dee cebe
000002d0: d37f 7bbe 2dde db3e 0a29 82be 4ab6 d53d
000002e0: c60e 60bd 878e 503d 84e2 0e3d f13f ad3e
000002f0: 100a 4bbe 237f 863e 9a67 8a3e 6687 c43e
0.086871505 0.3526022 0.076308295 -0.03848653 0.18370393 -0.18843248 0.13879564 0.18867102
-0.029016042 -0.22652404 -0.004410923 -0.077936694 0.27854592 -0.07199056 -0.091077626 -0.023003938
0.29040954 0.11111022 -0.07257797 0.1160895 0.23644127 0.2199831 0.012785285 0.011713111
-0.16649573 0.01457318 -0.13312009 -0.3877822 0.17752145 0.12492961 -0.04936289 -0.021680236
0.10619582 -0.03752267 -0.12545939 -0.05796637 0.08319945 -0.01142125 0.37367254 -0.34282243
-0.18255106 -0.07756958 0.2273456 0.24545284 -0.05163175 -0.3230036 -0.23963498 0.16309884
0.09163099 0.22569467 -0.12161286 -0.027235487 0.21951024 -0.092183225 -0.09249471 -0.0062071267
-0.006546659 -0.1098082 0.1475963 -0.09146313 0.21832322 -0.16229482 0.24331489 0.006263718
-0.23174281 0.17190403 -0.04646559 0.36821505 0.3489018 0.07973602 0.1302092 0.11427985
0.021167647 -0.1956353 -0.0018295893 0.3539816 -0.024165068 -0.057509605 0.114339806 -0.12979294
-0.18443649 -0.42637438 0.27364564 -0.019140057 0.2533814 -0.32718754 0.33319378 -0.1209663
0.08739319 -0.11663235 0.06268727 -0.0052428637 -0.06108788 0.16678436 -0.25644404 -0.017275326
0.13100044 -0.17677957 -0.1244863 0.19408359 -0.16919622 -0.39764073 -0.042255647 -0.15685785
-0.30602476 -0.03250947 0.06235476 0.06710693 0.04310351 0.08517946 0.14674157 -0.08607322
-0.13258086 -0.4166761 0.1908337 0.07437098 0.020888336 -0.104606874 0.08268471 0.22230363
-0.33023167 -0.30001417 -0.17752391 0.08707572 0.2570997 0.019039217 0.13272254 -0.005817044
0.104820296 -0.13738471 -0.18542236 0.08947112 0.28607234 0.0050070374 -0.23757817 -0.11645408
-0.154114 0.029837018 0.015223753 0.2825011 -0.027457068 -0.13142543 -0.10820247 -0.0013353302
0.1826907 -0.08011053 -0.23431398 0.049357682 -0.19517806 0.19012792 -0.24402511 0.17268722
0.07046103 0.049296174 0.24141608 -0.0046305596 -0.018720632 0.16352266 -0.18475537 0.31407094
0.29459858 0.37540865 -0.0754462 0.34454942 0.19927484 -0.01755747 0.18557744 -0.31990808
0.43949494 0.2658162 -0.28130668 -0.08522683 0.40409413 0.0007710885 0.14295144 -0.12685579
-0.3840869 -0.07538016 0.084768414 -0.40416232 -0.2456048 0.42942944 -0.25421935 0.104351595
-0.05470159 0.050917175 0.03488399 0.33837846 -0.19828057 0.26268873 0.27032167 0.3838455

fc2.bias f4 [6]
00000000: 2ec0 8a3c be21 00bb 730c 5f3c 7be9 a43c
00000010: 3609 e43c 8165 473d
0.016937342 -0.0019551362 0.013613808 0.020130863 0.027836423 0.048680786
