results/alpha_1.0/agent_final.pt (torch, 43205 bytes, 8 tensors)

fc1.weight f4 [32, 104]
0.024611076 0.23093103 -0.052557286 -0.12488979 -0.043573134 -0.29979968 -0.45229825 0.038353104
0.18966293 0.1844214 -0.10273397 0.006900845 -0.1205917 -0.012343897 0.047910575 0.11938056
-0.28116938 0.023056371 -0.1849018 0.06785065 -0.1202905 -0.13457988 0.05269425 -0.025562212
-0.13551171 -0.034505144 -0.33389482 -0.13590887 -0.07396821 -0.103112526 -0.43706596 0.00386417
-0.10314466 0.10694807 -0.13025124 -0.13775474 0.014194114 -0.017066564 0.15212446 -0.078213565
0.09169756 -0.1116908 0.17601883 -0.11066919 0.23782825 0.04120036 0.07483172 0.12429413
0.15923283 -0.091051795 0.15110114 0.10095797 0.084869206 0.0135173695 0.051717803 -0.04306477
0.034096353 -0.09983387 0.025051974 -0.06532073 -0.09969426 0.001951264 0.074323915 -0.03357594
0.10455045 -0.0055031367 0.054621797 0.042193443 -0.08526934 -0.1102127 -0.14204815 -0.054709267
-0.034226052 0.10348118 -0.02980103 -0.10010445 -0.09136312 0.06428824 -0.04320461 -0.03616659
-0.05884484 -0.09990196 -0.036915727 0.03622854 -0.1045295 0.09360263 -0.07597541 0.1003154
-0.21304385 -0.07345542 0.04651311 0.0087895505 -0.15712598 -0.0947923 0.085344926 -0.29759955
-0.21972424 0.19471171 0.00011313931 -0.15615931 -0.06321585 0.014313823 -0.07927471 -0.13484511
-0.4620468 0.4311935 0.2967884 0.36918414 -0.10899094 0.24570791 0.32586488 -0.015793633
-0.14705272 -0.051391184 0.095903456 0.0057192007 -0.25397798 0.002257543 0.05481956 0.24597944
0.36616582 0.07757564 -0.3636697 0.032981712 0.026934486 -0.06691307 -0.064317256 -0.082626484
0.12376052 0.042317014 0.33018178 0.22644553 -0.11054803 -0.0123987645 -0.33948752 -0.05916101
-0.031148404 -0.085302286 -0.22964732 -0.17675233 -0.08427764 0.053231727 0.062793285 0.08500216
0.12552139 -0.095792875 0.050998274 0.26266122 0.14599477 -0.18197908 -0.14208534 -0.1147226
-0.111186914 -0.11937683 -0.040233713 0.07344275 -0.03052308 -0.13321567 0.018235331 0.060489535
-0.060218114 0.08286623 0.011337583 0.0008337461 0.1535953 0.03351045 0.001298891 -0.07627217
-0.2167517 0.10930732 -0.18389271 -0.06164656 0.12218806 -0.3063749 -0.06566463 0.17828944
0.41389674 0.1946214 0.039594863 0.06700173 -0.08538671 -0.05625517 -0.05352328 0.07846511
0.19455443 0.014403138 0.09353314 0.13362217 0.012499407 0.0028789057 -0.12543677 0.039426006
-0.15277116 -0.016155457 0.01458279 -0.07704066 -0.3608347 -0.04436443 -0.009036836 0.09907546
-0.14746207 0.25510016 -0.1158553 0.13411574 -0.09272863 -0.12287762 -0.040062226 -0.03291582
0.2350197 -0.3809856 -0.19119509 -0.12057417 0.226243 0.3750503 0.8258429 0.10412035
0.21468353 -0.0964753 0.035076696 -0.18927588 -0.012214425 -0.08258869 -0.034492742 0.034218997
0.18783198 0.10597442 0.11231512 -0.114409074 -0.043033198 -0.0022734222 0.073817745 -0.14671496
0.04537363 -0.034079697 0.057654276 0.05283126 0.09432978 0.16529584 0.020359242 0.0067396406
-0.016614772 -0.0016728841 -0.12670161 0.10803141 -0.024605967 0.21235862 -0.07677578 0.1782344
-0.13555762 0.09338158 0.10466705 0.15870008 -0.21665406 -0.04166719 -0.048048396 -0.027792305
00000000: 2b9d c93c 2f79 6c3e 4f46 57bd 38c6 ffbd
00000010: be79 32bd 587f 99be a393 e7be 2518 1d3d
00000020: 0037 423e f7d8 3c3e 3066 d2bd 7c20 e23b
00000030: c8f8 f6bd 0e3e 4abc e13d 443d cc7d f43d
00000040: 6ff5 8fbe b7e0 bc3c e656 3dbe 48f5 8a3d
00000050: de5a f6bd 4fcf 09be edd5 573d d867 d1bc
00000060: 95c3 0abe 4455 0dbd 43f4 aabe b22b 0bbe
00000070: a57c 97bd a92c d3bd 1cc7 dfbe 043e 7d3b
00000080: 823d d3bd 9707 db3d 9560 05be 940f 0dbe
00000090: 6e8e 683c 2ecf 8bbc 84c6 1b3e 6f2e a0bd
000000a0: eecb bb3d 25be e4bd 483e 343e 87a6 e2bd
000000b0: 4089 733e b5c1 283d 5f41 993d ec8d fe3d
000000c0: ee0d 233e 5d79 babd 42ba 1a3e 0dc3 ce3d
000000d0: e8cf ad3d f577 5d3c 0cd6 533d af64 30bd
000000e0: 9ea8 0b3d b375 ccbd cc39 cd3c e0c6 85bd
000000f0: 812c ccbd 8ec1 ff3a 2337 983d ed86 09bd
00000100: 8c1e d63d a853 b4bb 1bbb 5f3d 08d3 2c3d
00000110: b1a1 aebd 32b7 e1bd 1275 11be d316 60bd
00000120: 9e30 0cbd f1ed d33d 4a21 f4bc 9003 cdbd
00000130: 961c bbbd 8ea9 833d 51f7 30bd 6b23 14bd
00000140: 4907 71bd 6699 ccbd f234 17bd 6164 143d
00000150: 9013 d6bd bcb2 bf3d ff98 9bbd 2972 cd3d
00000160: 2b28 5abe cc6f 96bd 8884 3e3d 0c02 103c
00000170: a2e5 20be 7722 c2bd 52c9 ae3d f85e 98be
00000180: 64ff 60be 8262 473e 3445 ed38 3ae8 1fbe
00000190: 5077 81bd 8684 6a3c c75a a2bd d614 0abe
000001a0: 6691 ecbe 65c5 dc3e a6f4 973e b405 bd3e
000001b0: a436 dfbd db9a 7b3e c3d7 a63e a661 81bc
000001c0: fd94 16be 907f 52bd 0869 c43d 2268 bb3b
000001d0: 6709 82be 49f3 133b 7a8a 603d 09e2 7b3e
000001e0: 167a bb3e fadf 9e3d ea32 babe d517 073d
000001f0: b6a5 dc3c b809 89bd c4b8 83bd 1338 a9bd
00000200: 2876 fd3d 9b54 2d3d 960d a93e 56e1 673e
00000210: 0167 e2bd 3024 4bbc 4fd1 adbe d152 72bd
00000220: f02a ffbc f7b2 aebd ab28 6bbe 90fe 34be
00000230: c199 acbd 8309 5a3d c499 803d 9d15 ae3d
00000240: ae88 003e 0e2f c4bd 91e3 503d 887b 863e
00000250: a77f 153e b958 3abe d27e 11be aff3 eabd
00000260: f7b5 e3bd d77b f4bd 1bcc 24bd 2769 963d
00000270: 8a0b fabc b069 08be 4362 953c e0c3 773d
00000280: 45a7 76bd c5b5 a93d 45c1 393c c18f 5a3a
00000290: 1648 1d3e 4142 093d 8d3f aa3a 9534 9cbd
000002a0: 28f4 5dbe 84dc df3d 5f4e 3cbe 1a81 7cbd
000002b0: bc3d fa3d 2cdd 9cbe 2d7b 86bd 8291 363e
000002c0: 46ea d33e d54a 473e 392e 223d 3438 893d
000002d0: 3adf aebd d26b 66bd 3a3b 5bbd 51b2 a03d
000002e0: 4739 473e 24fb 6b3c 4e8e bf3d 40d4 083e
000002f0: 50ca 4c3c 06ac 3c3b 7f72 00be 2a7d 213d
00000300: 0b70 1cbe 7358 84bc a8ec 6e3c 7ec7 9dbd
00000310: 53bf b8be 7ab7 35bd 3d0f 14bc 13e8 ca3d
00000320: 4c00 17be 7d9c 823e 8b45 edbd a355 093e
00000330: 82e8 bdbd 43a7 fbbd 4a18 24bd bdd2 06bd
00000340: 01a9 703e 8b10 c3be a5c8 43be 97ef f6bd
00000350: 3fac 673e 9806 c03e 716a 533f 0d3d d53d
00000360: 00d6 5b3e d894 c5bd 95ac 0f3d 89d1 41be
00000370: 031f 48bc 4224 a9bd 4348 0dbd 3829 0c3d
00000380: 0757 403e 1e09 d93d 7805 e63d 4e4f eabd
00000390: 9443 30bd b2fd 14bb c22d 973d 723c 16be
000003a0: b3d9 393d 2797 0bbd e426 6c3d 9765 583d
000003b0: f92f c13d 5043 293e 6dc8 a63c 34d8 dc3b
000003c0: b41b 88bc ad44 dbba 11be 01be 923f dd3d
000003d0: 7492 c9bc 8a74 593e 9f3c 9dbd 1483 363e
000003e0: 9ecf 0abe d83e bf3d ae5b d63d 4682 223e
000003f0: 90da 5dbe 37ab 2abd 65ce 44bd b0ac e3bc

fc1.bias f4 [32]
-0.0378015 -0.020684231 0.025753869 0.033220973 -0.019925801 -0.05014021 0.006029767 0.014737495
0.020008165 0.024708223 -0.017695183 0.029825235 0.058067214 -0.05098958 0.060783636 0.051111996
-0.03733873 0.00093156414 0.059240717 0.017937137 0.088961914 -0.03732105 -0.0151998615 0.09992101
0.071481004 0.0022443698 0.03279065 0.030917034 0.023027219 -0.0066640642 -0.031390376 0.012206297
00000000: bfd5 1abd fa71 a9bc c7f9 d23c b712 083d
00000010: 6f3b a3bc d25f 4dbd 5a95 c53b 8975 713c
00000020: 2ae8 a33c e668 ca3c 7df5 90bc 0d54 f43c
00000030: e3d7 6d3d 73da 50bd 43f8 783d d05a 513d
00000040: 7ff0 18bd 3634 743a 65a6 723d e7f0 923c
00000050: aa31 b63d f5dd 18bd d708 79bc 63a3 cc3d
00000060: a264 923d 4716 133b 7d4f 063d b845 fd3c
00000070: 94a3 bc3c 395e dabb 3293 00bd ecfc 473c

rnn.weight_ih f4 [96, 32]
-0.026220918 0.18757822 0.11163063 0.22034135 -0.097942516 -0.07067442 -0.0683631 0.2335204
0.04124809 0.0016692415 -0.015029493 0.11072756 0.018184071 -0.051390275 0.14107479 0.01000683
0.12332983 0.012779051 -0.17151266 0.23870538 0.040425804 -0.17581435 -0.15795843 -0.19221115
-0.011075423 0.0261832 -0.0762203 0.06619526 -0.01816304 0.08594596 0.15542896 0.13409127
0.14544298 0.08609028 -0.12763938 0.04220248 0.102509685 -0.09808418 0.09124584 0.11751706
-0.011040002 0.059652768 0.0435483 0.062247958 0.00087340403 0.0902083 0.07339034 -0.13827302
-0.16357478 -0.016745768 0.16224296 0.09501076 0.019295098 0.18376373 -0.078019485 0.20909482
-0.11988405 0.18008745 0.069287255 0.19647256 0.010251475 0.1093068 0.036562525 0.21729901
0.026984664 -0.036815647 -0.12309003 -0.1592498 0.038557284 -0.2907893 0.04160783 -0.18832237
0.063056685 -0.25603124 -0.1543776 0.10864128 -0.018758418 -0.051026247 -0.122092895 0.19410674
0.16218562 -0.09877681 -0.15566465 -0.038902882 -0.08451313 -0.013540879 0.030542135 -0.12691416
0.15933295 0.12231643 -0.033556614 -0.2332166 0.04575756 0.081258215 -0.0581066 -0.20594907
-0.10611019 -0.11464925 -0.03696393 0.09359125 -0.18910843 -0.025672894 -0.101697244 0.043307755
-0.008912729 0.00673154 -0.07878074 -0.106351346 -0.079422064 -0.219816 -0.16434106 -0.19295415
0.13346939 0.09925472 -0.20238216 -0.010056404 0.00089440047 0.05555899 0.03679912 -0.12696615
-0.12033968 -0.23954666 -0.16201158 0.083148144 -0.20379287 -0.14986104 0.052928973 -0.012035112
-0.099774845 -0.18952629 -0.098104015 0.1513115 0.10310188 -0.020431234 0.19953284 0.10178622
0.21337113 0.12957732 -0.16617736 0.02371055 0.17243181 -0.041201506 -0.17620854 0.091825165
-0.08085226 0.009219081 0.24943434 -0.17247778 -0.09083145 -0.04968034 0.09954504 -0.021868316
0.10433653 -0.06351815 -0.020755617 -0.13226625 -0.13485922 -0.13986045 -0.13079697 0.15288264
-0.2631922 -0.12142021 -0.0922088 0.021287443 0.0011016702 0.066577464 -0.08815797 -0.15456216
-0.08274325 0.0133208865 0.07536676 0.099102214 0.0058969352 0.09652743 -0.05036042 -0.13663425
-0.15582684 0.09846872 0.0411788 -0.17157964 0.11307826 -0.15367629 0.011456963 -0.12416661
0.14696448 -0.011262006 -0.19082323 -0.08838384 -0.022473091 -0.077231966 -0.016534418 0.051010244
0.18613279 -0.22457138 -0.08207744 -0.2474135 -0.13146678 -0.18144666 0.11244434 -0.14709662
0.10539766 0.03170913 -0.06671908 -0.0759175 -0.13283952 -0.078058 -0.14465605 0.10390079
0.1181352 -0.04971715 0.17405011 0.08478242 -0.14218284 0.17047106 -0.011160429 0.038661093
-0.08465887 0.059096467 -0.029818239 0.12256266 -0.18052603 0.07774604 0.035233993 0.15371336
0.23721108 0.5654783 0.32021928 0.3566842 -0.2346066 -0.09330791 -0.21478312 -0.15829694
-0.1821179 -0.22395948 -0.13553554 0.1535287 0.033803016 -0.026657535 0.3291833 -0.10422597
-0.12133829 -0.23497312 -0.049220048 -0.07470953 -0.091362886 0.21212453 -0.30220938 -0.0016665725
0.060350038 -0.20141473 -0.040055245 -0.1269184 -0.030571803 -0.27443448 0.1686771 -0.08868005
00000000: 40cd d6bc 8114 403e 9a9e e43d 2aa1 613e
00000010: 1696 c8bd c0bd 90bd f401 8cbd f91f 6f3e
00000020: c2f3 283d 73ca da3a 433e 76bc 22c5 e23d
00000030: c3f6 943c 9c7e 52bd e975 103e b0f3 233c
00000040: 5a94 fc3d 3a5f 513c 04a1 2fbe 2f6f 743e
00000050: 8795 253d ad08 34be dbbf 21be 00d3 44be
00000060: b175 35bc 267e d63c 6319 9cbd 6191 873d
00000070: a8ca 94bc 6f04 b03d c528 1f3e 394f 093e
00000080: 01ef 143e 1a50 b03d e6b3 02be 82dc 2c3d
00000090: 99f0 d13d 5ce0 c8bd 19df ba3d c9ac f03d
000000a0: 20e1 34bc 7656 743d b45f 323d b7f7 7e3d
000000b0: 27f5 643a 21bf b83d ad4d 963d 7197 0dbe
000000c0: 2680 27be 6c2e 89bc 0523 263e 0095 c23d
000000d0: c110 9e3c 8f2c 3c3e aec8 9fbd f41c 563e
000000e0: c585 f5bd d868 383e 7ae6 8d3d 1a30 493e
000000f0: cdf5 273c 3edc df3d 96c2 153d a283 5e3e
00000100: f10e dd3c 01cc 16bd a016 fcbd 6112 23be
00000110: 3eee 1d3d 56e2 94be f96c 2a3d 94d7 40be
00000120: dd23 813d 8716 83be 2915 1ebe 527f de3d
00000130: 41ab 99bc e600 51bd d70b fabd ebc3 463e
00000140: fd13 263e 7f4b cabd 8e66 1fbe a158 1fbd
00000150: 3815 adbd 90da 5dbc 8033 fa3c c9f5 01be
00000160: 2d28 233e 0981 fa3d a972 09bd 55d0 6ebe
00000170: 476c 3b3d b56a a63d 3001 6ebd 50e4 52be
00000180: 4d50 d9bd 3acd eabd 7d67 17bd c5ac bf3d
00000190: a4a5 41be f64f d2bc a546 d0bd 7963 313d
000001a0: b206 12bc 4094 dc3b cc57 a1bd bcce d9bd
000001b0: 09a8 a2bd 7217 61be 0649 28be c695 45be
000001c0: 33ac 083e 0f46 cb3d 453d 4fbe 9ec3 24bc
000001d0: 3376 6a3a d391 633d adba 163d 6a03 02be
000001e0: a674 f6bd b84b 75be 5de6 25be 9349 aa3d
000001f0: 14af 50be 2c75 19be 0dcc 583d eb2e 45bc
00000200: c156 ccbd 2e13 42be c2ea c8bd 67f1 1a3e
00000210: 1427 d33d 675f a7bc 5652 4c3e 4b75 d03d
00000220: f67d 5a3e ebaf 043e 662a 2abe a13c c23c
00000230: f791 303e e9c2 28bd 0370 34be d50e bc3d
00000240: df95 a5bd a10b 173c b76b 7f3e 049e 30be
00000250: d705 babd 9d7d 4bbd 45de cb3d 2f25 b3bc
00000260: 64ae d53d ce15 82bd af07 aabc ce70 07be
00000270: 8918 0abe 9437 0fbe a4ef 05be 448d 1c3e
00000280: 21c1 86be 29ab f8bd f8d7 bcbd 0163 ae3c
00000290: eb65 903a c459 883d 2a8c b4bd 8b45 1ebe
000002a0: 4b75 a9bd d93f 5a3c e359 9a3d 1af6 ca3d
000002b0: 143b c13b 2cb0 c53d ba46 4ebd d9e9 0bbe
000002c0: 1291 1fbe f8a9 c93d 1aab 283d 93b2 2fbe
000002d0: 9395 e73d 515d 1dbe fcb5 3b3c 104b febd
000002e0: db7d 163e 4784 38bc 2a67 43be 9602 b5bd
000002f0: 7d19 b8bc cb2b 9ebd 3073 87bc 1ef0 503d
00000300: 9899 3e3e 0af6 65be 3818 a8bd f759 7dbe
00000310: 3a9f 06be 27cd 39be 3849 e63d 7fa0 16be
00000320: bada d73d 6fe1 013d 03a4 88bd a27a 9bbd
00000330: 1507 08be dfdc 9fbd b720 14be f0c9 d43d
00000340: def0 f13d 36a4 4bbd 313a 323e 68a2 ad3d
00000350: 6198 11be f78f 2e3e 3bda 36bc 185b 1e3d
00000360: a161 adbd 230f 723d 6145 f4bc 2202 fb3d
00000370: d1db 38be 5139 9f3d 8551 103d 0967 1d3e
00000380: 76e7 723e 30c3 103f c8f3 a33e 509f b63e
00000390: b63c 70be 3818 bfbd 1bf0 5bbe 9818 22be
000003a0: 1d7d 3abe a255 65be d4c9 0abe a136 1d3e
000003b0: 0875 0a3d e760 dabc b78a a83e 6d74 d5bd
000003c0: 3680 f8bd cb9c 70be f69a 49bd 4f01 99bd
000003d0: 771c bbbd 2c37 593e 30bb 9abe e570 daba
000003e0: 9a31 773d aa3f 4ebe f810 24bd e6f6 01be
000003f0: b871 fabc ad82 8cbe b1b9 2c3e e39d b5bd

rnn.weight_hh f4 [96, 32]
0.09762566 0.090912774 -0.06401349 -0.025784057 -0.03170274 0.09897195 -0.17544848 -0.085403256
0.1600254 0.10575996 -0.02209076 0.12904392 -0.08816694 0.100074396 0.010427413 -0.0429535
-0.08502442 -0.20737235 -0.032303464 -0.094945595 0.0029798956 -0.09206048 0.09313853 0.19567753
-0.06480221 0.0800042 0.0040916167 -0.07241128 0.037604097 0.025410347 0.03573485 -0.10627359
0.039325994 0.24881418 0.03747722 -0.024313785 0.073935546 0.21084051 0.20401148 0.043980274
-0.055409286 -0.14832868 -0.048724014 0.025458058 0.09630092 -0.14649455 0.22763893 0.1491641
0.05007918 -0.009094795 -0.09813917 0.048574906 -0.20323668 -0.15868649 -0.030201621 0.08163596
-0.090737395 -0.036863007 0.12971699 -0.025343059 0.1708947 -0.049900543 0.12668256 0.09587316
-0.12673397 0.13377722 0.12264889 -0.17108133 0.09473408 -0.04055971 -0.016914558 -0.13155723
0.16130479 0.18727571 -0.04713337 -0.045827467 -0.014370702 -0.0004373256 0.019294206 -0.0532029
0.033072196 0.0027823532 -0.100801624 -0.117407694 -0.19487506 -0.018816492 -0.07882506 0.02287087
-0.013692647 -0.123063594 -0.031437587 0.096341036 -0.14835009 -0.092038184 -0.1279655 0.030640531
-0.04408501 -0.19476852 -0.0939362 0.09663203 0.13188638 -0.1177779 0.012604818 -0.08461551
0.09357705 0.12690103 -0.12140352 -0.07810197 -0.16479583 0.022511678 0.037538808 0.028715221
-0.11867256 0.18546747 0.020734774 0.09044548 -0.06934823 0.25755298 0.06432879 0.04285149
-0.025607625 0.030903859 -0.20373635 -0.09381161 -0.24205783 -0.14891373 0.10021345 -0.03426609
0.13934562 0.21924944 0.14267685 -0.03128191 0.08498595 -0.11649635 0.13103147 -0.13080674
0.12439383 0.08095677 -0.013341753 -0.12327006 -0.07871552 0.11609652 0.049889274 -0.051056284
0.16834018 -0.038931333 0.0269565 -0.07490927 -0.0022055968 0.16195615 -0.07931798 -0.11621487
0.032707293 0.22724669 -0.0027007996 0.030509397 -0.031892166 0.24306633 -0.08593224 0.20789999
0.0036408752 -0.058771662 -0.15464488 -0.059134852 0.0754824 0.034650616 -0.10945906 -0.13903095
0.1281131 -0.10472295 0.08273324 0.097954646 0.008509244 -0.070224 0.08194034 0.1837501
0.117494285 0.12552099 0.03584545 0.14344834 -0.09909851 0.09023479 -0.097968854 -0.045611072
0.06362926 -0.062160168 -0.0015115151 0.12066438 -0.18289663 0.09936786 -0.13613296 0.020741612
0.16486534 -0.124484636 -0.07691628 0.112075776 0.15793008 0.17441562 -0.05383665 0.04850291
-0.1479186 -0.08743126 -0.07622516 -0.060029436 0.07158812 -0.13325599 0.10641614 0.16331911
0.15182975 -0.008705988 0.1292158 -0.1858622 -0.05016915 0.235744 0.106162384 -0.042192005
-0.15279521 0.20071958 -0.10408012 0.1483265 0.0620459 -0.04737385 -0.08359309 -0.005188269
-0.1680062 -0.009834483 -0.14691192 0.13655885 -0.0068622134 0.030040747 0.10099336 0.040070083
0.29490986 -0.06733006 0.08456161 0.14534612 0.060907576 -0.1318131 -0.010623267 -0.1311227
0.02490787 -0.10170573 0.24752676 0.08497097 -0.0037514644 -0.2611528 -0.06702549 -0.12156555
-0.15310702 0.083260946 -0.18281679 -0.18770956 0.15200107 0.021536084 -0.1895874 0.01103883
00000000: f6ef c73d 7a30 ba3d 8119 83bd 1639 d3bc
00000010: bbda 01bd ceb1 ca3d c4a8 33be e7e7 aebd
00000020: b3dd 233e ae98 d83d aef7 b4bc 1724 043e
00000030: de90 b4bd cef3 cc3d bdd7 2a3c 02f0 2fbd
00000040: 4821 aebd 6b59 54be a350 04bd d672 c2bd
00000050: 5a4a 433b 348a bcbd 6abf be3d b15f 483e
00000060: 05b7 84bd 3ed9 a33d f812 863b 5d4c 94bd
00000070: c106 1a3d 5c29 d03c b55e 123d f8a5 d9bd
00000080: 4b14 213d 25c9 7e3e b781 193d b42d c7bc
00000090: 856b 973d 93e6 573e 63e8 503e a924 343d
000000a0: d9f4 62bd 79e3 17be d592 47bd 6b8d d03c
000000b0: 6b39 c53d ab02 16be 2e1a 693e 79be 183e
000000c0: d41f 4d3d 5602 15bc 30fd c8bd 7bf6 463d
000000d0: 471d 50be b67e 22be 6469 f7bc c130 a73d
000000e0: 87d4 b9bd aafd 16bd 88d4 043e 3f9c cfbc
000000f0: 05ff 2e3e 8364 4cbd 13b9 013e 2659 c43d
00000100: 8dc6 01be e5fc 083e 572f fb3d f22f 2fbe
00000110: f103 c23d f021 26bd 6690 8abc f0b6 06be
00000120: 152d 253e 34c5 3f3e ec0e 41bd 95b5 3bbd
00000130: 1873 6bbc d948 e5b9 e20e 9e3c 49eb 59bd
00000140: b676 073d 2458 363b 1571 cebd 7273 f0bd
00000150: 548d 47be 0b25 9abc 086f a1bd b15b bb3c
00000160: 2057 60bc c408 fcbd b3c4 00bd 734e c53d
00000170: 16e9 17be 847e bcbd 6309 03be da01 fb3c
00000180: 7c92 34bd 6671 47be 9f61 c0bd 04e7 c53d
00000190: 390d 073e 8a35 f1bd 7084 4e3c e64a adbd
000001a0: 53a5 bf3d 58f2 013e 69a2 f8bd edf3 9fbd
000001b0: 3dc0 28be 696a b83c 4bc2 193d 2f3c eb3c
000001c0: 990a f3bd 2feb 3d3e f9db a93c 7b3b b93d
000001d0: 7206 8ebd fcdd 833e d0be 833d 0b85 2f3d
000001e0: 15c7 d1bc 172a fd3c 43a0 50be 4d20 c0bd
000001f0: 02de 77be d77c 18be b63c cd3d 995a 0cbd
00000200: 9eb0 0e3e ed82 603e e119 123e 7621 00bd
00000210: 1d0d ae3d a395 eebd 1d2d 063e 34f2 05be
00000220: 31c2 fe3d aacc a53d 5e97 5abc 0375 fcbd
00000230: 9a35 a1bd 03c4 ed3d b258 4c3d 6520 51bd
00000240: 5e61 2c3e 7676 1fbd e1d3 dc3c 086a 99bd
00000250: c68b 10bb d5d7 253e 7771 a2bd 1002 eebd
00000260: 15f8 053d 5bb3 683e e6ff 30bb d8ee f93c
00000270: 5ca1 02bd 61e6 783e 3efd afbd bce3 543e
00000280: c09b 6e3b 8eba 70bd 3a5b 1ebe 6337 72bd
00000290: 8496 9a3d ceed 0d3d 122c e0bd 215e 0ebe
000002a0: 1530 033e fc78 d6bd 0c70 a93d 729c c83d
000002b0: 5b6a 0b3c 9ad1 8fbd 56d0 a73d fc28 3c3e
000002c0: d8a0 f03d 9388 003e aed2 123d 1fe4 123e
000002d0: 29f4 cabd 05cd b83d e5a3 c8bd add2 3abd
000002e0: 0f50 823d a99b 7ebd 081e c6ba e31e f73d
000002f0: 4149 3bbe 6081 cb3d 7066 0bbe 50ea a93c
00000300: 76d2 283e cdf1 febd 4886 9dbd fc87 e53d
00000310: 6cb8 213e 029a 323e d283 5cbd fdaa 463d
00000320: f977 17be 290f b3bd f01b 9cbd 6de1 75bd
00000330: cb9c 923d 4274 08be b5f0 d93d 203d 273e
00000340: 4279 1b3e 8fa3 0ebc 2651 043e a952 3ebe
00000350: 2b7e 4dbd e066 713e aa6b d93d 86d1 2cbd
00000360: 5976 1cbe 6f89 4d3e f527 d5bd e7e2 173e
00000370: d723 7e3d 150b 42bd db32 abbd 5b02 aabb
00000380: d109 2cbe d020 21bc 1470 16be 15d6 0b3e
00000390: 6bdc e0bb 0318 f63c 9bd5 ce3d 8720 243d
000003a0: 6dfe 963e 58e4 89bd a32e ad3d 9dd5 143e
000003b0: 397a 793d 03fa 06be 360d 2ebc 0745 06be
000003c0: 970b cc3c 184b d0bd a877 7d3e 4305 ae3d
000003d0: 21db 75bb d2b5 85be a944 89bd 5cf7 f8bd
000003e0: 16c8 1cbe b784 aa3d 5334 3bbe ef36 40be
000003f0: 2ba6 1b3e 716c b03c 3323 42be 35dc 343c

rnn.bias_ih f4 [96]
-0.10644024 0.024724687 -0.1661445 -0.20921484 -0.073650904 -0.18279983 -0.06984614 0.08196901
-0.13690579 0.086115606 0.079984285 0.11414122 -0.16718602 0.116409 -0.048059843 0.035980523
0.105586395 -0.07426379 0.18722583 0.09022939 0.034624606 -0.11616039 0.01754587 -0.07850404
-0.042880878 0.07100789 0.061853755 0.0060800114 0.036691375 0.01626416 -0.00085380964 0.12740134
0.01831373 -0.017710513 0.06780918 0.072180405 -0.11055542 0.08492489 -0.005094436 -0.20013712
-0.32654145 0.07392694 -0.2707611 -0.279246 -0.19890161 0.03777405 -0.047558848 -0.30011362
-0.18503395 0.07292915 0.013334179 0.02961456 -0.06801805 -0.1637615 -0.21301448 -0.23190904
0.05998568 -0.066567615 0.15117195 -0.18473627 -0.21810633 0.025656566 -0.27227485 -0.31263694
0.046341434 0.21003929 -0.011659029 -0.10673033 0.14184579 -0.1187278 -0.06352473 -0.09163307
0.1565808 -0.11399119 -0.034783486 -0.05570455 0.11072871 -0.12017907 0.10775997 0.1000889
0.011447018 0.04860381 0.03092582 0.09013143 -0.115763135 0.17249481 0.086781226 -0.025668751
-0.16670504 -0.12951824 0.035228737 0.08769901 -0.060967624 0.061769232 0.23331408 0.2180942
00000000: 57fd d9bd 6d8b ca3c c921 2abe 6a3c 56be
00000010: 49d6 96bd e12f 3bbe 7e0b 8fbd 5edf a73d
00000020: 0831 0cbe 615d b03d cdce a33d dfc2 e93d
00000030: d032 2bbe d767 ee3d 66da 44bd 5060 133d
00000040: ae3d d83d 9d17 98bd 21b8 3f3e 30ca b83d
00000050: 88d2 0d3d 80e5 edbd 5bbc 8f3c bac6 a0bd
00000060: dca3 2fbd 966c 913d 5d5a 7d3d d53a c73b
00000070: b249 163d 6a3c 853c 32d2 5fba 7f75 023e
00000080: ad06 963c a315 91bc 8adf 8a3d 52d3 933d
00000090: e16a e2bd 1aed ad3d 3aef a6bb bff0 4cbe
000000a0: 7130 a7be 0267 973d 33a1 8abe 55f9 8ebe
000000b0: ddac 4bbe f6b8 1a3d 11cd 42bd 7ea8 99be
000000c0: 8a79 3dbe e15b 953d 9a77 5a3c 3c9a f23c
000000d0: 0c4d 8bbd 18b1 27be 7820 5abe 9079 6dbe
000000e0: 8bb3 753d 9a54 88bd d2cc 1a3e 812b 3dbe
000000f0: 4457 5fbe b82d d23c 9c67 8bbe f311 a0be
00000100: 84d0 3d3d 8a14 573e 8305 3fbc 6e95 dabd
00000110: 0640 113e 9027 f3bd 4119 82bd 1eaa bbbd
00000120: b856 203e 3774 e9bd 2179 0ebd 742a 64bd
00000130: bcc5 e23d 7220 f6bd 42b1 dc3d 69fb cc3d
00000140: 468c 3b3c ca14 473d 2558 fd3c d496 b83d
00000150: 3915 edbd 7ba2 303e 5bba b13d 4647 d2bc
00000160: bab4 2abe 6ea0 04be 024c 103d 8a9b b33d
00000170: 30b9 79bd bc01 7d3d e3e9 6e3e 1654 5f3e

rnn.bias_hh f4 [96]
0.052279156 0.20567219 -0.034802984 -0.022202421 0.19108975 0.15746698 0.044563934 -0.16429754
0.08733945 -0.05301919 0.05941564 0.150556 -0.0843922 -0.08321243 0.1056367 -0.03395411
-0.060705055 -0.11750271 -0.08915454 0.022519479 0.11715083 0.060389467 0.051935397 -0.013291544
0.095851324 -0.02001966 0.011096906 -0.037180994 -0.007432329 0.11337391 -0.1400197 -0.123199955
0.06105176 -0.16765651 0.05532738 0.25036082 -0.1493218 -0.0738367 -0.08655872 -0.23965251
-0.091516376 -0.23400535 -0.28824013 0.00957333 -0.24715889 0.19642344 -0.21926111 -0.19548203
-0.19212386 -0.2317687 -0.17913142 -0.1323686 -0.29156485 0.047982834 -0.22421147 -0.29690754
0.12632628 -0.16054456 -0.09555903 -0.23276843 -0.044689514 -0.12373185 -0.026443468 -0.06425274
0.18825376 0.18950094 0.03448948 -0.13587466 0.08633201 0.15545486 0.19999772 -0.16362812
-0.06594368 -0.11964918 0.036234103 0.13060988 0.094149284 -0.04326706 0.07164527 -0.0647514
-0.019699119 -0.07248297 -0.16552125 0.09236182 0.054587707 -0.061856356 0.08854933 0.08017583
-0.14593227 -0.16209163 -0.020947292 -0.039746597 0.24826466 -0.11920355 -0.030726053 0.18846633
00000000: ab22 563d bb9b 523e 938d 0ebd dae1 b5bc
00000010: 08ad 433e 063f 213e ac88 363d 9d3d 28be
00000020: 07df b23d a62a 59bd d05d 733d 5a2b 1a3e
00000030: d1d5 acbd 476b aabd 0e58 d83d 7713 0bbd
00000040: dda5 78bd 43a5 f0bd a896 b6bd c57a b83c
00000050: c6ec ef3d f25a 773d 36ba 543d c7c4 59bc
00000060: b34d c43d 4500 a4bc cccf 353c 194b 18bd
00000070: e58a f3bb 9530 e83d 5361 0fbe 4250 fcbd
00000080: 6911 7a3d 26ae 2bbe f69e 623d 4b2f 803e
00000090: d0e7 18be b237 97bd b345 b1bd 7867 75be
000000a0: f06c bbbd 199f 6fbe 3694 93be 75d9 1c3c
000000b0: 3817 7dbe 3a23 493e fc85 60be 712c 48be
000000c0: 1ebc 44be c654 6dbe 3a6e 37be a28b 07be
000000d0: fd47 95be a689 443d b197 65be 4404 98be
000000e0: ad5b 013e cb65 24be 74b4 c3bd d95a 6ebe
000000f0: 5a0c 37bd 2067 fdbd f99f d8bc f196 83bd
00000100: 98c5 403e 890c 423e d744 0d3d ba22 0bbe
00000110: d6ce b03d 8f2f 1f3e 34cc 4c3e 218e 27be
00000120: 7b0d 87bd a10a f5bd 366a 143d 99be 053e
00000130: 57d1 c03d cd38 31bd c1ba 923d 629c 84bd
00000140: 0c60 a1bc f471 94bd 677e 29be 3228 bd3d
00000150: 5c97 5f3d 175d 7dbd 5a59 b53d 3a33 a43d
00000160: 456f 15be 59fb 25be a899 abbc 54cd 22bd
00000170: 1739 7e3e fe20 f4bd 34b5 fbbc 51fd 403e

fc2.weight f4 [6, 32]
0.0380776 0.3557174 0.057964757 -0.00041297366 0.18919285 -0.20001702 0.12355643 0.19246982
-0.02250314 -0.22257799 -0.0014469703 -0.08899862 0.27357492 -0.079899125 -0.093879186 -0.035897274
0.2806328 0.10795298 -0.074141584 0.09798081 0.2323395 0.22235017 0.01834995 0.014393015
-0.17179804 0.012937579 -0.13654011 -0.38620323 0.17499568 0.100893 -0.052337367 -0.018928567
0.12711392 -0.03906048 -0.13044173 -0.075173385 0.08999789 -0.035060383 0.3728117 -0.3374819
-0.17095031 -0.07613733 0.1795391 0.24179418 -0.017640032 -0.2988934 -0.23292978 0.1421156
0.065500155 0.2257846 -0.10938659 -0.020978767 0.22272836 -0.081787996 -0.12582408 -0.011819181
0.0060209143 -0.10224799 0.13548243 -0.07828767 0.21499626 -0.14750451 0.23486829 0.004309588
-0.15565826 0.17257549 -0.006422929 0.32121307 0.34351104 0.062240925 0.13944115 0.118487574
-0.0044733672 -0.19699003 0.0016519795 0.3568486 -0.027495127 -0.05510743 0.113189094 -0.13404259
-0.18267535 -0.424722 0.27445227 -0.014652527 0.25281185 -0.3248109 0.32999665 -0.12084335
0.0847174 -0.11608954 0.059917927 -0.0052097384 -0.058962826 0.17626241 -0.25448722 -0.016829858
0.15532649 -0.17809269 -0.11450881 0.19275092 -0.16610391 -0.32734796 -0.02655892 -0.16087668
-0.2990629 -0.03477311 0.064974636 0.073680505 0.036097154 0.07945316 0.14307876 -0.07602366
-0.119403385 -0.41642222 0.19180188 0.078249484 0.021228986 -0.10529522 0.09038277 0.22287074
-0.32759726 -0.29953575 -0.17793824 0.08256763 0.26003268 0.042441096 0.12943317 -0.0066864067
0.07275097 -0.1340526 -0.17452084 0.10221461 0.282226 -0.023769038 -0.23065408 -0.111185625
-0.14579779 0.033005465 0.04245739 0.27468437 -0.036425628 -0.14029069 -0.10790086 0.0037894228
0.19726582 -0.08276275 -0.24339831 0.03560028 -0.19993418 0.18673751 -0.21986054 0.17742772
0.058047257 0.04307842 0.24863797 -0.0140442075 -0.015579079 0.1592044 -0.181381 0.3176217
0.31187844 0.37025362 -0.08291589 0.31702486 0.195602 -0.012537571 0.18531315 -0.33642748
0.44526953 0.2752917 -0.33153084 -0.086522855 0.41829976 0.014035052 0.14733517 -0.14082593
-0.4078345 -0.067250066 0.0944946 -0.42502573 -0.23825839 0.43549046 -0.27911276 0.09685631
-0.043964677 0.058853116 0.025335671 0.35226604 -0.2065658 0.25727776 0.26030523 0.37815425
00000000: 42f7 1b3d 9720 b63e 746c 6d3d 6384 d8b9
00000010: c5bb 413e 43d1 4cbe 270b fd3d cf16 453e
00000020: 8158 b8bc 7ceb 63be 44a8 bdba e944 b6bd
00000030: 0312 8c3e 27a2 a3bd bb43 c0bd 0509 13bd
00000040: 1aaf 8f3e 7416 dd3d 8bd7 97bd 2aaa c83d
00000050: 68ea 6d3e c3af 633e a252 963c aed0 6b3c
00000060: d3eb 2fbe 24f8 533c 2cd1 0bbe 6ebc c5be
00000070: 1132 333e fda0 ce3d b55f 56bd 1510 9bbc
00000080: 272a 023e e2fd 1fbd 8492 05be 81f4 99bd
00000090: d050 b83d 7a9b 0fbd 2de1 be3e 6dca acbe
000000a0: 990d 2fbe e3ed 9bbd 19d9 373e e598 773e
000000b0: d481 90bc 8e08 99be 2585 6ebe c086 113e
000000c0: f224 863d 1434 673e 1406 e0bd aadb abbc
000000d0: e712 643e 7780 a7bd 07d8 00be 3da5 41bc
000000e0: 174b c53b 6567 d1bd e8bb 0a3e 4955 a0bd
000000f0: fb27 5c3e 6c0b 17be 5081 703e 7237 8d3b
00000100: e164 1fbe a1b7 303e 6f77 d2bb 0a76 a43e
00000110: aee0 af3e 57f0 7e3d a9c9 0e3e 9da9 f23d
00000120: 5395 92bb c1b7 49be 3c87 d83a dcb4 b63e
00000130: 763d e1bc 54b8 61bd afcf e73d 7642 09be
00000140: 3f0f 3bbe 2975 d9be 0285 8c3e 2711 70bc
00000150: 8e70 813e 9d4d a6be 52f5 a83e b87c f7bd
00000160: 5180 ad3d 5ac0 edbd 806c 753d 74b6 aabb
00000170: 0183 71bd 227e 343e 264c 82be c5de 89bc
00000180: e80d 1f3e ee5d 36be 9883 eabd 7f60 453e
00000190: 2517 2abe 279a a7be 1892 d9bc dbbc 24be
000001a0: c61e 99be 406e 0ebd 6c11 853d cee5 963d
000001b0: 9cda 133d 57b8 a23d 3d83 123e 4bb2 9bbd
000001c0: c389 f4bd 4b35 d5be b667 443e 4441 a03d
000001d0: 69e8 ad3c 05a5 d7bd 9a1a b93d 3a38 643e
000001e0: d4ba a7be c05c 99be 7135 36be 3819 a93d
000001f0: 0123 853e b7d6 2d3d 218a 043e a519 dbbb
00000200: 76fe 943d 1645 09be 97b5 32be e555 d13d
00000210: ed7f 903e 49b7 c2bc 9530 6cbe 4ab5 e3bd
00000220: 044c 15be bd30 073d cde7 2d3d 6ea3 8c3e
00000230: 0a33 15bd 5da8 0fbe 20fb dcbd f757 783b
00000240: 0d00 4a3e 847f a9bd 683d 79be 99d1 113d
00000250: 8cbb 4cbe 1e38 3f3e 1f23 61be 9daf 353e
00000260: f6c2 6d3d ff72 303d f49a 7e3e ad19 66bc
00000270: 653f 7fbc 7a06 233e f1bb 39be 509f a23e
00000280: 88ae 9f3e e291 bd3e cecf a9bd 1551 a23e
00000290: e44b 483e 626a 4dbc bbc2 3d3e 3940 acbe
000002a0: 5efa e33e 09f3 8c3e 69be a9be e532 b1bd
000002b0: 632b d63e 46f3 653c 08df 163e ac34 10be
000002c0: afcf d0be 67ba 89bd 6386 c13d f99c d9be
000002d0: 02fa 73be 9bf8 de3e dee7 8ebe 9a5c c63d
000002e0: 4e14 34bd f70f 713d c18c cf3c 375c b43e
000002f0: fc85 53be e9b9 833e ba46 853e 6f9d c13e

fc2.bias f4 [6]
0.02008916 -0.0032982975 0.014337064 0.018803108 0.031095093 0.043639883
00000000: 0692 a43c 4028 58bb 01e6 6a3c fa08 9a3c
00000010: 23bb fe3c bcbf 323d
