results/alpha_0.0/agent_500.pt (torch, 43177 bytes, 8 tensors)

fc1.weight f4 [32, 104]
000000 56 ed 69 be 84 1b 30 3e 6f 3d 50 3e 19 a0 8f 3e
       -0.22844443 0.17197996 0.20335935 0.28051832
000010 17 8b 86 3e 84 86 c0 be 59 8a 53 be fd 6e 84 3d
       0.26277992 -0.37602627 -0.20658244 0.06466482
000020 c6 54 3c 3c 59 24 0e 3e f0 12 d0 3c f7 fb a4 bd
       0.011494821 0.13881053 0.025399655 -0.08055871
000030 d6 63 d5 bd b5 ad 66 3e 73 bd 49 bd 3c 27 33 bd
       -0.10419433 0.22527201 -0.04925294 -0.04373859
000040 2c 3d 08 be 36 4d 9b 3d 10 4d cc 3d f5 b5 96 bd
       -0.13304585 0.07583086 0.09975636 -0.07358924
000050 1b 55 21 3e c5 d2 9d bd cf 01 dc bd 69 61 e2 3d
       0.15755121 -0.07706217 -0.107425325 0.11053736
000060 d4 78 ee bd 0b 26 14 3e 9d b6 57 be 89 66 79 be
       -0.1164414 0.14467637 -0.21065755 -0.2435552
000070 6b ee 1c be f9 4e ae bd ca 6c 01 be bd 3f 26 bd
       -0.15325324 -0.085111566 -0.12639156 -0.04058813
000080 fc f2 23 be 99 1d a1 3b e0 a6 d5 3d 5f 5f 14 bd
       -0.1601066 0.0049168584 0.104322195 -0.036223765
000090 d2 ba dd 3d 59 78 84 3e d0 d6 05 3b 5a 97 2a bd
       0.10826649 0.25873068 0.0020422228 -0.041648246
0000a0 d2 0f 28 bd f8 53 4a 3b b2 8e d6 3b c8 ee 68 3e
       -0.041030712 0.0030872803 0.0065477723 0.22747338
0000b0 90 b2 3c be ca 80 5b 3c d6 7a 8c 3d 54 4f f4 3d
       -0.18427491 0.013397405 0.068593666 0.11929193
0000c0 2e 74 3a 3d 19 2b 0c 3e 63 5f 02 3e 97 eb b4 3c
       0.045520954 0.13688315 0.127317 0.022084994
0000d0 d5 6e 7e 3d ff 31 bc 3d 48 2d a8 bd e0 68 69 3c
       0.062117416 0.091892235 -0.08211762 0.014246196
0000e0 69 c2 8e bc f9 af 02 bd 16 55 ce bd 4f 1b a9 3c
       -0.017426686 -0.0319061 -0.100748226 0.020642905
0000f0 0f 24 55 3d 67 f1 b9 bd 0e 41 24 3a d0 d5 17 bc
       0.05203634 -0.09079247 0.00062657974 -0.0092672855
000100 83 36 dc 3d 2a c5 f1 3d 0f c4 a3 3e 6a 48 08 3d
       0.10752585 0.11805184 0.31985518 0.033272184
000110 7b bd be bd 75 67 54 3d a5 e3 08 be 01 29 06 3d
       -0.09313484 0.051856477 -0.1336809 0.032753948
000120 d8 67 34 be 1b d6 8d bc 11 77 fd 3b 40 69 be 3c
       -0.17617738 -0.017314008 0.007735141 0.023243546
000130 5f ae de bc 27 ef 67 be dc b6 96 bd 50 a1 bf 3d
       -0.027182756 -0.22649823 -0.073590964 0.0935694
000140 1b 09 ef bb 9e 42 6a 3d e5 a3 73 be 2f ab 43 bd
       -0.0072947866 0.057192437 -0.2379299 -0.047770675
000150 d6 f9 2c 3d e0 82 99 3d 88 3d 35 3c 11 09 02 bb
       0.04223045 0.074956656 0.0110620335 -0.001984183
000160 d0 70 03 3d 45 7a 26 3d 26 4e c4 3d 63 20 e3 3d
       0.03209001 0.04064395 0.09585218 0.11090162
000170 79 2f ac 3d 1e 55 5f be ba 55 1c be fb 83 04 3e
       0.08407492 -0.21809813 -0.15267077 0.12940972
000180 90 2b 42 be d6 29 4c 3e c9 67 88 3e 7c e7 08 3e
       -0.1896193 0.19937834 0.26641682 0.13369554
000190 4c 06 1c bc d7 94 15 3e f3 d2 12 be 8b 4f 26 3d
       -0.009522986 0.14607559 -0.14338283 0.0406032
0001a0 47 ff 76 be e4 95 26 3e 86 28 12 3e 6d c2 65 3e
       -0.24120818 0.16268116 0.14273271 0.22437449
0001b0 ed 62 ce 3d a1 7a e5 3d 56 b8 97 be 96 2b 68 bd
       0.10077462 0.1120503 -0.29632825 -0.05668219
0001c0 71 5c 56 3d 5b 85 94 3a 7a 2b 01 3e 84 ff 49 be
       0.052334253 0.0011331247 0.12614241 -0.19726378
0001d0 e3 8c 74 be 2c 58 b6 bc 58 c4 b3 bd 7b 8f 85 3d
       -0.23881869 -0.02225884 -0.08777684 0.06521507
0001e0 1c 1a 50 bd 08 c3 44 bd 17 a3 15 bc bb dc 61 bd
       -0.05080615 -0.04803756 -0.009133122 -0.055142146
0001f0 20 ae db ba 59 27 80 3d f2 43 06 3d 9a fe 09 3e
       -0.0016760267 0.06257505 0.03277964 0.13476029
000200 7d eb ff 3d 88 ad 93 3c 88 28 39 bd 01 d0 5b 3e
       0.12496088 0.018027082 -0.04520467 0.21466066
000210 76 ba 0d 3e a2 96 f7 bd a7 a8 bd bd 8b 59 27 be
       0.1384066 -0.12089278 -0.092606835 -0.16342752
000220 5c 5b ba 3d 48 cd d6 3d eb 51 07 3c 26 82 98 3d
       0.09099457 0.10488373 0.008259277 0.07446699
000230 4d 6d c8 3c 1a 97 51 3e c4 17 15 3e 88 35 2d bb
       0.024466181 0.20467797 0.14559847 -0.0026429612
000240 90 a4 67 be 3e ba 2c be f9 c5 a0 bc 47 41 91 bb
       -0.2262137 -0.16867921 -0.01962565 -0.0044328305
000250 53 87 3f 3e 33 45 6a 3d a1 e9 4e 3d ea 90 c2 bc
       0.18703966 0.0571949 0.050515775 -0.023750741
000260 3f c6 d9 bc 12 8c ba 3c 2a 84 16 be 45 98 d6 bd
       -0.026583789 0.022771869 -0.14698854 -0.10478262
000270 79 92 7e 3c 98 94 90 ba 9b 8c ab 3d 1e e5 aa bd
       0.0155378515 -0.0011030613 0.08376428 -0.08344482
000280 6e ef be bd 38 1f 8d bd 00 88 d6 3c 57 c3 ac 3c
       -0.09323011 -0.0689072 0.026187897 0.021089239
000290 5a 2c 66 3c 32 e9 b2 3d dc 64 18 3e b5 38 05 be
       0.01404866 0.08735885 0.14882225 -0.13009913
0002a0 17 c0 1d bd a4 93 82 bd 83 27 18 3e 6f e3 35 bd
       -0.03851327 -0.063758165 0.14858823 -0.04440635
0002b0 64 6d ae 3d 63 74 d8 bc c5 a3 47 ba 24 20 90 bd
       0.08516958 -0.026422685 -0.0007615651 -0.0703738
0002c0 73 4a bf 3c c2 1d 82 3d a2 ee e3 bc 99 52 c1 bd
       0.02335093 0.06353332 -0.02782375 -0.094395824
0002d0 16 c2 b5 bd e5 31 9a bd f6 37 81 bd 15 cb 31 3d
       -0.088749096 -0.07529048 -0.06309502 0.043406565
0002e0 07 4e 00 be ce be ee 3c d0 d6 2f 3d 7c b1 06 3e
       -0.12529765 0.029143717 0.04292947 0.13153642
0002f0 de 12 55 3d d5 cf 12 bd 7f f7 09 be cf 11 2c be
       0.052019946 -0.035842735 -0.13473319 -0.16803668
000300 e0 47 94 bd 64 2f 36 be 4a 92 0b 3d 14 10 1d 3c
       -0.072402716 -0.17791516 0.03407506 0.009586353
000310 0b 4f 62 be 68 1b 5e bd 59 ee 20 3e 0f a7 f3 bd
       -0.22100465 -0.054225355 0.15715922 -0.11897098
000320 a8 10 78 bd ea ad 53 3d 92 71 2c 3e b2 3a ea 3c
       -0.06056276 0.05167953 0.16840199 0.028592441
000330 c3 41 7a 3d a0 5a fc 3c 94 8f a8 bd 7f 87 22 bd
       0.06109787 0.030804932 -0.0823051 -0.03968
000340 31 39 e8 3d 35 33 76 be 40 27 5f be 16 5a e8 bd
       0.113390334 -0.24042971 -0.21792316 -0.113453075
000350 ed 7c 81 3e ba 85 cf bd 44 91 19 be ba 31 31 3e
       0.25290623 -0.10132928 -0.1499682 0.17304125
000360 93 9a 0b be 49 e7 89 3e b7 13 2d bd d1 b4 8a 3d
       -0.13633184 0.2693427 -0.04225513 0.06772769
000370 35 95 f2 bd 64 ee 5b 3c b2 ee 36 bd 5c ae b3 3d
       -0.11844865 0.013423536 -0.04466123 0.08773491
000380 56 a8 2e be fb 74 3d 3d d9 61 80 bd 8f c5 78 bd
       -0.17056403 0.04625414 -0.06268663 -0.06073528
000390 31 45 2c 3d 1c a7 45 3e c5 f2 f3 3d c9 86 24 3e
       0.042058174 0.19302028 0.11911539 0.16067041
0003a0 cc 3a a1 bd 7b 2b 9f bc 73 eb da bd d9 c6 2a 3d
       -0.07872543 -0.019429913 -0.106894396 0.041693542
0003b0 6c 11 c3 3d fc e4 30 bc cf 87 73 3d 66 46 d7 3d
       0.09524807 -0.010796782 0.05945569 0.10511474
0003c0 9d 09 0f 3e b8 ff 15 3d f0 43 c6 3d ac 23 bb 3c
       0.13968511 0.036620826 0.09680927 0.022844158
0003d0 a6 9b 92 bd ae c6 b3 bd cf 5a 4d 3e 95 86 d7 3d
       -0.07158594 -0.087781295 0.20054172 0.10523716
0003e0 e2 6d ef 3d 84 50 cf 3d b6 54 33 bd 9f 06 09 be
       0.1169088 0.10122779 -0.04378196 -0.13381432
0003f0 84 a9 0b be 1e a6 89 be 2e e6 ab bd 90 57 47 3d
       -0.13638884 -0.2688455 -0.08393513 0.04866749

fc1.bias f4 [32]
000000 3c 2a b0 3d fd a3 2a 3d 25 4d 4b 39 5d d7 66 3d
       0.086018056 0.041660298 0.00019388327 0.05635773
000010 cf 1a 92 3a c4 28 5a 3c 0b 2d 55 3d 94 5b 79 3b
       0.0011146906 0.013315383 0.05204491 0.003804897
000020 96 2a 76 3c 72 7b ef 3c ac 00 52 3d 50 b1 77 3b
       0.015024802 0.029233668 0.051270172 0.0037794895
000030 0b a7 13 3c c0 c9 8d 3b 2a f3 76 3b c6 81 2a bc
       0.009011994 0.004327029 0.0037681558 -0.010406917
000040 32 7f af 3b 04 16 79 bc 76 37 f4 3c 69 2f 4e bc
       0.005355739 -0.015203003 0.029811602 -0.012584546
000050 60 3c 61 3c b3 34 23 3c 6b 84 ff 3b d8 d1 5f bb
       0.013747305 0.009961295 0.007797768 -0.0034152176
000060 dd d1 32 3d cf de b5 bb b0 45 3f 3d e1 71 b4 3c
       0.043657172 -0.0055502425 0.04669732 0.022026958
000070 7d fe b4 3c 32 1b 68 3c 16 51 0d 3c b9 8f 2a bc
       0.022094006 0.01416664 0.008625289 -0.010410243

rnn.weight_ih f4 [96, 32]
000000 00 c6 e0 3d 45 6b a6 3c 9f fc 35 3e 7c 46 c6 bd
       0.109752655 0.020314822 0.17772149 -0.096814126
000010 45 db d0 bd 37 c0 63 be 51 ae 53 3d f9 12 bf b9
       -0.10198072 -0.22241293 0.051679913 -0.00036444495
000020 b7 76 d4 3c 05 e7 c5 3d 7d 04 b0 3d c6 97 0b 3e
       0.025935514 0.09663204 0.08594606 0.13632116
000030 31 6d 3d be 47 58 e2 38 85 ac 2c bd 07 2d 26 be
       -0.18498684 0.00010792963 -0.042156715 -0.16228114
000040 98 c9 31 bd 9d 9d b8 3d da 36 67 be 0f b4 1a bd
       -0.043405145 0.09014437 -0.22579518 -0.037769374
000050 53 d9 19 3d c1 76 40 3d 4d f6 9f 3d 69 f4 29 3d
       0.037560772 0.046988253 0.0781065 0.041492853
000060 e9 4b a2 3d 01 76 e8 bd 84 d5 f4 3a 2e 84 5b bd
       0.07924635 -0.113506325 0.0018679355 -0.053592853
000070 21 14 90 3b bf 2e c3 bc ef 6d e0 3d 91 ef 62 bd
       0.004396931 -0.023826001 0.10958468 -0.05540425
000080 c8 87 a9 bd 35 ea 89 be 7f ea ee 3d 07 56 50 3e
       -0.08277851 -0.26936498 0.1166582 0.20345317
000090 49 50 64 3c 1e 97 81 3c b6 e4 4d 3d 5e 81 30 be
       0.013935157 0.015819129 0.050266944 -0.1723685
0000a0 43 78 e7 bd 28 84 3d bd 9d 2f ae bd 0c c4 79 3d
       -0.11302235 -0.046268612 -0.08505175 0.06097798
0000b0 ea 98 63 be 65 6d 9f 3d c3 5a 81 be 7d 56 ce 3d
       -0.22226301 0.07784537 -0.25264558 0.1007509
0000c0 f4 87 ae 3d 41 fe 0b 3e d2 fc cc be 8c a3 63 3e
       0.08522025 0.13671209 -0.40036637 0.22230357
0000d0 61 b6 0b be db 54 93 3d ad 7b 2b 3e a5 d6 48 be
       -0.13643791 0.07193919 0.16746397 -0.1961313
0000e0 df 41 4b be ff 01 a9 bd 10 5f 02 be d3 0b 85 bd
       -0.19849347 -0.08252334 -0.12731576 -0.06496396
0000f0 9a 86 8a be 02 ac 1f bd 4e ba 8d bc 18 c9 a9 3b
       -0.27055818 -0.0389824 -0.017300751 0.005181443
000100 72 14 12 be 16 c9 f3 bd af 4c c8 3c 0d 8f 3a 3d
       -0.14265612 -0.119035885 0.024450628 0.04554658
000110 67 89 19 bd da 97 2e 3d c1 21 8a bd 99 96 4f bd
       -0.037484553 0.042625286 -0.06744719 -0.05068073
000120 84 bf 6b 3e 45 38 0f 3e 41 05 2f be b1 c4 9b bd
       0.23022276 0.13986309 -0.17091848 -0.07605875
000130 d3 4c 09 3d 8a 24 d9 3d 45 48 27 be 4e e5 bd 3c
       0.03352053 0.106026724 -0.16336162 0.02318063
000140 e3 46 c1 3d c3 42 01 bd 4e 2d dd 3b 58 35 59 3d
       0.09437349 -0.03155781 0.0067497855 0.05302939
000150 19 b5 cd bd 61 7c c7 3d 29 c5 83 3d 5a 32 56 3e
       -0.10044307 0.0974052 0.0643409 0.20917645
000160 19 37 1a 3e d6 28 74 3e e4 52 f3 3c 26 f7 c3 3d
       0.1506008 0.23843703 0.029702611 0.09568624
000170 8f 4c a9 bc c4 2a 3f be b5 3d e5 3d 47 df 16 3d
       -0.020666389 -0.18668658 0.1119341 0.036834028
000180 bf 0a 3b 3e a3 68 59 bd ed 83 d9 3d a3 b0 5f bd
       0.18265818 -0.053078305 0.10620866 -0.054611813
000190 87 54 b2 bd b8 93 91 3d 64 d0 8c 3b 73 de 2e 3e
       -0.087075286 0.07108253 0.004297303 0.17077045
0001a0 66 7f 74 3d 5a 23 01 bd f3 36 5e 3e 37 74 a6 bd
       0.05969181 -0.031527855 0.21700649 -0.08127635
0001b0 27 b0 3c 3e c2 0c 80 bd bf fd 17 3e 0d a0 04 3e
       0.18426572 -0.06252433 0.1484289 0.1295168
0001c0 7c 47 69 3d 18 3e 87 bd c0 e4 05 3e c3 fe 2b bd
       0.05695294 -0.0660364 0.13075542 -0.041991007
0001d0 11 22 21 3e 8d 81 91 bd 4f 54 eb 3d 3f 13 28 be
       0.15735652 -0.07104788 0.1149069 -0.16413592
0001e0 db 8c e1 3d 98 12 52 bc a1 ff 3e be ad 7d 4b 3c
       0.11013194 -0.012821816 -0.18652202 0.0124201
0001f0 39 30 25 be b9 47 91 bd d5 0d ef 3d f8 aa 12 3e
       -0.16131677 -0.07093758 0.1167256 0.14323032
000200 54 e0 16 3e 92 79 e8 3d d8 d0 44 3d d2 a4 aa 3d
       0.14734012 0.11351313 0.04805073 0.08332218
000210 c5 59 4e 3d 2b 48 70 be f2 de 02 be 65 b5 2b 3d
       0.05037858 -0.2346503 -0.1278036 0.04192104
000220 71 eb 20 be 1d 6c 4b 3e a2 a1 d7 3d a5 f2 cc bc
       -0.15714814 0.1986546 0.10528876 -0.025018046
000230 1e 20 33 be 1b a0 09 3d fe 97 01 3e 78 e8 1b 3e
       -0.1749272 0.033599954 0.12655637 0.15225399
000240 45 e5 4d bd 4e e9 df 3d c1 57 b2 bd 8f 35 5c 3e
       -0.050267477 0.10933171 -0.08708144 0.21504806
000250 ee 79 a9 3d ef 38 5b 3e d6 f1 1e 3e 5c 73 06 3e
       0.08275209 0.21408437 0.1552194 0.13129944
000260 9d 3c 01 3e 48 44 a1 bd 12 ea 7b bd a3 b5 ae bd
       0.12620778 -0.07874352 -0.061502524 -0.08530738
000270 61 d4 07 bb cf 00 82 3d 38 dd 08 3e 85 48 1d 3e
       -0.0020725953 0.063478105 0.13365638 0.15359695
000280 cf 5f 6c 3d 32 97 3e be 87 00 d8 3d 57 10 4a bd
       0.057708558 -0.18612364 0.105469756 -0.04933199
000290 fc 1a 64 3e c0 58 3e bd fc fd b2 3d a0 87 c0 3c
       0.22275919 -0.046471357 0.0873985 0.023502171
0002a0 dd 5a 1e 3c a0 9a 80 bd 9b 8f ab bd b3 5c 13 be
       0.009665218 -0.062794924 -0.08377 -0.1439083
0002b0 45 10 2f bd d9 61 81 be 0a ee be bd 31 03 58 bd
       -0.042740125 -0.25269964 -0.09322746 -0.05273742
0002c0 c2 9e 5f be d4 14 f4 bc 21 87 e8 bc d0 d8 3f 3e
       -0.21837905 -0.029795088 -0.028384747 0.18735051
0002d0 29 c8 9c bc 60 65 a9 3d e2 81 89 3d c1 77 c9 3d
       -0.019138413 0.08271289 0.06714226 0.09837294
0002e0 92 f6 14 be 6b 78 69 3e d8 c2 04 be 51 e3 45 3e
       -0.14547184 0.22799842 -0.12964952 0.19324996
0002f0 ea 7d 32 be 95 99 0f bd 69 48 e9 bd b8 fa 10 be
       -0.17430845 -0.035058577 -0.11390764 -0.14158142
000300 d1 5d d2 bd 14 37 46 3e 35 c9 0d be 88 a5 12 3e
       -0.102718 0.19356948 -0.13846286 0.14320958
000310 2e 3b 25 be 58 46 9e bd 11 ba c7 bc 5f 23 81 bd
       -0.16135857 -0.07728261 -0.024380716 -0.063055746
000320 8b f8 16 bd ba 77 03 3e 71 94 54 3d 3b 3d 4c bd
       -0.036858123 0.12838641 0.051899377 -0.04986308
000330 24 f0 5f 3e 6d 77 bc bc 07 6f 53 be 74 b4 21 3d
       0.2186895 -0.023006165 -0.20647822 0.039478734
000340 37 4b f7 3d ee 79 33 be e6 44 42 bd 13 92 07 3e
       0.12074893 -0.17526981 -0.047428988 0.13239317
000350 00 6b 4c bd 4d e0 09 be a2 92 af 3d be dd be bd
       -0.04990673 -0.1346447 0.0857289 -0.09319638
000360 f7 52 58 3e 01 56 cf 3d ef 21 f4 3d a9 dc 0c be
       0.21125399 0.10123826 0.11920535 -0.1375605
000370 dc 63 c7 3d 9d d1 84 3d bb a6 cf bd 33 4b 4c be
       0.097358435 0.06485293 -0.10139223 -0.19950561
000380 b5 56 86 bd c2 3d 32 3e 7d 33 c9 bb a0 c8 06 be
       -0.06559507 0.17406371 -0.006140171 -0.1316247
000390 88 9c 26 be 99 49 5d 3e a1 cc 66 3d 3f d4 13 be
       -0.1627065 0.21610107 0.056347493 -0.14436434
0003a0 01 90 76 3d ed 94 c6 3d 04 23 52 bd a3 60 b1 3d
       0.060195927 0.09696374 -0.051302925 0.0866101
0003b0 10 a6 6e 3e fe 23 7a bd 03 d3 2f bd 6c 6a 48 be
       0.23305535 -0.06106948 -0.042925846 -0.19571847
0003c0 8a 64 e8 3d 0a 61 54 3a 5d 78 7d bd a2 8a 3b be
       0.11347301 0.0008101618 -0.061882365 -0.18314603
0003d0 da 96 1a be c7 1d fd bd 92 9e 37 be 6e 86 d4 bd
       -0.15096608 -0.12359195 -0.17931584 -0.10377203
0003e0 86 53 d6 3d f2 6a 81 bd aa 9b 3f bc 4b 79 f5 3d
       0.104651496 -0.06319226 -0.011694828 0.119860254
0003f0 68 05 44 3e 77 6b ce bd f7 c8 db bd f2 28 56 be
       0.19142687 -0.10079091 -0.107316904 -0.20914057

rnn.weight_hh f4 [96, 32]
000000 6e f3 17 be f4 7a 97 3d f1 69 0c bd 8a 89 3f bd
       -0.14838955 0.07396498 -0.03428072 -0.046762027
000010 ca 88 27 3e a6 d3 f7 3d 40 8c d4 3c df b5 05 3e
       0.16360775 0.121009156 0.025945783 0.1305766
000020 60 19 14 be 3e a8 1c 3e 5a 9d 05 3e 6f 94 42 bc
       -0.14462805 0.15298554 0.13048306 -0.01187621
000030 e9 07 8e bd b5 ef fb bd b1 fd 5b bd 12 eb 2c 3e
       -0.069351025 -0.1230158 -0.053708736 0.16886547
000040 8c f3 8c bd df e1 1b be 14 14 88 bd 20 12 d2 bd
       -0.068823904 -0.15222882 -0.066444546 -0.10257363
000050 89 c3 4e 3c 74 8e d2 3d dc 8a 0d 3e e1 a3 45 be
       0.012619861 0.10281077 0.13822502 -0.19300796
000060 78 81 00 3e 9d ec 1b 3e 32 c9 e6 bd a6 b1 19 be
       0.12549388 0.1522698 -0.11268844 -0.15009174
000070 12 b3 05 be af 99 61 bc e3 d3 b9 bc 5d 25 cd bd
       -0.13056591 -0.013769551 -0.022684043 -0.10016892
000080 91 30 ea 3d d6 37 86 bd ed f0 97 be 09 0a f1 bc
       0.114350446 -0.065536186 -0.29676 -0.02942373
000090 60 13 46 be e3 1e 27 be 54 bd 67 bd 95 07 42 be
       -0.19343328 -0.16320376 -0.05657704 -0.18948205
0000a0 d6 62 ab bd 39 62 5d 3b 9a bd a7 3c cb 77 29 3e
       -0.08368461 0.003378047 0.020476151 0.16549604
0000b0 d8 b3 de bd 3b 98 c2 3d 00 de eb 3d 4a 69 f3 3d
       -0.10874146 0.09501692 0.115169525 0.11885317
0000c0 e4 00 ce 3b b3 4d 72 be 08 d8 46 bd a0 06 f1 bd
       0.0062867273 -0.23662452 -0.048545867 -0.11768842
0000d0 91 5d 85 3c 28 33 92 3d cc 08 63 3e 3e 1a 6c bd
       0.016279968 0.071386635 0.22171324 -0.057642214
0000e0 5c 85 50 bd 83 39 f9 3d 4a 6d f5 bd 71 c2 1f be
       -0.05090843 0.121691726 -0.11983736 -0.15601517
0000f0 97 0d 72 3d b1 9e 9b be 56 01 82 3d 77 5a 04 3e
       0.05909499 -0.3039451 0.06347911 0.12925135
000100 9c 03 05 be c3 24 3c 3e 5e 55 9c bc a6 75 22 3e
       -0.12989658 0.18373398 -0.019083675 0.15865192
000110 63 9b 1c be 86 60 5f 3e 5a c8 b1 bd 05 a3 0a be
       -0.1529365 0.21814165 -0.08680792 -0.1353875
000120 6a d7 43 3e 26 bf 01 be 4c 1b f4 bd 87 f7 92 3c
       0.19125143 -0.12670574 -0.11919269 0.017940296
000130 5f c2 35 3e 08 98 00 3d af 24 0b be 28 bf 30 3c
       0.17749928 0.03139499 -0.13588212 0.010787763
000140 43 05 10 bd 54 1d 9f 3d cb 00 4e 3c b0 8c 3a 3d
       -0.035161268 0.07769266 0.012573431 0.045544326
000150 03 57 d7 3c a7 24 c4 bc 6c ec 1d 3e e6 11 ad 3d
       0.026286608 -0.023943258 0.15422219 0.084506795
000160 47 7a ee 3d d3 59 da 3d c0 1b 13 3c e7 9f 68 3b
       0.11644416 0.10661664 0.008978784 0.00354957
000170 f6 53 aa bc de bc 23 3e d2 0e fe ba c6 34 ed bd
       -0.020791989 0.15990016 -0.0019383079 -0.11582331
000180 5e f6 f7 bd 4a 8f 92 bd 82 8a e5 3d 01 2a 67 bd
       -0.12107538 -0.071562365 0.11208059 -0.056436542
000190 95 5b 0a bd 73 fe a8 3c 2c 0f bb bd 3d fd 59 be
       -0.033778746 0.020629143 -0.09133753 -0.21288009
0001a0 42 e7 00 3e f9 83 a1 bd f4 44 f8 3c a1 4a 85 3d
       0.12588218 -0.078865 0.030306317 0.06508375
0001b0 a7 13 cb 3d a9 fe 44 3c cc 66 3a 3d c4 76 33 be
       0.09915858 0.012023606 0.04550819 -0.17525774
0001c0 06 0e 2a 3e 8d 63 2f be 83 da 9a bc fa d5 33 3e
       0.16606912 -0.1712782 -0.018903023 0.17562094
0001d0 40 3d f4 3d 06 87 7e 3d 9c b3 fd 3d fd 27 f2 bd
       0.11925745 0.062140487 0.123877734 -0.118240334
0001e0 a1 25 d2 3d 8a 7b bb 3d 80 9d 56 3d 28 00 fa 3d
       0.102610834 0.091544226 0.052396297 0.12207061
0001f0 0c e4 92 bc 60 65 20 bd 2c 63 2b 3e 3f cf 8a bc
       -0.017931007 -0.03915918 0.1673705 -0.016944526
000200 d0 e9 4d 3d 5b 76 e8 bd 80 39 95 bc 9f f4 02 be
       0.05027181 -0.113506995 -0.018215895 -0.12788628
000210 03 57 9e bd b8 84 2a 3e f1 1e b8 bd cf a0 ca b9
       -0.0773144 0.1665219 -0.089902766 -0.00038648254
000220 52 34 f8 3d ab a8 ad ba f3 e5 88 3d 93 5d b5 bd
       0.12119354 -0.001324912 0.06684484 -0.088557385
000230 c6 cb 29 3e f6 a4 36 ba 9a a7 4f 3e 6b 05 19 3e
       0.1658164 -0.000696733 0.20278779 0.14943473
000240 7a 96 28 3e f4 ce 4f be 0d 6d 03 bc 64 0c 08 3e
       0.16463652 -0.2029379 -0.008021605 0.13285977
000250 05 b0 9d bd c5 31 90 bd 63 ba fe 3d 5d 41 96 be
       -0.07699589 -0.07040743 0.12437894 -0.29346743
000260 4d 06 bb 3d 0b d4 1c be 90 4e 3c be 6c 63 af 3d
       0.09132061 -0.15315263 -0.18389344 0.08563885
000270 ea 03 00 3e 48 41 09 be b4 6a 0e 3e cf 7f c5 bd
       0.12501493 -0.13403809 0.13907892 -0.09643518
000280 a0 fb 1e 3d 4e 3b e6 bc 61 3c d6 3d 7d ad a8 bd
       0.038814187 -0.02810445 0.10460735 -0.08236215
000290 9c bc b7 bd 5a ba 11 be 70 1e 5f bd 78 2e 4c be
       -0.08971521 -0.14231244 -0.054472387 -0.19939601
0002a0 27 48 26 3c fa 17 e8 bd 5a 31 96 bd cb a6 b8 bc
       0.010149038 -0.11332698 -0.07333632 -0.02254047
0002b0 ea d8 6a 3e 49 5c 68 bd 25 d1 87 3d 83 c3 9b 3d
       0.22934309 -0.056728635 0.06631688 0.0760565
0002c0 9e 0e f3 3d 5e 54 0d be ed f3 97 3c 07 2f a0 3c
       0.118680224 -0.13801715 0.01854893 0.019553674
0002d0 ed 2b 00 be 41 d7 f2 bd d0 ef 9a bd b6 ad a4 3c
       -0.12516756 -0.11857463 -0.07565272 0.020102363
0002e0 27 a4 03 3e dd d5 07 3e 8e 29 c1 bd 19 92 d7 3d
       0.12855588 0.13265176 -0.09431754 0.10525913
0002f0 2b 3a 25 be 41 b4 32 be b3 2d 25 be 2f f5 5e bd
       -0.1613547 -0.17451574 -0.16130714 -0.054433044
000300 02 a7 f5 bc 10 cc 13 3e 8c 76 ad bd 3c 59 ae bd
       -0.029986862 0.14433312 -0.08469877 -0.08513114
000310 97 e6 0e bd f1 38 28 3e 52 dd c0 bd 36 f3 e2 3d
       -0.034887876 0.16427971 -0.094172135 0.11081545
000320 0b 9f 89 3d 95 b4 91 bc 7f 12 3d 3d b1 bb 77 3c
       0.06719788 -0.017786304 0.046160217 0.015120433
000330 3d 0d 20 be 57 31 e6 3a d7 11 ca 3d 88 68 25 bd
       -0.1563005 0.0017562312 0.09866684 -0.040382892
000340 26 43 b7 bd a4 00 0f be c8 61 15 bc e0 dd a2 bb
       -0.089483544 -0.13965088 -0.009117551 -0.004970297
000350 c6 cb a9 3d 04 1f b2 bb b9 60 71 3d 54 0b ee bd
       0.0829082 -0.0054358263 0.058930133 -0.116232544
000360 f9 9c 37 3d 16 a1 f9 3c a4 1d de bd 4e bb 73 bd
       0.044827435 0.03047232 -0.10845497 -0.0595048
000370 6d e4 bf bd 2a 6a e9 3d ea 33 2e 3e 2a af ba 3c
       -0.09369741 0.11397202 0.17011991 0.022788603
000380 df 28 98 bd 1c d1 a0 bd 7c 5f 82 3e 8a fe 9b 3d
       -0.074296705 -0.078523844 0.25463474 0.07616909
000390 43 66 77 3d a2 02 f8 bd fb c6 16 3d 9b ad 6b 3d
       0.06040026 -0.12109877 0.036810856 0.05753861
0003a0 51 ba 3f 3e 56 49 31 3d 0b a0 d8 3d cc 2f 3b be
       0.18723418 0.04328283 0.10577401 -0.18279952
0003b0 53 ba e2 bc 5d ad 74 3d f1 0c 1e be e1 82 10 be
       -0.027676737 0.059735645 -0.15434624 -0.14112426
0003c0 74 a6 47 be e9 68 1a 3e ba 31 5b bd 54 84 03 be
       -0.1949709 0.15079083 -0.05351422 -0.12843448
0003d0 86 f9 8f bd a8 fe a0 3d e2 bb e3 bd c5 2e 3c 3d
       -0.07030015 0.07861072 -0.1111982 0.04594304
0003e0 a8 63 36 bd 02 08 45 3d 22 e6 2a be 4b 8c a1 bc
       -0.044528633 0.04810334 -0.16689351 -0.019720217
0003f0 0b 82 43 3e 50 e5 0e bd be 9d 22 bc 3d 35 31 3d
       0.19092576 -0.03488666 -0.009925304 0.043263663

rnn.bias_ih f4 [96]
000000 de ef 34 be e1 15 48 3c b6 e6 00 3e 4e 75 cd bd
       -0.17669627 0.012212248 0.12588009 -0.1003214
000010 05 b4 27 3e 56 c7 a0 3d 61 23 dc 3c cb 74 8a bd
       0.16377266 0.0785052 0.026872339 -0.06760558
000020 16 b5 13 be 11 97 c9 3d f0 6e 48 3c bf d4 a4 3d
       -0.14424548 0.09843267 0.012233481 0.080483906
000030 24 b2 37 bd 47 e3 ae bd 2e a9 ad 3c fa 0a c3 bd
       -0.044847623 -0.085394435 0.021198835 -0.09523578
000040 b3 9e 2f 3e 10 4f 1e 3e 1c 13 11 3e 8f b1 2a bd
       0.17150383 0.15459847 0.14167446 -0.04167324
000050 df c9 ad bd 9e 33 39 3e d8 c1 26 3e d3 da 2d 3d
       -0.084857695 0.18086097 0.16284883 0.042445015
000060 d3 e4 eb 3c fe 20 90 bc d6 8e c6 3c 69 87 99 bd
       0.028795635 -0.017593857 0.024238031 -0.074965306
000070 32 4a cd 3d 01 c7 d0 bd 0b 4e 38 bd 3e 0f 66 bd
       0.10023917 -0.10194207 -0.044996303 -0.05616688
000080 e9 47 17 be e6 c9 62 bc 94 fc 9c 3c 26 5e 0a be
       -0.14773525 -0.013842082 0.019163407 -0.13512477
000090 f7 25 a9 bd 3e 05 cd bd bc dd d8 3c 21 65 05 3e
       -0.08259194 -0.100107655 0.026472919 0.13026859
0000a0 d1 bb c2 bd a4 1c 8b 3d 73 a9 8b bb ba 01 5a 3d
       -0.095084794 0.06792572 -0.0042621433 0.053224303
0000b0 62 eb 66 bd ed 3d 4c 3e e0 c8 ac 3d 6e 1d 8f 3b
       -0.056376822 0.19945498 0.08436751 0.004367522
0000c0 80 f5 24 3c e6 71 79 be af 4f df 3d b9 b5 0b bd
       0.010068297 -0.24359855 0.1090387 -0.03410885
0000d0 07 74 85 bd 63 87 11 be 8e c5 f8 3c 0a 10 c7 3d
       -0.06516271 -0.14211802 0.030367639 0.09719856
0000e0 e8 1d 45 be b9 f0 15 bd 8c 3d 99 be 09 e1 08 3d
       -0.1924969 -0.036606524 -0.2992977 0.033417735
0000f0 ef af 80 3d f0 11 ed 3c c1 35 36 bd a3 a1 88 3d
       0.06283557 0.028939217 -0.044484857 0.06671455
000100 5a 15 cc bd 7e 9d 04 be 82 02 9e 3c 34 9a 90 3d
       -0.0996501 -0.12950704 0.019288305 0.07060662
000110 55 37 fc 3d 7a 19 05 3d 39 ea bc bc 4a c7 03 be
       0.12315241 0.032495 -0.023060905 -0.12868991
000120 81 69 16 3e e7 cf 80 bd 29 3a 4b bd ee 0e 11 3e
       0.14688684 -0.06289654 -0.049616013 0.14165851
000130 73 05 e4 bd fc e3 2a 3e 21 53 02 be 14 e5 19 bc
       -0.11133852 0.16688532 -0.12727024 -0.009392995
000140 37 9f 3c 3e 47 d8 be bd 20 d5 fa 3d 14 30 ca 3d
       0.1842011 -0.093185954 0.122476816 0.098724514
000150 d5 fd 41 be c7 2a 7f 3d 89 6e 36 3e ec 78 31 3e
       -0.18944485 0.062296655 0.17815603 0.17331284
000160 b0 29 c5 bd 7c 18 21 bd ab ff 29 3e 47 1d 0e 3e
       -0.09627092 -0.03932999 0.16601436 0.13878356
000170 3a 4e bb bd 1e bf 29 3e 1e 62 40 bb e9 84 db bd
       -0.0914578 0.16576812 -0.0029355357 -0.1071871

rnn.bias_hh f4 [96]
000000 d6 19 31 be 10 5d 1a be d5 4a 55 bd 25 cc c5 bd
       -0.17295012 -0.15074563 -0.05207332 -0.09658078
000010 6c 80 f8 bd 3f aa 1e be 83 4d be bc 64 e6 30 be
       -0.121338695 -0.15494631 -0.02323032 -0.17275387
000020 d6 78 aa 3d 57 6e 2f bd ce df 20 3e 1e f7 3d be
       0.08323829 -0.042829838 0.15710375 -0.18551299
000030 d2 60 56 bc 18 ec 26 3e 23 a5 2e 3c c9 9c 2f be
       -0.013084607 0.16301 0.010659489 -0.17149653
000040 5d b0 c7 bd 3c 8a d2 3c 4c 6d 62 bd 0e 90 a2 bc
       -0.097504355 0.02570068 -0.055280015 -0.019844081
000050 a6 bb 5c 3d c0 c8 49 3d a1 d0 86 bd e1 1d c4 3d
       0.053889893 0.049263716 -0.065827616 0.095760114
000060 26 52 0c bd 4c 93 12 be 59 97 36 3e 9d a2 1c be
       -0.03425803 -0.14314002 0.17831172 -0.15296407
000070 fc 5e 6f bd 5f 2e bf 3d 90 4f a3 3d a0 12 bf bc
       -0.058440194 0.093350165 0.0797416 -0.02332431
000080 0c 7a 25 3d 41 2d a0 3c ab e4 ec bd 3d e9 10 bb
       0.040399596 0.019552829 -0.115670525 -0.0022111677
000090 7e a6 47 be 9b e2 b4 bd f0 07 6d bd 85 45 89 bd
       -0.19497105 -0.08832284 -0.057868898 -0.06702713
0000a0 b2 30 00 3e 7b 14 28 be 99 dc 82 bb a8 78 ef bc
       0.12518576 -0.16414063 -0.0039935824 -0.029232338
0000b0 29 e1 56 be a1 69 c1 3d 8c 36 e4 3c 05 4b 43 3d
       -0.2098433 0.09443975 0.027858041 0.047678966
0000c0 de 27 34 3d 5a 60 08 be 4c 3f d7 bd d2 8f 60 be
       0.043983333 -0.13318005 -0.1051012 -0.21929863
0000d0 a7 3a 9e bd 6c 94 58 be 4c 25 8b bd 47 89 0e 3e
       -0.07726031 -0.21150368 -0.06794223 0.13919555
0000e0 cd 4e 3b bd 81 d9 ce 3d 86 11 07 be e7 e5 76 bc
       -0.045729447 0.10100079 -0.13190278 -0.015069461
0000f0 91 cc 70 be e1 43 b8 3d 30 48 08 be 2b 43 0c be
       -0.23515536 0.08997322 -0.13308787 -0.13697498
000100 b3 01 29 bd 6f 0a ea 3c ba 7b 54 3e 14 61 37 3e
       -0.041261386 0.028569428 0.20750323 0.17908126
000110 ae 1e 1b be f1 f5 c7 bc d5 9c d0 3d ff 91 f7 bd
       -0.15148422 -0.024409266 0.10186163 -0.120883934
000120 31 94 c2 3d c0 ef 24 bd f1 df e1 3d e3 fe e9 3d
       0.095009215 -0.040267706 0.110290416 0.11425569
000130 fe ad 9c bd bd 1a ed 3d 5a df c3 bc 62 2f cc 3d
       -0.07650374 0.115773655 -0.023910213 0.09969975
000140 91 67 04 3c 60 68 99 bd 06 0f af bd 5c c7 7b 3d
       0.008081333 -0.07490611 -0.08547787 0.06146942
000150 1f 5a 85 3d 55 70 48 3d b7 d3 90 bd b8 47 58 3c
       0.0651133 0.048935253 -0.070716314 0.013200693
000160 1d 26 28 be ad 1e f8 bd e1 ce 1a bd 7e 60 d0 bd
       -0.16420789 -0.12115226 -0.03779495 -0.101746544
000170 9e a3 f0 bd d5 e2 17 3e d9 b0 69 3d e1 a8 1b be
       -0.117499575 0.14832623 0.05705342 -0.15201141

fc2.weight f4 [6, 32]
000000 70 f6 af 3d 28 aa 05 bd 43 fe eb bd a0 89 ba 3d
       0.08591926 -0.032632977 -0.11523106 0.09108281
000010 19 4a 7c 3e 36 88 47 3e 99 48 b3 bd e7 76 08 3e
       0.24637641 0.19485554 -0.08754081 0.13326608
000020 c7 18 54 be b6 26 9b bd 0c 36 00 3e 51 b3 90 3e
       -0.20712577 -0.07575743 0.12520617 0.28261808
000030 1a 16 c9 3d a3 37 62 3e 40 24 72 3a 60 29 03 3e
       0.09818669 0.22091536 0.0009236969 0.12808752
000040 35 ea 3b 3d a1 f2 85 3c d8 bd 00 3b b2 20 8c 3e
       0.045877654 0.016351046 0.0019644406 0.27368695
000050 f7 9c 8e be 3a 64 8e 3e 3a e5 47 3d 76 e5 bf 3e
       -0.2785413 0.27810842 0.04880259 0.37479752
000060 f7 d8 38 be 5c 00 21 be 7f d1 47 be 15 ac 3a 3e
       -0.18051516 -0.15722793 -0.1951351 0.18229707
000070 d1 1c 45 bd 51 72 e1 bd e6 58 5b 3d 40 84 d7 be
       -0.048123185 -0.11008132 0.053551577 -0.42093086
000080 3d d9 66 3c bb f8 b8 bd d7 3f 78 3d 77 b6 03 3e
       0.01408988 -0.090318166 0.060607757 0.12862574
000090 5c 00 e8 bc 19 48 59 3e b3 79 8f bd 53 b8 0d 3e
       -0.028320484 0.2121891 -0.07005634 0.13839845
0000a0 55 4c 09 be a9 e0 84 3e 7a d3 d9 bd 95 e8 1a be
       -0.13408025 0.25952652 -0.10636039 -0.15127786
0000b0 1f 30 04 be ed 35 91 bd ac 8e f7 3d 36 54 c5 bc
       -0.12908982 -0.07090364 0.120877594 -0.024088006
0000c0 3d fd 1e 3d ab ca b6 3c d4 a3 90 bd fe 55 80 3e
       0.038815726 0.022313436 -0.07062498 0.25065607
0000d0 81 ac 5d be 90 ac 63 3d 22 e4 bd 3d bc 44 9a 3e
       -0.21647836 0.05558449 0.092720285 0.30130565
0000e0 b9 54 73 be f0 75 83 3e a5 60 b7 3d f5 49 97 be
       -0.23762788 0.25675917 0.0895398 -0.29548612
0000f0 a6 b7 29 3e 6e ec da 3e 86 f6 61 bd a9 ba 58 3e
       0.16573963 0.42758507 -0.055166744 0.21164955
000100 6f 57 3b 3c 8c 36 c6 3d dd d4 65 3d ec ae 35 3e
       0.01143442 0.09678373 0.056111205 0.17742509
000110 8e b5 b9 bd d4 20 3f be 09 97 81 be e3 3b 88 3e
       -0.09067832 -0.18664867 -0.25310543 0.2660819
000120 fd 7b 2e be 43 53 51 3d 6c 66 18 be bc d7 ef bc
       -0.17039485 0.051104795 -0.14882821 -0.029277675
000130 d0 e6 1a bd bb 2c 86 bd 20 25 d2 3e 12 91 2e 3e
       -0.037817776 -0.065515004 0.4104395 0.17047527
000140 ea 6e b0 be b7 95 ca 3e 12 4d 07 bd ce 87 42 be
       -0.3445962 0.39567348 -0.033032484 -0.18997118
000150 81 c7 26 be 1a 07 36 bd 8b 99 14 3e a3 38 a8 be
       -0.16287042 -0.044440366 0.14511697 -0.3285571
000160 46 fa 9e 3c 31 27 5b be e7 68 21 3e 16 77 b7 bd
       0.019406449 -0.21401669 0.15762673 -0.08958261
000170 b4 96 fa 3d f0 8b db 3c 9a b3 19 be 1c b0 65 be
       0.122357756 0.026800126 -0.15009919 -0.22430462
000180 e0 cf c0 3e 78 a3 2e 3e 65 d5 8d 3e b3 a6 3c 3e
       0.37658596 0.17054546 0.2770187 0.18422966
000190 9e ab 93 bd b8 ad 04 be 16 3d a1 3e fb 7d 0c be
       -0.07210468 -0.12956893 0.31491917 -0.13719933
0001a0 39 e1 3e 3e 4a 10 86 3e 23 9b 34 be 63 c8 82 be
       0.18640603 0.26184303 -0.17637305 -0.25543508
0001b0 3c fd 6e 3e 6c 53 37 be 5f d9 6f 3a 32 65 59 3d
       0.23338789 -0.17902917 0.0009149517 0.053075023
0001c0 ee 60 14 3e ea 88 72 3d 3c ea 9c 3e 6f be cf 3d
       0.144901 0.059212603 0.30647457 0.10143744
0001d0 e1 7f 84 be c8 c7 06 3d 09 1b e1 bd 11 9a 8d 3d
       -0.25878814 0.03290537 -0.10991485 0.069141515
0001e0 b2 5e 72 3d 7f a7 a7 bd bc c3 04 3e a2 4d 6e 3e
       0.05917234 -0.08186244 0.12965292 0.23271802
0001f0 70 aa 6a 3d f4 23 e6 bd 2b 7a 30 be a4 3a 04 be
       0.057291448 -0.11237326 -0.17234103 -0.12912995
000200 e1 23 26 3c 14 aa 1b be a5 4d f1 3e 42 44 32 be
       0.01014039 -0.15201598 0.4712955 -0.17408851
000210 af 4a f0 bd 0a d5 ae bd 55 f0 b4 bd e2 7d 9d bd
       -0.11732995 -0.08536728 -0.08834902 -0.07690026
000220 cc 5d 71 bc f5 a9 86 be f8 66 81 be 53 01 6e 3e
       -0.014731836 -0.26301542 -0.2527387 0.23242693
000230 06 0d e9 3c cc ec 7c 3d 34 96 c2 3d d5 f6 2e be
       0.028448593 0.061749265 0.09501305 -0.17086346
000240 3e 13 a4 3d 9c 3e 36 bd d6 9b b0 bc 68 d2 87 3e
       0.08011483 -0.044493303 -0.021558683 0.26527715
000250 18 74 78 3e 2d 64 7c be 4f 11 56 3e 80 22 a8 3d
       0.24263036 -0.24647589 0.2090504 0.08209705
000260 81 cd 7b bc bc b0 c8 bd 47 54 88 be 1d e8 83 3e
       -0.01536882 -0.097993344 -0.266268 0.25763026
000270 2f 61 9c 3e 2e 6c 81 3e 7b c1 10 be 6d 3c 93 bd
       0.30542895 0.25277847 -0.14136307 -0.0718926
000280 23 57 93 bd 78 81 cb be 1f 06 cd 3e 57 54 18 3e
       -0.071943544 -0.39747214 0.40043733 0.14875923
000290 65 f7 32 3c 2e 49 41 3e 6a b6 d2 3d 26 a9 70 bd
       0.010923241 0.18875572 0.10288699 -0.058755063
0002a0 bf 6d b2 be c8 af 25 bd c1 86 6a bd b9 5a 92 3d
       -0.34849355 -0.04045084 -0.057257418 0.0714621
0002b0 23 da ae 3e a8 59 3d 3d 98 d0 35 3d 2e 45 a1 bd
       0.341508 0.04622808 0.044388384 -0.07874523
0002c0 72 d5 0d 3d 37 42 be be 74 15 76 be 8a 7b dd 3d
       0.034627385 -0.37159893 -0.24031621 0.10814579
0002d0 47 40 76 be 4a f6 c7 be 15 a1 9f 3e 57 31 57 bd
       -0.24047957 -0.3905509 0.31177583 -0.05253729
0002e0 f2 bd a9 bc a0 53 bf bd db 0a c4 bc a8 ab 04 be
       -0.020720456 -0.09342122 -0.023930958 -0.12956107
0002f0 64 23 25 be c2 21 b3 be c4 36 60 3e 0a 01 34 bd
       -0.16126782 -0.34986693 0.21895891 -0.043946303

fc2.bias f4 [6]
000000 1b 3a e4 3b 19 eb 01 3b 4f 88 92 3c 86 28 13 3c
       0.0069649345 0.0019823967 0.017887263 0.0089818295
000010 54 cf ca 3c f4 5f 1c 3d
       0.024757065 0.038177446
