results/alpha_0.0/agent_1000.pt (torch, 43191 bytes, 8 tensors)

fc1.weight f4 [32, 104]
000000 15 d3 67 be 75 25 4d 3e 1e e1 50 3e b2 bf 62 3e
       -0.22639115 0.2003382 0.20398375 0.22143438
000010 e6 5a 98 3e 2b 7b af be 03 38 89 be fd 6e 84 3d
       0.2975685 -0.34273657 -0.26800546 0.06466482
000020 42 f0 62 3d ef c4 17 3e f0 12 d0 3c f7 fb a4 bd
       0.05540491 0.14821218 0.025399655 -0.08055871
000030 99 fe b1 bd 0d d8 5f 3e 73 bd 49 bd 3c 27 33 bd
       -0.08691139 0.2185976 -0.04925294 -0.04373859
000040 cf 8c ce bd 36 4d 9b 3d 9a 3d d4 3d 9c 40 aa bd
       -0.10085451 0.07583086 0.10363312 -0.083131045
000050 1b 55 21 3e c5 d2 9d bd 5c 79 e9 bd 04 9f 97 3d
       0.15755121 -0.07706217 -0.114001006 0.07403377
000060 e7 b5 db bd 7e e6 1a 3e 1e 23 5c be 75 f6 6d be
       -0.107280545 0.15126988 -0.21497771 -0.23238547
000070 6b ee 1c be 7c 8f ac 3c 57 11 7a bd 84 88 1a bd
       -0.15325324 0.021064512 -0.061051693 -0.037727848
000080 fc f2 23 be 99 1d a1 3b e0 a6 d5 3d 5f 5f 14 bd
       -0.1601066 0.0049168584 0.104322195 -0.036223765
000090 d2 ba dd 3d 59 78 84 3e d0 d6 05 3b 5a 97 2a bd
       0.10826649 0.25873068 0.0020422228 -0.041648246
0000a0 d2 0f 28 bd f8 53 4a 3b 21 05 ef bb e5 77 70 3e
       -0.041030712 0.0030872803 -0.0072943126 0.23483236
0000b0 b1 10 5c be d0 f8 77 3c 4b 83 9a 3d 9b d5 df 3d
       -0.21490742 0.015135005 0.075445734 0.10929414
0000c0 69 04 31 3d bd 62 dc 3d 7a cf 6c 3d 7e 2a 7a 3c
       0.043217096 0.1076102 0.057815053 0.01526892
0000d0 c6 44 83 3d ff 31 bc 3d c2 5d 7d bd 16 af 80 3d
       0.06409602 0.091892235 -0.061856993 0.06283395
0000e0 69 c2 8e bc f9 af 02 bd c8 b1 ce bd 37 fc bb 3b
       -0.017426686 -0.0319061 -0.10092503 0.0057368535
0000f0 0f 24 55 3d 67 f1 b9 bd e6 23 2c bd d0 d5 17 bc
       0.05203634 -0.09079247 -0.042026423 -0.0092672855
000100 42 1f c0 3d 2d af e0 3d 0f c4 a3 3e 6a 48 08 3d
       0.09380962 0.10970912 0.31985518 0.033272184
000110 08 35 cc bd f7 8a 7b 3c 4a 04 ff bd cb 2a 21 3d
       -0.099710524 0.015352956 -0.1245199 0.03934745
000120 59 d4 38 be f1 55 c9 bb 11 77 fd 3b 94 86 04 3e
       -0.18049754 -0.006144278 0.007735141 0.12941962
000130 0d 5d 5a bd 8d 1d 63 be dc b6 96 bd 50 a1 bf 3d
       -0.053311396 -0.22179241 -0.073590964 0.0935694
000140 1b 09 ef bb 9e 42 6a 3d e5 a3 73 be 2f ab 43 bd
       -0.0072947866 0.057192437 -0.2379299 -0.047770675
000150 d6 f9 2c 3d e0 82 99 3d 88 3d 35 3c 11 09 02 bb
       0.04223045 0.074956656 0.0110620335 -0.001984183
000160 ec ab a8 3c a3 3b 23 3d ba 10 cd 3d 5f 31 ca 3d
       0.020589791 0.039851796 0.10012956 0.09872698
000170 4e e4 0f 3e 7a 12 71 be 00 9d 28 be 2e 96 01 3e
       0.14051935 -0.23542204 -0.16466141 0.12654945
000180 a2 1a 2b be 9c 8d 70 3e a4 eb 49 3e 21 57 d3 3d
       -0.16709378 0.2349152 0.19718796 0.10319353
000190 22 dd 77 bd ff fa 35 3e ff 37 e9 bd de 3b 82 3c
       -0.060513623 0.17771529 -0.113876335 0.015897688
0001a0 90 7a 55 be 1a 41 e2 3d b3 4b 94 3d 29 c1 59 3e
       -0.20847535 0.110475734 0.07241001 0.21265091
0001b0 cd fe 1c 3e a9 c8 44 3e bc 92 a7 be 96 2b 68 bd
       0.15331574 0.19217171 -0.32729137 -0.05668219
0001c0 06 b5 2e bd 25 f5 39 3c 7a 2b 01 3e 84 ff 49 be
       -0.042653106 0.011349951 0.12614241 -0.19726378
0001d0 4e f5 54 be 2e a3 25 bd 58 c4 b3 bd 7b 8f 85 3d
       -0.20796701 -0.040438823 -0.08777684 0.06521507
0001e0 4c 69 3c 3d 08 c3 44 bd eb c8 94 3b d5 9f 9b bd
       0.045998856 -0.04803756 0.004540553 -0.07598845
0001f0 20 ae db ba 59 27 80 3d b3 c0 88 3c bc f7 ce 3d
       -0.0016760267 0.06257505 0.016693449 0.10105845
000200 a1 45 e7 3d aa 3e ad 3d 08 28 e2 3b f6 15 73 3e
       0.112925775 0.08459218 0.0069017448 0.23738846
000210 76 ba 0d 3e 6c 07 08 3d f6 37 e7 39 f4 ab 1d be
       0.1384066 0.033210203 0.00044101448 -0.15397626
000220 5c 5b ba 3d 48 cd d6 3d eb 51 07 3c 26 82 98 3d
       0.09099457 0.10488373 0.008259277 0.07446699
000230 4d 6d c8 3c 1a 97 51 3e c4 17 15 3e 88 35 2d bb
       0.024466181 0.20467797 0.14559847 -0.0026429612
000240 90 a4 67 be 3e ba 2c be 31 f2 3c bd 8e 9b 83 3b
       -0.2262137 -0.16867921 -0.04612941 0.0040163463
000250 b1 d9 f4 3d ad 63 e8 3d db 21 6e 3d 61 d1 0b bd
       0.11955584 0.11347137 0.058137756 -0.034135226
000260 fc 8e 47 bd d7 62 a2 bc f6 6c 13 be b9 fa bd bd
       -0.048720345 -0.019822521 -0.14397034 -0.09276337
000270 bb 63 f8 3c 98 94 90 ba 6e be 03 3d c4 38 05 bd
       0.030320993 -0.0011030613 0.03216403 -0.03252484
000280 6e ef be bd 38 1f 8d bd 4e b2 a0 3c 68 32 ed 3b
       -0.09323011 -0.0689072 0.019616272 0.007238675
000290 5a 2c 66 3c 32 e9 b2 3d 86 ae f5 3d b5 38 05 be
       0.01404866 0.08735885 0.11996178 -0.13009913
0002a0 bf 63 58 bd 76 4c a7 bd 83 27 18 3e 6f e3 35 bd
       -0.0528295 -0.08168881 0.14858823 -0.04440635
0002b0 96 7b 8d 3d ef 44 76 bd 81 a9 51 bc 60 9b 79 bb
       0.06908338 -0.060124334 -0.012796761 -0.0038086995
0002c0 65 89 9a 3d a9 a9 b0 3d a2 ee e3 bc 83 8f 74 3d
       0.07545737 0.0862611 -0.02782375 0.059707176
0002d0 95 0e ac bd 17 c3 7a bd f6 37 81 bd 15 cb 31 3d
       -0.08401219 -0.06122121 -0.06309502 0.043406565
0002e0 07 4e 00 be ce be ee 3c d0 d6 2f 3d 7c b1 06 3e
       -0.12529765 0.029143717 0.04292947 0.13153642
0002f0 de 12 55 3d d5 cf 12 bd 7f f7 09 be cf 11 2c be
       0.052019946 -0.035842735 -0.13473319 -0.16803668
000300 40 dd be bd ef 5b 40 be 59 9f 3a 3d 84 97 c8 3c
       -0.09319544 -0.1878507 0.045562122 0.02448631
000310 67 c0 2a be 7b b9 9d bd 36 e9 03 3e 1b 81 03 be
       -0.16674958 -0.07701393 0.12881932 -0.12842219
000320 65 fb 21 bd 5f 30 79 3d 7d 94 28 3d 93 bb 4b 3d
       -0.03954639 0.060837146 0.041157234 0.04973943
000330 ac e7 ec 3c be eb e8 3c b1 46 19 bd f3 45 ac bd
       0.028919064 0.028432723 -0.037420932 -0.08411779
000340 82 1d 7f 3d 3b c0 bc bd ed b8 0f be 94 a2 00 be
       0.062284 -0.092163526 -0.14035387 -0.12562019
000350 d7 85 83 3e ee d3 16 be a6 28 34 be ba 31 31 3e
       0.2568805 -0.14729282 -0.17593631 0.17304125
000360 44 ce c4 bd df 6b 64 3e b7 13 2d bd d1 b4 8a 3d
       -0.096096545 0.22306775 -0.04225513 0.06772769
000370 ff 7f c9 bd be 5b 60 bc b2 ee 36 bd 5c ae b3 3d
       -0.098388664 -0.013693748 -0.04466123 0.08773491
000380 e5 6e 5f be fb 74 3d 3d 19 1e 9a bd 40 95 b5 bd
       -0.21819647 0.04625414 -0.07525272 -0.08866358
000390 31 45 2c 3d 1c a7 45 3e 35 ad cf 3d 94 0b f4 3d
       0.042058174 0.19302028 0.101404585 0.11916271
0003a0 66 1b 09 bd 96 1a ae bb 48 8b b5 bd 8c ab 65 3d
       -0.033473395 -0.005313228 -0.088644564 0.056071803
0003b0 6c 11 c3 3d 74 e8 c1 3c 6a 73 b9 3d 54 7d d4 3d
       0.09524807 0.023670413 0.090552166 0.10375467
0003c0 9d 09 0f 3e b8 ff 15 3d f0 43 c6 3d ac 23 bb 3c
       0.13968511 0.036620826 0.09680927 0.022844158
0003d0 a6 9b 92 bd ae c6 b3 bd cf 5a 4d 3e 95 86 d7 3d
       -0.07158594 -0.087781295 0.20054172 0.10523716
0003e0 e2 6d ef 3d 84 50 cf 3d c7 4a a8 bd 64 ea 35 bc
       0.1169088 0.10122779 -0.08217388 -0.011103246
0003f0 6a 68 7f be 6e 62 b3 be 1e 5a 97 bd 74 da bc 3c
       -0.24942175 -0.35036033 -0.07390235 0.023053385

fc1.bias f4 [32]
000000 ae b2 a2 3d bc 80 d1 3c db 7f 8f bc 38 4b 9e 3d
       0.07944237 0.02557408 -0.01751702 0.077291906
000010 ed cf 02 3c 8b a7 61 3b 8d d6 52 3d c7 b1 21 3d
       0.007984144 0.0034432139 0.051474143 0.039476182
000020 57 24 81 3c ff 92 24 3d ab de 7e 3d cd 10 b2 3c
       0.015764399 0.04017925 0.06222407 0.021736527
000030 c1 46 01 3d ab f4 8e bc c5 dc 1f bb e2 5d de 3c
       0.031561617 -0.017450651 -0.0024393064 0.027144376
000040 af 7c 7c bc c8 38 2c 3d c4 c4 18 3d e0 b1 64 bb
       -0.015410586 0.04204634 0.037297025 -0.003489606
000050 1c ea eb 3c f8 38 e3 3b 43 be c0 3c 24 e8 23 bc
       0.028798155 0.0069342814 0.023528224 -0.010004077
000060 fa 9e 4c 3d 30 e9 0f bb 80 9d 39 3d 91 75 06 3d
       0.0499563 -0.002195906 0.04531622 0.032826964
000070 df 1d 06 3d 73 a6 ee 3b 67 94 22 3c 5b 47 a2 bc
       0.03274333 0.007283026 0.009923077 -0.019809416

rnn.weight_ih f4 [96, 32]
000000 bb c9 a3 3d 23 22 c7 ba 3d ea 2a 3e 83 38 e8 bd
       0.079974614 -0.0015192669 0.16690917 -0.11338904
000010 04 f8 04 be 64 d3 8d be 89 7b ee 3d c8 bb f0 3c
       -0.12985235 -0.2770034 0.11644656 0.029386416
000020 80 3e 83 3c d6 41 a1 3d ac 8b c1 3d d9 e1 d3 3d
       0.016021013 0.07873885 0.094504684 0.103458114
000030 85 f6 13 be 10 a5 73 bd a4 4c b4 bb ab d4 9f bd
       -0.14449508 -0.059483588 -0.0055023003 -0.07804235
000040 a0 ff 83 bd 55 1e 1f 3e ec e9 71 be 1a 5c de bc
       -0.06445241 0.15538915 -0.2362439 -0.027143527
000050 38 d6 60 3d 26 17 2e 3d e6 4e bd 3d 3b a5 6f 3d
       0.054891795 0.042502545 0.09243564 0.058507185
000060 df e5 7e 3d 07 38 0d be 57 4b 7f 3d 84 e1 31 bd
       0.06223094 -0.13790904 0.06232771 -0.04342796
000070 8c 81 91 3c 82 b5 e7 bd 57 28 db 3d 8c 02 b4 bd
       0.017761968 -0.11313917 0.107010536 -0.08789548
000080 32 60 a6 bd 47 77 6e be 79 be d0 3d f5 b4 8e 3e
       -0.081238165 -0.23287688 0.1019258 0.27872434
000090 8c cb ab 3d 31 b0 c7 3c 3a 47 35 3e 33 7c e2 bd
       0.08388433 0.024376007 0.17702952 -0.11058845
0000a0 b0 2a ea bd 2b 64 8f bd d6 ad b2 bb 44 5b 4e 3e
       -0.11433923 -0.070015274 -0.0054528518 0.20152003
0000b0 5e 94 3d be 20 da b3 bc 76 0d 89 be 30 f6 2e 3e
       -0.18513629 -0.021954596 -0.26768082 0.170861
0000c0 3d 04 6c 3d b3 0d ae 3e 48 c8 d9 be e3 97 a1 3e
       0.05762123 0.33994827 -0.42535615 0.31561193
0000d0 73 a5 9d bd d2 ec 3d 3e 62 70 43 3e bb 4e 77 be
       -0.076975726 0.18547371 0.1908584 -0.24151127
0000e0 92 83 23 be b0 ae 81 bd 3b 4d e1 bd 0a 9a e8 bc
       -0.15968159 -0.06332147 -0.11001059 -0.028393764
0000f0 bf 13 6f be 95 d1 ce bd ac 6c d0 3c 28 dc 0d 3c
       -0.23347376 -0.10098568 0.025442444 0.008658446
000100 00 ac 02 be 4e 1f ef bd cb 27 f0 bb 47 7e 8b 3d
       -0.12760925 -0.11675893 -0.0073289624 0.06811195
000110 02 d3 93 bd 99 7c 13 3e ef 3b 01 be 46 a0 1f bd
       -0.07217981 0.14402999 -0.12620519 -0.038971208
000120 42 79 85 3e 0f 94 1a 3e 18 a8 39 be 61 72 53 3d
       0.26069075 0.15095542 -0.18130529 0.051622752
000130 28 ad a0 3d 32 0f 5d 3e a4 71 e4 bd c2 27 78 3d
       0.07845527 0.21587828 -0.11154488 0.06058479
000140 3d 54 0d 3e df d4 33 bd 46 46 90 3d 47 53 98 3d
       0.13801666 -0.04390418 0.070446536 0.07437759
000150 e4 08 b3 bd b5 b8 0b 3e 2d 1d 8c 3d 1e 04 63 3e
       -0.0874193 0.13644679 0.06841502 0.2216954
000160 a2 4a 32 3e 58 36 94 3e 0b b6 b7 3d b7 39 1f 3e
       0.17411283 0.2894771 0.08970269 0.1554936
000170 34 58 1a 3d a9 3e 52 be 89 c3 d3 3d 38 6c f4 3c
       0.037681773 -0.20531715 0.1034003 0.029836759
000180 53 84 24 3e 52 1a 96 bd 3b 63 b9 3d 7c 5d 1e bd
       0.16066103 -0.07329239 0.0905213 -0.038663372
000190 e3 a3 bd bd ec 18 98 3d 62 86 8c bd 29 6f 14 3e
       -0.092597745 0.074266285 -0.06861569 0.14495529
0001a0 c5 1b 92 3d c6 32 e0 bc bc 57 32 3e 67 fc 61 bd
       0.07134203 -0.02736796 0.1741628 -0.05517235
0001b0 7d e3 24 3e 7b 27 fe bc 85 02 12 3e c7 37 23 3d
       0.16102405 -0.031024685 0.14258774 0.039848115
0001c0 83 8c 87 3d ea 0b e5 bd 98 f6 09 3e ae 8a d6 bc
       0.06618597 -0.11183913 0.13472974 -0.026189175
0001d0 07 c5 05 3e a1 2f 95 bd 58 e3 9c 3d 0d a5 35 be
       0.13063441 -0.07284475 0.0766055 -0.17738743
0001e0 84 e3 0d 3e 33 4f ab 3c ae d2 4d be 1f c0 08 3d
       0.13856322 0.020911789 -0.20099899 0.033386346
0001f0 07 59 3d be 82 15 da bd 33 01 ca 3d 63 a4 dc 3d
       -0.18490992 -0.106486335 0.0986351 0.10773542
000200 c8 9a b9 3c e7 60 ce bc 89 27 02 3e 15 2f af bb
       0.022656813 -0.025192691 0.12710394 -0.005346189
000210 a4 44 11 bd f6 6f c3 be 7d 2a 36 3c dc ad 01 bd
       -0.03546585 -0.38171357 0.011118528 -0.031659946
000220 68 4a 77 be 11 fd 69 3e 0a 74 02 3d 16 a3 59 be
       -0.24149477 0.22850443 0.031848945 -0.21253619
000230 62 ac 10 be ff 06 bb bd bf c0 b3 3d c8 87 5b 3d
       -0.14128259 -0.09132194 0.08776998 0.053596288
000240 b7 ee e9 3c ea 15 c3 3d e6 c6 62 be 0c 33 61 3e
       0.02855621 0.09525664 -0.22146186 0.21992129
000250 22 81 d3 ba 83 cb 49 3e 2f 82 e5 3d 7a a3 82 3d
       -0.0016136507 0.1970654 0.11206471 0.06378837
000260 3f e8 1c 3e e7 4e 4c be 90 ee 53 bd d5 aa 49 be
       0.1532297 -0.19951974 -0.051741183 -0.19694073
000270 a8 06 f2 bd 94 a0 65 3d 2d 0b 9b 3d 34 f6 87 3e
       -0.11817676 0.056061342 0.07570491 0.26555026
000280 da ba 9d 3d 2d e5 4c be 30 e7 27 3e bd 92 d1 bd
       0.07701655 -0.20009299 0.16396785 -0.10233066
000290 20 75 63 3e 59 fe e7 bd 6b 6b 2e 3e df 1b ba bb
       0.22212648 -0.1132781 0.17033164 -0.005679592
0002a0 9c db 12 bd 1e 48 cb bd ff b9 95 bd 3a 55 bd be
       -0.035853967 -0.09925865 -0.073108666 -0.36979085
0002b0 4a ae 80 bd 4d de a4 be d4 7b 0d be 8c fa 35 b7
       -0.06283243 -0.32200852 -0.13816768 -1.0846776e-05
0002c0 83 2b 75 be e8 c7 bd 3d fd 7d 04 be 14 17 31 3e
       -0.2394238 0.09266645 -0.12938686 0.1729396
0002d0 4c 22 c6 bc f0 71 13 3e 92 6b 93 3d 14 bc b8 3d
       -0.024186276 0.14398932 0.07198252 0.09020248
0002e0 4b 39 74 be a6 b0 44 3e 9e 3f f6 bd 8e 81 3b 3e
       -0.2384998 0.19208011 -0.12023853 0.1831114
0002f0 9c 51 2d be 82 4e 57 bd 7f 8c eb bd c3 9f a2 bd
       -0.16925663 -0.052565105 -0.11501407 -0.079406284
000300 37 ea f8 bd b6 62 2b 3e ea 1b 87 be 6a 5d 4c 3e
       -0.12154048 0.16736874 -0.26388484 0.1995751
000310 a7 1e 52 be 66 d7 2b be 4d 54 22 be 91 d5 d1 3b
       -0.20519505 -0.16781387 -0.1585247 0.006403633
000320 81 c5 8a 3d b0 c9 50 3e 35 1c b8 3c 96 fa de 3d
       0.06775952 0.20389438 0.022474388 0.10887639
000330 e0 52 73 3e e1 88 38 bd bb 0c 18 be ad 05 b5 bd
       0.23762083 -0.045052413 -0.14848606 -0.08838973
000340 d0 8c ec 3d f1 17 af be b6 a5 54 3d ad 1a 69 3e
       0.11550295 -0.34197953 0.051915847 0.22764082
000350 b6 d4 bf bc 72 f7 83 be c6 5e e0 3d d9 a4 4a bd
       -0.023416858 -0.25774723 0.109555766 -0.049473617
000360 9d 1a b7 3e 46 f5 4e 3e c8 09 24 3e 1a d1 50 bd
       0.35762492 0.20210752 0.16019356 -0.050980665
000370 9b 8c 09 3e e6 cf ba 3c 6c 05 c9 bd ee 41 11 be
       0.13432543 0.022804212 -0.09815487 -0.14185306
000380 6c b0 38 bd 46 35 39 3e d4 01 b6 bd 0d 68 d7 bd
       -0.045090124 0.18086728 -0.088870674 -0.10517893
000390 2a d9 6a be a7 93 7f 3e 30 6d 87 3d 72 18 a1 bd
       -0.22934404 0.24958669 0.06612623 -0.07865991
0003a0 a0 f6 f8 3d 2f d8 48 3d 86 f5 0d bd 83 37 7c 3e
       0.12156415 0.049034294 -0.034657978 0.24630551
0003b0 49 d6 33 3e 05 fd 0b be 5d 60 9c 3c 05 31 9b be
       0.17562212 -0.13670738 0.019088918 -0.30310836
0003c0 6e d4 09 3d fc 37 90 bc 73 f7 0c 3c 10 2b 87 be
       0.033649854 -0.01760482 0.008603918 -0.26400042
0003d0 7f cc 16 be 57 45 42 be 51 41 28 be 87 b5 a2 bd
       -0.14726447 -0.18971764 -0.16431166 -0.0794478
0003e0 23 70 05 3e 27 b7 94 bd 8a b5 1d bd b6 95 0a 3e
       0.13031058 -0.07261496 -0.038503207 0.13533673
0003f0 aa bf 64 3e 9c 17 76 bd c2 b4 b6 bd cd 59 40 be
       0.22338739 -0.06008111 -0.089211956 -0.18784256

rnn.weight_hh f4 [96, 32]
000000 23 73 1b be ae 19 a9 3d 6a 74 c5 bc 34 46 17 bd
       -0.1518064 0.08256851 -0.024103362 -0.036932185
000010 bf c8 a4 3d b0 2e c0 3d e7 97 9d 3d 4f fa 50 3e
       0.08046102 0.09383905 0.07694989 0.20407985
000020 92 2a 15 be 19 8b 40 3e 1c 41 00 3e da a0 32 bd
       -0.1456702 0.18803062 0.12524837 -0.04361043
000030 74 f1 49 bd 48 df c8 bd 90 81 26 bd 20 87 0b 3e
       -0.049302533 -0.098082125 -0.040650904 0.13625765
000040 47 69 45 be 22 5a f9 bd 39 3f 14 be fc 1b d1 bd
       -0.19278441 -0.121753946 -0.14477243 -0.10210416
000050 df c2 29 3d 8d d0 f0 3d d7 d4 07 3e d4 e8 31 be
       0.04144561 0.11758528 0.13264786 -0.17373973
000060 57 38 06 3e fd 56 29 3e 89 29 a4 bd 1b f7 b9 bd
       0.1310743 0.1653709 -0.08015735 -0.09080335
000070 49 37 f7 bd 49 0a 1c 3d 76 90 84 bd d9 9b cf bd
       -0.12071092 0.038095746 -0.06472866 -0.101371475
000080 cf ca a6 3d 1e 2d ad bd 64 a0 76 be 8b 72 b2 3c
       0.081441514 -0.08455871 -0.24084622 0.021783134
000090 e4 90 28 be b3 32 34 bd 22 5c 6d 3d b8 27 55 be
       -0.16461521 -0.043993663 0.057949193 -0.20815933
0000a0 4f 75 4f be f9 11 47 bd 52 62 8e bc 8d 38 17 3e
       -0.20259593 -0.048601124 -0.017380867 0.14767666
0000b0 9c d9 77 bd 70 1e e8 3d 19 e3 17 3e ca da 27 3e
       -0.060510263 0.113339305 0.14832725 0.16392055
0000c0 a7 dd 53 bc 14 45 3c be 6b 3d 21 be 1f 22 82 bd
       -0.012931264 -0.18385726 -0.15746085 -0.06354164
0000d0 4c 0b 51 bb f4 ae d1 3d a9 19 6a 3e d3 77 89 3c
       -0.0031897603 0.10238448 0.22861351 0.01678077
0000e0 a3 21 b2 bd 87 07 93 3d 92 a9 2c be 50 bf d3 bd
       -0.08697822 0.0717917 -0.16861561 -0.10339224
0000f0 5c b0 bf 3d a1 f3 73 be 0c e2 9c 3d c8 a9 ae 3d
       0.0935981 -0.23823406 0.076603025 0.08528477
000100 84 00 f5 bd 38 9b 43 3e ac ba fa bc ba 1d 2d 3e
       -0.11962989 0.1910218 -0.03060659 0.16905871
000110 81 dc 24 be 4a 63 31 3e 52 87 f1 bd d5 28 4a bd
       -0.1609974 0.17323032 -0.117933884 -0.049355347
000120 b0 a9 93 3e f3 68 86 bd 45 c3 05 be 69 41 26 3c
       0.288404 -0.06562986 -0.1306277 0.010147431
000130 c1 3b 4a 3e d9 41 44 3d 25 b0 ea bd e9 65 01 3d
       0.19749357 0.04791436 -0.11459378 0.03159133
000140 69 52 1a bc 7b d6 1c 3e a8 a5 10 3d cf 9b 21 3d
       -0.009419062 0.15316193 0.035314232 0.03945523
000150 e6 f6 41 bb cc c1 19 3a 0a bc 28 3e 35 9a c6 3d
       -0.0029596626 0.0005865365 0.16477981 0.096973814
000160 8e 68 f1 3d 4f 28 c3 3d a2 5e 44 3b 2d ca 69 3d
       0.1178752 0.09529173 0.0029963632 0.057077575
000170 ab 63 bd 39 63 e4 47 3e 41 87 81 bb 2a 68 04 be
       0.00036123148 0.19520716 -0.003952891 -0.1293036
000180 7d f8 b5 bd e7 5e cc 3c da 70 b5 3d 77 bc 91 bd
       -0.08885286 0.024947597 0.08859415 -0.07116025
000190 82 cf 42 3b 88 d0 9a 3d da 15 10 be e2 24 89 be
       0.0029725735 0.075593054 -0.14070836 -0.26785952
0001a0 42 3f 24 3e 12 8d fe bd 2c f7 5d 3d 92 78 da 3d
       0.16039756 -0.12429251 0.0541908 0.10667528
0001b0 77 25 9b 3d 65 c9 6d bc 2c f6 3d 3c 92 49 23 be
       0.07575505 -0.014513348 0.0115943365 -0.15946034
0001c0 f6 d6 4c 3e 8e 58 16 be 6f e0 52 3d c1 95 12 3e
       0.20003876 -0.14682218 0.051483568 0.14314939
0001d0 a4 53 18 3e c0 b5 1e 3d 4d c6 be 3d 67 ef 01 be
       0.14875656 0.03874755 0.093151666 -0.12688981
0001e0 02 bc 0b 3e 6d bb dc 3d 3e 56 a1 3d 90 a4 0d 3e
       0.13645938 0.10777936 0.078777775 0.13832307
0001f0 df 86 2d bd bd d7 87 bd 29 9f 1f 3e 9f 46 c8 3b
       -0.04236495 -0.06632946 0.15588059 0.0061119343
000200 db 8b b6 3d 7a 96 d6 bd bc 4b b8 bd 9c 79 49 be
       0.08913394 -0.1047792 -0.0899882 -0.19675297
000210 b5 33 f7 3c 03 8c b3 3d a3 66 20 be 6c 09 42 3d
       0.030176023 0.087669395 -0.15664153 0.047372267
000220 e6 91 24 3e 6c 22 61 bd c0 86 02 3e f3 26 23 bd
       0.16071281 -0.054964468 0.12746716 -0.039832067
000230 65 cf bd 3d 51 3e 50 bd a7 47 ff 3d 3c dd 2a 3e
       0.09268073 -0.05084068 0.124648385 0.16685957
000240 7f e7 48 3e 4b 53 93 be 3f d3 b4 3d e3 18 8d 3d
       0.19619559 -0.28774485 0.088293545 0.068895124
000250 15 a1 90 3c bc 4d 15 be 55 25 b7 3d 31 11 cc be
       0.017654935 -0.14580435 0.089426674 -0.39856866
000260 45 c0 1c 3e 39 f6 a0 bd 01 39 da bd 8e 0a a6 3d
       0.1530772 -0.07859463 -0.10655404 0.08107482
000270 e0 6f 74 3d 6a 03 4f be 13 af 94 3d 5a b7 da bc
       0.059677005 -0.20216146 0.07259955 -0.026698757
000280 f7 16 89 3d ee a3 80 bd 89 a8 a8 3d 98 ca ac bd
       0.06693833 -0.06281267 0.082352705 -0.08437079
000290 66 68 6a 3c a2 77 3a be 9d 27 23 bd c1 3d 2c be
       0.014307117 -0.18209699 -0.0398327 -0.16820432
0002a0 33 c7 d7 3d 79 db ad bd 0b f4 93 bd 75 66 a4 bc
       0.10536041 -0.08489127 -0.07224282 -0.020068387
0002b0 f9 6f 60 3e 0c f2 8c bd 62 94 40 3d 87 68 e8 3d
       0.21917714 -0.06882104 0.04701651 0.11348062
0002c0 2b fb 23 3e 75 db 30 be 40 b8 d0 3d 25 39 70 3c
       0.16013782 -0.17271216 0.10191393 0.014662062
0002d0 5b 74 0a be ff b4 eb bd d8 84 90 bd 13 16 b3 bc
       -0.13520949 -0.11509132 -0.07056588 -0.021861112
0002e0 af 77 f4 3d 64 7d 0f 3e ba eb 97 bd 3e 22 3b 3e
       0.1193689 0.14012676 -0.07418008 0.18274781
0002f0 83 a0 25 be 6a 91 57 be b7 15 14 be ab a5 56 bd
       -0.16174512 -0.21051565 -0.14461409 -0.052404087
000300 c1 af 1a bd de ee 96 3e d8 79 cd bc 2c 7f 54 bd
       -0.03776527 0.29479116 -0.025082514 -0.051879093
000310 43 0c b9 bd 50 23 38 3e c2 40 f9 bc e9 03 08 3e
       -0.09035542 0.1798222 -0.030426387 0.13282742
000320 30 a9 93 3d d7 25 55 3d e2 88 bc 3c 84 c5 af bd
       0.07210004 0.05203804 0.02301449 -0.08582595
000330 58 22 05 be a1 7d 96 3c bc 1d f7 3d 96 62 f2 bd
       -0.13001382 0.018370451 0.12066218 -0.1183521
000340 46 7d ec bd 6f 1d a1 bd 55 d2 71 bd 16 22 c2 3c
       -0.115473315 -0.07866942 -0.05903848 0.023697894
000350 b0 1d c1 3d 32 11 eb 3c fb d6 91 3d be f9 ba bd
       0.094294906 0.028694723 0.071210824 -0.09129666
000360 1d 0c 7f 3d 49 58 be 3c 2b 56 07 be cb 69 9d bd
       0.06226741 0.023235457 -0.13216464 -0.07686194
000370 61 b1 4c bd 3d cb 4b 3e 68 67 14 3e 0a 31 f1 39
       -0.04997385 0.19901748 0.14492571 0.0004600364
000380 ec f0 f4 bd 1a b8 44 bc 84 4d 97 3e 52 de a9 3d
       -0.11960015 -0.012006784 0.29551327 0.08294357
000390 e5 41 4d 3d 53 cc 3c be 54 41 5c 3d 9d 19 bf 3c
       0.05011167 -0.18437319 0.05377324 0.023327643
0003a0 0b d5 06 3e 34 f1 6d 3d 70 bf aa 3d a7 e0 62 be
       0.13167207 0.058091357 0.08337295 -0.2215601
0003b0 f8 cf 1f bc ae 57 a1 3d c1 49 d8 bd 04 e1 cb bd
       -0.009754173 0.07878052 -0.105609424 -0.09955028
0003c0 c7 da 67 be be 06 2f 3e 62 4b a3 bd 4b a8 c5 bd
       -0.2264205 0.17092416 -0.079733625 -0.0965124
0003d0 23 9f bc bd 32 c8 b8 3d 45 ed 69 bd e8 37 b2 3d
       -0.092100404 0.09022559 -0.057111043 0.087020695
0003e0 a5 32 f0 bc f9 ac 46 3d 5a e9 53 be 5b cf 1b be
       -0.029321024 0.048504803 -0.20694485 -0.15215819
0003f0 31 29 59 3e a3 43 4b 3c 04 d1 e7 bc b8 ac d6 3c
       0.2120712 0.012406263 -0.028297909 0.026205406

rnn.bias_ih f4 [96]
000000 b3 3b 2a be 3e 2e 2d 3d 5f 9d 0c 3e f1 ea fb bd
       -0.16624336 0.042280428 0.13731907 -0.12300671
000010 e7 ea dc 3d c0 24 a1 3d 10 5a 2f 3d e4 51 53 bd
       0.107869916 0.07868338 0.0428105 -0.05159177
000020 94 71 0d be 0d 53 ac 3d 29 9f 8b 3c 5f dc f6 3d
       -0.13812858 0.08414278 0.017043667 0.12053751
000030 ba e2 21 bd e3 8d a4 bd 93 3d d3 3c 9c 3d 9e bd
       -0.039522864 -0.08034875 0.025786197 -0.07726595
000040 83 95 52 3e 5d 61 ba 3d eb 91 0b 3e 09 4c 8b bd
       0.20564847 0.09100602 0.13629882 -0.06801612
000050 27 1c 8a bd 62 14 55 3e aa 14 45 3e b0 ea 4e 3d
       -0.06743651 0.20808557 0.19246164 0.050516784
000060 a7 5d 96 3b 73 65 e7 bb b4 3f 27 ba 5f 62 aa bd
       0.004588801 -0.0070616542 -0.0006380037 -0.08319544
000070 2a 82 71 3d d5 04 d6 bd 74 10 7e ba 93 31 3a bd
       0.058962025 -0.104501404 -0.0009691783 -0.045457434
000080 37 56 1d be 76 78 56 bd 49 05 17 3d 15 54 4f be
       -0.1536492 -0.052360974 0.036870275 -0.20246918
000090 7e b1 2d be 8a 2f f2 bd b9 d2 a1 3c 65 eb 22 3a
       -0.16962239 -0.118254736 0.0197538 0.0006214886
0000a0 d3 cd 06 be 05 9d b8 3d c6 8f 99 3c 2f ee 26 3d
       -0.13164453 0.09014324 0.018745314 0.040754493
0000b0 79 ba c5 bd a4 4a 5b 3e 04 c2 0e 3d 18 76 b7 bc
       -0.096547075 0.21415192 0.034852996 -0.022395179
0000c0 7a 0d a1 3c 4d 35 8d be d2 f1 84 3d eb 78 14 bd
       0.019659746 -0.27579728 0.06491436 -0.03624813
0000d0 52 0d 9f bd e8 c1 02 be b6 9c 90 bc 2d a8 89 3d
       -0.077662125 -0.12769282 -0.01765285 0.0672153
0000e0 33 13 53 be 20 d9 2d bd a0 90 99 be c5 3b 3f bd
       -0.20612793 -0.042443395 -0.29993153 -0.04668786
0000f0 53 5f 3c 3d b0 5b ae bc 4b f4 a7 bd 6e 5a 84 3c
       0.045989346 -0.021283954 -0.08200892 0.016156401
000100 97 c4 c9 bd 6f 9c 1e be f2 7c 05 3d a5 5d 7d 3d
       -0.0985195 -0.15489362 0.03258986 0.061856885
000110 1e 4a f2 3d 2d 52 01 3d 86 22 b6 bc 58 e3 f9 bd
       0.11830543 0.03157251 -0.022233259 -0.122015655
000120 81 ed 0d 3e 20 cc 49 bd c4 cb 64 bd ce 5d e7 3d
       0.13860132 -0.049266934 -0.05585839 0.11297189
000130 ef c4 f0 bd 51 ed 1f 3e 41 dc e9 bd d2 26 aa 3b
       -0.11756312 0.15617873 -0.11418963 0.005192616
000140 17 5f 2d 3e 28 a0 d8 bd c4 d9 e9 3d 3e 44 fd 3d
       0.16930805 -0.105774224 0.114184886 0.12366532
000150 ff 9f 47 be 0f 34 91 3d da 23 38 3e c1 17 37 3e
       -0.19494627 0.070900075 0.17982426 0.17880155
000160 47 83 00 be 79 c2 44 bd d2 24 20 3e 28 b2 07 3e
       -0.12550078 -0.048037026 0.15639046 0.13251555
000170 d9 c2 b9 bd fd 78 37 3e 79 4d fe ba 65 9b ec bd
       -0.09070367 0.17917247 -0.0019401751 -0.11553077

rnn.bias_hh f4 [96]
000000 ab 65 26 be c0 25 f7 bd 5b 70 26 bd c8 41 f4 bd
       -0.16249721 -0.12067747 -0.040634494 -0.11926609
000010 c9 7e 35 be 87 7b 1e be bd f2 ee bb 79 80 20 be
       -0.17724146 -0.1547681 -0.0072921203 -0.15674008
000020 de ff b6 3d 45 f6 69 bd bc cc 25 3e 49 f3 14 be
       0.089355215 -0.057119627 0.16191381 -0.14545931
000030 54 46 fe bb cc 16 2c 3e e5 cd 79 3c 1b 36 1d be
       -0.0077598486 0.16805571 0.015246843 -0.15352671
000040 ab c2 81 bd 7b 34 1b bd e9 71 78 bd b6 2e 3d bd
       -0.06335958 -0.037891846 -0.06065551 -0.046187125
000050 8a 0b 92 3d f1 a5 9c 3d da 55 14 bd ce a5 d4 3d
       0.07131107 0.07648838 -0.036214687 0.10383187
000060 d1 78 6f bd 59 ca 07 be 39 1e 1d 3e 14 10 25 be
       -0.05846483 -0.13260783 0.1534356 -0.16119415
000070 a3 38 cc bd 8b f0 b9 3d 79 7a fd 3d 94 ae 4e bc
       -0.0997174 0.09079083 0.123768754 -0.012614865
000080 d9 40 0d 3d 9a 5e 9b bc 2c a1 c8 bd 3a 73 8e bd
       0.03448567 -0.018966008 -0.09796366 -0.069555715
000090 83 62 90 be e7 0c da bd ba 46 84 bd fd 64 49 be
       -0.28200158 -0.10646992 -0.064588025 -0.1966743
0000a0 95 81 b5 3d 4b 54 11 be fc c2 9b 3c e1 cf 2a bd
       0.088626064 -0.14192311 0.019013874 -0.041702155
0000b0 c3 01 80 be 0b 83 df 3d e0 68 b1 bc 7d 58 ab 3c
       -0.25001344 0.10913666 -0.021656454 0.020916218
0000c0 33 71 5b 3d 1c 59 29 be 9c ce 18 be 98 c0 62 be
       0.053574752 -0.16537899 -0.14922565 -0.22143781
0000d0 f2 d3 b7 bd f2 ce 49 be e7 7d ed bd c4 aa df 3d
       -0.08975972 -0.1970785 -0.115962796 0.10921243
0000e0 f3 23 73 bd 50 e5 c2 3d cb b7 07 be 24 eb c2 bd
       -0.059360456 0.09516394 -0.13253705 -0.09517506
0000f0 57 06 81 be d3 d0 22 3d dd b4 2e be a8 08 40 be
       -0.2520015 0.03974993 -0.17061181 -0.18753302
000100 17 e9 38 bd ca db fb 39 e8 f0 67 3e 96 0e 30 3e
       -0.045144167 0.00048038206 0.22650492 0.17193064
000110 a0 4c 20 be e4 1e 1c bd 44 27 fd 3d 94 ba d8 bd
       -0.1565423 -0.038115397 0.12361005 -0.10582462
000120 9b 6c b8 3d 2f b1 98 bc 27 04 d4 3d f0 c4 be 3d
       0.0900509 -0.018639175 0.103523545 0.093149066
000130 da 95 b8 bd 22 32 d4 3d 46 63 55 bb 7a 68 f3 3d
       -0.09012957 0.103611246 -0.0032560392 0.11885162
000140 ff 6b 20 bc 2e 09 74 bd 4e 27 04 be a3 db a7 3d
       -0.009791373 -0.059579067 -0.12905619 0.08196189
000150 41 e1 5c 3d bc a9 3f 3d 58 fd 8e bd b3 fc 80 3c
       0.053925756 0.04679273 -0.06981915 0.015745496
000160 15 95 47 be dc 68 02 be 9e b6 1a bd 42 9e e4 bd
       -0.19490464 -0.12735313 -0.037771814 -0.11162998
000170 bd 04 df bd 9e d7 20 3e a3 2a 5e 3d 50 02 25 be
       -0.10889576 0.15707251 0.05423988 -0.16114163

fc2.weight f4 [6, 32]
000000 89 1c b6 3d 6b e9 81 3d 25 00 ea bd 44 6e bf 3d
       0.088921614 0.06343349 -0.11425809 0.093472034
000010 b6 cf 61 3e 58 9b b4 3d 81 3a 7f bd b9 81 d2 3d
       0.22051892 0.08818692 -0.062311653 0.10278649
000020 30 2f 51 be d6 cb da bc 93 4e f5 3d 29 46 82 3e
       -0.20428157 -0.026708525 0.119778775 0.25444153
000030 bd 14 e4 3d ad f7 65 3e 83 d3 e7 3b fc ec c1 3d
       0.11136768 0.22457762 0.0070747747 0.09469029
000040 cb b2 5c 3d da 54 86 3d 8d 34 4a bd 22 a0 87 3e
       0.053881448 0.06559153 -0.049366523 0.2648936
000050 a5 8e 7c be e8 55 8d 3e f6 32 68 3d cc 52 b5 3e
       -0.2466379 0.27604604 0.056689225 0.35414732
000060 f2 32 11 be b4 f4 2a be ad a4 3c be 85 96 17 3e
       -0.1417959 -0.1669491 -0.18422194 0.14803512
000070 a6 82 21 bd 98 c9 fc bd 93 c0 1c 3d 3e b6 d8 be
       -0.039431237 -0.123431385 0.03826959 -0.4232654
000080 f7 f5 15 3c b4 78 0d bd 1f b4 59 3d 29 9e 10 3e
       0.009152881 -0.03453894 0.053150292 0.14122833
000090 af f8 e3 3c 2e 5d 56 3e 63 a7 f9 bd 63 58 6a 3d
       0.027828543 0.20933983 -0.121901296 0.0572132
0000a0 c6 4b 09 be eb d6 76 3e b9 12 fc bd ef d7 ec bd
       -0.13407812 0.24105422 -0.123082586 -0.115646236
0000b0 38 e9 dd bd 27 6e 3a bd e0 d7 15 3e 25 e0 a6 3c
       -0.108354986 -0.045515206 0.14633131 0.020370552
0000c0 b3 dd d8 3d 63 7b c4 3d e7 f5 a8 bd a7 3c 84 3e
       0.10589161 0.09593847 -0.08250027 0.25827524
0000d0 cb 9d 73 be 43 b9 92 3d 47 fa d7 3d 11 6a 95 3e
       -0.23790662 0.07164242 0.105457835 0.29182485
0000e0 b5 5a 60 be a3 9d 51 3e 5b be 99 3d 1a 2f 89 be
       -0.21909602 0.2047029 0.075070105 -0.26793748
0000f0 f0 de 33 3e 70 91 b1 3e e0 6b 9f bd ed 82 47 3e
       0.17565513 0.34681273 -0.077842474 0.19483538
000100 b1 96 ba 3c 0a 75 39 3d 66 b4 98 3d 51 4d 40 3e
       0.022776933 0.045277633 0.07456283 0.18779494
000110 b1 99 10 be a3 2e 55 be d0 ad 8a be f3 4d d6 3e
       -0.14121129 -0.20818572 -0.27085733 0.41856346
000120 7a 85 ff bd 4c ea 10 3e 2d 6a 27 be fb eb a0 bd
       -0.124766305 0.14151877 -0.16349097 -0.0785751
000130 dd 91 84 bc b9 92 9b bd d8 15 d4 3e 16 4b b9 3d
       -0.016182834 -0.075963445 0.41422915 0.09047525
000140 da 3a b7 be 75 e2 ca 3e 75 2e f1 3c 10 19 42 be
       -0.35787088 0.39625898 0.029441098 -0.18954873
000150 ca 0d 49 be f0 17 02 bd 72 6e 1f 3e 66 26 b5 be
       -0.19634166 -0.03176111 0.15569475 -0.35380858
000160 9b 72 2e bd 8b bb 7b be fb d2 2f 3e 4c 69 b2 bd
       -0.042589765 -0.2458326 0.17170326 -0.0871149
000170 94 3b 02 3e 79 8f 66 bc ae 55 b0 bd f2 76 78 be
       0.1271804 -0.0140722925 -0.08610092 -0.24264124
000180 35 2d ba 3e ec fb 59 3e 68 e6 9a 3e be e0 55 3e
       0.36362615 0.21287507 0.3025391 0.20886514
000190 2d 28 f9 bd 69 88 52 be 88 a5 94 3e 4f bb 0f be
       -0.12165866 -0.20559849 0.2903254 -0.14036296
0001a0 57 05 32 3e 16 28 98 3e a1 80 3f be 21 69 98 be
       0.1738485 0.29718083 -0.18701412 -0.29767707
0001b0 08 ef 75 3e 58 8b 38 be e5 ed 95 3c 4f 0b 18 3e
       0.24016964 -0.18021905 0.018301914 0.14848064
0001c0 99 36 f8 3d e6 38 cf 3d 7f a4 c6 3e d1 a2 d9 3d
       0.12119789 0.101182744 0.38797376 0.10626758
0001d0 56 32 90 be 8d 23 5c 3d 16 0b e1 bd e7 6b f6 3d
       -0.28163403 0.05374484 -0.109884426 0.120322995
0001e0 bf 97 85 3d f6 b1 ca bd bf 99 bc 3d 57 b9 5e 3e
       0.06523084 -0.098972246 0.09209012 0.21750389
0001f0 b4 9d 98 3d 65 bf 03 bb d2 e4 15 be ac 17 1a be
       0.074519545 -0.0020103094 -0.1463807 -0.15048093
000200 11 85 90 3c 7a 0d b6 bd df 40 e5 3e 63 c3 29 be
       0.017641576 -0.08889289 0.44776055 -0.1657844
000210 0a ab d1 bd 20 41 2f be 3c 5d f7 bd ea ed a6 bd
       -0.10237701 -0.17114687 -0.1207833 -0.08150847
000220 78 80 d9 3c bf 20 3e be 66 32 8a be 98 3b 7d 3e
       0.026550516 -0.18567179 -0.26991576 0.24729764
000230 13 b1 55 3d b8 9c 8b 3d 2e c6 fc 3d ff 9d ff bd
       0.052170824 0.06817001 0.12342487 -0.12481307
000240 cc eb 2a 3e a6 41 fb 3c 8e ab 22 3c bb 49 87 3e
       0.16691512 0.030670952 0.009928597 0.2642344
000250 b3 1a 1f 3e 9e bf 50 be 1a 5f 64 3e 39 b6 a9 3d
       0.15537529 -0.20385596 0.22301903 0.08286709
000260 81 43 75 bb f0 40 e9 bd ae f6 8b be 1d e7 4b 3e
       -0.0037424269 -0.11389339 -0.2733664 0.19912381
000270 ea d6 a7 3e e8 bd 24 3e 15 65 03 be 6d ba ae bd
       0.32781154 0.16088068 -0.12831528 -0.08531652
000280 cb f1 4c bd 35 6f 06 bf 7c e7 d6 3e 9b e3 19 3e
       -0.05003528 -0.5251344 0.41973484 0.15028231
000290 d8 8b c4 bd 6f f4 04 3e 14 2a e9 3d 8e f7 32 be
       -0.095969856 0.12983869 0.11384979 -0.17477247
0002a0 cc aa 99 be e9 a7 0e bb a4 e9 71 bd d5 12 77 3d
       -0.3001312 -0.0021767563 -0.059060708 0.060320694
0002b0 3d 11 b4 3e 7c b0 00 3d 28 30 e8 3c b0 39 ba bd
       0.35169402 0.03141831 0.028343275 -0.09093034
0002c0 0d 2b aa 3c 91 db da be b1 56 44 be f1 a8 be 3d
       0.020772481 -0.4274564 -0.19173695 0.09309567
0002d0 a6 be b0 be d3 8a d0 be c5 02 a8 3e 3b 4e 6e bd
       -0.34520453 -0.40730914 0.32814613 -0.058180075
0002e0 85 cb 1e 3c 75 fe 9e bd 7a 02 02 bc a6 d6 38 be
       0.0096920775 -0.077633776 -0.007935161 -0.18050632
0002f0 fa 8e 2b be c3 53 ea be 37 b3 81 3e 52 9f 14 bd
       -0.1675376 -0.4576703 0.25332043 -0.036284752

fc2.bias f4 [6]
000000 d3 6e 3e 3c ff 74 84 3c c3 4f 06 3d 3b 73 81 3c
       0.011623102 0.01616907 0.03279091 0.015802016
000010 54 03 18 3d 7d ab 1c 3d
       0.03711255 0.03824948
