results/alpha_0.0/agent_1500.pt (torch, 43191 bytes, 8 tensors)

fc1.weight f4 [32, 104]
0	0xbe608edb	-0.21929495
1	0x3e4b4857	0.19851814
2	0x3e5c4707	0.2151147
3	0x3e5fd42b	0.2185828
4	0x3e9f466a	0.3110841
5	0xbe821018	-0.25402904
6	0xbe1566c9	-0.1458999
7	0x3d846efd	0.06466482
8	0x3cfc6558	0.030810043
9	0x3d68aa2e	0.05680292
10	0x3cd012f0	0.025399655
11	0xbda4fbf7	-0.08055871
12	0xbda11eee	-0.078672275
13	0x3e5e8aba	0.21732607
14	0xbd49bd73	-0.04925294
15	0xbd33273c	-0.04373859
16	0x3c12cbe8	0.008959748
17	0x3d9b4d36	0.07583086
18	0x3de7f792	0.11326517
19	0xbd9d3d66	-0.076777264
20	0x3e21551b	0.15755121
21	0xbd9dd2c5	-0.07706217
22	0xbddf24ee	-0.10895716
23	0x3da88b76	0.08229725
24	0xbdb6999d	-0.08916018
25	0x3e1659a3	0.14682631
26	0xbe5f1a8b	-0.21787469
27	0xbe82d691	-0.25554326
28	0xbe1cee6b	-0.15325324
29	0x3d308618	0.04309663
30	0xbd3f4273	-0.04669423
31	0xbd2780b5	-0.04089423
32	0xbe23f2fc	-0.1601066
33	0x3ba11d99	0.0049168584
34	0x3dd5a6e0	0.104322195
35	0xbd145f5f	-0.036223765
36	0x3dddbad2	0.10826649
37	0x3e847859	0.25873068
38	0x3b05d6d0	0.0020422228
39	0xbd2a975a	-0.041648246
40	0xbd280fd2	-0.041030712
41	0x3b4a53f8	0.0030872803
42	0x3a3e14bd	0.0007251015
43	0x3e6c9785	0.23104675
44	0xbe523378	-0.20527446
45	0x3d333394	0.04375036
46	0x3dd09984	0.10185531
47	0x3ded5307	0.11588102
48	0x3cc311cd	0.023812199
49	0x3ddb4467	0.10706406
50	0x3d74b8fa	0.05974672
51	0x3d562b26	0.052287243
52	0x3dbde5ed	0.092723705
53	0x3dbc31ff	0.091892235
54	0xbd71d057	-0.05903658
55	0x3dab0d7b	0.083521806
56	0xbc8ec269	-0.017426686
57	0xbd02aff9	-0.0319061
58	0xbdc65cd4	-0.09685674
59	0x3c00707a	0.0078393165
60	0x3d55240f	0.05203634
61	0xbdb9f167	-0.09079247
62	0x3c7bfc2e	0.015379949
63	0xbc17d5d0	-0.0092672855
64	0x3dc8e9fe	0.098102555
65	0x3deae6b8	0.11469787
66	0x3ea3c40f	0.31985518
67	0x3d08486a	0.033272184
68	0xbdc1e09a	-0.094666675
69	0x3cc17732	0.023616407
70	0xbdd9e815	-0.10639969
71	0x3d0ef745	0.034903783
72	0xbe3bcbc6	-0.18339452
73	0xbcf00a07	-0.029301656
74	0x3bfd7711	0.007735141
75	0x3e1b162a	0.15145174
76	0xbd67cade	-0.056589954
77	0xbe68563f	-0.2268915
78	0xbd96b6dc	-0.073590964
79	0x3dbfa150	0.0935694
80	0xbbef091b	-0.0072947866
81	0x3d6a429e	0.057192437
82	0xbe73a3e5	-0.2379299
83	0xbd43ab2f	-0.047770675
84	0x3d2cf9d6	0.04223045
85	0x3d9982e0	0.074956656
86	0x3c353d88	0.0110620335
87	0xbb020911	-0.001984183
88	0x3cd0aefb	0.025474062
89	0x3d3883d1	0.045047585
90	0x3db75890	0.08952439
91	0x3dac5e8b	0.0841647
92	0x3e1c4d66	0.152639
93	0xbe6428b7	-0.22281156
94	0xbe258485	-0.16163833
95	0x3e04d431	0.1297157
96	0xbe0c235a	-0.1368536
97	0x3e604fd2	0.21905449
98	0x3e29f72b	0.16598193
99	0x3d9ba4cf	0.07599794
100	0xbd6c847e	-0.057743542
101	0x3e3b2985	0.18277557
102	0xbe016e25	-0.12639673
103	0x3cfda032	0.030960176
104	0xbe6c91e4	-0.23102528
105	0x3db61541	0.088907726
106	0x3dc7d5fe	0.09757613
107	0x3e82f306	0.25576037
108	0x3d4a0529	0.049321327
109	0x3e9b13f5	0.30288664
110	0xbe1a453a	-0.1506547
111	0xbd682b96	-0.05668219
112	0xbe11a33f	-0.1422243
113	0xbd90dadb	-0.07072993
114	0x3e012b7a	0.12614241
115	0xbe49ff84	-0.19726378
116	0xbe4a3250	-0.19745755
117	0xbd562255	-0.052278835
118	0xbdb3c458	-0.08777684
119	0x3d858f7b	0.06521507
120	0x3e222de7	0.15837823
121	0xbd44c308	-0.04803756
122	0xbb8d064e	-0.00430373
123	0xbd8c9ac7	-0.06865459
124	0xbadbae20	-0.0016760267
125	0x3d802759	0.06257505
126	0x3c955690	0.018229753
127	0x3d86876f	0.06568801
128	0x3d5878a0	0.052849412
129	0x3dc13cef	0.0943545
130	0x3c7c5096	0.015400073
131	0x3e779bfc	0.24180597
132	0x3e0dba76	0.1384066
133	0x3d9e03e5	0.077155866
134	0xbc7dd445	-0.0154925035
135	0xbe171c73	-0.14756946
136	0x3dba5b5c	0.09099457
137	0x3dd6cd48	0.10488373
138	0x3c0751eb	0.008259277
139	0x3d988226	0.07446699
140	0x3cc86d4d	0.024466181
141	0x3e51971a	0.20467797
142	0x3e1517c4	0.14559847
143	0xbb2d3588	-0.0026429612
144	0xbe67a490	-0.2262137
145	0xbe2cba3e	-0.16867921
146	0xbd016885	-0.03159382
147	0xbcb9ff13	-0.022704637
148	0x3e004e71	0.12529923
149	0x3d8c1798	0.06840438
150	0x3d30eef2	0.043196626
151	0xbc8c2c84	-0.01711107
152	0xbd6eb9c5	-0.058282632
153	0xbb5e7bd2	-0.0033948314
154	0xbe001fdc	-0.12512153
155	0xbd48d9fb	-0.049036007
156	0x3c8bd88b	0.01707103
157	0xba909498	-0.0011030613
158	0x3b41b1c2	0.0029555415
159	0xb9594313	-0.0002071972
160	0xbdbeef6e	-0.09323011
161	0xbd8d1f38	-0.0689072
162	0x3c1d1aae	0.00958888
163	0x3c46afaf	0.012126847
164	0x3c662c5a	0.01404866
165	0x3db2e932	0.08735885
166	0x3e33ccfe	0.17558667
167	0xbe0538b5	-0.13009913
168	0xbd80ec6a	-0.062950924
169	0xbda9f931	-0.082994826
170	0x3e182783	0.14858823
171	0xbd35e36f	-0.04440635
172	0x3d90a10b	0.070619665
173	0xbdc392c8	-0.09549481
174	0xbd953e7e	-0.0728731
175	0x3bc316c9	0.005953644
176	0x3dabf0f9	0.08395571
177	0x3db9b5a7	0.090678506
178	0xbce3eea2	-0.02782375
179	0x3dd447ef	0.10365283
180	0xbdf7cbd2	-0.120994225
181	0xbd85f76e	-0.06541334
182	0xbd8137f6	-0.06309502
183	0x3d31cb15	0.043406565
184	0xbe004e07	-0.12529765
185	0x3ceebece	0.029143717
186	0x3d2fd6d0	0.04292947
187	0x3e06b17c	0.13153642
188	0x3d5512de	0.052019946
189	0xbd12cfd5	-0.035842735
190	0xbe09f77f	-0.13473319
191	0xbe2c11cf	-0.16803668
192	0xbdcd3e49	-0.100216456
193	0xbe377fce	-0.17919847
194	0x3d155cfb	0.036465626
195	0xbc637c5e	-0.013884632
196	0xbe23f4e8	-0.16011393
197	0xbd31c118	-0.04339704
198	0x3e08c908	0.13357937
199	0xbe0a109c	-0.13482898
200	0xbd84298a	-0.064532354
201	0x3cca26fa	0.024676789
202	0x3cf21d37	0.029554946
203	0x3dd0546a	0.10172351
204	0x3cd57075	0.0260546
205	0x3d9aa15c	0.07550308
206	0xbcfe2350	-0.031022698
207	0xbdaf0e5c	-0.08547661
208	0x3d857295	0.065159954
209	0xbd0461aa	-0.032319702
210	0xbe0ec0f1	-0.13940789
211	0xbe30cba8	-0.17265189
212	0x3e968e8d	0.29405633
213	0xbdff70cd	-0.12472687
214	0xbe1ba43e	-0.15199372
215	0x3e3131ba	0.17304125
216	0xbd5bc6a5	-0.05365624
217	0x3e67a2bd	0.22620673
218	0xbd2d13b7	-0.04225513
219	0x3d8ab4d1	0.06772769
220	0xbdc470f8	-0.095918596
221	0xbc21308c	-0.009838235
222	0xbd36eeb2	-0.04466123
223	0x3db3ae5c	0.08773491
224	0xbe48f982	-0.1962643
225	0x3d3d74fb	0.04625414
226	0xbd9353fa	-0.07193752
227	0xbdaba5a2	-0.08381201
228	0x3d2c4531	0.042058174
229	0x3e45a71c	0.19302028
230	0x3dd1b9e1	0.10240532
231	0x3e01b4c8	0.12666619
232	0xbd3a4623	-0.045477044
233	0x3c3119d8	0.010809384
234	0xbd9521f4	-0.07281867
235	0x3d4e8c28	0.050426632
236	0x3dc3116c	0.09524807
237	0x3d1f3bd4	0.038875416
238	0x3dd69b83	0.1047888
239	0x3de08e87	0.10964685
240	0x3e0f099d	0.13968511
241	0x3d15ffb8	0.036620826
242	0x3dc643f0	0.09680927
243	0x3cbb23ac	0.022844158
244	0xbd929ba6	-0.07158594
245	0xbdb3c6ae	-0.087781295
246	0x3e4d5acf	0.20054172
247	0x3dd78695	0.10523716
248	0x3def6de2	0.1169088
249	0x3dcf5084	0.10122779
250	0xbd9624b5	-0.0733122
251	0xbd43f3e6	-0.04784002
252	0xbe8142fa	-0.25246412
253	0xbeb0903b	-0.3448504
254	0xbd9aecb6	-0.0756468
255	0x3acfbfba	0.0015849986

fc1.bias f4 [32]
0	0x3dad071c	0.08448622
1	0x3cde169a	0.027110387
2	0xbc874d19	-0.016516255
3	0x3dbfeb25	0.09371022
4	0x3c84b3a9	0.01619895
5	0x3c3cb461	0.011517615
6	0x3d5a4d94	0.05329664
7	0x3d5e71a7	0.054307606
8	0x3c1ad07e	0.0094491225
9	0x3d1da123	0.03848375
10	0x3d75cf3a	0.06001208
11	0x3c3c899e	0.01150742
12	0x3d2c4f58	0.042067856
13	0xbc049c8b	-0.008093963
14	0xbb57cf9a	-0.0032930137
15	0x3c368ed8	0.011142455
16	0xbcaa198a	-0.020764131
17	0x3d2f3094	0.042770937
18	0x3d28c95e	0.041207664
19	0x3c9a9aca	0.018872637
20	0x3d0bbf46	0.03411796
21	0x3c3327d0	0.010934785
22	0x3ce06156	0.027390163
23	0xbb0221ee	-0.001985665
24	0x3d7cbdcc	0.061704442
25	0xbb51a764	-0.0031990642
26	0x3d32812d	0.043580223
27	0x3d0d052f	0.03442877
28	0x3d0f69c2	0.035012968
29	0x3cb60f3e	0.022224065
30	0x3ba74c07	0.0051054987
31	0xbb705ae5	-0.003667527

rnn.weight_ih f4 [96, 32]
0	0x3dddcead	0.10830436
1	0x3d2df4f1	0.042469922
2	0x3e30feb5	0.17284663
3	0xbdad23fa	-0.084541276
4	0xbdb39b79	-0.087698884
5	0xbe865a34	-0.26240695
6	0x3d197a82	0.03747035
7	0x3d592990	0.053018153
8	0x3da90297	0.08252447
9	0x3e20b4bc	0.15693945
10	0x3db0e681	0.08637715
11	0x3e0283ea	0.12745634
12	0xbdc7ba53	-0.097523354
13	0xbcbe9232	-0.02326307
14	0x3c3d4811	0.0115528265
15	0xbb4026d1	-0.0029320011
16	0xbb11e39a	-0.0022260905
17	0x3e0e4dee	0.13896915
18	0xbe756f22	-0.23968175
19	0x3d018669	0.031622324
20	0x3d8a60d6	0.06756751
21	0x3bbf92a9	0.0058463407
22	0x3de11d8d	0.109919645
23	0x3d80fa56	0.06297748
24	0x3e093f89	0.13403143
25	0xbd6e1d91	-0.058133665
26	0x3e0475ec	0.12935609
27	0x3b3c76ad	0.002875726
28	0x3d0e157d	0.03468846
29	0xbd97f727	-0.074201874
30	0x3e0f15b0	0.13973117
31	0xbd635288	-0.05549863
32	0xbd320aa3	-0.043467175
33	0xbe2843f2	-0.16432169
34	0x3db22e84	0.087002784
35	0x3e8a62c2	0.2702847
36	0x3dbbaaca	0.09163435
37	0x3d899ef2	0.067197695
38	0x3e42051e	0.18947265
39	0xbddb9aa9	-0.107228585
40	0xbdc0c888	-0.09413248
41	0xbd8a0ddb	-0.06740924
42	0x3d1bd9b5	0.03804942
43	0x3ee1380a	0.43988067
44	0xbe3a20fd	-0.18176647
45	0xbd727d2a	-0.059201397
46	0xbea74c73	-0.32675514
47	0x3ef9700b	0.48718295
48	0x3d323071	0.04350323
49	0x3ed81a03	0.42207345
50	0xbed7cbc5	-0.4214765
51	0x3ebd95ca	0.37028342
52	0xbd5dffbd	-0.05419897
53	0x3e400ab3	0.18754081
54	0x3e4d15b5	0.20027812
55	0xbea28950	-0.31745386
56	0xbe174bcb	-0.14775006
57	0xbd8fa64a	-0.07014139
58	0xbdd04ba3	-0.101706766
59	0xbc8cc87b	-0.01718544
60	0xbe4092c5	-0.18805988
61	0xbc1969fe	-0.009363649
62	0x3c8f56b9	0.017497407
63	0x3de4105c	0.11135933
64	0xbddc00f2	-0.10742368
65	0xbdd4d3f8	-0.10391992
66	0xbd2ec369	-0.042666826
67	0x3d8c648b	0.068551145
68	0xbd609d12	-0.054837294
69	0x3dafd47b	0.08585449
70	0xbe228051	-0.15869261
71	0xbd121f45	-0.035674352
72	0x3e8070f1	0.25086167
73	0x3e5e83a0	0.21729898
74	0xbe3dbaf0	-0.18528342
75	0x3c7c1954	0.015386898
76	0x3d985400	0.07437897
77	0x3e4cfa26	0.20017299
78	0xbdedb1cc	-0.11606178
79	0xbc6b9b77	-0.014380327
80	0x3e1537bf	0.14572047
81	0xbd7512ee	-0.059832506
82	0x3d4f3c92	0.050594874
83	0x3db15e7e	0.08660601
84	0xbd87f04c	-0.0663763
85	0x3e0b6291	0.13611819
86	0x3da5cdf1	0.08095921
87	0x3e7b19fe	0.24521634
88	0x3e284659	0.16433086
89	0x3e8eed34	0.27915347
90	0x3d55352a	0.052052654
91	0x3da9e44a	0.08295496
92	0x3cf84c26	0.030309748
93	0xbe49f5a7	-0.19722615
94	0x3de5609d	0.11200068
95	0xbd1f0bf4	-0.03882976
96	0x3e194877	0.1496905
97	0xbd544beb	-0.051830214
98	0x3d8a6cc5	0.067590274
99	0xbcb18804	-0.021671303
100	0xbdb1c394	-0.08679882
101	0x3dcc72c8	0.0998283
102	0xbcd3041b	-0.025758794
103	0x3e1671ff	0.14691924
104	0x3d84f111	0.06491292
105	0xbd0b633e	-0.03403019
106	0x3e3483b4	0.17628366
107	0xbd73ac79	-0.059490655
108	0x3e2cd041	0.16876318
109	0xbd0bc899	-0.03412685
110	0x3df2ffa8	0.11865169
111	0x3d2a4f90	0.041579783
112	0x3d99155c	0.07474777
113	0xbda8dee0	-0.08245635
114	0x3dd8e581	0.105906494
115	0x3c78c76c	0.015184265
116	0x3e1e02dd	0.1543078
117	0xbd8ab85e	-0.067734465
118	0x3da69f43	0.081358455
119	0xbe19c52f	-0.15016626
120	0x3e2df569	0.16988148
121	0x3baf1591	0.005343147
122	0xbe49ece0	-0.19719267
123	0xbb26bbe1	-0.0025441574
124	0xbe33584e	-0.17514154
125	0xbdbb3768	-0.09141427
126	0x3db23c20	0.08702874
127	0x3e20096d	0.15628596
128	0x3d66423a	0.056215502
129	0x3d0bec7f	0.034161087
130	0x3dcae1f7	0.099063806
131	0xbcdd09e4	-0.026982255
132	0xbcea2caa	-0.02858575
133	0xbea4b8e4	-0.3217231
134	0x3d93ce68	0.07217103
135	0xbc0e7945	-0.008695905
136	0xbe81f9d1	-0.25385907
137	0x3e343c5a	0.17601147
138	0x3dc2bc5a	0.095085815
139	0xbdbe3f13	-0.09289374
140	0xbe1e0f50	-0.15435529
141	0x3b0c8d49	0.0021446517
142	0x3d8750d6	0.06607215
143	0x3e81f59f	0.25382707
144	0xbc601470	-0.013676748
145	0x3e35c3a5	0.17750414
146	0xbe425e83	-0.18981366
147	0x3ea774b0	0.32706213
148	0x3cb74811	0.022373231
149	0x3e9837eb	0.29730162
150	0x3e129ba7	0.14317189
151	0x3d42b7af	0.047538456
152	0x3dcb5217	0.09927767
153	0xbe5afc19	-0.2138523
154	0xbd8f99df	-0.070117705
155	0xbd97da3f	-0.07414674
156	0xbd18dffb	-0.03732298
157	0x3e259da7	0.16173421
158	0x3d415194	0.04719694
159	0x3efa1701	0.48845676
160	0x3d8dc1f4	0.06921759
161	0xbe543fac	-0.20727414
162	0x3e3e3ebb	0.18578617
163	0xbe038d6f	-0.12846921
164	0x3e5f0cd8	0.21782243
165	0xbd40d6e1	-0.047079924
166	0x3e5528e7	0.20816384
167	0xbb59f922	-0.0033260067
168	0xbd104e1b	-0.035230737
169	0xbd83f2d5	-0.06442801
170	0xbde08b55	-0.109640755
171	0xbefb253d	-0.49051848
172	0xbd2873d7	-0.0411261
173	0xbee35772	-0.44402653
174	0xbe046516	-0.12929186
175	0xbc9f8c8a	-0.019476194
176	0xbe474692	-0.19460514
177	0x3dcb7af1	0.099355586
178	0xbe024ff1	-0.12725808
179	0x3d8f00bb	0.06982561
180	0xbcd28b0f	-0.025701074
181	0x3e164539	0.14674844
182	0x3d9b674e	0.07588063
183	0x3e2b8a77	0.16752039
184	0xbe87764b	-0.26457438
185	0x3e3ec0d9	0.18628253
186	0xbdb96fae	-0.09054504
187	0x3ddf5978	0.10905737
188	0xbe2c837d	-0.16847034
189	0xbd70077c	-0.058600888
190	0xbdceb8f7	-0.10093873
191	0xbe0e8560	-0.13918066
192	0xbe065808	-0.13119519
193	0x3e3f91a1	0.18707897
194	0xbe445ceb	-0.1917607
195	0x3e4da9f9	0.2008437
196	0xbe542901	-0.20718767
197	0xbe49f4c1	-0.19722272
198	0xbe375683	-0.17904095
199	0x3c46da4a	0.012137005
200	0x3dd42077	0.10357755
201	0x3e61315c	0.21991485
202	0x3cc29fb7	0.023757799
203	0x3dcf42ba	0.10120149
204	0x3e6cd50c	0.23128146
205	0xbdc0fcb1	-0.09423197
206	0xbe1fe39d	-0.15614171
207	0xbdd2c966	-0.1029232
208	0x3c47c0b2	0.012191938
209	0xbe943dea	-0.28953487
210	0x3d91d84e	0.07121335
211	0x3e73f426	0.23823604
212	0xbc85b3a1	-0.016321005
213	0xbe919e46	-0.28441066
214	0x3ddd5df5	0.108089365
215	0xba87684e	-0.0010330768
216	0x3ec29a32	0.38008267
217	0x3e658028	0.22412169
218	0x3e3c596c	0.18393487
219	0xbd899698	-0.067181766
220	0x3e0a3533	0.13496856
221	0x3cf8dc90	0.03037861
222	0xbdca3851	-0.09874023
223	0xbe2cb5b9	-0.16866197
224	0xbd972886	-0.07380776
225	0x3df1e88d	0.11811934
226	0xbdb16dde	-0.08663534
227	0xbe03f04a	-0.12884632
228	0xbea091b1	-0.31361154
229	0x3e94bd01	0.2905045
230	0x3e20feec	0.15722245
231	0xbdac78c9	-0.084214754
232	0x3e025e81	0.12731363
233	0x3c88e80d	0.016712213
234	0xbdd896c0	-0.10575628
235	0x3e32fc3e	0.17479035
236	0x3e21380d	0.15744038
237	0xbe4d9fd7	-0.20080505
238	0x3d6ce4df	0.057835456
239	0xbea38e4a	-0.31944495
240	0xbbfc3d73	-0.007697755
241	0xbc2102e2	-0.0098273475
242	0xbaf7137d	-0.0018850412
243	0xbebef120	-0.3729334
244	0xbe4da747	-0.20083342
245	0xbe511a1c	-0.20420116
246	0xbe4e93cf	-0.20173572
247	0xbdcaa615	-0.09894959
248	0x3d87a525	0.06623296
249	0xbda50caf	-0.0805906
250	0xbdac5f1b	-0.084165774
251	0x3e00b7fe	0.12570187
252	0x3e56b6c2	0.20968154
253	0xbe0cae60	-0.13738394
254	0xbdeaa0f1	-0.114564784
255	0xbe858548	-0.26078248

rnn.weight_hh f4 [96, 32]
0	0xbe319857	-0.1734327
1	0x3d8de94b	0.06929263
2	0x3c37040e	0.0111704
3	0x3d0868e1	0.033303145
4	0x3d5c7408	0.053821594
5	0x3de30c6b	0.11086353
6	0x3e03a3a8	0.12855399
7	0x3e859025	0.26086536
8	0x3b80953d	0.0039240406
9	0x3e6a1047	0.22857772
10	0x3ddbe91d	0.10737822
11	0xbd9f441f	-0.07776665
12	0xbca314ff	-0.019907473
13	0xbdbffeab	-0.09374746
14	0xbc806439	-0.01567279
15	0x3e7e5725	0.2483793
16	0xbd03e64c	-0.03220205
17	0xbd4fe98b	-0.050759833
18	0xbe26fbac	-0.16306943
19	0xbd8bbe5d	-0.06823418
20	0x3b2b57f1	0.0026144946
21	0x3e21da8b	0.15806024
22	0x3e15a0b9	0.14612092
23	0xbdef15bd	-0.11674068
24	0x3dc42ea9	0.09579212
25	0x3e04f26a	0.12983099
26	0xbde69e8b	-0.112607084
27	0x3b94990d	0.0045348466
28	0xbd9be256	-0.076115295
29	0x3dfb118a	0.12259205
30	0xbdc8ab61	-0.09798313
31	0xbe09490b	-0.1340677
32	0x3da0a699	0.07844276
33	0xbdb36df5	-0.08761207
34	0xbe58ca21	-0.21170856
35	0x3dd65165	0.104647435
36	0xbe236f33	-0.15960388
37	0xbbfbd912	-0.007685789
38	0x3df9043f	0.12159013
39	0xbe040524	-0.12892586
40	0xbe5ba804	-0.21450812
41	0xbd14e5e1	-0.036352042
42	0xbd12c73f	-0.035834547
43	0x3e001eb0	0.12511706
44	0xbccbe851	-0.02489105
45	0x3de0629c	0.10956308
46	0x3e1ce469	0.15321507
47	0x3e405bd9	0.18785037
48	0x3df65798	0.12028426
49	0xbd87a191	-0.06622613
50	0xbe2d86db	-0.16945975
51	0xbd2a48cf	-0.041573342
52	0x3a934d8d	0.0011238322
53	0x3de32a1f	0.11092018
54	0x3e56869a	0.20949784
55	0x3c7bb2e8	0.015362479
56	0xbdc62a18	-0.096759975
57	0x3d1bc606	0.038030647
58	0xbe3549f9	-0.17704
59	0xbe198f81	-0.14996149
60	0x3ddefe6f	0.10888373
61	0xbe4fd341	-0.2029543
62	0xbcd21e35	-0.02564917
63	0x3d887362	0.066626325
64	0xbe0994fc	-0.1343574
65	0x3e34b466	0.17646942
66	0xbcd41211	-0.025887521
67	0x3e370615	0.17873414
68	0xbe1e3613	-0.15450315
69	0x3e5e8b3b	0.217328
70	0xbdd8256b	-0.10554012
71	0xbd6ea0b2	-0.05825872
72	0x3eb25393	0.34829387
73	0xbd32c7b1	-0.04364747
74	0xbe114f3e	-0.14190385
75	0xba1c3c71	-0.0005959934
76	0x3e4bd5e2	0.19905809
77	0x3d6422d4	0.055697277
78	0xbdd03460	-0.1016624
79	0x3d94a74a	0.0725847
80	0x3d1ab60b	0.037771266
81	0x3e35aae4	0.17740971
82	0x3d29df19	0.041472528
83	0x3d4424f5	0.047886807
84	0xbc80ee67	-0.01573868
85	0x3c835825	0.016033242
86	0x3e2a71d8	0.1664499
87	0x3dcbc1d6	0.09949081
88	0x3dd53bd1	0.104118
89	0x3dadc792	0.08485331
90	0xbc193520	-0.009351045
91	0x3dbb1d60	0.09136462
92	0x3cb1b590	0.021693021
93	0x3e6a5280	0.22883034
94	0xbce5c79f	-0.028049288
95	0xbe0e63de	-0.13905284
96	0xbda55212	-0.08072294
97	0x3cc38663	0.023867792
98	0x3dad8143	0.0847192
99	0xbd8836de	-0.0665109
100	0x3d1aee65	0.037825007
101	0x3e07e845	0.13272198
102	0xbe0d33cf	-0.13789295
103	0xbe8b2983	-0.27180108
104	0x3e208bd7	0.15678345
105	0xbe050ec5	-0.12993915
106	0x3d53fcdd	0.05175482
107	0x3de6dfa7	0.11273127
108	0x3da9c310	0.08289158
109	0xbc86adb4	-0.01644025
110	0x3bc89fa9	0.0061225486
111	0xbdd26d80	-0.10274792
112	0x3e655455	0.22395451
113	0xbdf5a6f2	-0.11994733
114	0x3d574246	0.052553438
115	0x3e0d4f9c	0.137999
116	0x3e203fa5	0.15649278
117	0x3cf959c1	0.030438306
118	0x3db8e436	0.09027903
119	0xbde085ea	-0.10963042
120	0x3e137a43	0.14402108
121	0x3de6396a	0.112414196
122	0x3da96408	0.082710326
123	0x3e1deaa5	0.15421541
124	0xbd414314	-0.04718311
125	0xbd533435	-0.05156346
126	0x3e0370f9	0.12836064
127	0x3c4f5b8f	0.012656107
128	0x3db230a8	0.08700687
129	0xbe40bb82	-0.18821529
130	0xbd96bd9a	-0.073603824
131	0xbe526d2e	-0.20549461
132	0x3d4913ec	0.049091265
133	0xbcf082d1	-0.029359253
134	0xbe2b6dd7	-0.1674112
135	0x3d59c908	0.053170234
136	0x3e082017	0.13293491
137	0xbc85b339	-0.016320812
138	0x3ddd4558	0.10804242
139	0xbd650691	-0.055914465
140	0x3dcc6eab	0.09982046
141	0xbd0cc5bb	-0.034368258
142	0x3e0c7b6c	0.13718957
143	0x3e8429a8	0.2581303
144	0x3e671e2a	0.225701
145	0xbe8c9440	-0.27456856
146	0x3d51fe08	0.051267654
147	0x3dae000f	0.08496105
148	0xbd22614f	-0.039643582
149	0xbe15192b	-0.14560382
150	0x3e239e03	0.15978245
151	0xbeb1d6b5	-0.3473412
152	0x3e0ee275	0.13953574
153	0xbdbc632b	-0.09198602
154	0xbe05189d	-0.1299767
155	0x3dd0b1a4	0.10190132
156	0x3d3f2355	0.046664555
157	0xbe62ebda	-0.22160283
158	0x3d4a7591	0.049428526
159	0xbd34f87c	-0.044182286
160	0x3d861bd7	0.06548279
161	0xbd585d4b	-0.052823346
162	0x3d916204	0.07098773
163	0xbdb4fbd4	-0.08837095
164	0x3dbe0ead	0.09280143
165	0xbe26aed2	-0.16277626
166	0xbb41ea5c	-0.0029589152
167	0xbe09ffa9	-0.13476433
168	0x3e2d7c21	0.16941883
169	0xbd94601f	-0.07244896
170	0xbda5a678	-0.08088392
171	0xbd0691aa	-0.03285376
172	0x3e432d6c	0.19060296
173	0xbd570cc7	-0.05250242
174	0x3d681ecf	0.056670006
175	0x3dda8169	0.10669214
176	0x3e48fa83	0.19626813
177	0xbe8c3162	-0.27381426
178	0x3e00c6be	0.12575814
179	0x3ccbd35c	0.024881057
180	0xbe0b6543	-0.13612847
181	0xbdd8391e	-0.10557769
182	0xbd7b6677	-0.061377015
183	0xbda64125	-0.08117894
184	0x3dde8a83	0.10866263
185	0x3e0aaed2	0.13543251
186	0xbd90add7	-0.07064407
187	0x3e54494c	0.20731086
188	0xbe14bd7f	-0.14525412
189	0xbe4c1aab	-0.19932048
190	0xbdd9355d	-0.10605881
191	0xbd7cbf11	-0.061705653
192	0xbd0548ba	-0.03254006
193	0x3e9a71c6	0.30164927
194	0xbd0cc7bc	-0.03437017
195	0xbd71eb71	-0.059062425
196	0xbdce6940	-0.100786686
197	0x3e59888f	0.21243499
198	0xbd149c5d	-0.036281932
199	0x3e3ef957	0.18649803
200	0x3d9bf100	0.076143265
201	0x3d946600	0.072460175
202	0x3bd96e45	0.0066354596
203	0xbdad96f2	-0.08476056
204	0xbe068407	-0.13136302
205	0x3caca8b7	0.021076543
206	0x3dff0d55	0.12453715
207	0xbe2846f9	-0.16433324
208	0xbdcc2d27	-0.099695496
209	0xbda10c32	-0.07863654
210	0xbd4cd269	-0.05000535
211	0x3c9b0615	0.018923799
212	0x3dcac74d	0.09901295
213	0x3d13238f	0.035922583
214	0x3d90ed30	0.0707649
215	0xbded6655	-0.11591784
216	0x3d7da6f4	0.061926797
217	0x3cbcc814	0.023044623
218	0xbe053f27	-0.13012372
219	0xbd46ded4	-0.04855235
220	0xbd1de82a	-0.038551487
221	0x3e574d15	0.21025498
222	0x3e1940a4	0.14966065
223	0x3b9f2b6c	0.004857471
224	0xbdafcad0	-0.08583605
225	0x3d2927b8	0.041297644
226	0x3e8897c4	0.26678288
227	0x3d421699	0.047384832
228	0x3db6af71	0.089201815
229	0xbe4ab66c	-0.19796151
230	0xbabebf7b	-0.0014552915
231	0x3da7638f	0.08173286
232	0x3e0b63b4	0.13612252
233	0x3da5d285	0.08096794
234	0x3dd8e1e6	0.10589962
235	0xbe46ea02	-0.19425204
236	0xbd355d78	-0.044278592
237	0x3d9e5c5c	0.0773246
238	0xbdfc2e11	-0.12313474
239	0xbe464ec2	-0.19365981
240	0xbe470033	-0.1943367
241	0x3e0b6936	0.13614354
242	0xbd3822ac	-0.04495494
243	0xbe01c1a9	-0.12671532
244	0xbd8acb60	-0.06777072
245	0x3d7f7e17	0.062376108
246	0xbd174138	-0.03692743
247	0x3bbb4bd0	0.0057158247
248	0xbbdd3a77	-0.0067513543
249	0x3d8c1734	0.06840363
250	0xbe272af3	-0.16324978
251	0xbe89871e	-0.268609
252	0x3e42a2d4	0.19007427
253	0xbd4f4df2	-0.050611444
254	0xbc5cf898	-0.013487004
255	0x3d583f47	0.05279472

rnn.bias_ih f4 [96]
0	0xbe117ed0	-0.14208531
1	0x3d4f6e76	0.050642453
2	0x3e175d8f	0.14781784
3	0xbdf9c2bf	-0.12195348
4	0x3e009e9a	0.12560502
5	0x3db12aab	0.086507164
6	0x3d213c49	0.039364133
7	0xbd9eee9e	-0.07760356
8	0xbe1669db	-0.14688818
9	0x3dd77461	0.105202444
10	0x3c3f94ec	0.011693221
11	0x3dc20246	0.0947309
12	0xbcfe7b87	-0.031064762
13	0xbd60dc52	-0.054897614
14	0x3c3b5e2f	0.011436029
15	0xbd980ecf	-0.074246995
16	0x3e4a206e	0.19738933
17	0x3dc35880	0.095383644
18	0x3e178d05	0.14799888
19	0xbd805f9e	-0.062682375
20	0xbd9ea939	-0.077471204
21	0x3e40f1d3	0.18842249
22	0x3e501a8e	0.2032263
23	0xbba68f72	-0.005083018
24	0x3bb97950	0.0056602135
25	0x3bcff325	0.0063461238
26	0xbc5d7fd6	-0.013519248
27	0xbdb49c12	-0.088188305
28	0x3d710a9e	0.058848016
29	0xbdcb1418	-0.09915942
30	0x38536311	5.0398583e-05
31	0xbd0fe51b	-0.0351306
32	0xbe0178bb	-0.12643711
33	0xbd885228	-0.06656295
34	0xbd0ee857	-0.034889545
35	0xbe683b9f	-0.22678994
36	0xbe04fc13	-0.12986784
37	0xbe032e4d	-0.12810631
38	0xbd053376	-0.03251978
39	0xbd3f5cc7	-0.04671934
40	0xbe0296c0	-0.12752819
41	0xbbf3f1c0	-0.0074445903
42	0x3c6c5c2c	0.014426272
43	0x3d662a0c	0.056192443
44	0xbdf85431	-0.12125433
45	0x3e82ed52	0.25571686
46	0xbd03bc6a	-0.032162108
47	0xbd04358e	-0.032277636
48	0x3d50874c	0.05091028
49	0xbe8e0f7f	-0.27746198
50	0x3db69060	0.08914256
51	0xbd3152b4	-0.043291762
52	0xbe08d802	-0.1336365
53	0xbe0a50a3	-0.13507323
54	0xbd30ca45	-0.04316165
55	0x3d10a735	0.03531571
56	0xbe8a8a61	-0.270587
57	0xbdb5ef4c	-0.08883533
58	0xbe675396	-0.22590479
59	0xbc880c88	-0.016607538
60	0x3dbd6a80	0.09248829
61	0xbcdf1fac	-0.027236782
62	0xbdcccdd7	-0.10000198
63	0xbd391b4e	-0.045192055
64	0xbdc696f2	-0.09696759
65	0xbe21b2a3	-0.15790801
66	0x3d25069b	0.040289503
67	0x3d690008	0.056884795
68	0x3de00485	0.10938362
69	0x3c9e548b	0.019327423
70	0xbc8b4d51	-0.01700464
71	0xbdfe82a1	-0.12427259
72	0x3e126078	0.14294612
73	0xbd496dc2	-0.04917694
74	0xbd5d7082	-0.054062374
75	0x3df46ba2	0.11934592
76	0xbdef7ae0	-0.116933584
77	0x3e190226	0.14942226
78	0xbde39088	-0.111115515
79	0x3b92b4d8	0.0044771247
80	0x3e2914ca	0.16511837
81	0xbdd1e7d5	-0.102492966
82	0x3debad43	0.115076564
83	0x3e02a5ce	0.12758562
84	0xbe506889	-0.20352377
85	0x3d8d4360	0.068976164
86	0x3e3b25b0	0.18276095
87	0x3e42fd66	0.19041976
88	0xbdfa7332	-0.12229003
89	0xbd723c5b	-0.05913959
90	0x3e15259c	0.14565128
91	0x3e13bfd9	0.14428653
92	0xbda33b6c	-0.07970318
93	0x3e311c74	0.1729601
94	0xbbcd35b5	-0.006262506
95	0xbdfe57f7	-0.12419122

rnn.bias_hh f4 [96]
0	0xbe0da8c8	-0.13833916
1	0xbde6059f	-0.11231541
2	0xbcf6def6	-0.030135613
3	0xbdf2199c	-0.11821291
4	0xbe23559f	-0.1595063
5	0xbe167885	-0.14694412
6	0xbc2ff08a	-0.010738501
7	0xbe3b2348	-0.18275177
8	0x3da50f54	0.08059564
9	0xbd13b389	-0.03605989
10	0x3e205228	0.1565634
11	0xbe2f604c	-0.17126578
12	0x3a37087e	0.00069821614
13	0x3e4626ad	0.19350691
14	0x3a6b0f4e	0.0008966819
15	0xbe1a1eb7	-0.1505078
16	0xbd92ace9	-0.07161886
17	0xbd09462e	-0.033514194
18	0xbd4885a3	-0.04895557
19	0xbd2755e1	-0.040853385
20	0x3d7afce6	0.06127634
21	0x3d68c1ba	0.056825377
22	0xbcd07c80	-0.025449991
23	0x3d458f0c	0.048232123
24	0xbd6b1559	-0.057393406
25	0xbdf41f27	-0.11920004
26	0x3e0fed72	0.14055422
27	0xbe2a2cf6	-0.16618714
28	0xbdcc7462	-0.09983136
29	0x3dc4e148	0.096132815
30	0x3dff9110	0.1247884
31	0xbb15f2e4	-0.002288037
32	0x3d7cb6d9	0.061697815
33	0xbd07db19	-0.033167932
34	0xbe2dcbff	-0.1697235
35	0xbdc04247	-0.093876414
36	0xbe780fa4	-0.24224716
37	0xbdee39f1	-0.11632145
38	0xbdef551a	-0.11686154
39	0xbe79df2e	-0.24401543
40	0x3dbdefa3	0.09274223
41	0xbe754262	-0.23951104
42	0x3c70c297	0.014694831
43	0xbcd7283d	-0.026264304
44	0xbe8ca840	-0.27472115
45	0x3e1a5186	0.15070161
46	0xbdb5996d	-0.08867154
47	0x3c34c707	0.01103378
48	0x3dadb8e3	0.0848253
49	0xbe2b0da8	-0.16704428
50	0xbdfffeb6	-0.12499754
51	0xbe69f709	-0.22848143
52	0xbe153b51	-0.14573409
53	0xbe515da9	-0.20445885
54	0xbe10ddf2	-0.14147165
55	0x3d9e562d	0.077312805
56	0xbdfd9556	-0.12381999
57	0x3d47c535	0.048772056
58	0xbd6fa843	-0.058510076
59	0xbd855057	-0.06509464
60	0xbe526f41	-0.20550252
61	0x3d0a6ece	0.033797078
62	0xbe41219c	-0.18860477
63	0xbe7edacb	-0.2488815
64	0xbd286841	-0.04111505
65	0xbccfc0fd	-0.025360579
66	0x3e6fd595	0.23421319
67	0x3e2d83ed	0.16944857
68	0xbe285e0d	-0.16442128
69	0xbd8f2d7d	-0.06991098
70	0x3e0ac9e6	0.1355358
71	0xbde8a01d	-0.11358664
72	0x3dbf79f1	0.0934943
73	0xbc9c0a74	-0.019047953
74	0x3dd877ae	0.10569702
75	0x3dbeaeae	0.09310661
76	0xbdc0c34e	-0.094122514
77	0x3dc3a38b	0.09552678
78	0x3b2b48c8	0.002613591
79	0x3e03d5af	0.12874483
80	0xbc716b19	-0.014735007
81	0xbd3343f1	-0.043765966
82	0xbe0e25a3	-0.13881545
83	0x3db3bfc3	0.0877681
84	0x3d4363e9	0.047702704
85	0x3d6611ef	0.056169447
86	0xbd89379f	-0.06700062
87	0x3c692240	0.014229357
88	0xbe424a77	-0.18973719
89	0xbe0fa514	-0.14027816
90	0xbd29ccda	-0.041455127
91	0xbdd4329a	-0.10361214
92	0xbdc3500f	-0.09536754
93	0x3e24a0bc	0.1607694
94	0x3d519774	0.051169828
95	0xbe2c862d	-0.16848059

fc2.weight f4 [6, 32]
0	0x3dd5cc65	0.10439376
1	0x3daf119a	0.08548279
2	0xbdfbe6d3	-0.122998856
3	0x3db8cb44	0.09023145
4	0x3e4abd94	0.19798881
5	0xbd7eb70f	-0.062186297
6	0xbdb65314	-0.08902565
7	0x3e2b4bda	0.16728154
8	0xbe43e586	-0.19130525
9	0xbc8a2215	-0.016861955
10	0x3de66c03	0.1125107
11	0x3e875edd	0.26439562
12	0x3dd1f6ed	0.102521755
13	0x3e63656f	0.22206663
14	0x3bc21459	0.005922836
15	0x3dbf682d	0.09346042
16	0x3ca7886b	0.020450791
17	0x3d946524	0.072458535
18	0xbd07c458	-0.033146232
19	0x3e822545	0.2541906
20	0xbe7e909b	-0.2485985
21	0x3e86a658	0.26298785
22	0x3d9a8dc4	0.07546571
23	0x3e9fca90	0.3120923
24	0xbe07228f	-0.13196777
25	0xbe1f7574	-0.15572149
26	0xbe2a6c4c	-0.16642874
27	0x3de17ec5	0.110105075
28	0xbd321ea5	-0.043486256
29	0xbdf71663	-0.12064817
30	0x3d6b38a2	0.057427056
31	0xbed60b70	-0.418056
32	0x3cbd9783	0.023143535
33	0xbcbf8e1e	-0.023383196
34	0x3d4a6896	0.049416147
35	0x3e14c005	0.14526375
36	0x3d35edb4	0.044416144
37	0x3e6741fd	0.22583766
38	0xbdfa1ec2	-0.12212898
39	0x3d14d772	0.036338277
40	0xbdc2a9f6	-0.09505074
41	0x3e67c49c	0.22633594
42	0xbe006f69	-0.125425
43	0xbdd932d8	-0.10605401
44	0xbdb18afd	-0.08669088
45	0xbd36a554	-0.044591263
46	0x3e04ea65	0.1298004
47	0x3e094833	0.13406448
48	0x3e18a54e	0.14906809
49	0x3e1336c6	0.14376363
50	0xbd876b22	-0.06612231
51	0x3e8051f8	0.25062537
52	0xbe7531a0	-0.23944712
53	0x3d8610d6	0.0654618
54	0x3dbd7676	0.0925111
55	0x3eb3148c	0.34976614
56	0xbe58e5f3	-0.21181469
57	0x3e5629e6	0.2091442
58	0x3d86bdb5	0.065791525
59	0xbe5bd3c9	-0.21467508
60	0x3e26de39	0.16295709
61	0x3eb4c96c	0.35309923
62	0xbd9913ac	-0.07474455
63	0x3e4faa78	0.20279872
64	0x3c6e1fc5	0.014533942
65	0x3d394b9a	0.045238115
66	0x3da192e7	0.078893475
67	0x3e4bd41a	0.19905129
68	0xbe1faeb1	-0.15593983
69	0xbe2a3d2b	-0.16624896
70	0xbe847120	-0.25867558
71	0x3ecb3c29	0.39694336
72	0xbde25cb2	-0.110528365
73	0x3e0354d5	0.1282533
74	0xbe222cd3	-0.15837412
75	0xbdaa5835	-0.083176054
76	0xbcb6544a	-0.022256989
77	0xbd9a081c	-0.07521078
78	0x3ed56bc6	0.41683787
79	0x3cb1e7e1	0.021717014
80	0xbec0db22	-0.37667185
81	0x3ea59480	0.3233986
82	0x3cb1bf89	0.021697776
83	0xbe40c60c	-0.18825549
84	0xbe453e94	-0.19262153
85	0xbd1e50a4	-0.038651124
86	0x3e1bcf72	0.15215853
87	0xbec31911	-0.38105062
88	0xbd3a4e39	-0.045484755
89	0xbe7c3435	-0.2462929
90	0x3e3c31c7	0.18378364
91	0xbdfdd95b	-0.12394973
92	0x3e03c140	0.12866688
93	0xbc7f9188	-0.015598662
94	0xbc8e4c81	-0.017370464
95	0xbe7b1863	-0.24521022
96	0x3ebb2d6c	0.36558092
97	0x3e26c8c4	0.16287524
98	0x3e962572	0.29325444
99	0x3e3107de	0.17288157
100	0xbdd677ac	-0.10472044
101	0xbe4cb692	-0.1999152
102	0x3e8d30cb	0.2757629
103	0xbe39b7cd	-0.1813652
104	0x3d9a24d2	0.07526554
105	0x3e96c4ed	0.29447117
106	0xbe4ab072	-0.19793871
107	0xbe95a26a	-0.29225475
108	0x3e67f4d6	0.22651991
109	0xbe269f1b	-0.16271631
110	0x3ca5f788	0.020259634
111	0x3d24940f	0.040180262
112	0x3db63df2	0.08898534
113	0x3d5f1c5b	0.0544704
114	0x3ec1e6b2	0.3787132
115	0x3dcc03f2	0.0996169
116	0xbe94fbfe	-0.29098505
117	0x3d23eabd	0.040018786
118	0xbd9c791a	-0.07640286
119	0x3dc14672	0.094372645
120	0x3d97e30a	0.07416351
121	0xbdc67ee8	-0.09692174
122	0x3db6267c	0.08894059
123	0x3e42554c	0.1897785
124	0x3d6922bb	0.056917887
125	0xbd31d21a	-0.04341326
126	0xbdb07213	-0.08615508
127	0xbe13cd75	-0.14433844
128	0x3ccca801	0.024982454
129	0xbd3123c1	-0.04324699
130	0x3ee0e321	0.43923286
131	0xbe2f0111	-0.1709025
132	0xbe07ec1c	-0.13273662
133	0xbe497ec6	-0.19677266
134	0xbe0908a5	-0.13382204
135	0xbd964170	-0.073367
136	0xbc81d8b3	-0.0158504
137	0xbe472756	-0.19448599
138	0xbe806564	-0.25077355
139	0x3e830058	0.255862
140	0x3d8093b8	0.06278175
141	0x3d488347	0.04895332
142	0x3df5353c	0.11973044
143	0xbe2515c3	-0.16121583
144	0x3e11f601	0.14254
145	0x3d58686d	0.052833963
146	0x3ca7ddd4	0.020491518
147	0x3e822a85	0.25423065
148	0x3e0a292b	0.13492267
149	0xbe4805d4	-0.19533473
150	0x3e525304	0.2053948
151	0x3d8919ae	0.06694351
152	0x3ba4b0ff	0.0050259824
153	0xbde02a88	-0.10945612
154	0xbe881a2f	-0.26582476
155	0x3e301ece	0.17199251
156	0x3ea6bac3	0.32564363
157	0x3e07ea14	0.13272887
158	0xbd3e5db6	-0.04647609
159	0xbd9cc1a0	-0.076541185
160	0xbd37ff9a	-0.044921495
161	0xbf1865bc	-0.59530234
162	0x3ed6227e	0.4182319
163	0x3e1cb03c	0.15301603
164	0xbe09e06a	-0.13464513
165	0x3e132b1b	0.14371912
166	0x3dfc299e	0.12312625
167	0xbe68dbd8	-0.22740114
168	0xbea459ee	-0.3209986
169	0xbc6b3117	-0.014354966
170	0xbd6775d2	-0.056508847
171	0x3d850794	0.06495586
172	0x3eb6f153	0.3573099
173	0x3ce38bad	0.027776564
174	0x3cd95954	0.026531853
175	0xbdd8bf16	-0.10583322
176	0x3d4819f2	0.04885287
177	0xbef3c434	-0.4761063
178	0xbe55e621	-0.20888568
179	0x3db5adc0	0.08871031
180	0xbec3e095	-0.3825728
181	0xbed8d435	-0.423494
182	0x3eb67087	0.35632727
183	0xbd959b4c	-0.07305011
184	0x3c83e4bc	0.01610028
185	0xbd96941e	-0.0735247
186	0xbb253982	-0.002521128
187	0xbe57c58b	-0.2107145
188	0xbe33a390	-0.17542863
189	0xbef44f27	-0.47716638
190	0x3e9d090f	0.30670974
191	0xbcfa0363	-0.030519193

fc2.bias f4 [6]
0	0x3be6e82d	0.0070467205
1	0x3be30219	0.0069277403
2	0x3d1ec232	0.038759418
3	0x3c81ff51	0.015868815
4	0x3d0507bb	0.032478075
5	0x3d0d1f49	0.034453664
