results/alpha_0.0/agent_final.pt (torch, 43205 bytes, 8 tensors)

fc1.weight f4 [32, 104]
000000 68 8f 6f be 00 4c 48 3e 55 b4 70 3e 25 32 71 3e
       -0.23394549 0.19560242 0.23506291 0.23554285
000010 3a a2 9d 3e 9d b6 92 be f5 9f 4a be fd 6e 84 3d
       0.30787832 -0.28654948 -0.19787581 0.06466482
000020 8f a3 07 3d b7 7e 2f 3d f0 12 d0 3c f7 fb a4 bd
       0.033114966 0.042845454 0.025399655 -0.08055871
000030 39 f4 ad bd 27 95 60 3e 73 bd 49 bd 3c 27 33 bd
       -0.084938474 0.21931897 -0.04925294 -0.04373859
000040 47 33 2c bc 36 4d 9b 3d 5e 65 e3 3d 51 ab 9a bd
       -0.010510272 0.07583086 0.11103319 -0.07552207
000050 1b 55 21 3e c5 d2 9d bd 36 08 dd bd 0a 2e a9 3d
       0.15755121 -0.07706217 -0.10792582 0.082607344
000060 bd ac be bc b0 04 5d 3e 70 57 65 be 67 ed 77 be
       -0.023275727 0.2158382 -0.22396636 -0.24211656
000070 6b ee 1c be 15 01 9f 3d e5 52 71 bd 2f 62 2a bd
       -0.15325324 0.07763878 -0.058916945 -0.04159754
000080 fc f2 23 be 99 1d a1 3b e0 a6 d5 3d 5f 5f 14 bd
       -0.1601066 0.0049168584 0.104322195 -0.036223765
000090 d2 ba dd 3d 59 78 84 3e d0 d6 05 3b 5a 97 2a bd
       0.10826649 0.25873068 0.0020422228 -0.041648246
0000a0 d2 0f 28 bd f8 53 4a 3b a1 fa 13 3b 3e 0b 6c 3e
       -0.041030712 0.0030872803 0.0022579806 0.23051164
0000b0 6c 11 4e be 92 8b 11 3d b6 54 bb 3d b5 9a f8 3d
       -0.20123833 0.035533495 0.09147017 0.12138883
0000c0 75 84 e5 3c 68 eb ea 3d 52 ca 88 3d 18 b8 6a 3d
       0.028017262 0.114706814 0.066792145 0.05730447
0000d0 b9 02 d5 3d ff 31 bc 3d d1 02 55 bd bc d9 ad 3d
       0.1040091 0.091892235 -0.05200464 0.08488795
0000e0 69 c2 8e bc f9 af 02 bd a7 18 c2 bd bb 3d f9 3b
       -0.017426686 -0.0319061 -0.09477358 0.007606236
0000f0 0f 24 55 3d 67 f1 b9 bd f4 e6 bc 3c d0 d5 17 bc
       0.05203634 -0.09079247 0.023059346 -0.0092672855
000100 1c 43 cd 3d 53 4f f1 3d 0f c4 a3 3e 6a 48 08 3d
       0.10022566 0.11782708 0.31985518 0.033272184
000110 e2 c3 bf bd 9f 01 c4 3c 54 f3 25 bd c2 d1 d4 3d
       -0.093635336 0.023926554 -0.04051526 0.10391571
000120 ab 08 42 be 61 0c 82 bc 11 77 fd 3b 23 75 3e 3e
       -0.18948619 -0.015875043 0.007735141 0.18599372
000130 9f d8 50 bd 19 44 67 be dc b6 96 bd 50 a1 bf 3d
       -0.050987836 -0.22584571 -0.073590964 0.0935694
000140 1b 09 ef bb 9e 42 6a 3d e5 a3 73 be 2f ab 43 bd
       -0.0072947866 0.057192437 -0.2379299 -0.047770675
000150 d6 f9 2c 3d e0 82 99 3d 88 3d 35 3c 11 09 02 bb
       0.04223045 0.074956656 0.0110620335 -0.001984183
000160 ed 1d 06 3d 38 e7 23 3d 99 92 a3 3d c3 33 9f 3d
       0.032743383 0.04001543 0.07986946 0.07773545
000170 82 3d 0f 3e 60 d3 6b be ae 1e 23 be 89 8c 05 3e
       0.13988307 -0.23029852 -0.15929672 0.13041891
000180 14 ce 05 be 71 d5 59 3e b6 33 38 3e f6 09 80 3d
       -0.13066894 0.21272828 0.17988476 0.062519
000190 04 d7 45 bd c6 0a 2a 3e e8 ab e9 bd 5e 5e cd 3c
       -0.048300758 0.16605672 -0.11409742 0.025069412
0001a0 13 0b 73 be 96 5b a1 3d 9c d7 c8 3d 99 ba 8e 3e
       -0.23734693 0.07878797 0.09806749 0.27876738
0001b0 ba ff 05 bd 6c ad ab 3e f3 29 e1 bd 96 2b 68 bd
       -0.032714583 0.33530748 -0.10994329 -0.05668219
0001c0 8c ca 08 be b1 81 6b bd 7a 2b 01 3e 84 ff 49 be
       -0.13358516 -0.05749673 0.12614241 -0.19726378
0001d0 64 0c 47 be 5d d6 64 bd 58 c4 b3 bd 7b 8f 85 3d
       -0.1943832 -0.055868495 -0.08777684 0.06521507
0001e0 60 ec 46 3e 08 c3 44 bd b6 77 fe bb 1f 69 88 bd
       0.19426107 -0.04803756 -0.0077657355 -0.06660675
0001f0 20 ae db ba 59 27 80 3d 4a 17 91 3c 0a 5c 58 3d
       -0.0016760267 0.06257505 0.0177113 0.05282215
000200 55 25 b7 3d eb b1 54 3e 7c ff a1 bc 9e b9 85 3e
       0.089426674 0.20770995 -0.019775145 0.26118177
000210 76 ba 0d 3e d3 e3 1e 3e f1 47 a0 bc 5c f8 12 be
       0.1384066 0.15516596 -0.019565554 -0.14352554
000220 5c 5b ba 3d 48 cd d6 3d eb 51 07 3c 26 82 98 3d
       0.09099457 0.10488373 0.008259277 0.07446699
000230 4d 6d c8 3c 1a 97 51 3e c4 17 15 3e 88 35 2d bb
       0.024466181 0.20467797 0.14559847 -0.0026429612
000240 90 a4 67 be 3e ba 2c be d7 6e d7 bc 15 b8 14 bd
       -0.2262137 -0.16867921 -0.02629797 -0.036308367
000250 ba 0a ee 3d 1c c3 f7 3b e0 31 1a 3c 9c 06 0b b9
       0.1162314 0.0075611006 0.009411305 -0.00013258535
000260 39 38 45 bd 34 57 dc 3b e6 1c e5 bd 89 33 08 bd
       -0.04814932 0.0067242626 -0.111871526 -0.033252273
000270 43 c4 f4 3c 98 94 90 ba 2e fb 39 3b d3 6b 8c 3c
       0.029878741 -0.0011030613 0.0028378475 0.017141258
000280 6e ef be bd 38 1f 8d bd 76 77 f0 3b 56 34 81 3b
       -0.09323011 -0.0689072 0.0073384596 0.0039430065
000290 5a 2c 66 3c 32 e9 b2 3d d8 cf 42 3e b5 38 05 be
       0.01404866 0.08735885 0.19024599 -0.13009913
0002a0 d3 4f 82 bd d2 3b a8 bd 83 27 18 3e 6f e3 35 bd
       -0.063628815 -0.08214535 0.14858823 -0.04440635
0002b0 3e 91 8f 3d 39 ec dd bd 07 ab 14 bd 4a 58 f4 3d
       0.070101246 -0.108360715 -0.036295917 0.11930902
0002c0 08 ce 47 3d 46 64 e1 3d a2 ee e3 bc d4 05 3a 3e
       0.04878047 0.11005454 -0.02782375 0.18166286
0002d0 20 d7 f8 bd 30 59 82 bd f6 37 81 bd 15 cb 31 3d
       -0.12150407 -0.063646674 -0.06309502 0.043406565
0002e0 07 4e 00 be ce be ee 3c d0 d6 2f 3d 7c b1 06 3e
       -0.12529765 0.029143717 0.04292947 0.13153642
0002f0 de 12 55 3d d5 cf 12 bd 7f f7 09 be cf 11 2c be
       0.052019946 -0.035842735 -0.13473319 -0.16803668
000300 bc 91 c5 bd 2a 6d 3b be 47 df 0d 3d 4d 21 83 bc
       -0.09646937 -0.18303362 0.034636762 -0.01600709
000310 35 c4 26 be 8e 2c 1c bd b4 2c 09 3e b3 34 0e be
       -0.16285785 -0.03812843 0.13395959 -0.1388729
000320 59 16 62 bd ac 4d ca 3c 15 3d 4c 3d cf 06 c3 3d
       -0.055197094 0.02469524 0.04986294 0.09522783
000330 d1 b9 23 bc 5f e9 99 3d c7 db 23 bd 1a 77 a6 bd
       -0.009993033 0.07515215 -0.040004518 -0.081281856
000340 ab 7a a4 3d 35 70 7d bd 23 96 15 be 54 b6 21 be
       0.080312096 -0.061874587 -0.14608054 -0.15792209
000350 b4 53 a0 3e 54 4e 9d bd 83 a8 db bd ba 31 31 3e
       0.3131386 -0.076809555 -0.107255004 0.17304125
000360 cd 81 30 bd 72 d0 64 3e b7 13 2d bd d1 b4 8a 3d
       -0.043092538 0.2234514 -0.04225513 0.06772769
000370 44 b5 c2 bd e9 f8 d0 ba b2 ee 36 bd 5c ae b3 3d
       -0.0950723 -0.0015943322 -0.04466123 0.08773491
000380 d1 e2 16 be fb 74 3d 3d 18 ec 6f bd 38 49 97 bd
       -0.14734961 0.04625414 -0.058574766 -0.07387012
000390 31 45 2c 3d 1c a7 45 3e 8a 89 e2 3d 92 0f 0f 3e
       0.042058174 0.19302028 0.1106139 0.13970783
0003a0 ce 55 fd bd 82 c2 e3 3b 34 d7 2c bd fc 14 3d 3d
       -0.123698816 0.0069506774 -0.04219742 0.04616259
0003b0 6c 11 c3 3d 98 28 d4 3c 46 f3 09 3e ec 52 d6 3d
       0.09524807 0.025898263 0.13471708 0.10465035
0003c0 9d 09 0f 3e b8 ff 15 3d f0 43 c6 3d ac 23 bb 3c
       0.13968511 0.036620826 0.09680927 0.022844158
0003d0 a6 9b 92 bd ae c6 b3 bd cf 5a 4d 3e 95 86 d7 3d
       -0.07158594 -0.087781295 0.20054172 0.10523716
0003e0 e2 6d ef 3d 84 50 cf 3d 58 56 7c bd 75 42 7e bd
       0.1169088 0.10122779 -0.06160578 -0.062075097
0003f0 6d f4 78 be ca c3 a2 be 2e f7 7d bd ad 31 c3 bc
       -0.24311991 -0.3179 -0.062003307 -0.023827398

fc1.bias f4 [32]
000000 d4 23 af 3d 54 d7 d9 3c 8a 1c 08 bc c3 a4 c7 3d
       0.085517555 0.026591934 -0.0083075855 0.09748223
000010 94 e5 9e 3c a0 73 2f 3c 07 ac 59 3d 08 9d 8a 3d
       0.01939658 0.0107087195 0.053142574 0.067682326
000020 2a 48 3d 3c 2b d0 fc 3c 1b 88 7f 3d be 37 03 3c
       0.01155285 0.030860981 0.06238566 0.008008895
000030 2f 45 4f 3d 5a c8 f4 b9 ae df 39 bc ca fb 1e 3c
       0.050603088 -0.0004668858 -0.011344833 0.009703586
000040 64 f6 88 bc 7b ff 3d 3d 99 98 3a 3d a3 0f fc 3c
       -0.01671905 0.046386223 0.045555685 0.030769175
000050 01 59 2c 3d 2a be 3b 3c f1 a5 f5 3c 2b 13 76 bb
       0.04207707 0.011458913 0.029986354 -0.0037548046
000060 5a ce 95 3d 95 2b f8 bb d9 83 1f 3d 1f 21 17 3d
       0.07314749 -0.0075735548 0.0389441 0.03689682
000070 68 a1 1a 3d 99 d6 e1 3c eb 24 23 3a ea 32 1e 3b
       0.037751585 0.027568148 0.0006223458 0.0024139234

rnn.weight_ih f4 [96, 32]
000000 54 e8 01 3e 5b 99 5d 3d 5b 70 40 3e 7a b9 c2 bd
       0.12686282 0.05410133 0.1879286 -0.09508033
000010 37 78 b0 bd a0 a7 89 be fc 75 4d 3c fd ce 46 3d
       -0.08616679 -0.268857 0.012540337 0.048537243
000020 ad 99 c1 3d 10 f9 22 3e 76 db b2 3d 18 99 e3 3d
       0.094531395 0.15915322 0.08733265 0.11113185
000030 74 3c d2 bd be 97 5d bc f8 0a d7 ba d3 72 24 bd
       -0.10265437 -0.013524948 -0.0016406467 -0.040148567
000040 bd 60 59 bc 67 2b 0c 3e 4c c6 7d be bc 3b 36 3d
       -0.013267693 0.13688432 -0.24782676 0.04449056
000050 5e fa 94 3d 83 37 12 3b b1 08 e2 3d 89 79 6e 3d
       0.07274316 0.002231092 0.11036814 0.058221374
000060 60 ad 09 3e 22 83 15 bd 9f 64 03 3e d6 39 1d 3d
       0.13445044 -0.03650201 0.12831353 0.038385235
000070 82 d8 22 3d 7e 9a 62 bd f3 4f 07 3e 8c 0c 0f bd
       0.03975726 -0.055323116 0.13214092 -0.034924075
000080 fa 8e 8c 3c 36 21 1e be c3 c0 80 3d c1 cf 7a 3e
       0.01715802 -0.15442356 0.062867664 0.24493314
000090 26 6e bf 3d 87 45 9d 3d 3e 5e 34 3e 7a 57 ca bd
       0.09347181 0.07679277 0.17614076 -0.09879966
0000a0 ee 32 b3 bd 35 ca af bd d7 df b3 3d 11 6a 19 3f
       -0.087499484 -0.0858349 0.087829284 0.5992747
0000b0 e9 2d 5a be 9e 65 1c bc 41 0b a5 be 0e 51 3b 3f
       -0.21306576 -0.009545712 -0.3223515 0.73170555
0000c0 4d 49 0f bd de a6 05 3f 90 e6 ca be 37 43 b4 3e
       -0.034982014 0.52207744 -0.3962903 0.3520753
0000d0 5a 56 51 bd 74 7b 90 3e a6 77 5e 3e b6 f8 d1 be
       -0.051107742 0.28219187 0.2172533 -0.41010064
0000e0 7a 2c 51 be a7 16 be bd b3 61 db bd 25 55 10 3d
       -0.20427123 -0.09281664 -0.10711994 0.03523745
0000f0 71 23 27 be 78 77 25 bd e5 0f b6 3b 6f 3b 22 3e
       -0.16322114 -0.040397137 0.005556094 0.15842985
000100 27 97 db bd 3c 6b da bd f7 e8 38 bd 1f f8 8a 3d
       -0.107221894 -0.106649846 -0.045144048 0.067856066
000110 58 05 47 bd e2 4e a8 3d a6 cb 0a be 5d dd f1 bc
       -0.04858908 0.08218171 -0.13554248 -0.0295245
000120 94 8f 7b 3e 21 35 5f 3e 6c 99 30 be b4 f7 19 3c
       0.2456649 0.21797611 -0.17246026 0.009397436
000130 bf ae a3 3d d9 39 40 3e 07 8d ff bd 97 04 a3 bc
       0.079923145 0.18772067 -0.12478071 -0.01989965
000140 f2 21 17 3e c2 da 23 bd 47 c9 5a 3d 3e f4 c7 3d
       0.14759043 -0.040003546 0.05341461 0.097633824
000150 b4 cd 6e bd 84 e3 ea 3d f5 17 b1 3d 24 f7 73 3e
       -0.058301643 0.114691764 0.086471476 0.23824745
000160 a4 ff 2c 3e 34 37 8a 3e bf c9 4c 3d f5 91 8b 3d
       0.16894394 0.26995242 0.049997088 0.068149485
000170 a7 0d 19 3d 6b bb 3e be a8 3c e6 3d 99 13 54 bc
       0.037366536 -0.18626182 0.11242038 -0.012944126
000180 0a 66 26 3e 53 6a 3c bd 94 6f 2f 3d 31 80 9d bc
       0.16249862 -0.045999836 0.04283102 -0.019226165
000190 ff b5 99 bd 3b 99 f4 3d f7 47 c3 bb 6f 8e 24 3e
       -0.07505416 0.11943289 -0.0059595066 0.16069959
0001a0 5d 17 6b 3d 8c 19 28 bd 2e 15 49 3e 43 66 58 bd
       0.057395328 -0.04103999 0.19636986 -0.0528319
0001b0 3b 2e 31 3e 09 aa c3 bc d0 1d e5 3d 3a 99 01 3d
       0.17302792 -0.02388479 0.11187327 0.03164027
0001c0 fb ed 90 3d 5b cc 67 bd 65 69 fe 3d bf 70 dd 3c
       0.07076641 -0.056591373 0.12422446 0.0270313
0001d0 3e 0c 2e 3e 6b 90 b6 bd b4 e2 c6 3d 4b 49 0d be
       0.16996858 -0.08914264 0.09711209 -0.1379749
0001e0 bb 37 25 3e ef a6 44 bc 92 4b 41 be 84 94 b3 3c
       0.1613454 -0.012002691 -0.18876484 0.021921404
0001f0 46 46 22 be 44 26 91 bd 7f 33 bb 3d 56 7d 3f 3e
       -0.1584712 -0.07087377 0.091406815 0.18700156
000200 90 8a b7 3d 9a ce 92 3d c9 72 b4 3d 6a 09 3a bd
       0.089619756 0.07168312 0.08810956 -0.045419134
000210 47 24 c7 3b ec 2d 9f be bd f2 d9 3d b6 08 04 bc
       0.0060773226 -0.31089723 0.10642002 -0.0080587175
000220 ea d2 86 be c6 82 3b 3e f8 e1 fa 3d 27 87 af 3c
       -0.2633279 0.18311605 0.12250131 0.02142675
000230 86 62 16 be c9 88 1d bd 99 3a 95 bc 17 b0 80 3e
       -0.14686021 -0.038460527 -0.018216418 0.25134346
000240 89 30 d2 3c ca db 64 3e 80 a8 6f be 60 61 bd 3e
       0.025657909 0.22349468 -0.23404121 0.36988354
000250 9b 0a 33 3d 88 8f 8c 3e ac 81 1f 3e 09 17 9f 3d
       0.043711286 0.27453256 0.1557681 0.077680655
000260 b2 72 b2 3d a1 8c 53 be 19 8d 9d bd 18 c6 21 bd
       0.08713283 -0.20659114 -0.07692928 -0.039495558
000270 8d d9 c9 bc a3 ba 3d 3e 0d 33 70 3d 1d 34 0b 3f
       -0.02463987 0.18528228 0.058642436 0.54376394
000280 99 d1 09 3d 45 f8 5c be 7c 83 3c 3e b6 4e 05 be
       0.033647154 -0.21579082 0.18409532 -0.13018307
000290 5a c3 51 3e 61 a4 cf bd cb 18 55 3e 30 88 70 bc
       0.20484677 -0.10138775 0.20810239 -0.014680907
0002a0 62 a4 99 bc 9a 47 07 3b ba b6 29 be fa 87 01 bf
       -0.018755142 0.0020642043 -0.16573611 -0.5059811
0002b0 69 dc c6 bb 50 29 0c bf 1d 49 0b be 46 ff b6 bd
       -0.0060687554 -0.5475054 -0.13602109 -0.08935408
0002c0 55 2f 14 be b0 94 6c 3d 34 c4 21 be cb cd 8c 3c
       -0.1447118 0.057758987 -0.15797502 0.017187973
0002d0 7e 93 3d bd c5 1d 13 3e 54 67 76 3d f7 58 09 3e
       -0.046283238 0.14366825 0.060157135 0.13412844
0002e0 36 fd 88 be 1d a7 6f 3e 16 cd ae bd 01 fe 40 3d
       -0.26755685 0.23403592 -0.08535211 0.047117237
0002f0 a6 58 5a be 7f c5 f1 bd c1 16 c3 bd f4 e3 44 be
       -0.21322879 -0.118052475 -0.09525824 -0.19227582
000300 0c b5 fc bd d9 25 1f 3e a4 c8 0c be f3 8b 59 3e
       -0.123392195 0.15541781 -0.13748413 0.21244793
000310 82 8a 47 be c4 c1 76 be 62 a3 40 be b6 b1 fc 3c
       -0.1948643 -0.24097353 -0.18812326 0.030846458
000320 1c 5e 98 3d 29 31 65 3e eb 9d 08 3d 2d 40 be 3d
       0.07439825 0.22382034 0.033353727 0.09289584
000330 08 35 54 3e c4 bd be bd 9d e3 0e be be 5d 8c bd
       0.20723355 -0.09313539 -0.13954015 -0.068538174
000340 46 4b d8 bc 4d 02 97 be cb b8 d6 3d 1c 12 5a 3e
       -0.02640308 -0.29493943 0.10484465 0.2129597
000350 54 ee 1d bc 7a 8f 89 be 8b be eb 3d cd a8 50 3b
       -0.009639341 -0.26867276 0.115109526 0.0031838894
000360 9d d0 bf 3e b1 08 4a 3e 11 48 4a 3e 1b 58 ac bd
       0.37463847 0.19729878 0.19754054 -0.08415242
000370 ce 73 13 3e e0 98 12 3d 44 57 be bd 85 fb 33 be
       0.14399645 0.035790324 -0.09293988 -0.17576416
000380 84 f1 9e bd 4c a1 f4 3d c6 f0 9c bd fe 29 1e be
       -0.07760909 0.119448274 -0.076631114 -0.15445706
000390 72 89 ab be 32 a7 9b 3e cf dd 1f 3e 07 34 cc bd
       -0.335033 0.30400997 0.15611957 -0.09970861
0003a0 0a 1d c0 3d 7b aa 84 bc 99 44 d3 bd 28 5d 25 3e
       0.09380539 -0.016194573 -0.10315818 0.16148818
0003b0 09 ea 04 3e ee a8 4a be 9f 68 e4 3c 7e cb 8f be
       0.12979902 -0.19791004 0.027881918 -0.2808494
0003c0 ea 8b 07 bd 90 0c 16 bc bc 5b a9 bc 43 d2 cf be
       -0.033092417 -0.009158269 -0.020673625 -0.40590104
0003d0 dc 1f 54 be a3 30 60 be 34 ba 56 be 68 b1 d6 bd
       -0.20715278 -0.21893553 -0.20969468 -0.10483056
0003e0 2a b2 1f 3d 96 f4 05 be 6c 0d da bd 7f b8 f0 3d
       0.03898827 -0.13081583 -0.10647091 0.1175394
0003f0 2a c6 52 3e 28 02 ee bd cc 02 08 be ed 1f 75 be
       0.20583406 -0.11621505 -0.13282317 -0.2393796

rnn.weight_hh f4 [96, 32]
000000 32 df 2d be b3 a8 8e 3d 56 6b d0 3b 67 7f 0e 3d
       -0.16979674 0.069657706 0.0063604517 0.03478947
000010 09 60 f2 3c 1d 3a 01 3e 2b 0d fc 3d d5 dc 84 3e
       0.029586809 0.12619825 0.12307199 0.2594973
000020 47 5e db 3c 0e ea 67 3e b3 39 f4 3d a8 a5 97 bd
       0.026778353 0.22647879 0.11925068 -0.07404643
000030 fe e7 ac bc 15 09 d6 bd f5 9d 8e bc dd 4c 8a 3e
       -0.021106716 -0.10450951 -0.017409304 0.27011767
000040 ab 31 9b ba c0 f6 5f bd f2 52 26 be d9 1c 90 bd
       -0.0011840364 -0.05467868 -0.16242579 -0.07036752
000050 7e 98 c0 ba 01 60 25 3e cd 04 13 3e 4d d1 e4 bd
       -0.0014693884 0.16149904 0.143573 -0.111727335
000060 a4 6c c2 3d d2 61 08 3e 8d d4 e8 bd ce 94 aa 3c
       0.09493378 0.13318565 -0.11368666 0.020822909
000070 3a a5 95 bd 9f 96 12 3e 38 0a 92 bd 57 d4 06 be
       -0.07306905 0.1431527 -0.07130855 -0.13166939
000080 c9 f4 95 3d a6 ae 02 be 03 d2 53 be 90 e4 f1 3d
       0.0732208 -0.12761936 -0.20685582 0.11811173
000090 6f b1 33 be 2c f9 37 bd b9 fd 00 3e a8 fb a9 bd
       -0.17548154 -0.044915363 0.12596788 -0.08299953
0000a0 93 df 83 be f1 f6 71 bd 3f f4 f3 bc 00 a8 fa 3d
       -0.2575651 -0.059073392 -0.029779552 0.12239075
0000b0 f8 d0 35 bb ad 0c d2 3d 84 9c 23 3e c5 32 2f 3e
       -0.0027742963 0.10256324 0.15977675 0.17109211
0000c0 02 97 1b 3e 05 46 b7 bd 30 80 2d be 88 54 0e bd
       0.15194324 -0.08948902 -0.16943431 -0.034748584
0000d0 b4 8c 4d 3c 6b bb cb 3d c2 04 34 3e fa 43 12 3c
       0.012545753 0.099478565 0.1757994 0.00892734
0000e0 65 6b c8 bd ee ec 06 3d 29 ae 38 be 31 b6 3b be
       -0.09786109 0.032940798 -0.18035187 -0.1833122
0000f0 92 7d de 3d ac 06 7a be a4 bd be bd f5 23 7f 3d
       0.108637944 -0.24416608 -0.09313515 0.06229015
000100 4c fd 0f be 30 57 2d 3e 35 d3 bd bc 72 8f 36 3e
       -0.14061469 0.1692779 -0.023172 0.17828158
000110 ef 72 1e be 26 51 57 3e 7b 8c cf bd 97 b2 7d bd
       -0.15473531 0.2102705 -0.101342164 -0.061937895
000120 f2 51 b6 3e a3 d0 fc bc 5e db 13 be 42 61 e0 bb
       0.35609394 -0.030861204 -0.1443915 -0.0068475315
000130 ad 6e 48 3e d4 d4 72 3d 26 19 c5 bd d7 67 b0 3d
       0.1957347 0.059285 -0.09623937 0.08613556
000140 f4 46 02 3d e6 eb 3d 3e 0d 82 f3 3c 44 72 57 3d
       0.031805947 0.1854702 0.029725099 0.052599207
000150 10 01 af bc 53 ee ae 3c 1d 90 31 3e 76 0d da 3d
       -0.021362811 0.021353876 0.17340131 0.10647099
000160 2f aa c9 3d 74 ab a2 3d 27 9f 7d bc 31 5a d7 3d
       0.09846913 0.07942858 -0.015479839 0.105152495
000170 40 70 bf 3c 30 b6 73 3e bb 61 04 bd ab fd 12 be
       0.023368955 0.23799968 -0.032319766 -0.14354579
000180 e7 a2 bd bd 25 57 28 3c 80 1d c2 3d 52 ee 72 bd
       -0.09259587 0.010274683 0.09478283 -0.05930931
000190 0c 0c 13 3d 9c a2 d4 3d e9 83 02 be 81 ee 87 be
       0.03590016 0.10382578 -0.12745632 -0.26549152
0001a0 e9 dc 2b 3e 37 d1 f1 bd 66 3f 08 3d 73 47 cf 3d
       0.1678349 -0.11807483 0.033263586 0.1012105
0001b0 28 05 be 3d 1c 5d 76 3b b2 be 8f 3c c8 0b d1 bd
       0.09278327 0.0037592119 0.017546985 -0.10207325
0001c0 f9 eb 55 3e b1 4f d1 bd 81 75 1f 3d 0f 9e 18 3e
       0.20890798 -0.10220278 0.03893042 0.14904045
0001d0 1d da 14 3e 06 24 23 3d 45 1a d3 3d 3d 86 c4 bd
       0.14536329 0.039829277 0.10307745 -0.095959164
0001e0 ab 97 08 3e 24 30 cf 3d de dc 91 3d d0 41 2c 3e
       0.13339107 0.10116604 0.07122205 0.1682198
0001f0 6f 95 1a bd 89 c8 29 bd a5 9b eb 3d 3f f0 f7 3a
       -0.037740167 -0.04145101 0.11504296 0.0018916203
000200 d5 9b a5 3d d4 03 6b be 71 63 87 bd 9d ab 47 be
       0.08086363 -0.22950679 -0.06610764 -0.19499059
000210 a2 03 76 3d f4 62 f6 bc 90 46 21 be c4 50 84 3d
       0.06006206 -0.030076481 -0.15749574 0.06460717
000220 de 38 30 3e d5 7d c4 3a f8 ea e8 3d 3e 52 84 bd
       0.17209193 0.0014991114 0.11372942 -0.06460999
000230 dd 45 d5 3d db 2e d0 bc 8a 4a 15 3e e1 c5 73 3e
       0.10413716 -0.025412967 0.14579216 0.23805954
000240 34 2d 87 3e 5e 2a 77 be a6 0f ed 3c 9f 5a bb 3d
       0.26401675 -0.24137256 0.028938126 0.09148144
000250 b7 f5 78 bd b1 5f 17 be 1d 7e 2d 3e 0d aa af be
       -0.060781207 -0.14782597 0.1694264 -0.34309426
000260 aa 1b 05 3e 56 b7 d0 bd 33 ca 11 be a3 58 d6 3d
       0.12998834 -0.101912186 -0.14237289 0.10466125
000270 6c 8c 2a 3d 40 ef 63 be 50 a3 3a 3d cd 8f 55 bd
       0.041637823 -0.22259235 0.045565903 -0.052139092
000280 e9 4f 91 3d 1e 75 1d bd c7 6d 90 3d 8f c4 b4 bd
       0.0709532 -0.03844177 0.07052188 -0.08826553
000290 6c a1 02 3e f4 ba bf bd 15 aa fe 3b 46 58 d3 bd
       0.1275689 -0.0936183 0.00777174 -0.10319571
0002a0 47 c1 0d 3e ff 6e d0 bd c9 25 a5 bd fe 13 e9 bc
       0.1384326 -0.10177421 -0.080638476 -0.028451916
0002b0 eb a0 2b 3e 78 ec 6e bd d4 61 24 3d 0b ad be 3d
       0.16760604 -0.058330983 0.04013236 0.09310349
0002c0 11 96 4a 3e 28 ce a8 be a0 d6 15 3e 4d 2c 85 3c
       0.19783808 -0.32969785 0.14632654 0.016256476
0002d0 8a 23 f0 bd a8 6d fc bd 5c 42 bf bd 33 9a d0 bd
       -0.117255285 -0.12325603 -0.09338829 -0.10185661
0002e0 03 d5 ef 3d 1d 6b 11 3e 99 ad 66 bd a6 50 1d 3e
       0.11710551 0.14201017 -0.0563179 0.15362796
0002f0 ff a4 1e be 5c e6 6d be fb 80 df bd 19 87 5d bd
       -0.15492629 -0.23232406 -0.10913273 -0.054083917
000300 b5 71 39 bd 78 f1 91 3e 95 c1 dc bc b5 7d 6c bd
       -0.045274455 0.2850454 -0.026947776 -0.05773707
000310 77 f6 fb bd 28 7c 37 3e 79 68 ff bc a5 68 e5 3d
       -0.12302869 0.17918456 -0.031177746 0.112016
000320 5b ac a1 3d 7d 88 cf 3d 8a aa 62 bc 2c 05 c8 bd
       0.07894202 0.10133455 -0.013834605 -0.097666115
000330 a6 79 08 be ac 43 53 3d 51 17 0e 3e eb d0 0f be
       -0.13327655 0.05157821 0.13876082 -0.1404454
000340 f0 1c 05 be a9 3a 65 bd 2d d2 89 bd ee 0d ef 3c
       -0.1299932 -0.055964146 -0.06729541 0.029181447
000350 b1 a7 a5 3d 81 75 63 3d 9e 01 c9 3d 87 a8 d3 bd
       0.08088625 0.055531982 0.098147616 -0.103348784
000360 ed 4c 55 3d 4e a8 5a 3c 07 92 11 be 89 20 b8 bc
       0.052075315 0.013345791 -0.14215861 -0.022476451
000370 b2 d2 a9 bc ff 2a 6c 3e 59 84 0e 3e ed bb c8 bb
       -0.02073035 0.23063277 0.13917674 -0.006125918
000380 fc 68 87 bd bc e2 f1 3c 2f ce 7c 3e 40 73 d9 3c
       -0.06611821 0.02952706 0.24688028 0.026544213
000390 e0 2c ae 3d a5 e2 7c be 0b ac ed bc 77 f2 a5 3c
       0.08504653 -0.24695833 -0.0290127 0.020257218
0003a0 dd 73 f1 3d 28 c8 b1 3d 46 14 f7 3d 31 64 34 be
       0.11789677 0.08680755 0.12064414 -0.17616345
0003b0 08 07 80 bd 35 fe 8c 3d 8b 5a 0d be e3 10 25 be
       -0.06251341 0.06884424 -0.1380407 -0.16119723
0003c0 08 c4 3d be de 18 f5 3d 2e 00 06 bd 8a 68 14 be
       -0.18531811 0.11967634 -0.032715015 -0.14493003
0003d0 b0 7f 9e bd 87 71 56 3d 7d b9 65 bc 6e 10 55 bc
       -0.07739198 0.05235436 -0.014021275 -0.013004405
0003e0 f0 ca 4b 3c df f4 b5 3d dd 19 18 be 87 5b 89 be
       0.012438521 0.08884596 -0.14853616 -0.26827642
0003f0 3f 2b 3a 3e 2d 33 6f bd 7c 2c 00 3d 32 50 8b 3d
       0.1818056 -0.058398414 0.031292424 0.068024054

rnn.bias_ih f4 [96]
000000 67 be 14 be 73 ca 61 3d 77 2f 1c 3e f2 95 e3 bd
       -0.14525758 0.05512471 0.15252481 -0.11112584
000010 c9 5d 08 3e 31 5e a3 3d e1 15 4c 3d 48 69 bd bd
       0.13317026 0.0797695 0.049825553 -0.092485964
000020 63 12 1d be 1e d0 ba 3d 22 15 4d 3b 47 52 dd 3d
       -0.15339045 0.091217265 0.0031293114 0.10806709
000030 cc 02 08 bd 1e 6f 86 bd b6 be 9f 3c e4 9e 9b bd
       -0.033205792 -0.06564163 0.019500118 -0.07598665
000040 94 44 44 3e 15 35 c9 3d 23 07 11 3e 4c 7e 8c bd
       0.19166785 0.09824578 0.14162879 -0.06860027
000050 bd 4e 8e bd e3 ca 49 3e 7f 10 2b 3e 00 80 63 bc
       -0.06948612 0.19706301 0.16705512 -0.013885498
000060 f0 3d 78 3a d9 7a 23 3c c1 4c 1d bc f2 86 b2 bd
       0.00094696786 0.00997802 -0.009600819 -0.08717145
000070 eb 4e 8f 3d a6 73 c9 bd d5 43 c2 bc d7 13 05 bd
       0.06997474 -0.09836511 -0.023713985 -0.032489624
000080 12 a2 14 be c5 24 95 bd 9d 34 7c bd d7 83 5f be
       -0.1451495 -0.07282404 -0.061573613 -0.21827637
000090 ad 0b fa bd 80 ad ed bd 88 f6 43 bd de bc f6 bc
       -0.12209258 -0.11605358 -0.047842532 -0.030119356
0000a0 ad eb eb bd 07 2b 74 bc 5a 1f 90 3a 70 57 ef 3c
       -0.11519561 -0.014902837 0.0010995672 0.029216498
0000b0 74 29 26 be 5c 72 65 3e fe 57 34 bd 96 0e 1f bd
       -0.1622675 0.22406906 -0.04402923 -0.03883227
0000c0 02 f0 5c 3c 7a 39 89 be 96 f6 b1 3d 9d 1b a7 bd
       0.013484957 -0.26801664 0.08689611 -0.08159564
0000d0 0d 00 1f be df 19 07 be 55 07 85 bd 0f 54 18 3d
       -0.15527363 -0.13193463 -0.06495539 0.03718954
0000e0 dc 63 8e be 9c 23 b7 bd f3 9c 34 be 76 b8 5c 3b
       -0.27810562 -0.08942339 -0.17637996 0.0033679283
0000f0 18 10 b2 3d e5 34 b5 bc 2f cb c8 bd be 31 0a bd
       0.08694476 -0.022119949 -0.09804379 -0.033738844
000100 7e cb c1 bd 2a c2 21 be c1 8a 33 3d f8 7b 80 3d
       -0.09462641 -0.15796724 0.043833498 0.06273645
000110 51 63 d5 3d 20 c7 bb 3c 76 fa 5c bc 22 7a f7 bd
       0.10419334 0.022922099 -0.013487449 -0.12083842
000120 d0 df 14 3e 57 32 3f bd 08 75 33 bd e9 3e f2 3d
       0.14538503 -0.046678867 -0.04381278 0.118284054
000130 c1 10 eb bd e5 9b 1c 3e 46 cb da bd 07 d2 c4 b9
       -0.11477805 0.15293844 -0.106833026 -0.00037540516
000140 c6 49 2c 3e 31 6a cf bd 85 23 e1 3d 8e 0b 03 3e
       0.16825017 -0.10127676 0.10993103 0.12797377
000150 fb 3d 53 be 41 17 95 3d bd a9 39 3e 2c c9 4d 3e
       -0.20629112 0.07279826 0.18131156 0.20096272
000160 c9 4b 06 be 2b 85 7f bd 36 6a 13 3e 6a 56 1d 3e
       -0.13114847 -0.06238286 0.14395985 0.15364996
000170 e9 bb 95 bd 5d 43 34 3e 06 54 b4 bb 32 78 00 be
       -0.07311232 0.17603822 -0.0055031804 -0.12545851

rnn.bias_hh f4 [96]
000000 5f e8 10 be a4 d7 dc bd 89 4f d0 bc cf ec db bd
       -0.14151143 -0.10783318 -0.02542855 -0.10738527
000010 70 96 1b be bc 5e 1d be b0 44 91 b9 96 60 4a be
       -0.15194106 -0.1536817 -0.0002770773 -0.19763407
000020 44 be 97 3d 11 fc 4c bd 2e 8d 17 3e 49 b8 21 be
       0.07409337 -0.050045077 0.1479995 -0.15792955
000030 4c 1c bd ba 36 26 3b 3e 32 d0 12 3c b8 e6 1b be
       -0.0014427989 0.18276295 0.00896077 -0.15224731
000040 8f 64 9e bd 0e 1a fb bc 4b 9d 62 bd 4f 93 3f bd
       -0.07734024 -0.030652072 -0.055325788 -0.046771344
000050 f2 d8 8d 3d f1 12 86 3d 95 66 7c bd f2 80 21 3d
       0.06926145 0.065465815 -0.061621267 0.039429612
000060 8d 63 7e bd 00 af ec bd a5 f0 13 3e 6a 22 29 be
       -0.062106658 -0.11556816 0.14447267 -0.16517034
000070 c1 aa b5 bd ba 81 c6 3d ae e5 ce 3d 9c 0f b9 39
       -0.08870459 0.09692712 0.10102402 0.0003529758
000080 77 11 30 3d 6a 80 21 bd 16 1f 49 be ad d2 ae bd
       0.042985406 -0.039429106 -0.19640765 -0.08536277
000090 67 19 70 be cc 8a d5 bd 50 5b 07 be a2 df 68 be
       -0.2344719 -0.10426864 -0.13218427 -0.22741559
0000a0 81 31 d7 3d 83 e5 7c be ad 52 b3 3a 6f 12 5a bd
       0.10507489 -0.24696927 0.0013681256 -0.053240236
0000b0 0b a8 a1 be 78 d2 f3 3d 37 e7 cd bd d7 c5 92 3b
       -0.3157352 0.11905378 -0.10053866 0.0044791508
0000c0 77 26 42 3d aa 61 21 be 37 4c 02 be 11 98 88 be
       0.047399964 -0.15759912 -0.12724386 -0.26678517
0000d0 5c 63 2b be e5 26 4e be 09 2f 27 be 92 2c a2 3d
       -0.16737121 -0.20132025 -0.16326536 0.07918657
0000e0 a5 7d 06 be 8d 5c 45 3d c7 36 13 bc e3 ce 38 bd
       -0.13133867 0.048183966 -0.008985228 -0.045119178
0000f0 7e 1c 58 be 24 64 1f 3d 38 20 3f be 5e 20 73 be
       -0.21104619 0.03891386 -0.18664634 -0.23742816
000100 b5 61 26 bd 36 45 93 bd 96 b1 70 3e ec 26 34 3e
       -0.040620524 -0.07190935 0.23505244 0.17592973
000110 98 74 33 be 33 87 9d bd ce 21 0c 3e 65 72 e2 bd
       -0.17524946 -0.07691803 0.1368477 -0.11056975
000120 66 04 c0 3d d6 f1 3f bc 47 eb e6 3d 3f 00 be 3d
       0.09375839 -0.011715373 0.11275344 0.09277391
000130 fd 5f bd bd 8b ae cb 3d b1 35 ce 3b f4 31 00 3e
       -0.09246824 0.09945401 0.0062930216 0.12519056
000140 66 cc 3c bc 3a 55 18 bd 58 56 11 be 86 49 b7 3d
       -0.011523342 -0.037190653 -0.14193094 0.0894957
000150 3a d7 2d 3d 3d 0b 7b 3d dc 3b 8d bd 77 4a 85 3c
       0.042441584 0.061290015 -0.06896183 0.01627086
000160 45 99 46 be fe 26 13 be d3 2a 2e bd fb 9c c0 bd
       -0.19394405 -0.14370343 -0.04252131 -0.09404942
000170 16 e4 b8 bd 50 7e 25 3e 04 fa 4c 3d 93 7a 2d be
       -0.09027879 0.16161466 0.05004312 -0.1694129

fc2.weight f4 [6, 32]
000000 34 bb dc 3d dc f5 aa 3d dc 6e 01 be 60 db ad 3d
       0.10777894 0.08347675 -0.12639946 0.08489108
000010 ad b6 43 3e 47 4b a9 bd 6d 75 bc bd f6 86 f9 3d
       0.19112654 -0.08266311 -0.09202085 0.12183945
000020 a8 50 50 be d9 92 7e bc 93 13 db 3d eb 79 8a 3e
       -0.20343268 -0.015537941 0.10697093 0.2704614
000030 d7 5b c1 3d 83 1c 5e 3e 40 b9 5f 3b 28 fd db 3d
       0.09441345 0.21690564 0.0034137517 0.10741645
000040 af 35 c1 3c 45 a1 b8 3d 29 95 e3 bc 40 5d 7f 3e
       0.023585169 0.09015135 -0.027781086 0.24937916
000050 f2 77 82 be 94 1a 82 3e 0d d0 ad 3d 66 eb 9d 3e
       -0.25482136 0.25410903 0.08486948 0.30843657
000060 be 8e 01 be 15 fc 1c be b5 6b 26 be 4e 63 ae 3d
       -0.12652108 -0.15330537 -0.16252024 0.085150346
000070 23 22 40 bd 18 5d fa bd 11 03 63 3d 56 d7 d3 be
       -0.046907555 -0.122247875 0.055422846 -0.41375226
000080 de c6 e9 3c 6b 15 32 ba 1d a8 43 3d ed d2 10 3e
       0.02853721 -0.00067933527 0.047767747 0.14142962
000090 ad c9 61 3d 5d 4e 18 3e 82 ab 01 be db eb 5c 3d
       0.055123974 0.14873643 -0.12663081 0.053935867
0000a0 c5 80 fe bd 89 cd 5e 3e 7b 94 03 be e0 f5 cc bd
       -0.124269046 0.21758093 -0.1284961 -0.100078344
0000b0 10 b9 8d bd 4f 2c 35 bd d2 91 03 3e 98 01 07 3e
       -0.069200635 -0.04423171 0.12848595 0.13184202
0000c0 62 75 16 3e 28 26 11 3e c7 66 8b bd 5e 80 7f 3e
       0.14693215 0.14174712 -0.068067126 0.24951312
0000d0 23 6b 66 be df 63 7a 3d 10 eb af 3d 0d 48 b1 3e
       -0.22501807 0.0611304 0.085897565 0.34625283
0000e0 85 68 53 be 19 d9 54 3e b3 8a 8c 3d 56 f6 5c be
       -0.2064534 0.20785941 0.06862392 -0.21578345
0000f0 42 c8 21 3e fe bd aa 3e 85 fb 90 bd 98 ff 51 3e
       0.15799049 0.33348078 -0.070792235 0.20507658
000100 b3 1a 6b 3c a4 a9 1c 3d 01 e5 a1 3d 87 5e 4d 3e
       0.014349627 0.03824772 0.07905007 0.2005559
000110 c0 19 17 be 20 57 e8 bd d2 ad 83 be cb 41 c9 3e
       -0.14755917 -0.11344743 -0.25718552 0.3930801
000120 d2 a8 a7 bd 77 65 f6 3d e3 34 20 be 4e de ac bd
       -0.08186497 0.12031072 -0.15645175 -0.08440839
000130 f0 9a bd bc 50 b1 a6 bd dd bc d4 3e 92 37 0c 3d
       -0.023145169 -0.081392884 0.4155034 0.034232683
000140 2f 0d b6 be 75 e3 98 3e 80 bf 96 3c 4b 2c 40 be
       -0.35556933 0.29861036 0.018401861 -0.18766896
000150 92 ff 45 be 76 35 21 bd 86 50 1e 3e 2c 8c c0 be
       -0.19335774 -0.039357625 0.15460405 -0.37606943
000160 7c 22 46 bd 0d af 79 be c8 d8 3a 3e 76 73 f2 bd
       -0.04837273 -0.24383183 0.18246758 -0.11838429
000170 bb 79 fa 3d be d8 2e bc 78 7b 1e 3c 27 2c 7b be
       0.122302495 -0.010671793 0.009672992 -0.24528562
000180 ea 4f bc 3e f8 cf 13 3e cb 98 95 3e ac 08 29 3e
       0.3677972 0.14434803 0.29218134 0.16507214
000190 28 33 ba bd b9 80 79 be 7a a3 8d 3e df 7d 28 be
       -0.090917885 -0.2436551 0.27663785 -0.16454266
0001a0 8d 78 e1 3c be 0f 97 3e 8b 17 57 be d2 d1 94 be
       0.027523303 0.29504198 -0.21005075 -0.2906633
0001b0 29 ec 62 3e d4 07 17 be 3d 8f 91 3c ce 9a 05 3d
       0.221604 -0.1474908 0.017768497 0.032618336
0001c0 13 25 98 3d af 64 e5 3c b2 73 c1 3e 72 ea c7 3d
       0.07428946 0.028002111 0.3778358 0.09761514
0001d0 b2 b6 97 be e9 74 02 3d cd 8d 50 bd 58 37 a7 3d
       -0.29631573 0.031849775 -0.05091648 0.08164853
0001e0 e9 e1 a1 3d 80 ae c1 bd cb e9 bd 3d ee 72 41 3e
       0.07904417 -0.09457111 0.09273108 0.18891498
0001f0 3c 48 41 3d 3d c2 79 bd a0 09 dd bc 1a b6 11 be
       0.04718803 -0.060976256 -0.026982129 -0.14229622
000200 a2 d7 da 3c ff 0c 7f bc b2 d4 e1 3e 3f 05 2d be
       0.02671415 -0.015567063 0.44107586 -0.16896532
000210 cf 65 08 be de 52 3f be bf ac 07 be 2c 0a 5b bd
       -0.13320087 -0.18683955 -0.13249491 -0.053476498
000220 27 f0 1a bd 6b b3 47 be b0 7b 71 be 31 ec 82 3e
       -0.037826683 -0.19502036 -0.2358234 0.25570825
000230 e3 f1 86 3d 49 17 c3 3c 9c fb ee 3d 80 8b 17 be
       0.06589105 0.023814814 0.116690844 -0.14799309
000240 50 dd 0d 3e be 45 45 3d 43 47 c9 3c a0 8a 81 3e
       0.13853955 0.048162214 0.024570113 0.25301075
000250 8a 63 02 3e ca 8c 44 be 29 8b 53 3e 12 69 88 3d
       0.12733284 -0.19194332 0.20658554 0.066606656
000260 8e 6e b1 3b 2e 5a e1 bd a2 2e 87 be bc 3f 26 3e
       0.0054147905 -0.110035285 -0.26402766 0.1623525
000270 ce a6 a5 3e 3d e9 03 3e 68 9e 60 bc 9a f1 97 bd
       0.32353824 0.12881942 -0.013709642 -0.07419129
000280 76 e8 20 bd 3e 2d 25 bf dc 91 d2 3e 5e 85 15 3e
       -0.039284192 -0.6452216 0.41126907 0.14601657
000290 db f9 12 be 33 af 14 3e 3e 9f e6 3d f2 c4 82 be
       -0.14353125 0.14519958 0.11260842 -0.25540882
0002a0 66 01 9f be 0c 37 8e bc 7d 5d 51 bd ec 72 8d 3d
       -0.31055754 -0.017360233 -0.051114548 0.06906685
0002b0 a3 e1 b0 3e 9a 96 c6 3c 1a 82 c4 3c be aa ce bd
       0.34547147 0.024241734 0.023987819 -0.1009116
0002c0 64 fc 73 3d 03 e6 f7 be ae f4 54 be f0 d1 ae 3d
       0.05956687 -0.48417673 -0.20796463 0.08536136
0002d0 8a 15 cb be e8 52 e1 be eb 64 b5 3e fe 8e 9b bd
       -0.3966487 -0.44008565 0.35428557 -0.07595633
0002e0 50 57 9d 3c f0 58 8b bd 29 0d a9 ba 10 04 5b be
       0.019206673 -0.06804073 -0.0012897599 -0.21388268
0002f0 72 07 3e be c1 b6 f7 be bb a9 9b 3e a6 c2 e4 bc
       -0.18557528 -0.48381618 0.30402932 -0.027924847

fc2.bias f4 [6]
000000 a4 b5 5d 3b 7e 0c bc 3b 34 4b 21 3d 1b d0 6b 3c
       0.003383019 0.005738794 0.03937836 0.014392878
000010 56 f9 00 3d 6a 85 fc 3c
       0.031487785 0.030825336
