results/alpha_0.5/agent_500.pt (torch, 43177 bytes, 8 tensors)

fc1.weight f4 [32, 104]
-0.0054500443 -0.09920339 -0.00073197566 -0.008750916 -0.06653054 -0.1498173 0.08950704 0.00864422
-0.031488076 0.00079669995 0.14303724 -0.021133125 -0.14278217 0.053690735 0.05952543 0.20280688
-0.07351532 0.07729007 0.009917032 0.09116619 -0.027345838 -0.11258308 0.041157097 0.09561786
-0.11189654 -0.15922597 -0.07200617 0.081493355 0.15829295 -0.20381196 -0.13825408 0.13190857
-0.025740374 0.05191321 -0.020551642 -0.11056694 0.13568665 0.0024674088 0.11983388 0.05126613
-0.059521157 -0.05497139 0.0697683 -0.04755744 -0.29648334 -0.12889543 -0.12720606 0.10477599
0.1181923 0.076733254 -0.07363923 -0.108569935 0.21166557 -0.04063736 -0.018061217 -0.085939005
-0.012951533 -0.10110652 -0.12133003 -0.0061332467 0.10436239 -0.038093157 0.18219814 0.14501667
-0.02350381 -0.08571781 -0.03193496 0.021429714 -0.042267766 -0.11952643 0.052834626 -0.12604399
-0.17881465 0.08547922 0.05575541 -0.13948663 -0.09529041 0.10909146 -0.07229455 -0.10630655
-0.053964954 0.14040339 0.0960258 0.1520952 0.13167596 0.08260892 -0.13305727 0.037738457
-0.22171402 -0.049878776 0.016567735 0.02914296 -0.13243437 0.052844893 0.104219876 -0.15547721
0.21407768 -0.3105148 0.039421603 -0.19220974 0.17780851 -0.07964706 0.027403802 0.022464663
0.14798099 0.029143449 -0.15467289 0.024226608 -0.18819486 0.030826582 -0.033755198 -0.0916737
-0.004538807 0.018681543 0.00070469733 0.07116074 0.042834744 -0.0010884663 0.0341189 -0.01961323
0.037247498 -0.059824165 0.17609498 0.055172134 -0.016908597 0.050101995 -0.0495481 -0.10498215
-0.009816721 -0.11075065 -0.08004674 0.10358924 0.056971155 -0.20542192 -0.072679654 0.025773892
-0.13565563 -0.1598956 0.15096448 0.05329819 0.26863116 -0.07135717 0.04543306 -0.0139018595
0.029373635 0.18427166 0.034529135 -0.04984462 0.20385917 -0.0022712376 0.09509009 -0.030141558
0.09335813 0.07182465 -0.059742678 -0.007767478 -0.036960054 -0.19002755 -0.038930777 0.113564216
-0.08707004 0.01829304 0.018881215 -0.021932775 0.04821331 0.015387161 -0.0824139 -0.08180241
0.06384821 0.10094135 0.025639512 -0.024533981 -0.015374466 -0.1854798 -0.04454445 -0.020649454
0.20016912 0.057804286 -0.17721197 0.20474504 -0.14223282 0.08389938 0.06716855 -0.15866864
0.04470839 0.15539904 0.06625708 -0.056783896 0.09387645 -0.026601259 0.06585765 -0.09917957
0.058926594 0.14120378 -0.15922022 0.0210452 0.020279728 -0.070069626 0.25043133 0.120689526
0.026466982 -0.041840654 0.12484875 0.09215377 0.019629925 -0.10162995 -0.13669236 -0.038416352
0.17346762 -0.14381005 -0.1987588 -0.0071132495 0.054638177 0.13343106 -0.18568037 -0.07370594
-0.037768014 0.095302075 -0.1783905 0.030023597 -0.08326713 0.07359351 -0.008030906 -0.062206507
0.06883391 0.08201181 0.09693792 0.04094505 -0.1134924 0.021009948 0.16229938 0.19701797
0.042957406 0.1018598 0.15138736 -0.03484775 0.06266156 -0.00590576 0.3153425 0.109507
0.09350978 -0.14361274 0.06499132 -0.12845713 0.0738355 -0.09082822 -0.035025228 -0.056135967
-0.067499034 0.11944021 -0.11621322 -0.052638818 0.016041711 0.008856102 -0.07822298 0.0062543964
00000000: 4996 b2bb 262b cbbd 0ee2 3fba 0160 0fbc
00000010: 2a41 88bd b569 19be 784f b73d 7da0 0d3c
00000020: a4f9 00bd a1d9 503a 5b78 123e 601f adbc
00000030: 7d35 12be d1ea 5b3d f0d0 733d 9bac 4f3e
00000040: 338f 96bd 424a 9e3d 0c7b 223c 57b5 ba3d
00000050: 6104 e0bc f591 e6bd 5894 283d 4cd3 c33d
00000060: 032a e5bd 220c 23be f977 93bd fde5 a63d
00000070: 8c17 223e 15b4 50be 7a92 0dbe 0a13 073e
00000080: 7add d2bc f2a2 543d eb5b a8bc eb70 e2bd
00000090: 71f1 0a3e 40b4 213b 776b f53d 6ffc 513d
000000a0: 75cc 73bd ae29 61bd afe2 8e3d 97cb 42bd
000000b0: aacc 97be 2afd 03be 4e42 02be cb94 d63d
000000c0: ce0e f23d 5326 9d3d 2ad0 96bd ea59 debd
000000d0: dcbe 583e 5c73 26bd 1ef5 93bc ca00 b0bd
000000e0: ab32 54bc ef10 cfbd e17b f8bd 67f9 c8bb
000000f0: f3bb d53d 9207 1cbd 2692 3a3e 407f 143e
00000100: 108b c0bc d28c afbd 3cce 02bd 5e8d af3c
00000110: f720 2dbd 46ca f4bd 1f69 583d ad11 01be
00000120: 301b 37be bb0f af3d c95f 643d 95d5 0ebe
00000130: 9e27 c3bd 586b df3d 2a0f 94bd 40b7 d9bd
00000140: 5b0a 5dbd e8c5 0f3e 2da9 c43d d8be 1b3e
00000150: 10d6 063e de2e a93d 2a40 08be a493 1a3d
00000160: 0009 63be b04d 4cbd 0fb9 873c 38bd ee3c
00000170: e09c 07be e373 583d 3b71 d53d 6b35 1fbe
00000180: 2e37 5b3e ccfb 9ebe 8c78 213d a1d2 44be
00000190: 6f13 363e ff1d a3bd f07d e03c d007 b83c
000001a0: 5488 173e 3ebe ee3c 9262 1ebe e176 c63c
000001b0: 27b6 40be 0788 fc3c e442 0abd 6cbf bbbd
000001c0: 46ba 94bb 090a 993c 70bb 383a b9bc 913d
000001d0: 7c73 2f3d deaa 8eba 42c0 0b3d edab a0bc
000001e0: d590 183d 2f0a 75bd 3e52 343e 2dfc 613d
000001f0: e683 8abc c037 4d3d f3f2 4abd e200 d7bd
00000200: 50d6 20bc 3dd1 e2bd 8cef a3bd 9826 d43d
00000210: 965a 693d 205a 52be 12d9 94bd c523 d33c
00000220: 4fe9 0abe acbb 23be 6f96 1a3e 344f 5a3d
00000230: 068a 893e b523 92bd 0418 3a3d a0c4 63bc
00000240: faa0 f03c b6b1 3c3e 6c6e 0d3d df29 4cbd
00000250: 75c0 503e 0bd9 14bb 98be c23d 6eeb f6bc
00000260: 8c32 bf3d cd18 933d bdb4 74bd 5486 febb
00000270: 6d63 17bd 9596 42be e175 1fbd 5b94 e83d
00000280: c751 b2bd 49db 953c c7ac 9a3c 5dac b3bc
00000290: 527b 453d 6e1a 7c3c 9ec8 a8bd 0688 a7bd
000002a0: dac2 823d 57ba ce3d f409 d23c 7dfb c8bc
000002b0: 2fe5 7bbc 6bee 3dbe 3e74 36bd 0b29 a9bc
000002c0: 22f9 4c3e 30c4 6c3d 0e77 35be afa8 513e
000002d0: 7ba5 11be 70d3 ab3d aa8f 893d 087a 22be
000002e0: 2520 373d ed20 1f3e cbb1 873d 3b96 68bd
000002f0: 4c42 c03d e2ea d9bc 60e0 863d a91e cbbd
00000300: 035d 713d b997 103e a00a 23be fc66 ac3c
00000310: ac21 a63c aa80 8fbd 8938 803e 122c f73d
00000320: 49d1 d83c 1b61 2bbd b4b0 ff3d 1ebb bc3d
00000330: f0ce a03c 5d23 d0bd 15f9 0bbe 775a 1dbd
00000340: 7fa1 313e f142 13be 6d87 4bbe 4316 e9bb
00000350: 48cc 5f3d 27a2 083e ff22 3ebe 24f3 96bd
00000360: a2b2 1abd bc2d c33d 00ac 36be 0cf4 f53c
00000370: f587 aabd 32b8 963d 1094 03bc 40cc 7ebd
00000380: cbf8 8c3d cff5 a73d 6387 c63d ffb5 273d
00000390: b46e e8bd 0e1d ac3c cf31 263e 14bf 493e
000003a0: 1bf4 2f3d df9b d03d 4a05 1b3e 84bc 0ebd
000003b0: b454 803d 1b85 c1bb 9274 a13e 3545 e03d
000003c0: 0e82 bf3d 380f 13be 2b1a 853d 448a 03be
000003d0: 1137 973d 2504 babd 9d76 0fbd d4ee 65bd
000003e0: ef3c 8abd 129d f43d 3201 eebd cd9b 57bd
000003f0: e869 833c 2f19 113c 5f33 a0bd aef1 cc3b

fc1.bias f4 [32]
0.001215059 0.049488235 0.013301603 -0.01450806 0.028682543 0.006778537 0.011503731 0.0027235898
0.0270678 0.02584107 0.022618406 0.027511787 0.0038260682 0.01900069 0.0029962915 -0.0008795215
0.016371917 0.016943732 0.027966298 0.025621051 0.04078427 0.026601113 0.029482344 -0.01705966
0.012993242 0.013499122 0.03168558 0.011628576 -0.0059669884 0.037145697 0.06820599 -0.021950692
00000000: 9d42 9f3a 2db4 4a3d f7ee 593c 37b3 6dbc
00000010: a7f7 ea3c 7d1e de3b 257a 3c3c 417e 323b
00000020: 4abd dd3c a7b0 d33c 3c4a b93c 6660 e13c
00000030: c6be 7a3b 56a7 9b3c 6e5d 443b b08f 66ba
00000040: 661e 863c 95cd 8a3c 9419 e53c 3de3 d13c
00000050: 680d 273d 94ea d93c f584 f13c b3c0 8bbc
00000060: 9be1 543c 6c2b 5d3c bdc8 013d c885 3e3c
00000070: ba86 c3bb 1626 183d 95af 8b3d f0d1 b3bc

rnn.weight_ih f4 [96, 32]
0.04994944 0.0031651014 0.06428426 -0.19889313 0.054842897 0.05724301 -0.03495986 -0.05957967
0.105471775 -0.16253926 -0.037342016 -0.016803218 0.03787265 -0.016401278 -0.074135184 -0.2496688
0.10238513 -0.023794597 -0.03856416 0.120722085 0.028752467 0.011713206 -0.09554948 0.09426477
-0.17149849 -0.07427562 -0.16743426 -0.06851222 0.1658894 0.035085168 -0.09696499 0.14209256
0.13793778 0.13474676 -0.09266423 0.106390975 0.0761377 0.15757987 -0.21266784 0.02334869
0.014118124 -0.08727918 0.0030716928 0.15068634 0.10020831 0.052850276 -0.107918195 0.10359422
-0.1395289 0.05632076 0.06944652 -0.01365873 0.0991819 0.08498517 -0.089165516 -0.05599336
-0.12814601 -0.01355745 0.09596959 -0.24459448 -0.056920525 -0.14050907 -0.08262676 0.005674201
0.10279425 -0.07938405 0.02519357 -0.018849494 0.06322662 -0.16767249 -0.024788873 -0.0026380054
-0.06492163 0.09197818 0.103044994 -0.023684952 0.15369396 -0.051661428 0.07054051 0.11660998
-0.1559885 -0.07581768 -0.12604733 -0.245092 0.11665282 0.06797865 0.071402244 0.110316195
-0.077271216 -0.018674435 -0.017310925 0.19066633 -0.06478416 -0.024267713 0.10481518 -0.017487783
-0.013969419 -0.05257893 -0.17514029 0.16414282 0.14491756 0.13467227 0.093448035 0.06422617
-0.02991527 -0.00460023 0.03880768 -0.111985974 0.1774984 -0.011848411 -0.126058 0.16730826
-0.0301261 -0.117448926 -0.09782013 -0.0712215 0.038089633 -0.017475419 -0.106635 0.06330494
0.17169887 -0.15148824 0.004244365 0.09873613 0.06605706 0.06711777 -0.10095889 -0.17077363
-0.16287303 -0.025881065 -0.07025233 0.10134997 0.05008517 0.06272484 -0.13688871 0.14892721
-0.096810326 0.095689036 -0.13028802 -0.16157459 -0.15106922 -0.051667508 -0.014146626 -0.18349747
0.14441074 -0.010011336 -0.14540383 -0.16221257 -0.15950166 -0.14458445 0.046721194 -0.064976536
0.056555226 0.048772633 0.09938273 0.07921728 -0.110787824 -0.05947774 -0.08834287 0.058873832
-0.05499725 -0.023691373 0.01828024 0.07559695 0.0071337987 0.025907077 0.001370214 -0.014707558
0.06680711 0.13710909 -0.03164195 0.14134018 -0.0834513 -0.030075872 -0.10891302 0.14368132
-0.060619336 -0.105137 0.024532588 -0.0045528696 -0.004265369 -0.13763729 -0.17432103 -0.031109232
-0.16237992 -0.008301404 0.08075749 -0.06624079 -0.20795056 -0.077765964 -0.064173505 0.09600926
0.065393075 -0.14174353 0.12207208 0.057478685 0.15158725 -0.177333 -0.01705722 0.006136872
0.17166151 -0.05651624 -0.13130057 -0.1101838 -0.027747406 0.18330492 0.053371627 0.06673106
0.0015522862 -0.03662681 -0.14012752 -0.043494318 -0.029919969 -0.05084448 0.17213893 0.18295158
0.15479279 -0.15516253 0.066839136 -0.16456604 -0.20132437 -0.064664245 -0.072268106 -0.21310985
-0.16823466 -0.15263969 0.093047865 -0.033742096 0.10054792 0.07792352 0.04780269 -0.05772757
0.12720111 0.035537805 0.12334653 -0.1956369 -0.21658473 -0.12022822 -0.041198354 -0.19796145
-0.04343689 -0.11378007 -0.074301966 -0.16262308 0.04563989 0.090356894 0.060842484 -0.13579355
-0.113464825 -0.1511536 0.020258913 -0.029129261 -0.07682605 0.08371209 0.0029061057 0.119829535
00000000: c997 4c3d 976d 4f3b 77a7 833d a4aa 4bbe
00000010: f2a2 603d a577 6a3d 1232 0fbd d009 74bd
00000020: 9601 d83d b170 26be f1f3 18bd e7a6 89bc
00000030: 5a20 1b3d f95b 86bc 30d4 97bd 2ea9 7fbe
00000040: 4caf d13d e3ec c2bc 74f5 1dbd 243d f73d
00000050: 4b8a eb3c bfe8 3f3c 72af c3bd e30d c13d
00000060: 4d9d 2fbe d11d 98bd e373 2bbe 2350 8cbd
00000070: e9de 293e 77b5 0f3d 9595 c6bd b680 113e
00000080: 903f 0d3e 0efb 093e bec6 bdbd 83e3 d93d
00000090: 15ee 9b3d 9e5c 213e 99c5 59be c045 bf3c
000000a0: b44f 673c 6dbf b2bd 744e 493b 854d 1a3e
000000b0: 043a cd3d 8879 583d 3704 ddbd 3529 d43d
000000c0: aae0 0ebe 99b0 663d fa39 8e3d dec8 5fbc
000000d0: e11f cb3d b40c ae3d 699c b6bd 4b59 65bd
000000e0: b538 03be 1120 5ebc b48b c43d fa76 7abe
000000f0: 7f25 69bd 9ce1 0fbe 3838 a9bd a6ee b93b
00000100: cb85 d23d 1b94 a2bd bf62 ce3c 416a 9abc
00000110: f57c 813d 56b2 2bbe 0912 cbbc 63e2 2cbb
00000120: a2f5 84bd 0e5f bc3d 4109 d33d f206 c2bc
00000130: f361 1d3e ef9a 53bd 8b77 903d 37d1 ee3d
00000140: 73bb 1fbe 4d46 9bbd 8d12 01be 66f9 7abe
00000150: ace7 ee3d 6438 8b3d 573b 923d 75ed e13d
00000160: 5f40 9ebd 21fb 98bc a4cf 8dbc 093e 433e
00000170: 8fad 84bd 15cd c6bc 57a9 d63d 8a42 8fbc
00000180: fddf 64bc 015d 57bd fa57 33be 0e15 283e
00000190: 4565 143e 87e7 093e af61 bf3d 0389 833d
000001a0: de10 f5bc 87bd 96bb cdf4 1e3d e758 e5bd
000001b0: 24c2 353e d61f 42bc 5915 01be db52 2b3e
000001c0: 03cb f6bc 1089 f0bd ec55 c8bd 94dc 91bd
000001d0: e003 1c3d 9c28 8fbc 7363 dabd 05a6 813d
000001e0: d4d1 2f3e bc1f 1bbe 5014 8b3b 2b36 ca3d
000001f0: ed48 873d 0b75 893d 89c3 cebd 48df 2ebe
00000200: 30c8 26be 8704 d4bc 74e0 8fbd 9390 cf3d
00000210: 1b26 4d3d e275 803d 8e2c 0cbe 6080 183e
00000220: 7e44 c6bd 9df8 c33d 396a 05be cf73 25be
00000230: e4b1 1abe 4fa1 53bd 40c7 67bc c3e6 3bbe
00000240: 69e0 133e 9606 24bc bee4 14be 0d1b 26be
00000250: 6754 23be f20d 14be b95e 3f3d 6b12 85bd
00000260: 74a6 673d d0c5 473d 2c89 cb3d ab3c a23d
00000270: bae4 e2bd ee9e 73bd 1bed b4bd b025 713d
00000280: cc44 61bd 6914 c2bc 71c0 953c 93d2 9a3d
00000290: a4c2 e93b 143b d43c c198 b33a f8f7 70bc
000002a0: 2bd2 883d 5366 0c3e fd9a 01bd 7bbb 103e
000002b0: 84e8 aabd ad61 f6bc ca0d dfbd 3221 133e
000002c0: fb4b 78bd 1152 d7bd 91f8 c83c 3d30 95bb
000002d0: 82c4 8bbb caf0 0cbe 3681 32be cad8 febc
000002e0: ec46 26be 9d02 08bc 2f64 a53d 40a9 87bd
000002f0: fef0 54be c343 9fbd 666d 83bd 81a0 c43d
00000300: ceec 853d 3725 11be ed00 fa3d c56e 6b3d
00000310: b039 1b3e c896 35be 95bb 8bbc d017 c93b
00000320: 09c8 2f3e 937d 67bd a873 06be 0ba8 e1bd
00000330: 874e e3bc 49b4 3b3e 359c 5a3d 4baa 883d
00000340: 1576 cb3a fe05 16bd 977d 0fbe 1927 32bd
00000350: b91a f5bc 4d42 50bd 3045 303e a957 3b3e
00000360: 0082 1e3e ede2 1ebe f5e2 883d 0084 28be
00000370: fa27 4ebe b06e 84bd 4d01 94bd 7839 5abe
00000380: b545 2cbe 944d 1cbe e18f be3d 2735 0abd
00000390: 11ec cd3d 5e96 9f3d c1cc 433d bf73 6cbd
000003a0: 0241 023e 1790 113d 1b9d fc3d 0a55 48be
000003b0: 63c8 5dbe 373a f6bd 9bbf 28bd 68b6 4abe
000003c0: e1ea 31bd 8605 e9bd a12b 98bd aa86 26be
000003d0: e5f0 3a3d 090d b93d f835 793d 770d 0bbe
000003e0: 3f60 e8bd 02c8 1abe 05f6 a53c 7da0 eebc
000003f0: fa56 9dbd 3f71 ab3d 5d74 3e3b 3069 f53d

rnn.weight_hh f4 [96, 32]
0.13848607 0.03906352 0.16116142 -0.04125035 -0.06381899 0.020360555 0.086088926 -0.18956266
0.03184729 -0.10243722 0.13669407 -0.12155649 -0.08479116 -0.18045598 -0.17418282 -0.002613031
0.03560551 -0.04870559 -0.17236744 0.08780243 0.14636984 -0.08170898 -0.019527903 -0.16467424
-0.06779157 0.13533928 0.0060921004 0.21267976 -0.03684415 0.022820955 -0.08037799 -0.1712444
-0.11739937 -0.12324473 -0.123235114 0.14486372 -0.09258412 0.108722664 0.122982636 0.1464677
-0.09718584 -0.06420425 -0.05134335 -0.026108548 0.033718936 -0.09678713 0.068382114 0.07121124
-0.013207423 0.04043576 0.15972409 -0.059504364 -0.09401057 -0.06109575 -0.029356204 -0.17493737
0.12713479 -0.07174894 -0.09463744 -0.13578846 0.06391866 0.10378717 0.04987495 0.053005468
0.062979095 -0.1019896 -0.002511656 -0.043779884 0.13332438 0.050740313 -0.06444469 0.10503384
0.05013903 0.03264302 0.10182029 -0.011314933 0.069309175 0.120134294 -0.07088667 -0.034385413
0.05293061 -0.030317094 0.123424664 0.19186027 -0.042009924 0.13069661 0.05727649 -0.019974
-0.07674117 -0.19674553 0.073499255 0.057762355 -0.16521618 -0.13494314 0.10659903 -0.004855208
0.10218867 0.0137361195 -0.13229133 -0.13737637 -0.09189374 0.012648984 -0.12886241 0.17381611
0.093910955 -0.15717515 -0.08437085 -0.059860267 0.1329204 -0.14137211 0.06583878 -0.20447516
0.052163977 0.007940803 0.055679277 -0.085980594 -0.065075606 0.17980689 -0.0056572077 0.12757404
0.110842876 0.046777666 0.012788927 0.09989146 -0.09817804 0.07549675 -0.015287083 0.08056906
-0.087656036 -0.08937223 -0.074933864 0.13137676 0.054974433 0.058999337 -0.09807349 -0.10185673
0.13048911 -0.06786743 0.080213815 -0.15619572 0.086967826 0.1280381 -0.15561084 -0.034866765
-0.15629928 0.0991312 0.027209055 0.00037180554 -0.056156915 -0.0069866804 0.13367517 0.07141034
0.10205254 0.18265852 0.028926406 -0.065152645 0.024894774 0.15061243 0.06730664 -0.1967544
-0.06900907 0.10759536 -0.16508594 0.09026042 -0.014716756 0.045486134 0.15786935 -0.07289701
-0.05620079 0.038134992 -0.012739922 0.13199858 -0.13814107 -0.091138706 -0.1599541 0.11230928
-0.13595876 -0.028307673 0.13054225 0.0073337667 0.033758774 0.15466459 -0.01073381 -0.030824356
0.00994996 0.028784268 0.12584291 -0.06643852 0.041392833 0.14656423 -0.062908694 0.07583974
0.06129757 -0.09577661 0.09191019 0.16059184 0.04080273 0.21419074 0.058940146 0.10502582
-0.029318945 -0.06603018 0.066284604 -0.16055872 0.08921543 -0.1398034 -0.057348814 0.008026277
0.050676752 0.12586291 -0.108623624 -0.08960043 0.07235166 -0.1631787 -0.07388214 0.03045769
-0.045325108 -0.0010505549 0.11367887 0.04998211 -0.15816146 -0.02069843 -0.06478168 0.05462716
0.05306524 -0.012576169 -0.023170298 -0.113244236 0.1709956 -0.029021341 -0.059914354 -0.0641308
0.09426004 -0.12816568 0.07631592 -0.031407148 0.1443283 -0.13613296 -0.03557496 -0.023621365
-0.018821238 -0.10220133 0.0078010526 0.08093871 0.062272508 0.103197835 0.08076537 -0.19861856
0.1274869 -0.02833008 -0.10942813 -0.003187604 -0.07061373 0.13938902 -0.13757096 0.013748794
00000000: 4bcf 0d3e 1201 203d 8007 253e 21f6 28bd
00000010: 88b3 82bd 2ecb a63c 644f b03d b71c 42be
00000020: 4e72 023d 9bca d1bd 88f9 0b3e 9cf2 f8bd
00000030: fda6 adbd 74c9 38be fb5c 32be 633f 2bbb
00000040: 15d7 113d 837f 47bd 1781 30be c3d1 b33d
00000050: fae1 153e 0a57 a7bd fbf8 9fbc 5da0 28be
00000060: 4fd6 8abd 6196 0a3e 3ea0 c73b b9c8 593e
00000070: e4e9 16bd 03f3 ba3c 379d a4bd b15a 2fbe
00000080: 156f f0bd bc67 fcbd b162 fcbd 2857 143e
00000090: be9c bdbd fda9 de3d 52de fb3d a1fb 153e
000000a0: 5f09 c7bd 857d 83bd 684d 52bd 98e1 d5bc
000000b0: de1c 0a3d 5538 c6bd ec0b 8c3d 33d7 913d
000000c0: f263 58bc f89f 253d b68e 233e d9ba 73bd
000000d0: 9d88 c0bd 8a3f 7abd 6c7c f0bc c822 33be
000000e0: 9f2f 023e 1cf1 92bd 46d1 c1bd 210c 0bbe
000000f0: c9e7 823d 5e8e d43d ad49 4c3d 431c 593d
00000100: 2ffb 803d ecdf d0bd 989a 24bb 8952 33bd
00000110: 3086 083e 13d5 4f3d 94fb 83bd fb1b d73d
00000120: 955e 4d3d b0b4 053d 2887 d03d 4562 39bc
00000130: f8f1 8d3d f808 f63d 082d 91bd b8d7 0cbd
00000140: c4cd 583d 8e5b f8bc 12c6 fc3d 0577 443e
00000150: 9912 2cbd 55d5 053e c19a 6a3d 84a0 a3bc
00000160: 792a 9dbd a977 49be c786 963d 3898 6c3d
00000170: 6e2e 29be 892e 0abe 9850 da3d 7018 9fbb
00000180: 4b48 d13d 760d 613c 6177 07be 64ac 0cbe
00000190: c932 bcbd af3d 4f3c 82f4 03be dafc 313e
000001a0: 6354 c03d 86f2 20be a0ca acbd 0a30 75bd
000001b0: 491c 083e dac3 10be 7bd6 863d f061 51be
000001c0: e5a9 553d 241a 023c f40f 643d 9816 b0bd
000001d0: 5c46 85bd 4c1f 383e 1960 b9bb c5a2 023e
000001e0: 9701 e33d f099 3f3d a688 513c e593 cc3d
000001f0: 9111 c9bd 0a9e 9a3d ac76 7abc 6401 a53d
00000200: 0285 b3bd ca08 b7bd ed76 99bd a187 063e
00000210: df2c 613d 4aa9 713d c1da c8bd 439a d0bd
00000220: f09e 053e 14fe 8abd 2447 a43d c5f1 1fbe
00000230: 301c b23d 6b1c 033e 7358 1fbe 74d0 0ebd
00000240: eb0c 20be 4c05 cb3d 86e5 de3c e5ee c239
00000250: cb04 66bd 86f0 e4bb 25e2 083e 963f 923d
00000260: ec00 d13d d60a 3b3e 12f7 ec3c c06e 85bd
00000270: 20f0 cb3c 253a 1a3e 10d8 893d fc79 49be
00000280: a154 8dbd f55a dc3d 4a0c 29be 75da b83d
00000290: 8c1e 71bc ab4f 3a3d 81a8 213e 074b 95bd
000002a0: cd32 66bd 7033 1c3d 1bbb 50bc a32a 073e
000002b0: da74 0dbe eea6 babd 02cb 23be 6802 e63d
000002c0: c638 0bbe 7ee5 e7bc deac 053e 1850 f03b
000002d0: a446 0a3d 6560 1e3e dddc 2fbc 5c83 fcbc
000002e0: 2805 233c fccc eb3c f7dc 003e eb10 88bd
000002f0: 888b 293d ef14 163e 46d6 80bd de51 9b3d
00000300: 2913 7b3d 8726 c4bd 693b bc3d 3072 243e
00000310: c320 273d d154 5b3e 396b 713d c717 d73d
00000320: 492e f0bc d53a 87bd 39c0 873d 8169 24be
00000330: 94b6 b63d 9f28 0fbe 97e6 6abd a580 033c
00000340: 6d92 4f3d 35e2 003e 1076 debd 6e80 b7bd
00000350: 1b2d 943d 5118 27be 854f 97bd 6882 f93c
00000360: d2a6 39bd c6b2 89ba 78d0 e83d 0aba 4c3d
00000370: 14f5 21be c18f a9bc 42ac 84bd bbc0 5f3d
00000380: f05a 593d 470c 4ebc a3cf bdbc 98ec e7bd
00000390: 7819 2f3e 2abe edbc c168 75bd 0257 83bd
000003a0: 680b c13d dd3d 03be 854b 9c3d c8a4 00bd
000003b0: ccca 133e 7066 0bbe 0db7 11bd 9881 c1bc
000003c0: ff2e 9abc ee4e d1bd f99f ff3b 32c3 a53d
000003d0: 7511 7f3d 6359 d33d 5068 a53d aa62 4bbe
000003e0: ed8b 023e 7c14 e8bc db1b e0bd 1fe7 50bb
000003f0: ee9d 90bd ffbb 0e3e 67df 0cbe 9f42 613c

rnn.bias_ih f4 [96]
0.103042334 -0.10811084 0.1254956 -0.07425599 -0.08768367 -0.16802439 -0.06516711 -0.097631
-0.09944041 -0.025747132 0.003171042 -0.08238923 0.013287668 -0.18013069 -0.05007114 0.07568813
-0.07675161 -0.13486315 0.17254554 0.015553497 0.1080402 0.012297106 -0.09599351 -0.074846454
0.14936665 -0.13396156 -0.090085015 0.110567525 0.15341987 -0.12518597 -0.1823909 0.10893936
0.04034785 0.10435449 -0.11231996 0.08130295 0.13708644 -0.11525556 0.0978168 -0.11273839
-0.06596453 -0.18342738 0.07824758 -0.2255693 -0.25822407 0.0031737213 -0.20138596 -0.0800876
0.035716575 0.06286599 -0.061549928 0.0003692529 -0.050014187 0.15647358 -0.01162948 -0.07602861
0.03715099 -0.13567443 -0.018187245 -0.044339914 -0.082796164 -0.13819502 -0.08008573 0.023519203
-0.059949797 0.14361566 -0.1120467 0.012364336 0.09614523 0.13069955 -0.011187931 -0.11287545
-0.039597403 -0.14478591 -0.046815865 -0.13353871 0.042922907 0.066798806 0.17749932 0.09853628
-0.17185047 -0.057701994 0.20307672 -0.100457706 -0.12740734 -0.13029957 0.053020194 0.17490846
-0.012995602 0.12087509 -0.034585983 -0.12766348 -0.0653942 -0.062428087 0.052848656 0.064339496
00000000: dc07 d33d 3769 ddbd eb81 003e 8613 98bd
00000010: 7f93 b3bd 960e 2cbe 5576 85bd c3f2 c7bd
00000020: 6aa7 cbbd a6eb d2bc 42d1 4f3b afbb a8bd
00000030: 85b4 593c 2e74 38be 6517 4dbd 6102 9b3d
00000040: f32f 9dbd 9119 0abe c7af 303e 18d4 7e3c
00000050: 2e44 dd3d cd79 493c 3f98 c4bd 1949 99bd
00000060: 92f3 183e 382d 09be 7e7e b8bd 3a71 e23d
00000070: 191a 1d3e c030 00be aec4 3abe 991b df3d
00000080: ca43 253d cfb7 d53d 0208 e6bd 2982 a63d
00000090: 6360 0c3e 1b0b ecbd 2d54 c83d 63e3 e6bd
000000a0: 6918 87bd 63d4 3bbe 4440 a03d a3fb 66be
000000b0: f235 84be 35fe 4f3b 1f38 4ebe f804 a4bd
000000c0: 8b4b 123d e2bf 803d c71b 7cbd 4998 c139
000000d0: addb 4cbd 9c3a 203e 9389 3ebc e3b4 9bbd
000000e0: a32b 183d 3dee 0abe 6bfd 94bc c59d 35bd
000000f0: 0991 a9bd ff82 0dbe fd03 a4bd 58ab c03c
00000100: eb8d 75bd fc0f 133e be78 e5bd c993 4a3c
00000110: cae7 c43d 1ad6 053e 954d 37bc 3e2b e7bd
00000120: e330 22bd c242 14be fec1 3fbd 5fbe 08be
00000130: eecf 2f3d d0cd 883d 62c2 353e 64cd c93d
00000140: 92f9 2fbe ed58 6cbd 58f3 4f3e c5bc cdbd
00000150: 1277 02be 406d 05be b42b 593d 341b 333e
00000160: 81eb 54bc 5c8d f73d 08aa 0dbd 37ba 02be
00000170: 65ed 85bd 98b4 7fbd d577 583d 6dc4 833d

rnn.bias_hh f4 [96]
0.032306794 0.032773104 0.16968444 0.046491377 -0.09605879 0.01004745 0.07508227 -0.044280257
-0.0662296 -0.037703145 0.048639353 -0.009334954 -0.033943556 0.05690053 0.112321034 -0.16617
-0.081298456 0.17345431 0.1501865 0.16553716 -0.03275722 -0.08650151 -0.16271263 -0.038703434
-0.09549224 0.07735109 -0.061133433 -0.030368855 -0.097763576 0.009175256 0.073593974 0.10076027
0.062327772 0.07140768 0.034239616 -0.18936116 0.08965327 -0.13363901 0.06398676 -0.045532852
-0.18011789 -0.15744063 -0.002229927 -0.27293253 -0.22734794 -0.087869115 -0.05509175 0.07688255
-0.20626786 0.03607295 -0.2066611 0.09720293 -0.16278334 -0.14193574 -0.08799805 -0.13334398
0.0035304185 0.088973165 -0.034724098 -0.050960265 -0.10975318 0.0034077829 -0.04142622 -0.011238397
0.05737947 0.098258555 -0.061072964 -0.06617318 -0.16386312 0.12875806 -0.14923924 0.07481933
-0.08175559 0.09731277 -0.1234051 0.057637244 0.054413825 0.015043663 -0.17710313 0.07282624
-0.02725231 0.21186747 0.001906257 -0.164292 0.1944623 0.10432923 -0.12455218 0.043047596
0.18044354 -0.067503266 -0.04365468 0.07600158 0.1667412 0.13082634 -0.08003318 -0.044003695
00000000: 2154 043d 173d 063d c2c1 2d3e be6d 3e3d
00000010: 79ba c4bd 0f9e 243c bcc4 993d 375f 35bd
00000020: 62a3 87bd 9d6e 1abd 0f3a 473d a3f1 18bc
00000030: 6608 0bbd 8810 693d 9208 e63d 7828 2abe
00000040: ce7f a6bd 029e 313e 7dca 193e 9382 293e
00000050: 6f2c 06bd b427 b1bd 249e 26be 7e87 1ebd
00000060: 6f91 c3bd 406a 9e3d 0d67 7abd 1bc8 f8bc
00000070: 4538 c8bd d053 163c 70b8 963d 675b ce3d
00000080: 684b 7f3d 313e 923d d73e 0c3d e4e7 41be
00000090: 229c b73d aad8 08be 7e0b 833d a880 3abd
000000a0: d370 38be 1e38 21be f823 12bb d0bd 8bbe
000000b0: e6cd 68be b9f4 b3bd e3a7 61bd 9974 9d3d
000000c0: e237 53be 3bc1 133d f89e 53be 5412 c73d
000000d0: adb0 26be 9a57 11be 5238 b4bd 538b 08be
000000e0: 985e 673b 9037 b63d db3a 0ebd b6bb 50bd
000000f0: 46c6 e0bd 1c55 5f3b 8aae 29bd 4121 38bc
00000100: bc06 6b3d c83b c93d a527 7abd ce85 87bd
00000110: bccb 27be 27d9 033e 2cd2 18be e03a 993d
00000120: 7a6f a7bd eb4b c73d d0bb fcbd 0815 6c3d
00000130: 08e1 5e3d b279 763c 865a 35be ec25 953d
00000140: 3d40 dfbc c9f3 583e 5fdb f93a 293c 28be
00000150: 2021 473e 90aa d53d 3715 ffbd ad52 303d
00000160: 31c6 383e 273f 8abd 40cf 32bd b7a6 9b3d
00000170: 35be 2a3e 57f7 053e 70e8 a3bd 383d 34bd

fc2.weight f4 [6, 32]
0.24518186 -0.054311715 0.057867393 0.31086007 -0.27533484 0.06569657 0.084469676 -0.036515605
0.036614746 0.057189275 -0.031391233 0.066496156 -0.48207647 0.15454496 -0.042231943 -0.0046346667
-0.33860207 0.32167512 0.12430149 -0.0499157 -0.038348854 -0.0114614945 0.024785079 0.03882991
0.20235647 0.19213298 -0.08625643 -0.5421994 0.1543641 -0.12691781 0.18752748 0.011920339
0.086610086 0.075024374 0.023323042 0.056744102 -0.1133584 -0.13528211 0.037108958 0.23244824
0.17382912 0.02608931 0.17480579 0.032739494 0.21621148 -0.29521886 -0.30394346 0.030038802
0.07594093 -0.08697922 0.021663466 -0.10756675 -0.061270453 -0.028103923 -0.42436358 -0.067297354
-0.1981225 0.16430752 -0.22436133 -0.33710137 0.018707534 0.07963807 -0.12516345 0.12756284
0.064726874 0.17082797 -0.3106762 -0.054708544 -0.47049433 0.21324472 0.07203957 -0.13211787
0.05650984 0.067243785 0.0781562 -0.11585588 -0.049942616 -0.026872242 0.060243007 0.23405387
0.23412797 -0.21863198 -0.057440355 -0.1124083 -0.030727347 0.04747404 0.24053492 0.10113782
-0.11250362 -0.0037851112 -0.18606961 0.16324338 0.27703288 -0.3563432 -0.2301815 0.00047161157
-0.1280054 -0.091976486 -0.07598873 -0.11671534 -0.105824865 -0.005312673 -0.2047197 0.31492305
0.02277541 -0.10287253 0.3777228 0.07449458 0.07840993 0.23759 -0.015324009 0.25582907
-0.12015351 0.2529514 0.061593127 -0.30109945 0.10116106 0.26540622 0.18005802 -0.26228693
-0.097483166 -0.20673189 0.23869756 0.06081648 -0.11240814 0.007866128 -0.10362412 0.2289254
0.37907487 -0.00013277498 0.41718984 0.1578392 0.016559117 0.13085592 -0.044353783 -0.20099624
-0.17864564 -0.044270426 -0.09917806 0.28839484 -0.013538534 0.13737465 0.25539812 -0.050014213
-0.010157761 -0.060421765 -0.2949088 -0.2695302 0.15867202 -0.05300442 -0.28310332 -0.037858885
-0.15882792 0.13782157 0.14154164 0.12900539 0.1391213 -0.0067973635 -0.14374839 0.23459218
0.31357306 0.21210441 0.031433012 0.12904644 -0.13894166 0.081242986 -0.181182 0.0064096134
-0.3616663 -0.13990496 -0.21718532 0.25843248 0.20180479 0.092122875 -0.4232002 -0.49764082
-0.10044076 -0.084949575 0.331251 -0.19934696 0.3511804 0.1875175 -0.20263906 0.18552859
0.039516877 -0.13712314 0.08586999 0.053911537 0.19619662 -0.23918447 0.1910292 -0.12932155
00000000: f410 7b3e f675 5ebd 5c06 6d3d 0d29 9f3e
00000010: b0f8 8cbe ec8b 863d 70fe ac3d 6391 15bd
00000020: 58f9 153d 4d3f 6a3d 1894 00bd 232f 883d
00000030: bad2 f6be 0941 1e3e 67fb 2cbd 67de 97bb
00000040: 405d adbe 9ab2 a43e c891 fe3d 6874 4cbd
00000050: b013 1dbd fec8 3bbc 140a cb3c 1d0c 1f3d
00000060: 8936 4f3e 82be 443e 36a7 b0bd 94cd 0abf
00000070: 9f11 1e3e bef6 01be 3407 403e 874d 433c
00000080: a160 b13d 61a6 993d f70f bf3c 816c 683d
00000090: 7328 e8bd 6587 0abe 90ff 173d e906 6e3e
000000a0: 4300 323e 40b9 d53c 4a00 333e d919 063d
000000b0: 8b66 5d3e ed26 97be 7a9e 9bbe ef13 f63c
000000c0: eb86 9b3d 2922 b2bd 9577 b13c f54b dcbd
000000d0: baf6 7abd 333a e6bc 2f46 d9be 32d3 89bd
000000e0: a0e0 4abe 3b40 283e fabe 65be 8d98 acbe
000000f0: 8b40 993c 4919 a33d d92a 00be d59f 023e
00000100: 868f 843d 87ed 2e3e f310 9fbe 1116 60bd
00000110: a2e4 f0be d35c 5a3e 7b89 933d e849 07be
00000120: dd76 673d 1cb7 893d 5c10 a03d d945 edbd
00000130: a190 4cbd 2d23 dcbc 5fc1 763d d1ab 6f3e
00000140: 3ebf 6f3e 10e1 5fbe 9446 6bbd 5336 e6bd
00000150: ebb7 fbbc 2474 423d c94e 763e 5821 cf3d
00000160: 4c68 e6bd a10f 78bb 0889 3ebe 4629 273e
00000170: 41d7 8d3e 9e72 b6be b3b4 6bbe a242 f739
00000180: d913 03be 2b5e bcbd fb9f 9bbd 7408 efbd
00000190: b5ba d8bd ee15 aebb 0ba2 51be 983d a13e
000001a0: 7f93 ba3c d5ae d2bd e264 c13e 9d90 983d
000001b0: 6395 a03d cb4a 733e 8d11 7bbc 07fc 823e
000001c0: 0b13 f6bd d982 813e 1349 7c3d b529 9abe
000001d0: 882d cf3d 53e3 873e 2161 383e 794a 86be
000001e0: 41a5 c7bd 86b1 53be 226d 743e b41a 793d
000001f0: 3d36 e6bd efe0 003c e238 d4bd 6c6b 6a3e
00000200: 1a16 c23e 8339 0bb9 e899 d53e 99a0 213e
00000210: fca6 873c 18ff 053e 50ac 35bd f5d1 4dbe
00000220: e2ee 36be e854 35bd de1d cbbd 7da8 933e
00000230: bad0 5dbc f1ab 0c3e 8bc3 823e b4db 4cbd
00000240: bd6c 26bc d07c 77bd 49fe 96be ddff 89be
00000250: eb7a 223e 2a1b 59bd ebf2 90be eb11 1bbd
00000260: c9a3 22be 1921 0d3e 4bf0 103e fd19 043e
00000270: d075 0e3e 6bbc debb c732 13be ef38 703e
00000280: a68c a03e e631 593e e7bf 003d c024 043e
00000290: b946 0ebe b962 a63d c687 39be bc07 d23b
000002a0: 532c b9be 3f43 0fbe d465 5ebe 4351 843e
000002b0: eaa5 4e3e ebaa bc3d b2ad d8be c7ca febe
000002c0: e3b3 cdbd 0bfa adbd bb99 a93e 9c21 4cbe
000002d0: ebcd b33e 9604 403e 9d80 4fbe 35fb 3d3e
000002e0: 73dc 213d 026a 0cbe 9bdc af3d 58d2 5c3d
000002f0: c4e7 483e c6ec 74be 299d 433e de6c 04be

fc2.bias f4 [6]
0.018506894 0.009394979 -0.012635001 -0.011117737 0.008711058 0.053660095
00000000: c59b 973c 66ed 193c 0903 4fbc 2b27 36bc
00000010: d3b8 0e3c b0ca 5b3d
