results/alpha_0.5/agent_1500.pt (torch, 43191 bytes, 8 tensors)

fc1.weight f4 [32, 104]
0.07005436 -0.23767692 -0.09364513 -0.0018586616 -0.12649003 -0.17525367 -0.14031245 0.00864422
-0.12265541 -0.013386891 0.14303724 -0.021133125 -0.17630333 0.076099426 0.05952543 0.20280688
-0.04374243 0.07729007 0.014072615 0.09489081 -0.027345838 -0.11258308 0.044003785 0.00073511904
-0.1849446 -0.15773436 -0.13837175 0.18326655 0.15829295 -0.2214589 -0.14278169 0.13052735
-0.025740374 0.05191321 -0.020551642 -0.11056694 0.13568665 0.0024674088 0.11983388 0.05126613
-0.059521157 -0.05497139 0.07453543 -0.06279658 -0.32909316 -0.15797958 0.006990596 0.01913813
0.11204851 0.036997646 -0.017305661 -0.09995041 0.11916334 -0.04063736 -0.018790377 -0.11569729
-0.012951533 -0.10110652 -0.10949891 0.03215438 0.10436239 -0.038093157 0.20980191 0.14501667
-0.0011798505 -0.077821046 -0.03193496 0.021429714 -0.03942109 -0.21440916 -0.020213746 -0.12455246
-0.24518016 0.18725245 0.05575541 -0.15713356 -0.057434987 0.11061303 -0.07229455 -0.10630655
-0.053964954 0.14040339 0.0960258 0.1520952 0.13167596 0.08260892 -0.13305727 0.037738457
-0.20381635 -0.05755785 0.05060488 0.13189214 -0.16646221 0.047335025 0.10664541 -0.15409605
0.21622258 -0.35083073 0.0019456173 -0.09145501 0.0994221 -0.02975662 -0.012100306 0.070548594
0.07879614 0.19588843 -0.11467625 0.052772336 -0.24436046 -0.14987625 -0.321623 -0.0916737
-0.16384868 0.14275041 0.00070469733 0.07116074 0.012313532 0.021327568 0.0341189 -0.01961323
-0.13766046 -0.059824165 0.20906308 0.05176584 -0.016908597 0.050101995 -0.02787711 -0.2229505
-0.1438916 -0.13928466 -0.17139778 0.2675698 0.056971155 -0.2081393 -0.029421056 -0.028555611
-0.13565563 -0.1598956 0.15096448 0.05329819 0.26863116 -0.07135717 0.04543306 -0.0139018595
0.029373635 0.18427166 -0.0020247845 0.0838532 0.23274475 0.065101944 0.06679785 0.06651203
0.10234009 0.084187225 -0.026811704 0.08785665 0.065295696 -0.19002755 -0.080763936 0.06389437
-0.08707004 0.01829304 0.01426388 -0.050023474 0.04821331 0.015387161 0.0043476215 -0.08180241
0.07043017 0.10605652 0.025639512 -0.024533981 0.0062965755 -0.3034483 -0.17861925 -0.049183317
0.10881792 0.22178495 -0.17721197 0.20202766 -0.17875811 0.045080747 0.06716855 -0.15866864
0.04470839 0.15539904 0.06625708 -0.056783896 0.09387645 -0.026601259 0.06585765 -0.09917957
0.037210666 0.2094994 -0.1412701 0.013576421 0.06836294 -0.0978309 0.2651744 0.17501897
-0.0451509 0.14639802 0.13867544 0.008783369 0.10292517 -0.05184288 -0.07964098 -0.050432947
0.2797043 -0.23948115 -0.2984789 -0.07657635 0.13840276 0.07790917 -0.32541457 -0.07370594
0.030307148 0.22379689 -0.1783905 0.030023597 -0.09722996 0.07799085 -0.008030906 -0.062206507
0.044453844 0.08201181 0.072140396 0.03202965 -0.1134924 0.021009948 0.16028602 0.09893903
0.03611327 0.044511374 0.081717476 0.04220677 0.06266156 -0.032707762 0.24606971 0.10242942
0.09350978 -0.14361274 0.06499132 -0.12845713 0.0738355 -0.09082822 -0.035025228 -0.056135967
-0.067499034 0.11944021 -0.13421375 -0.021306971 0.06602358 -0.014410838 -0.02267454 -0.0055610714
00000000: a978 8f3d 9461 73be 05c9 bfbd 569e f3ba
00000010: 9a86 01be b375 33be 11ae 0fbe 7da0 0d3c
00000020: c232 fbbd b154 5bbc 5b78 123e 601f adbc
00000030: dc88 34be 04da 9b3d f0d0 733d 9bac 4f3e
00000040: 432b 33bd 424a 9e3d d390 663c 1d56 c23d
00000050: 6104 e0bc f591 e6bd 503d 343d 01b5 403a
00000060: 1e62 3dbe 1e85 21be 53b1 0dbe 3aaa 3b3e
00000070: 8c17 223e 1fc6 62be 5d35 12be f6a8 053e
00000080: 7add d2bc f2a2 543d eb5b a8bc eb70 e2bd
00000090: 71f1 0a3e 40b4 213b 776b f53d 6ffc 513d
000000a0: 75cc 73bd ae29 61bd 08a6 983d 7e9b 80bd
000000b0: e67e a8be 66c5 21be 5f11 e53b 91c7 9c3c
000000c0: b079 e53d d88a 173d 9ac4 8dbc cdb2 ccbd
000000d0: e90b f43d 5c73 26bd 47ee 99bc b3f2 ecbd
000000e0: ab32 54bc ef10 cfbd f740 e0bd 50b4 033d
000000f0: f3bb d53d 9207 1cbd 50d6 563e 407f 143e
00000100: 37a5 9aba a460 9fbd 3cce 02bd 5e8d af3c
00000110: 0278 21bd 138e 5bbe 4c97 a5bc 5c15 ffbd
00000120: 8210 7bbe 1bbf 3f3e c95f 643d 9fe7 20be
00000130: f340 6bbd 1689 e23d 2a0f 94bd 40b7 d9bd
00000140: 5b0a 5dbd e8c5 0f3e 2da9 c43d d8be 1b3e
00000150: 10d6 063e de2e a93d 2a40 08be a493 1a3d
00000160: 3cb5 50be c8c1 6bbd 1047 4f3d bc0e 073e
00000170: 1275 2abe 5fe2 413d e968 da3d 5bcb 1dbe
00000180: 7469 5d3e 16a0 b3be 1504 ff3a c44c bbbd
00000190: d09d cb3d 28c4 f3bc 5d40 46bc c87b 903d
000001a0: df5f a13d fa96 483e 62db eabd ce27 583d
000001b0: a139 7abe 2979 19be c5ab a4be 6cbf bbbd
000001c0: f3c7 27be 2a2d 123e 70bb 383a b9bc 913d
000001d0: b2be 493c 27b7 ae3c 42c0 0b3d edab a0bc
000001e0: ddf6 0cbe 2f0a 75bd a214 563e 6b08 543d
000001f0: e683 8abc c037 4d3d 895e e4bc 234d 64be
00000200: 5258 13be a3a0 0ebe e682 2fbe e9fe 883e
00000210: 965a 693d 7822 55be 6d04 f1bc 75ed e9bc
00000220: 4fe9 0abe acbb 23be 6f96 1a3e 344f 5a3d
00000230: 068a 893e b523 92bd 0418 3a3d a0c4 63bc
00000240: faa0 f03c b6b1 3c3e 3fb2 04bb 3abb ab3d
00000250: a454 6e3e 2b54 853d 50cd 883d 7637 883d
00000260: ae97 d13d 5a6a ac3d 38a4 dbbc 30ee b33d
00000270: c0b9 853d 9596 42be 9067 a5bd 0ddb 823d
00000280: c751 b2bd 49db 953c 0db3 693c 6ae5 4cbd
00000290: 527b 453d 6e1a 7c3c 7e76 8e3b 0688 a7bd
000002a0: b13d 903d 2934 d93d f409 d23c 7dfb c8bc
000002b0: 8153 ce3b 935d 9bbe f7e7 36be 7274 49bd
000002c0: eedb de3d 981b 633e 0e77 35be 57e0 4e3e
000002d0: 5e0c 37be 97a6 383d aa8f 893d 087a 22be
000002e0: 2520 373d ed20 1f3e cbb1 873d 3b96 68bd
000002f0: 4c42 c03d e2ea d9bc 60e0 863d a91e cbbd
00000300: 366a 183d 0387 563e 1ca9 10be a36f 5e3c
00000310: de01 8c3d 915b c8bd f0c4 873e 2c38 333e
00000320: 26f0 38bd 5de9 153e ef00 0e3e 1fe8 0f3c
00000330: 6eca d23d 3359 54bd cf1a a3bd c792 4ebd
00000340: 6735 8f3e 8c3a 75be 3ad2 98be 10d4 9cbd
00000350: 74b9 0d3e d88e 9f3d bd9c a6be 24f3 96bd
00000360: b246 f83c 032b 653e 00ac 36be 0cf4 f53c
00000370: 8020 c7bd abb9 9f3d 1094 03bc 40cc 7ebd
00000380: 3c15 363d cff5 a73d 58be 933d 8631 033d
00000390: b46e e8bd 0e1d ac3c 0522 243e 8ca0 ca3d
000003a0: 82eb 133d 8f51 363d 7e5b a73d 02e1 2c3d
000003b0: b454 803d 93f8 05bd b3f9 7b3e 84c6 d13d
000003c0: 0e82 bf3d 380f 13be 2b1a 853d 448a 03be
000003d0: 1137 973d 2504 babd 9d76 0fbd d4ee 65bd
000003e0: ef3c 8abd 129d f43d 546f 09be f58b aebc
000003f0: 5f37 873d 6f1b 6cbc f5bf b9bc a639 b6bb

fc1.bias f4 [32]
0.0040617464 0.0711592 0.011288514 -0.00181133 0.03189705 0.016316568 0.03847112 0.03936119
0.05410642 0.03220779 0.0006879372 0.016164374 0.017436173 0.0020284022 0.0074560577 -0.0054048677
0.009690271 0.021352172 0.025425715 0.046597775 0.03782799 0.04211021 0.06375347 -0.015768446
0.015379228 0.016704487 0.047483385 0.06820261 0.0029453058 0.04575015 0.06027717 -0.0025309038
00000000: 6618 853b eabb 913d 76f3 383c 266a edba
00000010: 7ba6 023d 53aa 853c e593 1d3d 3339 213d
00000020: b29e 5d3d 51ec 033d af56 343a 266b 843c
00000030: 4ed6 8e3c f1ee 043b f251 f43b 511b b1bb
00000040: f1c3 1e3c c0ea ae3c 9749 d03c 4fdd 3e3d
00000050: 86f1 1a3d c17b 2c3d 2e91 823d d42c 81bc
00000060: 28f9 7b3c d9d7 883c f07d 423d cfad 8b3d
00000070: 0806 413b 8264 3b3d 32e5 763d 85dd 25bb

rnn.weight_ih f4 [96, 32]
0.061764214 -0.034652714 0.042939205 -0.1998215 0.043509178 0.03099783 -0.09979802 -0.07698551
0.08362977 -0.18174376 -0.038835935 -0.019910408 0.020260684 -0.034364775 -0.054836582 -0.21466759
0.08249741 -0.06605824 -0.075667225 0.079743356 0.016451204 -0.013205495 -0.053150617 0.09455057
-0.16542506 -0.09820384 -0.16397631 -0.08869264 0.17648965 0.009883348 -0.12678835 0.1613236
0.18125515 0.1582205 -0.0077722142 -0.026098134 0.055941314 0.16190705 -0.2528704 0.015550699
0.046883304 -0.06340486 0.035709444 0.21328588 0.09666344 0.09564313 -0.31108776 0.09660666
-0.20884457 0.06880726 0.06645028 -0.07153022 0.14220855 0.12202648 -0.029719708 -0.05309512
-0.092200756 0.0022591539 0.1595678 -0.22100705 0.038652137 -0.1182471 -0.07400912 0.124368064
0.030781554 -0.05518791 -0.045312483 0.111636445 0.06068228 -0.16957502 0.020993743 -0.047460925
-0.072456166 0.09133091 0.16592169 -0.13299967 -0.0026723293 -0.08723284 0.16931595 0.17020367
-0.07834536 -0.07370801 -0.12562576 -0.24100105 0.114977 0.071142 0.097651675 0.099670336
-0.07669555 -0.06554577 0.05384104 0.2909308 -0.015564102 -0.030964775 0.082189985 -0.047593214
-0.056268144 0.022571113 -0.12705864 0.24437958 0.17946707 0.12340446 0.16605555 0.15585765
-0.0063773342 0.014648703 0.05220142 -0.10032107 0.23453681 0.01725633 0.013896725 0.1742659
-0.058320615 -0.047817882 -0.03381634 -0.039572705 0.059493907 0.024880746 -0.04713759 0.056149893
0.18763937 -0.0946458 0.025737956 0.11877488 0.06457146 0.101414986 -0.077430315 -0.1612484
-0.18416965 0.001147041 -0.07663063 0.18526658 0.10497338 -0.0025886074 -0.09954201 0.23314351
-0.08462244 0.10650243 -0.09161981 -0.14675494 -0.14271246 -0.017718734 0.06113049 -0.17536268
0.11766022 -0.038432293 -0.1426455 -0.20809624 -0.14157675 -0.11181353 0.13026401 -0.07803137
0.09015693 0.032716602 0.09861944 0.11080581 -0.06832207 -0.063791394 -0.15276426 0.09973116
-0.11411507 -0.03403099 0.0049792184 0.068437874 -0.011081143 0.006363408 -0.038495746 -0.021222707
0.051644836 0.12618487 -0.039496288 0.12130604 -0.07943336 -0.034501974 -0.13770342 0.108905934
-0.07611274 -0.10943617 0.042843368 -0.0154617 -0.022231756 -0.1546649 -0.20091549 -0.03424923
-0.19056888 0.0031675228 0.031649563 -0.11642482 -0.23007058 -0.077111185 -0.065595806 0.055008482
0.07663264 -0.044621956 0.1091344 0.11640627 0.15462741 -0.23207685 -0.11363691 0.30371305
0.11634571 -0.12269687 -0.11562588 -0.19290583 -0.13151969 0.114195526 -0.07518315 -0.06987108
0.01953303 -0.047985688 0.0324237 -0.043278284 -0.0047660205 -0.11085404 0.16574582 0.18494277
0.10051169 -0.27727723 0.10496287 -0.22081318 -0.14367652 -0.15505454 -0.12538984 -0.2096202
-0.20128311 -0.12053455 0.103660844 0.027388783 0.17102182 0.137307 0.10517013 -0.02829529
0.16303249 0.05673551 0.09240338 -0.2260158 -0.20184433 -0.18615131 0.108739495 -0.082783535
-0.116740584 -0.05732619 -0.040599007 -0.19224192 0.068932235 0.12307178 0.055396385 -0.12784222
-0.10124569 -0.089195654 -0.029023016 -0.0103083765 -0.08549787 0.11097446 0.05270327 0.08800838
00000000: 79fc 7c3d 01f0 0dbd 05e1 2f3d 029e 4cbe
00000010: ae36 323d 29ef fd3c e862 ccbd 94aa 9dbd
00000020: 1646 ab3d 091b 3abe 6e12 1fbd 271b a3bc
00000030: bcf9 a53c 14c2 0cbd 539c 60bd d2d1 5bbe
00000040: 67f4 a83d 8b49 87bd 6bf7 9abd 7c50 a33d
00000050: adc4 863c dc5b 58bc 76b4 59bd bba3 c13d
00000060: 3065 29be 181f c9bd 68e9 27be 7da4 b5bd
00000070: b4b9 343e c4ed 213c ced4 01be 0432 253e
00000080: f39a 393e 8e04 223e 0fae febb c1cb d5bc
00000090: b822 653d f6ca 253e 3b78 81be 5cc8 7e3c
000000a0: b508 403d 68da 81bd 1144 123d 9d67 5a3e
000000b0: 7bf7 c53d 8ce0 c33d e546 9fbe b6d9 c53d
000000c0: 5adb 55be d2ea 8c3d 1617 883d 707e 92bd
000000d0: 1e9f 113e 05e9 f93d bf76 f3bc 457a 59bd
000000e0: c0d3 bcbd 500e 143b be65 233e ac4f 62be
000000f0: b451 1e3d 892b f2bd 1892 97bd afb4 fe3d
00000100: 9929 fc3c b80c 62bd 9599 39bd a6a1 e43d
00000110: fc8d 783d 13a5 2dbe 12fb ab3c 6366 42bd
00000120: e663 94bd b30b bb3d 60e7 293e 1131 08be
00000130: 3f22 2fbb 22a7 b2bd 2961 2d3e df49 2e3e
00000140: 8873 a0bd 3af4 96bd 0aa4 00be fbc8 76be
00000150: 1079 eb3d e6b2 913d 9afd c73d f61f cc3d
00000160: 8e12 9dbd dc3c 86bd 6c88 5c3d e2f4 943e
00000170: 9300 7fbc d7a9 fdbc 3953 a83d 1af1 42bd
00000180: 6d79 66bd 0ee7 b83c a91b 02be a43e 7a3e
00000190: 37c6 373e 7abb fc3d 770a 2a3e 2699 1f3e
000001a0: f5f8 d0bb 1d01 703c 28d1 553d 2275 cdbd
000001b0: 6b2a 703e 265d 8d3c 17af 633c c372 323e
000001c0: 99e1 6ebd afdc 43bd 0183 0abd fd16 22bd
000001d0: e2af 733d b5d2 cb3c 5813 41bd 6efd 653d
000001e0: 8924 403e a8d5 c1bd 68d8 d23c 3f40 f33d
000001f0: 0b3e 843d a9b2 cf3d c993 9ebd 4d1e 25be
00000200: f896 3cbe 4f58 963a 85f0 9cbd 86b6 3d3e
00000210: 49fc d63d a0a5 29bb aedc cbbd 2cbd 6e3e
00000220: 884e adbd f21d da3d 2ba3 bbbd ed46 16be
00000230: 3723 12be e126 91bc f763 7a3d 4692 33be
00000240: d7f7 f03d 2e6b 1dbd a911 12be 2e17 55be
00000250: 7ff9 10be 7efe e4bd ee63 053e e9ce 9fbd
00000260: 32a4 b83d d801 063d fdf8 c93d 28ee e23d
00000270: 71ec 8bbd 10a5 82bd 3c6e 1cbe da3f cc3d
00000280: 29b5 e9bd 1464 0bbd b628 a33b 2829 8c3d
00000290: af8d 35bc 2384 d03b b7ad 1dbd 3edb adbc
000002a0: 8989 533d 9b36 013e dcc6 21bd 4d6f f83d
000002b0: f5ad a2bd f151 0dbd 2002 0dbe 130a df3d
000002c0: ffe0 9bbd 1220 e0bd 877c 2f3d 1253 7dbc
000002d0: 5f1f b6bc 7a60 1ebe cabc 4dbe ec48 0cbd
000002e0: 7d24 43be 3796 4f3b f9a2 013d 2370 eebd
000002f0: 9f97 6bbe 78ec 9dbd 1857 86bd 9350 613d
00000300: 93f1 9c3d 83c5 36bd db81 df3d 6966 ee3d
00000310: a656 1e3e 8ea5 6dbe 78ba e8bd 4780 9b3e
00000320: a946 ee3d 7f48 fbbd 43cd ecbd 1b89 45be
00000330: 19ad 06be 58df e93d a0f9 99bd 9218 8fbd
00000340: bc03 a03c a48c 44bd b7ce 043d 9244 31bd
00000350: 472c 9cbb 7107 e3bd 46b9 293e a361 3d3e
00000360: 13d9 cd3d 48f7 8dbe c6f6 d63d da1c 62be
00000370: f01f 13be 9ec6 1ebe 3266 00be ada6 56be
00000380: 291d 4ebe d1da f6bd 234c d43d 715e e03c
00000390: 5820 2f3e 359a 0c3e 7063 d73d 86cb e7bc
000003a0: fdf1 263e 7e63 683d fc3d bd3d b070 67be
000003b0: 48b0 4ebe 739e 3ebe d0b2 de3d 6a8a a9bd
000003c0: b015 efbd dece 6abd 254b 26bd 11db 44be
000003d0: 582c 8d3d 0f0d fc3d 52e7 623d 12e9 02be
000003e0: e659 cfbd 36ac b6bd adc1 edbc 77e4 28bc
000003f0: 8219 afbd 9446 e33d 62df 573d bd3d b43d

rnn.weight_hh f4 [96, 32]
0.15540874 0.01637336 0.18233848 -0.055164173 -0.03972813 0.051772825 0.10049936 -0.16896829
0.006677055 -0.12243062 0.0954477 -0.096462674 -0.10781739 -0.19987667 -0.19843858 -0.026634991
0.05792405 -0.021650352 -0.19148685 0.113561414 0.17508256 -0.09918773 0.0017832458 -0.18684822
-0.09200961 0.15949365 0.027983155 0.17133738 -0.062599994 0.044807613 -0.061243962 -0.19740309
-0.08211034 -0.091955155 -0.09119743 0.15354015 -0.12572452 0.053325117 0.18664993 0.14059243
-0.06458697 -0.04922564 0.06233857 -0.02774999 0.050616555 -0.09138228 0.0951312 0.11378175
0.012649401 0.0028111315 0.19634986 -0.10601361 -0.17270112 -0.08934791 -0.0290616 -0.16535056
0.21685612 -0.08799554 -0.109421656 -0.034592666 0.04625948 0.12520272 0.069279365 0.080769
-0.0058562923 -0.117183566 -0.084363066 -0.069751665 0.14421657 0.03480482 -0.0691474 0.09766763
0.053731605 0.024885586 0.17238496 -0.054669105 0.05712317 0.1100983 -0.060018346 -0.019501595
0.03723042 -0.04681713 0.12158207 0.19699673 -0.049638502 0.11399699 0.10841596 -0.055483654
-0.15792255 -0.271464 0.061922885 0.1438409 -0.26962966 -0.12045466 0.019631675 -0.014467206
0.108817704 0.062421873 -0.13026078 -0.121968426 -0.14000723 -0.0046770466 -0.14169976 0.19190499
0.13405515 -0.11336953 0.0048268526 -0.04257095 0.20959555 -0.09431337 0.10427631 -0.15340227
0.06295908 -0.05942129 0.094580494 -0.14380822 -0.08836751 0.21076763 0.015911294 0.13307253
0.14525521 -0.011695723 -0.0331023 0.14979468 -0.12915093 0.040727146 -0.008781787 0.13051778
-0.053530745 -0.06966627 -0.01080536 0.10304679 0.054005492 0.099927895 -0.08597519 -0.067374334
0.1429172 -0.061156105 0.14941964 -0.12415042 0.13961491 0.15710975 -0.1435802 -0.029419731
-0.032951366 0.07379071 0.051783025 -0.019672262 0.014614638 0.012450472 0.24296013 -0.017947651
0.062090956 0.09031965 0.013910721 -0.1107626 -0.05336893 0.13432841 0.11018871 -0.17389536
-0.08847902 0.09262895 -0.17804088 0.057945933 0.012315642 0.052624132 0.1983035 -0.11513408
-0.07443912 0.024469025 -0.03085756 0.105450384 -0.15979567 -0.12052945 -0.18184702 0.09701645
-0.11514362 -0.005191796 0.12559868 0.034754496 0.047912437 0.13647066 0.009255514 -0.06468418
0.001643708 0.024126265 0.16217263 -0.07889979 0.053769648 0.17203756 -0.07784664 0.054533925
0.0139557095 -0.15237047 0.05212477 0.16721673 0.070894144 0.34397817 0.23247966 0.017407067
-0.1047786 -0.12197339 0.023085792 -0.20030598 0.08133687 -0.19319388 -0.12369632 -0.1879324
0.030431978 0.16946787 -0.2047189 -0.025809817 0.13123222 -0.19180259 -0.10967552 0.092256896
-0.29714194 -0.055126697 0.14167249 0.09571965 -0.0932352 0.019364435 -0.114209734 0.0047358135
0.07615035 0.02013275 -0.09537675 -0.08335886 0.13695109 -0.0132057965 -0.103757925 -0.040063545
0.104944296 -0.12379169 0.14511836 -0.009481697 0.14507529 -0.09076269 -0.002865224 0.01109783
-0.03742688 -0.1417601 0.017154781 0.06540037 0.041700948 0.11680163 0.044226374 -0.11422864
0.15443881 -0.02439151 -0.14284965 0.11895222 -0.063025944 0.10098113 -0.13840076 0.038857047
00000000: 7823 1f3e 6d21 863c f0b6 3a3e d4f3 61bd
00000010: f7b9 22bd be0f 543d 9cd2 cd3d 0606 2dbe
00000020: 32cb da3b e8bc fabd 157a c33d 398e c5bd
00000030: 5dcf dcbd 78ac 4cbe 7c33 4bbe a031 dabc
00000040: c541 6d3d 145c b1bc 2115 44be e392 e83d
00000050: d848 333e f022 cbbd cdbb e93a 2455 3fbe
00000060: 896f bcbd 4e52 233e ee3c e53c 1173 2f3e
00000070: 6d34 80bd 3088 373d f3da 7abd 0924 4abe
00000080: 7729 a8bd fc52 bcbd b8c5 babd a139 1d3e
00000090: eebd 00be 706b 5a3d 2921 3f3e 76f7 0f3e
000000a0: 2c46 84bd d3a0 49bd ba56 7f3d f253 e3bc
000000b0: 4e53 4f3d a226 bbbd 26d4 c23d 6806 e93d
000000c0: 6f3f 4f3c f63a 383b f00f 493e aa1d d9bd
000000d0: 90d8 30be 09fc b6bd 9812 eebc a851 29be
000000e0: 880f 5e3e 0137 b4bd 7618 e0bd 0ab1 0dbd
000000f0: 957a 3d3d 2435 003e 57e2 8d3d 386a a53d
00000100: 24e6 bfbb f0fd efbd 8bc6 acbd f6d9 8ebd
00000110: 82ad 133e 808f 0e3d 279d 8dbd f705 c83d
00000120: ac15 5c3d dbdc cb3c af85 303e b6ec 5fbd
00000130: fcf9 693d 387b e13d ccd5 75bd cfc1 9fbc
00000140: ed7e 183d 52c3 3fbd 0500 f93d 83b9 493e
00000150: be51 4bbd 4177 e93d 3009 de3d d442 63bd
00000160: 73b6 21be 54fd 8abe daa2 7d3d 074b 133e
00000170: e60c 8abe efb0 f6bd 9bd2 a03c dc07 6dbc
00000180: d1db de3d 14ae 7f3d 1563 05be 95ca f9bd
00000190: 0e5e 0fbe e941 99bb be19 11be be82 443e
000001a0: c145 093e 492e e8bd 932a 9e3b e05e 2ebd
000001b0: 37a0 563e 5e27 c1bd d18e d53d 7c15 1dbe
000001c0: b1f0 803d bd63 73bd 6bb3 c13d 7642 13be
000001d0: 06fa b4bd 78d3 573e 6758 823c 2a44 083e
000001e0: c8bd 143e 6b9f 3fbc 4796 07bd c763 193e
000001f0: 2440 04be 82d1 263d 7ce1 0fbc 74a6 053e
00000200: 0e43 5bbd 30ad 8ebd f708 31bc 320a d33d
00000210: dd34 5d3d ffa6 cc3d c313 b0bd 8efb 89bd
00000220: e358 123e d37e 7abd 7601 193e 9342 febd
00000230: 36f7 0e3e 61e1 203e b006 13be a601 f1bc
00000240: 03f8 06bd 951f 973d 701a 543d b927 a1bc
00000250: 3c72 6f3c 11fd 4b3c 8aca 783e f406 93bc
00000260: 1653 7e3d 82f9 b83d cbe9 633c 81d7 e2bd
00000270: 6199 5abd 638d 093e 9eaa e13d a011 32be
00000280: 7d34 b5bd 3fb4 bd3d 5950 36be b758 6d3d
00000290: 8cc7 493c 678c 573d 1310 4b3e 6bcb ebbd
000002a0: 8a73 98bd 4473 c83c fec8 fcbc 5ff6 d73d
000002b0: 7aa1 23be 25d8 f6bd 1b36 3abe 8fb0 c63d
000002c0: 6bd0 ebbd f11f aabb f19c 003e bb5a 0e3d
000002d0: d53f 443d f7be 0b3e 70a4 173c 2479 84bd
000002e0: b071 d73a 72a4 c53c 9510 263e 3796 a1bd
000002f0: 903d 5c3d 9d2a 303e 0f6e 9fbd f75e 5f3d
00000300: 7da6 643c 0107 1cbe c880 553d dd3a 2b3e
00000310: f330 913d e81d b03e 260f 6e3e 4499 8e3c
00000320: 2a96 d6bd 2fcd f9bd 6a1e bd3c 031d 4dbe
00000330: f293 a63d 9ed4 45be 7f54 fdbd 5a71 40be
00000340: 7c4c f93c fc88 2d3e d5a1 51be 1c6f d3bc
00000350: bd61 063e e667 44be 8f9d e0bd 2ff1 bc3d
00000360: fd22 98be 88cc 61bd 9812 113e aa08 c43d
00000370: 19f2 bebd 2aa2 9e3c cbe6 e9bd e22e 9b3b
00000380: b7f4 9b3d 70ed a43c e354 c3bd 0db8 aabd
00000390: e83c 0c3e 205d 58bc 097f d4bd ac19 24bd
000003a0: 09ed d63d 7f86 fdbd e899 143e 1f59 1bbc
000003b0: 9e8e 143e cae1 b9bd 7bc6 3bbb acd3 353c
000003c0: ee4c 19bd 8f29 11be 2f88 8c3c a1f0 853d
000003d0: 9dce 2a3d b135 ef3d b726 353d b5f0 e9bd
000003e0: 3525 1e3e b4d0 c7bc 2e47 12be 399d f33d
000003f0: bf13 81bd 32cf ce3d eeb8 0dbe 9128 1f3d

rnn.bias_ih f4 [96]
0.082306474 -0.07882564 0.120250404 -0.037817553 -0.06066958 -0.17952466 -0.099534236 -0.073537305
-0.11582864 0.017604362 0.021787887 -0.09473548 -0.00054534635 -0.08924418 -0.033532448 0.05800637
-0.092990234 -0.16460042 0.16307917 0.009273198 0.122716315 0.011722757 -0.099757776 -0.047965195
0.16514632 -0.13677615 -0.10451429 0.12218868 0.13445781 -0.11972582 -0.16334464 0.13617946
-0.019668791 0.028354026 -0.050165948 0.043812323 0.06053933 -0.13302329 0.035325695 -0.13693777
-0.0534362 -0.19135599 0.049408488 -0.24692957 -0.21870998 -0.045294587 -0.1977645 -0.12979372
0.06268979 0.07036585 -0.031122189 -0.026026467 -0.09955827 0.08126509 -0.028433338 -0.12451239
0.02061213 -0.119993664 -0.0062256656 -0.04441344 -0.0216107 -0.22875486 -0.06103296 -0.020278636
-0.043101553 0.13614209 -0.10592573 0.032774862 0.07771726 0.13626191 -0.01609414 -0.092131816
-0.045101658 -0.14396654 -0.041503247 -0.12180343 0.06156885 0.08409294 0.17561352 0.08069004
-0.14073119 -0.09006238 0.16836944 -0.11512995 -0.13014235 -0.12535721 0.060863305 0.19060421
-0.026912434 0.14399956 -0.041650232 -0.12694232 -0.076299265 -0.07131602 0.03963203 0.083833545
00000000: 4c90 a83d 566f a1bd d845 f63d 94e6 1abd
00000010: aa80 78bd 50d5 37be 9bd8 cbbd ba9a 96bd
00000020: 9137 edbd 0637 903c 837c b23c ad04 c2bd
00000030: 93f5 0eba a7c5 b6bd 5259 09bd 1698 6d3d
00000040: aa71 bebd 038d 28be 3afe 263e 9dee 173c
00000050: b152 fb3d ce10 403c ce4d ccbd 2777 44bd
00000060: 1e1c 293e 0c0f 0cbe 970b d6bd 0f3e fa3d
00000070: 4faf 093e d032 f5bd d143 27be a172 0b3e
00000080: 7220 a1bc b446 e83c cf7a 4dbd 8d74 333d
00000090: 17f8 773d 4237 08be adb1 103d 6a39 0cbe
000000a0: ebdf 5abd d3f2 43be 8e60 4a3d 1bdb 7cbe
000000b0: 82f5 5fbe d186 39bd c782 4abe a5e8 04be
000000c0: 8163 803d f91b 903d f6f3 febc 7535 d5bc
000000d0: 35e5 cbbd 506e a63d 08ed e8bc 5a00 ffbd
000000e0: c5da a83c 3dbf f5bd ab00 ccbb deea 35bd
000000f0: ec08 b1bc b73e 6abe b2fd 79bd 621f a6bc
00000100: 418b 30bd d568 0b3e 97ef d8bd ef3e 063d
00000110: 3a2a 9f3d 3e88 0b3e dcd7 83bc 9baf bcbd
00000120: 84bc 38bd f76b 13be 4fff 29bd 1474 f9bd
00000130: 9e2f 7c3d eb38 ac3d 08d4 333e d240 a53d
00000140: d61b 10be a072 b8bd 0a69 2c3e 40c9 ebbd
00000150: 0944 05be a45d 00be cd4b 793d c02d 433e
00000160: 7777 dcbc 9f74 133e 6f99 2abd 2bfd 01be
00000170: ca42 9cbd 220e 92bd 3255 223d ecb0 ab3d

rnn.bias_hh f4 [96]
0.011571055 0.062058315 0.16443911 0.08292978 -0.069044605 -0.0014529427 0.040715057 -0.020186372
-0.08261783 0.005648327 0.06725616 -0.021681257 -0.04777655 0.1477869 0.12885976 -0.18385167
-0.09753708 0.14371705 0.14072013 0.15925686 -0.018081037 -0.08707577 -0.16647692 -0.01182209
-0.079712786 0.07453638 -0.07556273 -0.018747704 -0.116725445 0.014635367 0.09264029 0.12800045
0.002311147 -0.004592781 0.096393555 -0.22685158 0.0131061375 -0.1514067 0.0014956002 -0.06973215
-0.16758947 -0.16536924 -0.031068975 -0.2942924 -0.18783371 -0.13633738 -0.051470637 0.027176613
-0.17929447 0.043572742 -0.17623317 0.07080718 -0.21232705 -0.21714412 -0.10480192 -0.18182787
-0.013008438 0.1046538 -0.022762503 -0.051033817 -0.048567824 -0.087152034 -0.022373471 -0.05503612
0.07517983 0.09125399 -0.051396642 -0.04432054 -0.19821076 0.13876696 -0.11349543 0.100285135
-0.077934794 0.084842056 -0.073042296 0.076338276 0.08661223 0.06374508 -0.2215564 0.060965445
-0.0063576377 0.21336828 0.0083068125 -0.17641385 0.1865162 0.11044897 -0.12954935 0.11648613
0.1902125 -0.037935004 -0.05236158 0.08388113 0.15909024 0.13419282 -0.07714245 -0.019826218
00000000: 8694 3d3c dc30 7e3d ba62 283e 17d7 a93d
00000010: 4267 8dbd ab70 beba d5c4 263d e45d a5bc
00000020: 8933 a9bd 9a15 b93b 99bd 893d e49c b1bc
00000030: 58b1 43bd 7355 173e d0f3 033e 9d43 3cbe
00000040: 85c1 c7bd 902a 133e f018 103e 3b14 233e
00000050: af1e 94bc c854 b2bd ed78 2abe 70b1 41bc
00000060: 7540 a3bd 88a6 983d a2c0 9abd c994 99bc
00000070: c00d efbd 2ec9 6f3c 31ba bd3d 8d12 033e
00000080: 9d76 173b 0a7f 96bb fc69 c53d c84b 68be
00000090: 20bb 563c 5c0a 1bbe 0408 c43a bbcf 8ebd
000000a0: 939c 2bbe 8e56 29be 5d84 febc 7ead 96be
000000b0: 7b57 40be 079c 0bbe e0d2 52bd 7da1 de3c
000000c0: f898 37be 5579 323d 7876 34be 5b03 913d
000000d0: 436c 59be 075b 5ebe 64a2 d6bd 1631 3abe
000000e0: 5821 55bc bb54 d63d 6e78 babc d608 51bd
000000f0: 0eef 46bd c47c b2bd 9248 b7bc 8e6d 61bd
00000100: e2f7 993d 5fe3 ba3d 4985 52bd 7489 35bd
00000110: c3f7 4abe ed18 0e3e 4b70 e8bd 4b62 cd3d
00000120: 479c 9fbd acc1 ad3d 3397 95bd 3e57 9c3d
00000130: c161 b13d c88c 823d aedf 62be e7b6 793d
00000140: bb53 d0bb 377d 5a3e 4c19 083c d5a5 34be
00000150: 1afe 3e3e 1233 e23d 96a8 04be 4890 ee3d
00000160: 11c7 423e bc61 1bbd 1979 56bd dfc9 ab3d
00000170: 8de8 223e d869 093e dcfc 9dbd 986a a2bc

fc2.weight f4 [6, 32]
0.24539734 -0.033964813 0.031280376 0.27589127 -0.29818016 0.07357048 0.080790475 -0.03568388
0.04910457 0.086655885 0.040673874 0.08478453 -0.42256382 0.14893806 -0.028690316 0.022117496
-0.32683307 0.2757746 0.12831186 -0.07594953 -0.012276721 0.0054219626 0.027637022 -0.005375776
0.22456837 0.12855698 -0.097978026 -0.4116554 0.12685758 -0.12567012 0.16980092 0.037622597
0.10884618 0.077713944 0.019149723 0.081880085 -0.122340694 -0.11329138 -0.058321644 0.24904694
0.16076349 0.04679825 0.20238502 0.056530457 0.16000435 -0.21804133 -0.27260408 0.025874155
0.07982063 -0.03527079 0.016256446 -0.13589944 -0.06917178 -0.0145001 -0.38670948 0.07578789
-0.17832908 0.19632487 -0.20456389 -0.42665598 0.12738268 0.019223247 -0.091959186 0.14634037
0.07144031 0.1764681 -0.32685265 -0.07040422 -0.48176244 0.250722 0.080630824 -0.14270695
0.05982213 0.06540162 0.1173804 -0.15232979 -0.054146707 -0.030326493 0.07236108 0.23188512
0.25427273 -0.24960312 -0.049791403 -0.11386271 0.020044368 0.05672885 0.2736523 0.04747641
-0.09796401 -0.034691263 -0.18951695 0.21511294 0.2532148 -0.35146186 -0.23737203 0.0043704724
-0.12715353 -0.06377487 -0.105778426 -0.13179272 -0.14169009 0.019173525 -0.19674364 0.28846404
0.048225123 -0.0861909 0.3062576 0.06699341 0.10567959 0.24650022 -0.00059153256 0.28239778
-0.10532169 0.22660907 0.05433789 -0.31900498 0.0444735 0.2977124 0.19496714 -0.22613078
-0.042421516 -0.21126153 0.22192393 0.11627691 -0.055167966 -0.015662758 -0.11989386 0.24035479
0.38634247 0.023679081 0.3660798 0.17395984 -0.007016942 0.10688518 -0.09188912 -0.15831432
-0.16777614 -0.03668189 -0.09383 0.2958805 -0.066549234 0.18067265 0.26502123 -0.04647106
-0.013169969 -0.047698773 -0.23291446 -0.29075277 0.15129359 -0.011691215 -0.24915124 -0.041195597
-0.073026426 0.13018198 0.14879824 0.032084443 0.16150428 -0.029226862 -0.145314 0.24165423
0.30948755 0.22100681 -0.03272947 0.19707389 -0.13554023 0.037721742 -0.33165607 0.088518426
-0.37746665 -0.18395883 -0.32457003 0.24574368 0.19019121 0.1907605 -0.4450748 -0.5030142
-0.10217052 -0.1069665 0.36821514 -0.18205312 0.37723678 0.21030624 -0.230718 0.45062348
-0.017068407 -0.23476885 0.0877916 0.12700167 0.17909326 -0.32267702 0.18375777 -0.13518363
00000000: 7149 7b3e b01e 0bbd da1f 003d 9f41 8d3e
00000010: 12ab 98be 1fac 963d 7a75 a53d 4329 12bd
00000020: e021 493d a478 b13d a699 263d 83a3 ad3d
00000030: 495a d8be 3883 183e f407 ebbc c02f b53c
00000040: aa56 a7be 5432 8d3e 2f64 033e 6d8b 9bbd
00000050: 4d24 49bc b8aa b13b 0967 e23c 4727 b0bb
00000060: 40f5 653e 71a4 033e b4a8 c8bd 7fc4 d2be
00000070: f4e6 013e abaf 00be 4be0 2d3e 271a 1a3d
00000080: bfea de3d 7d28 9f3d e1df 9c3c bfb0 a73d
00000090: c28d fabd 5005 e8bd ade2 6ebd 2906 7f3e
000000a0: 2f9f 243e 86af 3f3d 053e 4f3e 7b8c 673d
000000b0: 2ed8 233e 3a46 5fbe c392 8bbe 09f6 d33c
000000c0: 0079 a33d 1b78 10bd 3d2c 853c 3929 0bbe
000000d0: efa9 8dbd d491 6dbc c9fe c5be ae36 9b3d
000000e0: e69b 36be 6309 493e 3279 51be a772 dabe
000000f0: 9b70 023e 127a 9d3c 1955 bcbd 40da 153e
00000100: 4c4f 923d 0eb4 343e 3b59 a7be 1630 90bd
00000110: 91a9 f6be a25e 803e c621 a53d c521 12be
00000120: 0d08 753d 49f1 853d 2365 f03d 57fc 1bbe
00000130: f0c8 5dbd 446f f8bc 0c32 943d 4b73 6d3e
00000140: 0930 823e f697 7fbe 12f2 4bbd da30 e9bd
00000150: 1634 a43c 835c 683d 271c 8c3e a076 423d
00000160: 5ba1 c8bd 6d18 0ebd bb10 42be 9146 5c3e
00000170: 5fa5 813e cff2 b3be a711 73be 2e36 8f3b
00000180: 8934 02be 669c 82bd 5ca2 d8bd acf4 06be
00000190: 3517 11be cc11 9d3c 2a77 49be 8fb1 933e
000001a0: b587 453d db84 b0bd cccd 9c3e d733 893d
000001b0: 8a6e d83d 8e6a 7c3e 1411 1bba 7196 903e
000001c0: e6b2 d7bd 350c 683e 6891 5e3d 9f54 a3be
000001d0: d829 363d c26d 983e 77a5 473e d48e 67be
000001e0: 2fc2 2dbd f154 58be 0740 633e 9722 ee3d
000001f0: cef7 61bd 2f4f 80bc e98a f5bd 911f 763e
00000200: aece c53e a2fa c13c d06e bb3e 8722 323e
00000210: 60ee e5bb 9ee6 da3d 5d30 bcbd 261d 22be
00000220: 82cd 2bbe c03f 16bd f129 c0bd a67d 973e
00000230: f74a 88bd 4002 393e ddb0 873e 7058 3ebd
00000240: dbc6 57bc ca5f 43bd 2181 6ebe 8cdd 94be
00000250: b5ec 1a3e 838c 3fbc 8121 7fbe b7bc 28bd
00000260: e18e 95bd 6d4e 053e 915e 183e fa6a 033d
00000270: 6161 253e 2c6d efbc 31cd 14be 3574 773e
00000280: 2775 9e3e 9c4f 623e 560f 06bd bdcd 493e
00000290: 0fcb 0abe 1d82 1a3d d3ce a9be 2649 b53d
000002a0: 4f43 c1be b45f 3cbe 0b2e a6be 3ba4 7b3e
000002b0: 7cc1 423e b856 433e d8e0 e3be 8ac5 00bf
000002c0: c73e d1bd 4111 dbbd b286 bc3e 226c 3abe
000002d0: 2e25 c13e 855a 573e 5741 6cbe 1fb8 e63e
000002e0: 0bd3 8bbc 3f67 70be 15cc b33d ba0c 023e
000002f0: 3964 373e ec35 a5be ff2a 3c3e 946d 0abe

fc2.bias f4 [6]
0.037836287 0.023008637 0.0032291245 0.009087577 0.02463039 0.05357393
00000000: 39fa 1a3d 9c7c bc3c b89f 533b 10e4 143c
00000010: acc5 c93c 5670 5b3d
