results/alpha_0.5/agent_1000.pt (torch, 43191 bytes, 8 tensors)

fc1.weight f4 [32, 104]
00000000: 1d24 c03b 9bcc 0ebe 5ca8 a1bc 510b 773d
00000010: 1935 cabd f3d3 2abe 85d5 c73c 7da0 0d3c
00000020: 1021 adbd 7b0b d9bc 5b78 123e 601f adbc
00000030: f59d 31be 0cb9 8a3d f0d0 733d 9bac 4f3e
00000040: 2010 adbd 424a 9e3d 6f96 893c efca ce3d
00000050: 6104 e0bc f591 e6bd a523 5c3d 9b69 733d
00000060: 5755 1ebe 32f3 1bbe e25a c0bd 269c 183e
00000070: 8c17 223e 74ad 51be 86b1 2cbe 4818 eb3d
00000080: 7add d2bc f2a2 543d eb5b a8bc eb70 e2bd
00000090: 71f1 0a3e 40b4 213b 776b f53d 6ffc 513d
000000a0: 75cc 73bd ae29 61bd af9e 9c3d 5299 9ebc
000000b0: d5b2 96be a243 15be 03b2 b3bd a693 8f3d
000000c0: 4fce 073e cf75 d93d 72a5 973c 44ed dbbd
000000d0: 5a63 cd3d 5c73 26bd ac60 573c cab5 d3bd
000000e0: ab32 54bc ef10 cfbd fa7f 02be efc2 e23c
000000f0: f3bb d53d 9207 1cbd d8c9 3d3e 407f 143e
00000100: 415c 8b3c 96c9 a4bd 3cce 02bd 5e8d af3c
00000110: 6423 f3bc 6374 1fbe eb9e 253c 80f1 f3bd
00000120: a78c 4dbe 07b1 1c3e c95f 643d f4ce 0fbe
00000130: a018 31bd 1813 b83d 2a0f 94bd 40b7 d9bd
00000140: 5b0a 5dbd e8c5 0f3e 2da9 c43d d8be 1b3e
00000150: 10d6 063e de2e a93d 2a40 08be a493 1a3d
00000160: c536 6dbe 962a a5bc 978f f83c ca51 f03d
00000170: 7e50 47be 4975 993d 596e f43d 84ae 0dbe
00000180: 612b 313e 1e18 bfbe 81a1 733d e855 34bd
00000190: 2454 2a3e 770e 20bd a06d 943c a11c 693d
000001a0: 9715 ce3d 2c40 203e ed62 08be b806 4c3d
000001b0: 79d0 5dbe cfed a4bc 4a9d 12be 6cbf bbbd
000001c0: 25e9 2bbe 6cbe 5d3c 70bb 383a b9bc 913d
000001d0: ede0 e53c 90a9 913c 42c0 0b3d edab a0bc
000001e0: 7a32 81bb 2f0a 75bd ba9a 4f3e dda0 7e3d
000001f0: e683 8abc c037 4d3d 4cd8 0bbd c158 49be
00000200: 584a 88bd ac28 03be 81e9 cdbd 1b40 623e
00000210: 965a 693d 8c71 55be b04c 01bd f360 92b8
00000220: 4fe9 0abe acbb 23be 6f96 1a3e 344f 5a3d
00000230: 068a 893e b523 92bd 0418 3a3d a0c4 63bc
00000240: faa0 f03c b6b1 3c3e 645c f53c 8054 ddba
00000250: f5aa 643e 3396 5d3d 2fc4 b93d 4685 a13c
00000260: 9a25 ef3d 964c 823d fdf5 43bc df6c 883d
00000270: 7264 af3d 9596 42be b158 a2bd 1e28 963d
00000280: c751 b2bd 49db 953c 3b34 a93c b4c8 5fbd
00000290: 527b 453d 6e1a 7c3c 2039 85bc 0688 a7bd
000002a0: bac4 823d 48bb c63d f409 d23c 7dfb c8bc
000002b0: e7a1 0538 5de3 8dbe a969 cfbd a694 1bbd
000002c0: 21fc 373e d85d 333e 0e77 35be 4391 4e3e
000002d0: 7efc 36be 239f 463d aa8f 893d 087a 22be
000002e0: 2520 373d ed20 1f3e cbb1 873d 3b96 68bd
000002f0: 4c42 c03d e2ea d9bc 60e0 863d a91e cbbd
00000300: 887a c53c 0616 583e 2192 1bbe 2b28 83ba
00000310: d49f 863d 5664 e7bc 17a3 843e d20c 163e
00000320: a5d7 37bd 20f6 b93d 5c71 f33d dc33 083d
00000330: 1896 c13d e0f7 a7bc 9f36 e9bd f867 fdbc
00000340: fddd 823e 6fe8 2dbe 9721 8abe 9352 a7bd
00000350: e923 1f3e 2f6e df3d efc9 5cbe 24f3 96bd
00000360: 0e2f 4abd 1aef 843d 00ac 36be 0cf4 f53c
00000370: f15b c0bd f30f 923d 1094 03bc 40cc 7ebd
00000380: b682 473d cff5 a73d 2015 bc3d 40dc 163d
00000390: b46e e8bd 0e1d ac3c b371 2c3e 8566 0b3e
000003a0: 51d3 263d 7f29 5e3d 7cf2 103e 8efb 133d
000003b0: b454 803d 15bc cbbc 2cf5 8b3e b59e b73d
000003c0: 0e82 bf3d 380f 13be 2b1a 853d 448a 03be
000003d0: 1137 973d 2504 babd 9d76 0fbd d4ee 65bd
000003e0: ef3c 8abd 129d f43d e4b9 08be 8670 593b
000003f0: de1b 593d e71e 6e3b ce0b a3bc 80fd 92bb
0.00586368 -0.13945238 -0.0197336 0.060313527 -0.09873409 -0.16682415 0.024393806 0.00864422
-0.08453572 -0.026494732 0.14303724 -0.021133125 -0.17345412 0.06773576 0.05952543 0.20280688
-0.08450341 0.07729007 0.016795365 0.100973 -0.027345838 -0.11258308 0.05374493 0.059426885
-0.15462242 -0.1522949 -0.093923345 0.14903316 0.15829295 -0.20476323 -0.16864595 0.11479241
-0.025740374 0.05191321 -0.020551642 -0.11056694 0.13568665 0.0024674088 0.11983388 0.05126613
-0.059521157 -0.05497139 0.07647454 -0.019360218 -0.29433313 -0.14576581 -0.087741874 0.070105836
0.13262294 0.10618173 0.018511508 -0.10738614 0.100287154 -0.04063736 0.013145607 -0.10337408
-0.012951533 -0.10110652 -0.12744132 0.027680842 0.10436239 -0.038093157 0.18534029 0.14501667
0.017011764 -0.08046262 -0.03193496 0.021429714 -0.029679962 -0.15571742 0.01010869 -0.11911297
-0.20073186 0.15301906 0.05575541 -0.1404379 -0.043236375 0.08988017 -0.07229455 -0.10630655
-0.053964954 0.14040339 0.0960258 0.1520952 0.13167596 0.08260892 -0.13305727 0.037738457
-0.23165424 -0.020161908 0.030341906 0.1173435 -0.19464299 0.074930735 0.1193511 -0.13836104
0.17301704 -0.37323087 0.059480194 -0.04402724 0.1663366 -0.039076295 0.01811868 0.05691207
0.10062712 0.1564948 -0.13318987 0.049811095 -0.21661557 -0.020132927 -0.14317814 -0.0916737
-0.16788156 0.01353417 0.00070469733 0.07116074 0.028061355 0.017781049 0.0341189 -0.01961323
-0.003942785 -0.059824165 0.20273867 0.06216513 -0.016908597 0.050101995 -0.034141824 -0.19662763
-0.06654805 -0.12808484 -0.10054303 0.22094767 0.056971155 -0.20844096 -0.031567276 -6.979881e-05
-0.13565563 -0.1598956 0.15096448 0.05329819 0.26863116 -0.07135717 0.04543306 -0.0139018595
0.029373635 0.18427166 0.029951282 -0.0016886145 0.2233084 0.05409832 0.09070622 0.01971687
0.11677094 0.06362264 -0.011960504 0.066613905 0.0856408 -0.19002755 -0.07927073 0.073318705
-0.08707004 0.01829304 0.020654788 -0.054634765 0.04821331 0.015387161 -0.01626259 -0.08180241
0.06385179 0.0970369 0.025639512 -0.024533981 3.1860454e-05 -0.27712527 -0.10127575 -0.03798356
0.17967273 0.17516267 -0.17721197 0.201726 -0.17869756 0.04849161 0.06716855 -0.15866864
0.04470839 0.15539904 0.06625708 -0.056783896 0.09387645 -0.026601259 0.06585765 -0.09917957
0.024106279 0.21102151 -0.15192463 -0.0010006478 0.065734535 -0.028246086 0.25905678 0.14653328
-0.04488339 0.09080148 0.11886856 0.033252582 0.09452456 -0.020503938 -0.11387371 -0.030933365
0.2555999 -0.16983198 -0.26978752 -0.08170047 0.15541042 0.10909688 -0.21561407 -0.07370594
-0.04936128 0.064909175 -0.1783905 0.030023597 -0.093925364 0.07131948 -0.008030906 -0.062206507
0.04870864 0.08201181 0.09183717 0.03683114 -0.1134924 0.021009948 0.16840248 0.13613327
0.04072887 0.054238793 0.14155 0.036128573 0.06266156 -0.024869958 0.2733549 0.08965818
0.09350978 -0.14361274 0.06499132 -0.12845713 0.0738355 -0.09082822 -0.035025228 -0.056135967
-0.067499034 0.11944021 -0.13352162 0.0033178641 0.05300509 0.0036334337 -0.01990309 -0.004485786

fc1.bias f4 [32]
00000000: 7d25 623c 70e7 843d cef6 9e3c fd1a a63a
00000010: fb9d 1c3d fdf6 443c 9643 0f3d 885e 223d
00000020: 60b8 3f3d 100b fa3c ed55 053c ee53 9f3c
00000030: d2e7 823c 550c 893a 295d 333c 0d4b 223c
00000040: 4f5f d5ba 92ba df3c 887c d93c 104b 103d
00000050: 90d6 373d f8c3 0d3d ff70 613d cf97 82bc
00000060: 8826 ad3b 44cb 363c cab6 513d fbc8 703d
00000070: baa0 59bb a425 013d 19af 5e3d a03c 1fbc
0.013802883 0.06489456 0.019404795 0.0012672838 0.0382366 0.012021777 0.034976564 0.039640933
0.046806693 0.030522853 0.008138162 0.0194492 0.015979681 0.0010455946 0.010947504 0.009905589
-0.0016279015 0.027310643 0.026548639 0.035227835 0.044882357 0.03461072 0.055039402 -0.015941529
0.0052841343 0.011156861 0.05119971 0.05878542 -0.0033207373 0.031530038 0.054366205 -0.009719044

rnn.weight_ih f4 [96, 32]
00000000: b868 593d d5d5 10bd c2f9 253d 310b 52be
00000010: f2dc 353d be32 153d 66c7 8bbd 0ed4 bfbd
00000020: 2795 ad3d aed8 3abe 67e4 20bd bf6c c1bc
00000030: 6c97 7f3c db26 14bd c586 5bbd a171 5fbe
00000040: dcc2 a73d 4d2b 83bd ec51 9dbd 38b6 9e3d
00000050: 67ef 873c e66d 27bc 447d 9bbd 658d c13d
00000060: f202 2cbe e75c c6bd 114f 3abe 894c b7bd
00000070: f739 313e 9a90 363c fc40 00be 44a6 1a3e
00000080: de3a 243e e367 093e e7c2 4fbd 292d c83d
00000090: a2d3 c73d e2f2 3b3e a7c9 63be 4d49 153d
000000a0: 430a 2c3d ed45 65bd da50 e53c 429b 2d3e
000000b0: ce86 c63d bc64 b03d fe80 62be 7341 983d
000000c0: 2a31 ebbd bd4d ab3d f21e 7a3d e6c9 36bd
000000d0: 2cbc 073e 97a1 e83d abe9 813b 0d79 66bd
000000e0: 2cbd e8bd 8be1 7b3b 3605 0d3e 6a9c 63be
000000f0: bf5b 493d 2d99 f9bd 140e 99bd f1a7 f53d
00000100: b9a4 053e b85c 48bd 7096 36bd 861b bf3d
00000110: f036 8d3d b59f 2cbe 97a0 4a3d 1d90 223d
00000120: 3d06 97bd a8ad aa3d 071d 133e f5ad 26bd
00000130: 9e50 b23c 5762 cabd 305d 023e 57e2 2d3e
00000140: 2a8a 25be dc26 c2bd 7f8f 05be b7b2 81be
00000150: 7678 dc3d 14c7 903d ef00 6e3d 2228 e63d
00000160: 54dc 2ebd 9024 94bd 1a86 523d 8266 8f3e
00000170: 6382 b0bd 5456 21bd b9d1 973d 518c c2bd
00000180: a7db 7cbc b8f7 2d3d ca88 0abe 8f10 743e
00000190: 87e7 2d3e 93de ff3d e14b 243e cbe7 693e
000001a0: f409 10bb a35b b93c 8089 ab3d 11a6 aebd
000001b0: 1af7 803e b042 943b adc3 07bc dff3 1d3e
000001c0: 21bb a7bc 642c 2abd 6714 57bc c78c 10bc
000001d0: 4d72 6e3d ab18 e53c 3bb7 33bd e176 853d
000001e0: 6fb0 3d3e f9bf d6bd 9cc9 d63c 76e8 033e
000001f0: d3f4 8c3d fe98 e73d 33c9 83bd 5574 15be
00000200: 985c 25be 5e2d 8d3c 94b9 7cbd b1b1 483e
00000210: 3f96 c83d a676 3a3c 2698 b2bd 3c2c 803e
00000220: d1ff a1bd 2e9f e33d e0d7 86bd b509 ffbd
00000230: 6a39 00be 4e3b 81bd b994 8a3d 8204 1dbe
00000240: ade0 303e af05 2abd 963d 0fbe 71c3 48be
00000250: b717 10be b3f5 d3bd 03b0 0b3e 7928 99bd
00000260: d8d0 d03d f295 003d d8ab e93d c1ee f13d
00000270: 635c 4abd 21f1 3bbd 350d 08be 0da2 fd3d
00000280: 7189 c2bd 27fe cbbc 1c6a 843c 3e24 913d
00000290: c649 8ebb 4cf4 ab3c 26e1 07bd 1e7a a1bc
000002a0: d3f1 823d 5508 0b3e 513e 0abd e365 0a3e
000002b0: 0ed9 6dbd 5f9b 00bd 0d66 10be 98be f93d
000002c0: 8dc8 76bd 0212 a9bd 5ea2 2a3d 63f4 153a
000002d0: 1d8f 33bc 4b28 14be c476 35be 3a47 08bd
000002e0: 3875 36be 21d1 7b3c dd56 5d3d b7b0 bfbd
000002f0: fb82 59be 997c 90bd 1e1c 40bd 31d3 d43d
00000300: 4554 b13d a913 26bd 3f7c d03d 378b 073e
00000310: 1c43 1f3e 9fc0 48be a699 25be 69fa a03e
00000320: cd51 ec3d 6cdf f4bd a9f0 f6bd 39de 45be
00000330: 9be3 0ebe bdd2 053e 60a0 8abb 8546 85bd
00000340: 026d 6d3c 6d0c 09bd 0961 d93a 89ae 3fbd
00000350: 9bc0 58bc 24fd dabd a57a 2e3e a15b 3d3e
00000360: ded8 d73d 533c 6abe e1cc d73d 0767 5dbe
00000370: fee6 13be 01e3 17be c413 fabd 9614 51be
00000380: 71f6 57be 0751 07be 1900 c23d e43d ddbc
00000390: 84d6 f33d 8108 8f3d 6d87 fb3d 80e8 aa3b
000003a0: 4eba 033e 2907 133d 2e49 f03d ec89 56be
000003b0: 8794 4bbe 43f9 10be 9bba 403c 7b1e 2bbe
000003c0: 07e8 74bd 4b84 d2bd 1463 2cbd c037 30be
000003d0: 12b8 3c3d a6f1 c93d 030c d63c af8e 0bbe
000003e0: 72fe cdbd 6a7e 18be 2740 0dbc df43 c3bc
000003f0: 507c 05be 9736 ba3d e43a 7ebb b4f1 8d3d
0.053078383 -0.035360176 0.04052139 -0.20512082 0.044400163 0.036425345 -0.068251416 -0.09366618
0.08475714 -0.18246719 -0.03928032 -0.023611424 0.015600067 -0.036169868 -0.053595323 -0.2182069
0.08191463 -0.06404743 -0.07681641 0.07749599 0.016593648 -0.010219073 -0.07592252 0.09450797
-0.16797999 -0.096856885 -0.18194224 -0.08950145 0.17307268 0.011142874 -0.1252479 0.15102488
0.16038081 0.13418536 -0.050722983 0.097742386 0.09757163 0.18354371 -0.22244893 0.03644686
0.042001974 -0.05597489 0.027992655 0.16953757 0.09693681 0.086129636 -0.22119519 0.074343584
-0.11483987 0.08364437 0.061064668 -0.04462614 0.13255376 0.11358946 0.003964623 -0.056267787
-0.11364207 0.0038433995 0.13771519 -0.22227636 0.04915976 -0.12187419 -0.07473388 0.11994923
0.13051118 -0.04891655 -0.044577062 0.093314216 0.06895244 -0.16857798 0.049469557 0.03968822
-0.07374237 0.083339036 0.14366542 -0.040693242 0.021766957 -0.09882038 0.1273086 0.16980873
-0.16165987 -0.09480068 -0.1304302 -0.2533166 0.107651636 0.07069221 0.05810636 0.112381235
-0.04269059 -0.07233536 0.05139742 0.28007895 -0.08618619 -0.03938897 0.07413048 -0.094994195
-0.015433229 0.04247257 -0.13528743 0.23834442 0.16982852 0.124936245 0.1604457 0.22842328
-0.0021978589 0.022626704 0.083758354 -0.085277684 0.25188524 0.0045245513 -0.008286399 0.1542506
-0.020474972 -0.04154624 -0.013127423 -0.008822626 0.058214474 0.027965864 -0.043875914 0.06516815
0.18524335 -0.10485835 0.026219182 0.12881646 0.06882634 0.11308478 -0.0643486 -0.14595158
-0.16148603 0.017233547 -0.06170042 0.19599034 0.09794282 0.011380827 -0.08720426 0.25033748
-0.07910121 0.111143455 -0.06584144 -0.12453023 -0.12521902 -0.063101396 0.06766648 -0.15333751
0.17273207 -0.041509327 -0.13988337 -0.19605805 -0.14071546 -0.10349598 0.13641362 -0.07478423
0.10196084 0.031393 0.1140973 0.11813117 -0.049404513 -0.045884255 -0.13286288 0.12384424
-0.09498871 -0.024901463 0.016163878 0.07086991 -0.0043422906 0.020990513 -0.033173703 -0.01971155
0.063937806 0.13577397 -0.033750836 0.13515429 -0.058068328 -0.031398173 -0.1410143 0.12194556
-0.060249854 -0.08255388 0.04165875 0.00057203154 -0.010959414 -0.14468496 -0.17721087 -0.033271052
-0.17818153 0.015369684 0.054037917 -0.093598776 -0.21241371 -0.07055015 -0.046901815 0.10391844
0.08658651 -0.040546093 0.10179948 0.132367 0.15552944 -0.19604729 -0.16171893 0.31441048
0.1153904 -0.11956677 -0.12057621 -0.19323052 -0.13954012 0.13068672 -0.004230544 -0.06507591
0.0144913215 -0.033459116 0.0016584705 -0.04679731 -0.0132295145 -0.10692814 0.17038973 0.18491985
0.10539411 -0.22874574 0.105371244 -0.21621333 -0.14443585 -0.14832689 -0.12210801 -0.20418009
-0.21090104 -0.13214503 0.09472675 -0.02700705 0.1190615 0.06984044 0.1228169 0.0052157044
0.12864038 0.0358955 0.11732708 -0.2095105 -0.19880877 -0.14157586 0.01176324 -0.16710846
-0.05979159 -0.10279139 -0.042086676 -0.17208767 0.04607398 0.09860544 0.026128775 -0.13628648
-0.10058297 -0.14891973 -0.008621252 -0.023836074 -0.13035703 0.090924434 -0.0038792426 0.06930867

rnn.weight_hh f4 [96, 32]
00000000: 4df6 1b3e 0eea 783c 7d87 343e 5643 63bd
00000010: db11 24bd f54b 4f3d 4bb1 cb3d 7cdc 2cbe
00000020: ba25 ee3b 5cbb f6bd 6521 c63d 1acc dbbd
00000030: 7e0a ecbd 1b7d 4cbe 3f77 4abe 0b5d dabc
00000040: cef7 693d 5088 a9bc 097e 46be 6c8b e43d
00000050: 1231 323e 73f1 cbbd 181f 0a3a 1fa3 3fbe
00000060: c223 bdbd 4501 253e 77ed dd3c 69c2 2e3e
00000070: 7657 78bd 780a 373d a803 93bd 3e6f 49be
00000080: fe8a aabd c801 bfbd d00a 94bd 6e2d 243e
00000090: 781b 04be c461 913d d1c0 243e f9e1 1c3e
000000a0: dbff 84bd fbfe 3cbd 0ea6 3e3c cbeb 88bc
000000b0: 5d25 7a3d d89f b2bd 9e83 cb3d 5614 da3d
000000c0: fdff f33b fb97 833b 3218 3c3e 8610 abbd
000000d0: 1a00 0bbe bb6e 91bd 5983 09bc d78e 23be
000000e0: 01b3 503e 0b75 cdbd fed4 f6bd dd41 91bd
000000f0: ad10 ed3c df60 e63d 90bf 9d3d a69e a13d
00000100: 6855 cd3b 1029 f5bd 87e8 8cbd 30ec a1bd
00000110: d6e4 193e a0b4 1e3d 7110 51bd 9435 b23d
00000120: 7d01 4a3d 5089 713d cf6d 223e c264 44bd
00000130: ea67 963d a552 d43d 17e0 90bd 37cf 01bd
00000140: be23 b93d 3496 f7bc c48b e33d ba66 483e
00000150: db1a 54bd 6d37 d13d 4abc e93d e778 6cbd
00000160: df1b 33be f644 4dbe b033 953d 50ce dc3d
00000170: ee56 82be 6404 e7bd fb41 673d 2a40 a1bc
00000180: 9874 d83d 9e51 7d3d 38a3 06be bc6d eebd
00000190: 7aad 0dbe ff66 a2bc adbe 21be 6040 433e
000001a0: 2ee1 0c3e d6c7 e7bd 9231 bcbb d3cd 37bd
000001b0: af5d 523e 3c24 bcbd 25ab e03d 6f01 1fbe
000001c0: 2685 673d a2bc 59bd 492a c13d ce75 12be
000001d0: a33c c1bd 41bb 5d3e e915 2d3b 5998 0e3e
000001e0: 9c57 063e 3078 c33b e45a 0abd 7ad6 1d3e
000001f0: 310b fabd e27b 213d 5982 1ebc 0fc9 043e
00000200: a584 41bd d2bb 7cbd 9631 86bc 62f0 ec3d
00000210: 112f 3a3d 3ebd bb3d 1379 e3bd 90ae 69bd
00000220: 7fdf 193e 2552 26bd b266 2e3e d9a1 e8bd
00000230: 3b13 143e 7f69 293e 0797 03be 5491 8fbc
00000240: 995a dabc f42f 893d 4f03 5f3d eac9 03bd
00000250: 7c2a fa3c 5c44 bb3c d851 773e dab6 a9bc
00000260: 6f0f b53d 72b8 ee3d fc78 283b b32d 08be
00000270: d024 80bd 783b fd3d ba78 e43d 7325 28be
00000280: 9164 9cbd 36a7 d93d ab10 30be 0015 a23d
00000290: 19fe e2bb 1cda 013d 5712 303e 293f b2bd
000002a0: e94e 64bd ce96 063d 45d7 43bc 48e7 eb3d
000002b0: 9e91 14be c049 cbbd 48c0 25be eced e33d
000002c0: dcab 03be 17d9 c5bc 4e41 053e 5b3e 9b3c
000002d0: e91e f03c c384 193e d6cf 98bb 878d 21bd
000002e0: c6ef da3c 3e5b d93c 3ea0 0d3e e6dc 81bd
000002f0: f50a 393d b472 1d3e aa3d 93bd a32d 943d
00000300: b968 7a3c 04e5 05be 5e53 5a3d 28b8 343e
00000310: bfee 8d3d 36ed 9c3e 8c6d 3e3e 6396 d43c
00000320: 92b5 e6bd 177c efbd 5d5a 4c3c 9706 40be
00000330: 10f7 b33d 3ee3 44be 9896 f5bd cd50 14be
00000340: be0f 033d 1959 093e dfba 19be 15d0 fcbc
00000350: da93 2a3e 7b22 47be 49db bfbd f09d cc3d
00000360: f365 87be 94fd 04bc d457 073e 69f5 c63d
00000370: 6a6e ebbd 13bd 073c a314 e4bd e0c7 0d3c
00000380: abcf 4e3d d731 27bc cac3 78bd 6e35 d9bd
00000390: 3962 283e cb34 2ebc c4b8 acbd 27c8 6fbd
000003a0: 28ae b83d 5cff 0ebe 9810 cf3d 61c9 0abd
000003b0: daa9 083e 2a4e f4bd 99d6 fcbc 162a 71bc
000003c0: 3b3b aabc 6e41 e1bd 8f16 453b 4b25 ba3d
000003d0: 6b5c 803d 7c10 da3d 1368 943d acd2 28be
000003e0: 4791 f83d 149c 75bc 15b5 e6bd 2ded 8b3c
000003f0: be1e 4bbd e298 043e 8a80 13be abe6 893c
0.15230675 0.015192522 0.1762981 -0.05548414 -0.04005609 0.050609548 0.09945925 -0.16880983
0.007267681 -0.12047455 0.09674338 -0.10732289 -0.11525439 -0.19969599 -0.19772051 -0.026655694
0.05712109 -0.020694882 -0.19384016 0.11159405 0.17401531 -0.09958162 0.00052689156 -0.1871457
-0.09235336 0.16113766 0.027090771 0.17066349 -0.060630284 0.04468772 -0.07178432 -0.19671342
-0.08327292 -0.093265116 -0.07228625 0.16032955 -0.12901103 0.070987254 0.16089179 0.15320577
-0.06494113 -0.046141606 0.01163627 -0.016713997 0.06107079 -0.08721894 0.09937213 0.1064841
0.0074462877 0.00401592 0.18368605 -0.08352761 -0.13574257 -0.07101198 -0.008393132 -0.15972458
0.20380785 -0.1003209 -0.12052344 -0.070926405 0.028938616 0.112489454 0.07702553 0.07891588
0.0062662847 -0.11970723 -0.068802886 -0.07906377 0.150287 0.038746476 -0.05104107 0.087016255
0.049317826 0.058968842 0.15862201 -0.047947653 0.07344039 0.10367326 -0.07073992 -0.031691756
0.090400204 -0.03022299 0.111106426 0.19570437 -0.051783424 0.1021565 0.114128664 -0.05773249
-0.174911 -0.20045838 0.07285249 0.107815385 -0.25456947 -0.11280134 0.05645941 -0.019683916
0.105691135 0.061845414 -0.131482 -0.11642024 -0.13835707 -0.019824503 -0.15795393 0.19067526
0.13757774 -0.113174126 -0.005743214 -0.044874024 0.2054355 -0.09186599 0.10970143 -0.1552789
0.056523465 -0.05315841 0.094318934 -0.14302751 -0.09435394 0.21653463 0.0026410765 0.13925304
0.13119358 0.005965255 -0.033778086 0.15413848 -0.12209166 0.039424784 -0.009674632 0.12967323
-0.04724564 -0.061702557 -0.016381066 0.11569287 0.045455042 0.091669545 -0.111070774 -0.05705124
0.15026663 -0.040605683 0.17031363 -0.11358995 0.14460461 0.1654415 -0.12850581 -0.017525353
-0.026654528 0.066985995 0.054446515 -0.032174982 0.030537836 0.022859745 0.24152315 -0.020717073
0.08840834 0.11656274 0.0025706878 -0.13298683 -0.062570214 0.123648584 0.11155839 -0.16420536
-0.07636369 0.10627596 -0.17193858 0.07914162 -0.0069272635 0.031702146 0.17194496 -0.08703453
-0.055739317 0.032858662 -0.01195318 0.11518723 -0.14508674 -0.09926176 -0.1618663 0.11129364
-0.12858528 -0.024151368 0.13013193 0.018950632 0.029311614 0.14992051 -0.004663448 -0.03944161
0.026725661 0.026532765 0.13830659 -0.06340961 0.045176465 0.15375787 -0.07189496 0.07235267
0.015283757 -0.13075644 0.05330216 0.17648375 0.06930303 0.30649728 0.18596476 0.025950616
-0.112651005 -0.1169359 0.012472716 -0.18752514 0.08787358 -0.19227311 -0.11991614 -0.14483948
0.031997435 0.13412894 -0.15012692 -0.03086094 0.16657963 -0.19446747 -0.09367997 0.09991062
-0.2644497 -0.008117098 0.13217098 0.09714777 -0.11495669 0.008284825 -0.11136749 0.008653611
0.050491016 -0.010204754 -0.060733594 -0.10605894 0.16443719 -0.010632704 -0.08433679 -0.05854049
0.09017593 -0.139646 0.10110587 -0.033883456 0.13346043 -0.11928971 -0.030864047 -0.014719507
-0.020780196 -0.10998808 0.003007326 0.09089144 0.06267627 0.106476754 0.07246413 -0.16486615
0.121370845 -0.014990825 -0.112650074 0.017080868 -0.049589865 0.12948945 -0.14404503 0.016833624

rnn.bias_ih f4 [96]
00000000: 8760 a83d ae9e a8bd 019b ea3d be53 1cbd
00000010: fe36 65bd 6668 2dbe 7a0b c9bd 9c9f c3bd
00000020: c5ce e6bd c693 8c3c 25f5 5abc 8619 bebd
00000030: 9cff 243c dd99 ddbd 8059 0abd 53ef 4e3d
00000040: cc54 b5bd c503 1cbe f9d1 253e fd81 b33c
00000050: a923 f03d c756 dc3b a9a5 b9bd e96a 84bd
00000060: edd1 223e bf60 23be 2f1a d4bd 5df6 013e
00000070: 39d9 0d3e 970a e9bd 8c3a 3ebe 34aa 0e3e
00000080: 2a79 0e3d 4b4c 233d 401e cbbd a92e 683d
00000090: 6db7 da3d 8bd0 e5bd 6b5e 593d 78b5 efbd
000000a0: 888d c5bd 1582 52be a088 453d 5418 67be
000000b0: 17f6 73be 125f abbc 62de 74be c47a 06be
000000c0: 967a 2abb ffc3 9d3d b8bf b6bd f6ae 4f3c
000000d0: 3667 e7bd 2428 d73d a552 4cbd d981 f3bd
000000e0: 94bd 8c3c 8d98 1fbe e392 4cbd 5a75 4cbd
000000f0: fe79 c7bd 5c20 4cbe 9876 1fbd aabc 303d
00000100: c0e6 31bd 01e0 153e d46c d3bd 064f dd3c
00000110: 6e3b a63d 7685 103e 3ad6 22bc 54f3 c5bd
00000120: 766a 10bd 5c92 15be eb4d 2cbd ed27 f7bd
00000130: b404 7e3d 3703 a73d 67b4 293e b3e1 b43d
00000140: 9a86 19be 0cd1 90bd f0e2 2d3e 5677 e6bd
00000150: 2ce0 07be 046b 01be 2c6d 843d a335 423e
00000160: 4173 b9bc 6082 093e a0e6 30bd 786d febd
00000170: eeb6 98bd c5e6 81bd a607 633d 6e72 9c3d
0.08221536 -0.08233391 0.11455346 -0.0381658 -0.055960648 -0.16934356 -0.09816642 -0.095519274
-0.11269907 0.017160308 -0.013364111 -0.09282212 0.010070708 -0.10820363 -0.03377676 0.050521206
-0.08854064 -0.15235813 0.1619338 0.02191257 0.11725552 0.006724212 -0.090648 -0.06465704
0.15900393 -0.15954874 -0.103565566 0.12691636 0.13852395 -0.11378973 -0.18577021 0.13932115
0.03478352 0.03986768 -0.09917879 0.056685124 0.10679517 -0.11221417 0.05306856 -0.11704534
-0.096461356 -0.20557435 0.048226 -0.22567874 -0.23824345 -0.020919356 -0.23912957 -0.13132769
-0.0026013008 0.07703399 -0.08923286 0.012675991 -0.11298983 0.10505703 -0.049883503 -0.11890001
0.017180242 -0.15585537 -0.04994477 -0.049916603 -0.09740065 -0.19934219 -0.03893146 0.043148674
-0.04343295 0.14636232 -0.10323492 0.02701522 0.08116804 0.14113411 -0.009938771 -0.09665552
-0.03525778 -0.14606613 -0.042066496 -0.12068162 0.062016204 0.0815491 0.16572724 0.08832111
-0.14992753 -0.070711225 0.16981101 -0.1125323 -0.13269109 -0.1263848 0.064661354 0.18965773
-0.022637965 0.1342864 -0.04318869 -0.12423223 -0.07456766 -0.06342844 0.055427216 0.07639013

rnn.bias_hh f4 [96]
00000000: e015 3c3c 3ed2 6f3d 4d8d 223e 8d20 a93d
00000010: 77c2 83bd 9e00 0f3c 295f 2c3d c7b8 2cbd
00000020: bdca a2bd cb88 aa3b a77f 033d 3bf0 a1bc
00000030: 9d35 18bd 57eb 033e c5b3 033e ceed 43be
00000040: a7a4 bebd ceb3 1f3e afec 0e3e 8f05 303e
00000050: fbda c0bc 7691 bcbd e224 21be 2496 e9bc
00000060: cad4 afbd 4a06 543d 3acf 98bd 5ab4 65bc
00000070: 0aba e6bd 7d85 a83c bbcc 8f3d 204a 063e
00000080: ce80 683d 73c8 e23b 5712 423d 471d 5bbe
00000090: 9925 733d 63bb 05be 089a 9d3c c324 4cbd
000000a0: 62ab 57be d0e5 37be 1d1a 04bd 17cc 8bbe
000000b0: 1058 54be 6a4c e5bd 9220 bebd 3c10 d23c
000000c0: aa74 7abe 78c9 4d3d d7f7 6fbe 9946 e03d
000000d0: 592d 67be 25fe 45be 3948 01be ce71 34be
000000e0: dbad 86bc dae2 8c3d 8227 88bd 5293 67bd
000000f0: 43af febd 3d80 6cbd 5d9a 8eb9 3d7b 093c
00000100: 759a 973d 5f3e ce3d 0197 49bd ad6f 4fbd
00000110: 3f46 43be f7e2 0b3e 27d5 fcbd aa35 a83d
00000120: 382f 96bd b490 aa3d 2e06 b4bd 221b a03d
00000130: 00d0 993d 7bac 223d 81aa 50be d2a4 923d
00000140: 403a 52bc 4c07 5e3e 1113 153a e252 34be
00000150: c406 3e3e 21b5 e03d ae97 0bbe 6d45 833d
00000160: 272e 3c3e 9626 2ebd ca78 80bd 449f b33d
00000170: 18e7 213e 7463 0e3e eca8 9bbd 0890 ebbc
0.011479825 0.058550112 0.15874214 0.08258162 -0.064335756 0.0087281745 0.04208294 -0.042168405
-0.079488255 0.0052042953 0.03210416 -0.019767871 -0.037160505 0.12882744 0.12861545 -0.19133684
-0.09308749 0.15595934 0.13957475 0.1718962 -0.023541918 -0.09207432 -0.15736726 -0.028513975
-0.08585508 0.05176381 -0.074614 -0.01402005 -0.11265953 0.020571465 0.07021471 0.13114214
0.056763463 0.006920868 0.04738077 -0.21397887 0.059362028 -0.13059764 0.019238487 -0.049839746
-0.21061471 -0.1795876 -0.032251466 -0.27304146 -0.20736718 -0.111962155 -0.09283556 0.025642507
-0.24458566 0.050240964 -0.23434387 0.109509654 -0.22575893 -0.1933523 -0.12625207 -0.17621538
-0.016440323 0.06879206 -0.066481605 -0.05653698 -0.12435772 -0.057739485 -0.0002719936 0.008391199
0.07402507 0.1007049 -0.049216274 -0.05064361 -0.19069766 0.13660799 -0.12345343 0.082133606
-0.07333225 0.08328381 -0.08790241 0.07817675 0.07510376 0.03971527 -0.20377542 0.07160343
-0.012831271 0.21682471 0.000568674 -0.17609742 0.18557268 0.109720476 -0.1363208 0.06409726
0.1837698 -0.042517267 -0.06273039 0.08770612 0.15810812 0.13905126 -0.07600579 -0.028755203

fc2.weight f4 [6, 32]
00000000: 71f6 763e 2602 15bd d9b0 003d 1224 933e
00000010: 8cc2 95be c08b 153d db49 883d a494 23bd
00000020: 5357 5a3d 9993 ad3d 897f 0c3d e3f3 8e3d
00000030: a36b debe d967 1c3e 66d1 94bc 3344 b63c
00000040: cdd5 a5be ff04 963e 5329 093e cab9 a8bd
00000050: aa62 4bbd 968f 1d3b 49c8 903b e2ff 553c
00000060: 6748 5e3e bacf 183e 5f41 c6bd 1227 e6be
00000070: a338 0e3e 030f 05be 0afd 303e 10f2 103d
00000080: ebbb e93d 6e67 b83d 9526 063d 3a5d cc3d
00000090: 85a7 0cbe ef0d b9bd 647c e7bc c31d 803e
000000a0: 5328 253e 09ce 293d 59aa 453e b349 6d3d
000000b0: ca22 363e f53c 67be 3ecc 92be 0a0e 023d
000000c0: 398a 993d 1c44 90bd a901 f73c 22b2 0cbe
000000d0: 8707 91bc cc7d 93bb 4099 d6be d714 123d
000000e0: b318 23be 31dd 263e 2f1c 5dbe f120 cfbe
000000f0: fe28 f43d 68db f93c 1f8c a5bd 298e 1d3e
00000100: f99a 8a3d 0288 363e 55f3 a8be fb72 93bd
00000110: e95e f5be 52ff 813e 70a1 aa3d 5155 0dbe
00000120: ec66 7f3d 7d05 aa3d f59c 023e c9b8 1fbe
00000130: f400 5abd 347d 01bd 2be0 963d ba8e 6e3e
00000140: 8bce 883e f04d 7ebe ed0a 80bd cb1a eabd
00000150: e337 2b3b 788f 5c3d 8ac0 8d3e b363 5f3d
00000160: 838b 9fbd b9db 35bd 467c 48be 32ee 4d3e
00000170: fad5 833e a21f b4be 90f5 7bbe b6a0 f13b
00000180: a887 0dbe 6fd5 93bd 3f14 e3bd 837b 0dbe
00000190: 37ab 08be 4bf0 0f3b 58f3 52be 60ae 933e
000001a0: 4c39 463d d16a c2bd 7958 bb3e 190b 903d
000001b0: 68fa cb3d 3531 753e b7b1 803a e3fc 913e
000001c0: b7a6 09be c5b8 6f3e 9391 8b3d 7ca0 a7be
000001d0: cf7b 4b3c b568 923e d0f1 383e e08b 8fbe
000001e0: e3b9 cfbc 46a0 40be 8025 6a3e 7f4f cd3d
000001f0: 45ac 53bd e283 1ebc 78e4 f9bd 9395 7b3e
00000200: fa9c c63e 5a06 913c 4647 c43e 6e19 2f3e
00000210: a447 6abb 3fa6 db3d 757f 9cbd 0cdc 2ebe
00000220: c0cc 2abe f0de a5bc 88a6 c4bd a066 993e
00000230: 2627 6ebd 9c55 383e f4ff 863e 4757 42bd
00000240: 2597 30bb d9b5 25bd b980 8bbe 50f4 91be
00000250: d1e9 113e 2309 dcbc 595c 88be e6e6 31bd
00000260: 89a9 bcbd a524 1f3e 9834 0e3e 146f 9a3c
00000270: 8aef 323e 8543 b7bc be25 0abe 6c42 7a3e
00000280: 4ea8 9e3e 6029 613e 4e06 adbc 5644 3b3e
00000290: d6d6 11be 69f5 803d e6d4 99be 7c54 9b3d
000002a0: b9b8 babe 6448 20be 8792 8bbe 812e 803e
000002b0: e55f 4d3e 287d 2f3e 2a01 d9be bde1 febe
000002c0: e34f e5bd f10e d7bd 7053 ba3e 6272 3dbe
000002d0: 6203 c73e 078c 553e 92df 53be e589 b73e
000002e0: ece3 c0bb 478b 44be 7ae3 973d 38fa ce3d
000002f0: 5514 313e 19a8 98be 3547 3b3e a6b1 01be
0.24117447 -0.036379002 0.031418655 0.28738457 -0.2924999 0.03651023 0.06654712 -0.039936677
0.053305935 0.08475418 0.034301315 0.069801114 -0.43441495 0.1527399 -0.018166255 0.022249317
-0.3238968 0.29300687 0.1339467 -0.082385615 -0.04965464 0.0024041883 0.004418407 0.0130614955
0.21707307 0.14922991 -0.09680437 -0.44951683 0.13888793 -0.12994008 0.17284027 0.0353871
0.11412796 0.09004103 0.03275164 0.09978719 -0.13735779 -0.09035861 -0.028257556 0.25022706
0.16128664 0.041456256 0.19303264 0.057931613 0.17786708 -0.22581847 -0.2867145 0.03175167
0.07497067 -0.07044241 0.030152159 -0.13739827 -0.017703785 -0.00450108 -0.41913795 0.035664406
-0.15927391 0.16295315 -0.21592782 -0.4045482 0.11921881 0.030500129 -0.080833666 0.15386261
0.0676784 0.1782532 -0.32998148 -0.07199665 -0.47923973 0.25390106 0.08331573 -0.13802077
0.062354013 0.08301828 0.12755187 -0.15597834 -0.053223565 -0.031613544 0.073669754 0.23296633
0.2672008 -0.24834418 -0.06252084 -0.114308916 0.002612584 0.05384776 0.27685958 0.05453844
-0.077902816 -0.044398997 -0.19578657 0.20110396 0.2574919 -0.35180384 -0.24605393 0.0073738946
-0.1382128 -0.072184436 -0.11087846 -0.13816647 -0.13346563 0.0021963294 -0.20600641 0.28843975
0.048394486 -0.0949303 0.36590937 0.07033367 0.099598706 0.23944552 0.0009818588 0.2851325
-0.13442503 0.23410328 0.068148755 -0.32739627 0.012419655 0.2859551 0.18060994 -0.28036404
-0.025357192 -0.1881114 0.22865868 0.10024928 -0.05167796 -0.009674998 -0.1220178 0.24568777
0.3879164 0.017703224 0.38335627 0.17099544 -0.0035748268 0.10725068 -0.07641498 -0.17076129
-0.16679668 -0.020247906 -0.09602076 0.2996111 -0.058142804 0.18001407 0.26367152 -0.047446515
-0.0026945558 -0.040456627 -0.27246645 -0.28506708 0.1424935 -0.026859825 -0.26632956 -0.043433093
-0.09212024 0.15541323 0.1388725 0.018851794 0.1747419 -0.022371063 -0.1349096 0.244394
0.3098778 0.2198844 -0.02112117 0.18287787 -0.1424211 0.06296808 -0.3004524 0.075844735
-0.36469057 -0.15652615 -0.2726023 0.2503548 0.20056112 0.17137587 -0.423837 -0.497816
-0.11196878 -0.10500897 0.36391783 -0.18500665 0.38869768 0.20854197 -0.20690754 0.35847393
-0.0058865454 -0.19193755 0.074164346 0.10106319 0.17292912 -0.29815748 0.18288882 -0.12665424

fc2.bias f4 [6]
00000000: 16d3 083d b355 053d 344d 1eba c18a bd3b
00000010: 0ea9 b23c 6803 6c3d
0.033404432 0.032552432 -0.0006038726 0.005784363 0.021809127 0.057620436
