results/alpha_0.5/agent_final.pt (torch, 43205 bytes, 8 tensors)

fc1.weight f4 [32, 104]
00000000: 381a d33d 7b45 a7be d3a7 edbd ed52 bfbc
00000010: bd3f 1dbe 8dbd 63be 9462 63be 7da0 0d3c
00000020: 5021 2cbe d350 20bd 5b78 123e 601f adbc
00000030: ab81 3cbe 05a0 ae3d f0d0 733d 9bac 4f3e
00000040: 6982 aebd 424a 9e3d 59a8 3d3c f391 c63d
00000050: 6104 e0bc f591 e6bd 234e 313d e924 71bc
00000060: 4ec9 4dbe a27f 37be d14b 10be afb4 413e
00000070: 8c17 223e 965d 73be aa33 19be c02a 0b3e
00000080: 7add d2bc f2a2 543d eb5b a8bc eb70 e2bd
00000090: 71f1 0a3e 40b4 213b 776b f53d 6ffc 513d
000000a0: 75cc 73bd ae29 61bd b638 a33d 6399 bbbd
000000b0: 1080 b3be 7c3a 41be a29f ff3c cd68 013b
000000c0: 8934 c83d 8e4e 233d cc58 03b9 57c6 d7bd
000000d0: 6eb7 143e 5c73 26bd 5822 78bc c7d0 c8bd
000000e0: ab32 54bc ef10 cfbd 466b e1bd 4359 163d
000000f0: f3bb d53d 9207 1cbd d17b 543e 407f 143e
00000100: 4970 1dbc 9442 94bd 3cce 02bd 5e8d af3c
00000110: 2f67 24bd 1761 6bbe 3068 14bd 3285 15be
00000120: 00ab 7dbe 90c9 453e c95f 643d 167f 31be
00000130: f3ec 98bd 4b92 ef3d 2a0f 94bd 40b7 d9bd
00000140: 5b0a 5dbd e8c5 0f3e 2da9 c43d d8be 1b3e
00000150: 10d6 063e de2e a93d 2a40 08be a493 1a3d
00000160: d6d4 3ebe df5e 95bd 5f54 893d 5382 0c3e
00000170: 22b1 1ebe ec45 223d 30ab da3d 254d 23be
00000180: 3e7f 6b3e 1dc6 b3be c2dd 4abc 9cc2 abbd
00000190: 38d1 983d dbec 02bd d1f4 0c3c 8407 3d3d
000001a0: 4680 4a3d 941c 4b3e 77d8 a8bd 6103 9e3d
000001b0: 6a64 7abe 3f6d 29be e2f1 9fbe 6cbf bbbd
000001c0: a64e 17be 3cce 9f3d 70bb 383a b9bc 913d
000001d0: 2995 d33b defb d03c 42c0 0b3d edab a0bc
000001e0: 50ee 17be 2f0a 75bd b367 5b3e 2245 673d
000001f0: e683 8abc c037 4d3d 0ef5 afbc 1ba0 67be
00000200: c289 10be b504 18be 4c7e 52be edec 8e3e
00000210: 965a 693d 850e 59be fa57 14bd 7c4e 18bd
00000220: 4fe9 0abe acbb 23be 6f96 1a3e 344f 5a3d
00000230: 068a 893e b523 92bd 0418 3a3d a0c4 63bc
00000240: faa0 f03c b6b1 3c3e 59ea bd39 8490 c93d
00000250: 94f9 783e a2bf 943d 27cf 8d3d 7e33 973d
00000260: 0532 d63d b509 c83d 8325 e1bb 6d5c 983d
00000270: 3095 f53c 9596 42be 50c3 8abd 83fb 723d
00000280: c751 b2bd 49db 953c 63b1 c03b 4384 19bd
00000290: 527b 453d 6e1a 7c3c dbd1 a7bb 0688 a7bd
000002a0: fc76 aa3d b2e9 e83d f409 d23c 7dfb c8bc
000002b0: befc 4f3c 0c07 9dbe 6719 34be a004 6fbd
000002c0: 25e5 983d 83f7 6e3e 0e77 35be 4af4 4a3e
000002d0: 1bd4 1fbe c79a 233d aa8f 893d 087a 22be
000002e0: 2520 373d ed20 1f3e cbb1 873d 3b96 68bd
000002f0: 4c42 c03d e2ea d9bc 60e0 863d a91e cbbd
00000300: 9bb0 413d 0562 593e 8146 0cbe 6d43 153d
00000310: 8c0b 413d 6930 d9bd 9740 8b3e 240e 3c3e
00000320: 1a58 92bd 0494 213e 9cfc 2c3e 3ba7 cb3c
00000330: f61a c53d b169 2cbd 8307 8dbd 6c46 46bd
00000340: 069a 8e3e d91b 7ebe 24b1 9dbe 81c4 c4bd
00000350: f036 dc3d 4443 b13d af68 b0be 24f3 96bd
00000360: 4550 893c 7f9c 213e 00ac 36be 0cf4 f53c
00000370: 8294 b5bd 2797 933d 1094 03bc 40cc 7ebd
00000380: a987 833d cff5 a73d 8bfc 703d 5b37 c03c
00000390: b46e e8bd 0e1d ac3c 78c9 183e 2327 ba3d
000003a0: 9574 703d d447 0e3d 5fe1 1e3d 019d bb3c
000003b0: b454 803d 2a1d 17bd 3bc4 763e 1f9b ef3d
000003c0: 0e82 bf3d 380f 13be 2b1a 853d 448a 03be
000003d0: 1137 973d 2504 babd 9d76 0fbd d4ee 65bd
000003e0: ef3c 8abd 129d f43d 36f2 0ebe 464c 36bd
000003f0: 0b68 0e3d 4f65 5fbd 9de6 d0bc 4901 c1bc
0.10307735 -0.32670197 -0.116042756 -0.023354972 -0.15356345 -0.22240277 -0.22205573 0.00864422
-0.16809583 -0.03913958 0.14303724 -0.021133125 -0.1840884 0.08526615 0.05952543 0.20280688
-0.085209675 0.07729007 0.011575782 0.09695806 -0.027345838 -0.11258308 0.043287408 -0.014718273
-0.20096323 -0.17919782 -0.14091422 0.18916582 0.15829295 -0.23766169 -0.14961115 0.13590527
-0.025740374 0.05191321 -0.020551642 -0.11056694 0.13568665 0.0024674088 0.11983388 0.05126613
-0.059521157 -0.05497139 0.07969801 -0.091601156 -0.3505864 -0.18869966 0.031204049 0.0019746304
0.09775645 0.039869837 -0.00012526213 -0.10535877 0.14523098 -0.04063736 -0.015144907 -0.09805446
-0.012951533 -0.10110652 -0.11006789 0.03670622 0.10436239 -0.038093157 0.20750357 0.14501667
-0.00960929 -0.07239261 -0.03193496 0.021429714 -0.040137466 -0.22986256 -0.036232173 -0.14601591
-0.24772263 0.19315171 0.05575541 -0.17333636 -0.074670695 0.11697825 -0.07229455 -0.10630655
-0.053964954 0.14040339 0.0960258 0.1520952 0.13167596 0.08260892 -0.13305727 0.037738457
-0.18635878 -0.07293486 0.06705546 0.1372159 -0.15497258 0.039617464 0.10677183 -0.15947397
0.22997758 -0.35112086 -0.012381973 -0.08386728 0.0746178 -0.031964164 0.008603291 0.046149746
0.049438737 0.1983512 -0.082444124 0.07715488 -0.24452367 -0.1654558 -0.3123923 -0.0916737
-0.14776096 0.07803008 0.00070469733 0.07116074 0.0064569903 0.025510725 0.0341189 -0.01961323
-0.14837003 -0.059824165 0.21426277 0.056462415 -0.016908597 0.050101995 -0.021479156 -0.22619669
-0.1411505 -0.14845546 -0.20555991 0.27915135 0.056971155 -0.21196945 -0.036216713 -0.037184224
-0.13565563 -0.1598956 0.15096448 0.05329819 0.26863116 -0.07135717 0.04543306 -0.0139018595
0.029373635 0.18427166 0.00036223492 0.09842017 0.24313956 0.072631136 0.06924277 0.07382868
0.10458759 0.097674765 -0.006870927 0.07439504 0.029978365 -0.19002755 -0.06775534 0.05932189
-0.08707004 0.01829304 0.005880521 -0.03747965 0.04821331 0.015387161 -0.0051214523 -0.08180241
0.08323476 0.11372699 0.025639512 -0.024533981 0.012694536 -0.3066944 -0.17587815 -0.05835402
0.07465581 0.23336606 -0.17721197 0.19819751 -0.15608256 0.03994253 0.06716855 -0.15866864
0.04470839 0.15539904 0.06625708 -0.056783896 0.09387645 -0.026601259 0.06585765 -0.09917957
0.047287565 0.21228798 -0.1369877 0.036441255 0.047130153 -0.10604937 0.27197716 0.18364769
-0.0714571 0.1577912 0.16893238 0.024860015 0.09624283 -0.042092983 -0.06886198 -0.048407003
0.27851886 -0.2481531 -0.3079921 -0.09607793 0.10752666 0.08655408 -0.34454867 -0.07370594
0.016761908 0.15782355 -0.1783905 0.030023597 -0.08866216 0.072065644 -0.008030906 -0.062206507
0.064223595 0.08201181 0.058834594 0.023463896 -0.1134924 0.021009948 0.14920604 0.09089496
0.05870493 0.03473647 0.03878915 0.022902014 0.06266156 -0.036893047 0.24098293 0.11699509
0.09350978 -0.14361274 0.06499132 -0.12845713 0.0738355 -0.09082822 -0.035025228 -0.056135967
-0.067499034 0.11944021 -0.13959584 -0.044506334 0.03476719 -0.054539975 -0.02550059 -0.023560183

fc1.bias f4 [32]
00000000: 273e 5b3b 44d6 9e3d ef91 5a39 2c08 61bb
00000010: 2c9c fc3c e9df 7e3c 1127 2f3d ed63 153d
00000020: 696b 713d 9d4e 0d3d 1249 2d3b ba83 6b3c
00000030: 8fd9 7b3c e12d 803b 9371 0b3c 68f3 09bc
00000040: b0bf 0e3c e347 cd3c 24d4 a63c 8f48 4d3d
00000050: 8daf 2f3d ee1c 4b3d a638 893d c5f8 84bc
00000060: b602 9d3c d6dd 8f3c 7f53 453d 8c91 953d
00000070: cef2 86bb d012 5d3d 6c16 693d 1832 083c
0.0033453794 0.07755712 0.00020844465 -0.0034337146 0.030836187 0.015556314 0.042761866 0.03647225
0.058940325 0.0344988 0.0026441258 0.014374668 0.015371694 0.003911719 0.008510965 -0.008419849
0.008712694 0.025058692 0.020364828 0.050118025 0.042892028 0.049588136 0.06700258 -0.016231904
0.019166332 0.017561834 0.04817533 0.073031515 -0.0041183 0.05397302 0.05690615 0.0083127245

rnn.weight_ih f4 [96, 32]
00000000: 225c 853d 67fc 11bd 1d8b 273d 7afc 4abe
00000010: b706 2c3d 107d de3c 5c0c d8bd 61b0 95bd
00000020: 566e a63d 90d9 3bbe 44e4 1cbd 9afb 94bc
00000030: c13d 973c 7f38 17bd e5ba 5dbd c614 5bbe
00000040: f647 a93d 530a 8fbd fa17 9dbd 069d a13d
00000050: 735e 683c 6fce 80bc 6472 65bd dea5 c13d
00000060: 9c40 29be de56 cebd 9bf5 2dbe adf0 c2bd
00000070: f45c 303e f550 f63b 410a 04be 6733 283e
00000080: ccdd 343e 0bfd 1e3e c723 88bb 752c 92bd
00000090: 33ea 5d3d 8025 2c3e 7fd1 78be 08a3 b7bc
000000a0: 01d5 4c3d 05b5 7cbd a647 c03c 92fb 563e
000000b0: 685f 953d da63 c53d 545e a1be a979 d03d
000000c0: dece 5bbe 8a58 8e3d 955f 6a3d d5e0 83bd
000000d0: 86e5 153e f895 023e 3142 fabc 47ac 53bd
000000e0: d76c b7bd 141c 3e3b 335e 283e 3d29 5ebe
000000f0: cee4 123d 8a71 edbd c854 92bd a9f3 f93d
00000100: c01c 30bd 64f4 82bd 03ab 4dbd 8193 083e
00000110: 24c4 813d 33a6 36be 4bd0 cc3c e7ee 69bd
00000120: 9497 9abd 7bca be3d e173 413e 8430 25be
00000130: 1f75 c6bc 3989 bfbd f89d 5a3e 1ca0 243e
00000140: 59cf 41bd 3af3 97bd 436d 03be f665 7cbe
00000150: c25d e53d d505 7f3d 9d54 ea3d 0476 b73d
00000160: eba2 a8bd 7e14 8ebd 17f9 713d 3635 943e
00000170: 59d1 c2bb 4441 f2bc 3945 9c3d 67d4 67bd
00000180: 0201 4dbd 574a cd3c f61d fcbd 684b 6a3e
00000190: 0416 3b3e 7080 033e b284 1c3e 23de 0e3e
000001a0: 15c0 89ba e1a2 a83c 7df7 1e3d a532 d0bd
000001b0: acad 613e 3046 c63c 3f30 a53c a400 223e
000001c0: 468d 88bd b708 1cbd 53c2 f6bc f444 11bd
000001d0: 313c 8c3d c832 f13c a2b5 2fbd db05 503d
000001e0: 23c6 413e d8fc b3bd 3b2b 0e3d 4bf1 fe3d
000001f0: 2b75 993d 9c53 d93d 2ce3 98bd ca18 19be
00000200: 2ee0 3ebe fd3e 003a 31cd a3bd 1f21 333e
00000210: ce25 d23d 8d0e 22bc 1088 e1bd 8bc7 6c3e
00000220: ad1b aebd a4ee da3d 948a d8bd 9580 18be
00000230: 3f04 13be 8e67 0b3b 2ff4 8e3d 23a9 3dbe
00000240: d073 ce3d 326d 18bd 2fca 0abe d5ac 5abe
00000250: cfcd 10be 106e e6bd 7683 003e f601 92bd
00000260: 3db1 b73d 660f f93c de08 c03d e719 e13d
00000270: dce9 a3bd 7010 84bd 71dd 1fbe 85e6 c33d
00000280: e3e0 f2bd 7f0b e3bc fb68 d53a 4727 2b3d
00000290: 7a31 3abc c292 ec3b c9f0 2dbd c753 f6bc
000002a0: f0cc 573d a754 043e dc63 29bd cbe4 f83d
000002b0: b91f a4bd ad4d 1ebd 6e8e fbbd 5db8 c63d
000002c0: ce6d a4bd 633c f4bd 08d9 473d cdfc 4ebc
000002d0: 6f4b a3bc 4bf7 19be 9f2f 56be f638 0ebd
000002e0: 629f 41be c015 163b fbe5 b83c b86f efbd
000002f0: 874b 7dbe 347a 9bbd dd3c 8ebd 5489 313d
00000300: 8359 a43d 607a 2abd d195 de3d a6ad dc3d
00000310: c40b 1b3e fc09 7cbe 334c d8bd d7fc 9d3e
00000320: e4ca eb3d 0b24 f9bd 0d7d e4bd 42d1 41be
00000330: 2a23 0dbe 9a2b f73d 7c27 acbd a854 9bbd
00000340: aa74 183d d830 6dbd 5a2c 463d fd5f 17bd
00000350: 3e35 14bb 4ee2 e0bd 9fbf 293e 8878 3c3e
00000360: d409 cc3d a7f1 94be 21bc da3d 0249 62be
00000370: 8f2d 0ebe d023 1ebe c34e 05be bde8 53be
00000380: a8ec 4cbe 4daf f6bd 9038 d43d 8a52 9d3d
00000390: 40c0 423e 0636 343e 0fe2 a93d 3edc edbc
000003a0: b8ef 2f3e b5ef 5c3d bf24 9a3d e1c7 71be
000003b0: c94f 4fbe a51d 3fbe 0f92 043e ed7f 3bbc
000003c0: 1496 1bbe 5f1a babc 5545 31bd c63c 52be
000003d0: 1a33 8e3d 082d ff3d 5658 813d 40d2 e7bd
000003e0: de1e e1bd 51e5 8bbd 5966 05bd 63ac 04bc
000003f0: a6ab 8fbd c937 e93d 160b af3d 5169 a63d
0.065117136 -0.0356411 0.040904153 -0.19822875 0.04199859 0.027159244 -0.10549232 -0.07309032
0.08126514 -0.18344712 -0.03830363 -0.01818638 0.018462064 -0.036919113 -0.054133315 -0.21394643
0.082656786 -0.06984391 -0.07670589 0.07891278 0.014182675 -0.015723435 -0.056017295 0.09455465
-0.16528553 -0.10075162 -0.16988222 -0.095185615 0.17222959 0.007516975 -0.12894537 0.16425858
0.17662734 0.15526216 -0.0041546556 -0.07137386 0.054178428 0.1681118 -0.24298666 -0.022416607
0.050007824 -0.06169607 0.023471665 0.20994404 0.07293588 0.09638186 -0.3151728 0.10179455
-0.21465632 0.06950481 0.05722006 -0.06439368 0.14638337 0.12752521 -0.03054914 -0.05167797
-0.089563064 0.0029008435 0.16442184 -0.21695419 0.035862736 -0.115939215 -0.07145077 0.122046776
-0.042996168 -0.0639427 -0.050211918 0.13337518 0.06336239 -0.17836837 0.025001666 -0.0571126
-0.075484425 0.09315964 0.1889186 -0.16131788 -0.02422577 -0.09352345 0.21349323 0.16076702
-0.047316883 -0.07419439 -0.12834649 -0.2464827 0.111995235 0.06226142 0.1144192 0.089580566
-0.08234199 -0.06937502 0.05907544 0.28946847 -0.0059453663 -0.029572137 0.07630391 -0.056599047
-0.05004979 0.025059862 -0.12310402 0.22880328 0.18270117 0.12841964 0.15284994 0.13951926
-0.0010509515 0.02058548 0.038810242 -0.1016591 0.22038907 0.02420339 0.020164607 0.15820557
-0.06667571 -0.03809425 -0.030121958 -0.03546615 0.06847418 0.02944316 -0.042897828 0.050786834
0.1892324 -0.087884605 0.034709197 0.12448367 0.07493051 0.1061165 -0.074652046 -0.14950863
-0.18640205 0.00048921985 -0.079981215 0.17493103 0.10261117 -0.0098911645 -0.1101228 0.23122995
-0.085013725 0.10690048 -0.10573307 -0.148928 -0.14357089 0.002127144 0.06980168 -0.18521552
0.10080683 -0.03721351 -0.1355369 -0.21354993 -0.1414101 -0.112514615 0.12550148 -0.0712928
0.089693524 0.03040285 0.09376691 0.109912686 -0.080035895 -0.06448448 -0.15611817 0.095654525
-0.118593 -0.027715443 0.0016281897 0.041785505 -0.011364335 0.0072196433 -0.04246596 -0.030069245
0.052685678 0.12922917 -0.041355 0.12153014 -0.08013863 -0.038648296 -0.12283026 0.09703133
-0.08028756 -0.1192558 0.04879096 -0.012633515 -0.01993343 -0.15035741 -0.20916604 -0.03472229
-0.18908456 0.0022901148 0.0225706 -0.116912305 -0.24735843 -0.07591668 -0.069452025 0.043343857
0.080248855 -0.041620612 0.10868419 0.10775308 0.15141207 -0.24613184 -0.10561409 0.30856964
0.11513308 -0.12165078 -0.11156664 -0.18927482 -0.13782945 0.12068863 -0.084059685 -0.07584506
0.037220635 -0.05790791 0.04838214 -0.036956776 -0.0022614743 -0.10980664 0.16577004 0.18405354
0.09962812 -0.29090616 0.10680414 -0.22098163 -0.13884567 -0.15443349 -0.13018326 -0.20694251
-0.20012152 -0.12045155 0.10362351 0.07681759 0.1901865 0.17598733 0.082950704 -0.029035684
0.17181289 0.05393954 0.0752654 -0.23611404 -0.2024528 -0.18663652 0.12946342 -0.011444074
-0.15193969 -0.022717653 -0.04327901 -0.20530996 0.069433406 0.12459761 0.06315677 -0.11319399
-0.109922156 -0.06830848 -0.03256831 -0.008097741 -0.07015161 0.11387593 0.08547036 0.08125556

rnn.weight_hh f4 [96, 32]
00000000: 8719 193e a3e1 6a3c a1a2 333e 0483 6ebd
00000010: c318 17bd f9a4 653d cda1 d63d 4a65 38be
00000020: 2bb1 6b3b c714 fcbd d825 c03d b240 c5bd
00000030: bc8e debd eb63 50be 0adc 4dbe 94ec ebbc
00000040: 8466 733d dbfd 96bc 38c0 45be 1316 ee3d
00000050: ea7f 363e af1a d1bd def4 233b a94a 42be
00000060: c1e6 c6bd f8ee 203e e482 fd3c a82f 2c3e
00000070: c8d9 79bd a650 423d fe17 78bd 3ef8 4cbe
00000080: 9d5a aabd 7011 c8bd b824 b9bd c610 1d3e
00000090: 85e3 ffbd bd0d 493d ff10 3a3e 040f 133e
000000a0: 2024 82bd 7478 48bd 760e 773d 9bf1 05bd
000000b0: b210 4e3d f902 b8bd 9466 c33d ab60 e23d
000000c0: 6ff0 5f3c 012a 903b 5a10 443e 406f d8bd
000000d0: c71d 36be 7c2e b7bd 7c0a f7bc d8c0 24be
000000e0: 5d3b 5a3e e2b9 b9bd 90b9 e2bd 2439 57bd
000000f0: 932a 353d e94e fa3d b525 873d 5cc9 a33d
00000100: 5883 45bc a2b5 03be c32d b8bd c5b6 91bd
00000110: e6b4 163e 6a25 513d 7beb 81bd 7bf2 c23d
00000120: 2475 343d fc28 9dbb aefc 493e 3911 83bd
00000130: fc50 453d cc45 df3d c907 87bd 5d89 d0bc
00000140: 7e61 083d edaa 2fbd 3c6e dc3d 9ce2 523e
00000150: dcdb 0cbd 5153 df3d a6de e13d 15f3 60bd
00000160: 7d86 26be e5a3 98be 6805 893d e50e 0d3e
00000170: f684 85be abed f2bd 626c 6a3c 5978 94bc
00000180: d66a ec3d 48e6 883d f07c fbbd 0513 f5bd
00000190: 4d1d 15be a95e 10bc 9836 14be 6e6c 483e
000001a0: 1679 0e3e b1ab d6bd ea2f ae3b 12de 00bd
000001b0: 4106 5d3e 798e bcbd 1e9f de3d e3a8 15be
000001c0: 8af1 883d 6989 88bd a4c4 cd3d 974d 19be
000001d0: 5ccd c4bd e908 5b3e 0f65 db3c 67d8 053e
000001e0: cc01 1b3e 43df 82bb 2c04 22bd 2759 193e
000001f0: 876f 10be 61ca 213d 4889 91bb 0935 0b3e
00000200: 43a7 5fbd 3b82 8fbd e1b9 efbb c932 d03d
00000210: d264 633d 054c d13d 8e33 afbd 54aa 8bbd
00000220: 6e61 123e a504 82bd a146 133e 9a34 febd
00000230: 3a5d 0f3e 4412 1f3e b910 14be 64f1 f8bc
00000240: a7bb 05bd 3a2b 973d 0663 5e3d 224c 8cbc
00000250: 5b8c 1d3c deeb 3c3c bfd2 7c3e 249e a1bc
00000260: 00d6 6d3d b5cc bb3d d24b 523c d2bb d7bd
00000270: 58b9 61bd e90e 0c3e 25c0 e53d 21bb 32be
00000280: 6d2f babd dfca c03d d80d 33be e5b4 6a3d
00000290: 8265 6a3c 9fa7 5c3d d034 4c3e 075e f1bd
000002a0: 3dbf 9abd efa6 ba3c 55c2 02bd 260c da3d
000002b0: 2864 21be 85e8 fabd 58b7 3bbe 9a1c c73d
000002c0: cdee e4bd f2a4 98bb 3404 053e 1eba 133d
000002d0: 1b67 403d 2684 0c3e 76ee 103c b831 80bd
000002e0: 9309 e639 60ff fa3c 7303 253e fc70 a4bd
000002f0: 4f00 433d 81a7 323e 2a15 9abd 7dcc 5c3d
00000300: d3d8 493c 6e71 1ebe 4423 5a3d db46 293e
00000310: cbb9 923d e6fb af3e 8c45 703e ca8d 6f3c
00000320: ba9e ccbd e4d7 f7bd 6719 ba3c 018e 4fbe
00000330: e8af a63d b05a 47be c41b f8bd 53ce 42be
00000340: f19f 063d 7c39 303e 95e0 54be df61 c8bc
00000350: c06f 023e 40c3 43be ff37 e2bd 5fc7 ab3d
00000360: 33f9 98be b80e 74bd 7239 123e 3052 c53d
00000370: ce64 bebd d926 b23c f82d eabd 209b 6f3b
00000380: cd43 a63d 9647 ce3c 888b ccbd dc8a a3bd
00000390: b2e5 083e 4e54 a3bc 69c5 ccbd 9c29 1bbd
000003a0: 44cd da3d 18a2 f5bd 9a76 1f3e b69e 12bc
000003b0: f9de 163e 7b96 b2bd 8a57 923a 8b67 5c3c
000003c0: 39c3 5cbd 3b3b 16be c3e2 b03c 4ab5 7b3d
000003d0: fa46 b53c a452 f13d d8ef 1a3d 2ac0 dcbd
000003e0: 5228 273e a5f0 e4bc 92b1 17be a1b0 483e
000003f0: 9fe9 7dbd 1d05 cc3d 734a 12be 8853 2f3d
0.14951144 0.014336023 0.17542507 -0.058230415 -0.03688885 0.056065533 0.1048008 -0.18007389
0.0035963755 -0.123086505 0.09382218 -0.0963148 -0.10867068 -0.20350616 -0.2010347 -0.028799333
0.05942394 -0.018431595 -0.19311607 0.11625304 0.17822233 -0.102101676 0.0025017778 -0.18973793
-0.097119816 0.1571616 0.030946203 0.16815054 -0.060998708 0.047440194 -0.060569756 -0.20016572
-0.08318064 -0.09768951 -0.09040207 0.1533843 -0.12494568 0.049085367 0.18170546 0.14361197
-0.063545465 -0.048942998 0.060316525 -0.032701116 0.05030889 -0.08984942 0.095410496 0.11053594
0.013668164 0.0043995385 0.19146863 -0.10568094 -0.17784797 -0.08944413 -0.030156367 -0.16089189
0.21311708 -0.090686575 -0.110705495 -0.052544728 0.044230055 0.12222082 0.06598989 0.07997391
-0.012055241 -0.12862256 -0.08993103 -0.07114939 0.14717445 0.05106107 -0.063437425 0.09518906
0.044057027 -0.0047961455 0.19725296 -0.06399769 0.048172936 0.109019846 -0.06593282 -0.025456125
0.0332961 -0.042887617 0.10763213 0.20594257 -0.03438936 0.10904563 0.11028795 -0.05491932
-0.1626224 -0.29812542 0.06690484 0.13775213 -0.26078004 -0.11861738 0.014308067 -0.018123792
0.11543815 0.06684548 -0.12279689 -0.11966518 -0.14561959 -0.008811631 -0.14473951 0.19572613
0.13913378 -0.10481966 0.0053157704 -0.031461783 0.21584417 -0.09206862 0.10870193 -0.14615206
0.06686695 -0.06666834 0.10047272 -0.14971004 -0.09609482 0.21390118 0.026781587 0.13070832
0.15137404 -0.0039939 -0.03955476 0.14975415 -0.14105044 0.039499644 -0.004441414 0.1359445
-0.054602873 -0.07007261 -0.0073158597 0.101659365 0.05551607 0.10219578 -0.08554755 -0.06819597
0.14294979 -0.06348542 0.14382412 -0.12412377 0.14000407 0.15534312 -0.14459504 -0.030388542
-0.032649662 0.07381292 0.054293655 -0.017126147 0.009615983 0.0115308445 0.24689768 -0.019728728
0.058065414 0.09169904 0.01283546 -0.10533871 -0.0551084 0.13677563 0.11218289 -0.17454197
-0.09091077 0.094136946 -0.1748575 0.05730142 0.014306428 0.053870793 0.19942021 -0.117855124
-0.07556007 0.022784678 -0.03192361 0.106468484 -0.15760863 -0.12251381 -0.18331659 0.09722252
-0.1117836 -0.004658335 0.12989885 0.036066167 0.04697333 0.13722286 0.008845916 -0.06259483
0.00043876152 0.03063935 0.16114597 -0.080293626 0.047607716 0.1744671 -0.07523568 0.053905953
0.012319761 -0.15472957 0.05325629 0.16530935 0.071643434 0.3437187 0.2346403 0.0146212075
-0.09991212 -0.12101725 0.02271719 -0.20269014 0.0813902 -0.19468188 -0.12114671 -0.19024019
0.032867376 0.17209429 -0.20788796 -0.024460731 0.12737942 -0.1911745 -0.11045837 0.083876364
-0.29877624 -0.05958435 0.14279726 0.09634817 -0.09296571 0.02174704 -0.11434549 0.0036560968
0.08118401 0.02518062 -0.09987551 -0.0798547 0.13368872 -0.01993766 -0.099985905 -0.03788148
0.106836826 -0.119938076 0.15572587 -0.008948972 0.14733495 -0.08720108 0.0011165005 0.013452421
-0.053897116 -0.14671032 0.021592503 0.061452188 0.02212857 0.117833406 0.03782639 -0.1077884
0.16323975 -0.02794678 -0.14813831 0.19598629 -0.061990377 0.09961913 -0.14286213 0.04280427

rnn.bias_ih f4 [96]
00000000: 3b41 a43d 5bee 9fbd ffed f23d a549 06bd
00000010: b15e 79bd 01c7 37be b43f cebd 596c 8ebd
00000020: 64e8 f0bd cc73 013c 83e7 fd3c 8e32 c5bd
00000030: f452 463b 8181 b9bd 949e 2cbd 45a0 743d
00000040: 0422 c4bd cacc 2dbe db25 253e b9c4 043c
00000050: 68a1 fe3d 2ada 573c 9328 e0bd 5dc1 4abd
00000060: b3df 323e 0c36 ffbd 5f8a c0bd 2d70 fd3d
00000070: d1b5 053e 3c7b febd e62b 38be fd81 0a3e
00000080: 8311 cdbc c142 f83c 1d07 64bd 4791 253d
00000090: bd42 503d 22a5 1bbe ec15 c63c 87bf 03be
000000a0: 96ed 35bd 01c7 31be 398d 493d 0a47 81be
000000b0: 23a4 58be 1aef 52bd e8c9 34be 2b1e 01be
000000c0: aae8 ca3d 9f5c 283d a214 fcbc f0bc dfbc
000000d0: ff64 b8bd 0966 9b3d f523 4e3c e0f5 04be
000000e0: 1200 0b3d b8a5 f8bd 17fc d5bc e6f9 2bbd
000000f0: 635e b53b 7ab1 73be 3f3a 82bd 9847 ecbc
00000100: 2446 1bbd 30a5 0f3e ae44 cebd f9d6 163d
00000110: c4d8 993d 6054 113e 0402 babc 2284 babd
00000120: 0fac 3bbd ead6 11be 43b0 36bd c178 f3bd
00000130: bb1a 873d fd99 a93d 2f42 393e 9a50 a83d
00000140: 1e30 0fbe 4821 cabd d850 2f3e 5984 f3bd
00000150: e0b9 05be 8ee4 fcbd 3b68 753d 9b90 3f3e
00000160: 6f73 c4bc a793 1a3e cc91 50bd ca47 03be
00000170: 684c a1bd 607e 98bd 9ad1 063d 5a8c b13d
0.08020254 -0.078091346 0.118618004 -0.032785077 -0.06088132 -0.17947008 -0.10070744 -0.069542594
-0.11763075 0.007901143 0.030994182 -0.09628783 0.0030261846 -0.09057904 -0.04214342 0.059723157
-0.095768005 -0.16972652 0.16127722 0.008103543 0.124331295 0.013174573 -0.10945239 -0.04950081
0.17468147 -0.124614805 -0.09401392 0.123749115 0.13057639 -0.12425849 -0.17985496 0.13526149
-0.025032764 0.030305268 -0.055670846 0.04042175 0.050844897 -0.15199712 0.024180375 -0.1286603
-0.044416033 -0.1736107 0.049206946 -0.2524951 -0.21156363 -0.051497556 -0.17655146 -0.12609164
0.099076584 0.041103955 -0.030771557 -0.027311772 -0.090036385 0.07587821 0.012581815 -0.12984419
0.033935614 -0.12140983 -0.026121182 -0.04198637 0.0055349334 -0.2379817 -0.06358766 -0.028842732
-0.03790869 0.14027858 -0.10071693 0.036826108 0.07512048 0.14192343 -0.02270604 -0.091072336
-0.045818385 -0.1424214 -0.04460169 -0.11888266 0.06596895 0.08281324 0.18091653 0.082184985
-0.13983199 -0.09869629 0.17120683 -0.11890478 -0.13059187 -0.12348281 0.059913855 0.18707506
-0.023980824 0.15095387 -0.050920293 -0.12820354 -0.078759015 -0.07445979 0.032914735 0.08669348

rnn.bias_hh f4 [96]
00000000: bf1b 1b3c 6499 803d bfb6 263e 9d25 b43d
00000010: 47d6 8dbd e246 b7ba b3f6 213d 57a4 84bc
00000020: 5ce4 acbd f3de 84bb 6098 9c3d 8e54 bebc
00000030: 4910 35bd 89f7 153e f544 f63d 9181 3abe
00000040: df71 cdbd c9ea 0d3e 9140 0e3e 98e1 213e
00000050: c0e3 86bc 9b5b afbd 5a66 34be 57da 5abc
00000060: 39b9 8fbd 978e b13d 6a3f 85bd 60cc 8cbc
00000070: ba00 f7bd ad85 253c 01ea 9b3d e921 023e
00000080: f411 48bb 221d 2dbb d523 ba3d 9fc4 6bbe
00000090: 6996 5f3b 3c78 2ebe e619 1ebc e8b7 7bbd
000000a0: ff5f 22be bc2a 17be 7f15 00bd fb86 99be
000000b0: 1c06 39be 11f6 11be 2edf f7bc 95f5 fc3c
000000c0: 6856 12be 2078 6a3c 8e1a 34be 7e61 8e3d
000000d0: 21ac 4fbe 29df 63be 97a2 82bd c7a6 3fbe
000000e0: 902b a539 406e d33d 2bba 2ebd de17 47bd
000000f0: 9b7d afbc 5162 c5bd 3d36 ccbc cb40 82bd
00000100: 5c8d a03d 2dc2 bb3d 4a46 2ebd cf85 26bd
00000110: b095 4ebe 73e5 123e e792 f3bd 4818 db3d
00000120: 90a0 9cbd 2141 b53d 7ef7 85bd 3104 9e3d
00000130: 4fdd b23d db3a 8d3d 7d47 5fbe ed9c 763d
00000140: e1a0 47bb 7668 573e 9368 5d3c a83e 36be
00000150: 1f06 413e ea20 e63d 560e f9bd 7b11 103e
00000160: d081 493e aa12 c5bc c007 69bd 5e16 ad3d
00000170: 1992 203e 43b2 073e f3a7 94bd 07e0 87bc
0.009467064 0.06279257 0.1628065 0.08796237 -0.06925636 -0.0013982917 0.03954191 -0.016191645
-0.084419936 -0.004054898 0.07646251 -0.023233678 -0.044204984 0.14645208 0.12024871 -0.18213488
-0.10031485 0.13859095 0.13891818 0.15808713 -0.016466022 -0.08562394 -0.17617169 -0.01335772
-0.0701775 0.08669775 -0.06506236 -0.017187297 -0.120606855 0.010102672 0.07612992 0.12708248
-0.003052828 -0.002641507 0.09088866 -0.23024224 0.003411675 -0.17038053 -0.009649729 -0.061454684
-0.15856932 -0.14762396 -0.0312705 -0.29985794 -0.18068737 -0.14254023 -0.030257788 0.030878821
-0.14290774 0.014310867 -0.17588255 0.06952189 -0.20280506 -0.22253098 -0.06378668 -0.18715964
0.0003150371 0.10323763 -0.042658012 -0.048606746 -0.021422198 -0.09637893 -0.024928207 -0.063600145
0.07839462 0.091678955 -0.0425475 -0.040654954 -0.20174289 0.1434534 -0.11893254 0.10697991
-0.07647812 0.08850313 -0.06541346 0.07715643 0.087336175 0.068959914 -0.21804614 0.06020825
-0.0030460882 0.21035942 0.013513702 -0.17797339 0.18849991 0.112367466 -0.121609375 0.14069168
0.19678426 -0.024056751 -0.056892157 0.08451532 0.15680732 0.13251595 -0.07258596 -0.016586317

fc2.weight f4 [6, 32]
00000000: a8e9 7a3e 7f9b 09bd 542e f23c 4c4b 8b3e
00000010: 2f66 98be 1eb8 c03d 7091 af3d 37dd 1cbd
00000020: 09b0 3f3d b6f2 a23d cbfa 333d faf3 bc3d
00000030: 1663 d9be c7e5 143e a179 03bd 5952 b73c
00000040: 7997 a7be 0a61 8c3e 37bf 053e 72b8 98bd
00000050: 2dbd 64bb 2132 803b a5c3 fe3c e9f1 7dbc
00000060: 4f4f 623e 6644 013e 759c c2bd 1275 bcbe
00000070: 5f80 fe3d adbf f1bd 6c9f 2e3e d7de 133d
00000080: ee8e df3d 107c 913d efcf cf3c 1e6a a03d
00000090: 39c0 f9bd 0219 dcbd 9ab8 50bd 3780 7f3e
000000a0: fecd 243e ba35 263d 0847 3e3e 758e 6d3d
000000b0: f657 1e3e 1ac3 5dbe 4a8a 8bbe e41a aa3c
000000c0: fe00 843d 16ce 0abd 5233 833c 3b4f 07be
000000d0: 3421 73bd b88b 76bc 940a bcbe ab9c 963d
000000e0: 19c4 39be 2cc3 393e 5183 4fbe 2339 cbbe
000000f0: d927 fa3d 82d0 903c d58c c2bd adc7 143e
00000100: 2e3f 903d e750 313e 372c a5be ce6a 91bd
00000110: 7bcd f5be f272 813e 0fb3 a93d 2b0c 16be
00000120: 1cd6 673d fa74 723d d73d fc3d b2b7 19be
00000130: 8a2d 62bd d66e 09bd 67e9 8f3d eb3e 6b3e
00000140: f34e 813e 9226 7ebe 546f 41bd f5da e5bd
00000150: e6ba b23c d178 613d 7e4d 8d3e 025f 033d
00000160: 69a2 cebd 9b48 09bd 8ac3 3fbe 8e9c 4f3e
00000170: 79e7 7e3e 81bf b2be 6221 6fbe 567a 623b
00000180: 2912 00be bdca 78bd 63de dfbd b586 06be
00000190: a9ec 11be e2ef d53c 4ca0 42be 854e 923e
000001a0: 0849 323d 26b5 a2bd 3e96 923e 35c4 863d
000001b0: febe d83d c099 7a3e b4f8 97bb 66be 8e3e
000001c0: b481 cdbd 79e4 683e bc14 573d 815e a1be
000001d0: aab4 7c3d e05d 973e 3023 443e d10a 62be
000001e0: be8b 36bd 6054 56be e593 5e3e 0884 c73d
000001f0: b416 5bbd 0811 71bc 233a f8bd 5f39 753e
00000200: a873 c63e 3f60 b33c 28bd bc3e 5e7f 333e
00000210: fcee 14bc b3ba e03d 2058 b5bd 1e24 1fbe
00000220: 42eb 2fbe fb33 1fbd 654a afbd 9991 963e
00000230: 96e0 8dbd 6654 373e 1ce6 853e c320 38bd
00000240: 145c a5bc edec 4dbd 9bee 65be 2f25 94be
00000250: 6ced 1f3e 9bda c4bb 7b4a 72be f244 62bd
00000260: 5321 8ebd bd11 013e b1c6 163e 9ff9 613c
00000270: ef19 1f3e 1862 febc c394 15be 8243 793e
00000280: eb7f 9e3e 2b2b 613e 6f23 1abd 19c6 4c3e
00000290: a057 0abe 00ad be3c 348a b0be 3c09 c53d
000002a0: 958a c2be 3eb0 3ebe 5f9b abbe 1846 7b3e
000002b0: 3fc1 433e c96b 4d3e 0a0c e5be afda 00bf
000002c0: d98c ccbd 51f6 dbbd 8516 ba3e c42f 3dbe
000002d0: c785 bb3e 9e10 593e d462 76be d321 fb3e
000002e0: 10db 90bc 44ec 73be ee1a b83d 0f65 023e
000002f0: d0f4 373e 0031 a9be aca1 393e 3079 0abe
0.24503195 -0.03359556 0.029563107 0.27205884 -0.2976546 0.094101176 0.08572662 -0.038296904
0.04679874 0.0795645 0.043940347 0.09226222 -0.4245841 0.14540778 -0.032098416 0.022378134
-0.32732752 0.27417785 0.13061224 -0.07457055 -0.0034902797 0.003912226 0.03109915 -0.01549957
0.22100566 0.12623748 -0.09502498 -0.36808068 0.124268286 -0.118041374 0.17053002 0.03610119
0.109159335 0.07103741 0.025367705 0.0783274 -0.12194867 -0.10746957 -0.0509573 0.24951254
0.16094205 0.04057858 0.18581784 0.057997186 0.15463242 -0.21656457 -0.27253944 0.020764776
0.06445502 -0.033887945 0.016015682 -0.13213818 -0.059357837 -0.01504796 -0.3672682 0.07354101
-0.18141212 0.18140858 -0.20264937 -0.3969203 0.122146316 0.01767755 -0.09499518 0.14529295
0.070433006 0.17316018 -0.32260296 -0.071004495 -0.48008332 0.2528301 0.08286106 -0.14653079
0.056600675 0.05919359 0.123164825 -0.1501148 -0.05521921 -0.033552967 0.0702694 0.2297322
0.25255546 -0.24819401 -0.04722531 -0.11223403 0.021817636 0.05504686 0.27598184 0.03207303
-0.10089571 -0.033516508 -0.18726936 0.20274565 0.24892987 -0.3491173 -0.23352578 0.0034557781
-0.12506928 -0.06074022 -0.10931089 -0.13137324 -0.14250435 0.026115362 -0.19006461 0.2857553
0.04352668 -0.079447076 0.2863025 0.06580392 0.10583304 0.24472713 -0.004637802 0.27879637
-0.100345045 0.22743405 0.05251001 -0.31517413 0.061695732 0.29563808 0.19154048 -0.22074439
-0.044566862 -0.20930624 0.21736105 0.0974198 -0.05348845 -0.014713533 -0.12120464 0.23947667
0.38760114 0.02189648 0.36863065 0.17529055 -0.009090181 0.1097311 -0.08854699 -0.15541121
-0.17179587 -0.03886793 -0.085591115 0.29407957 -0.06927602 0.17903289 0.26152122 -0.04495312
-0.020185508 -0.05027478 -0.22454302 -0.2893462 0.15617913 -0.006007505 -0.23661225 -0.055241533
-0.0693995 0.12604423 0.14724232 0.013792424 0.15537237 -0.031052634 -0.1460753 0.24342158
0.3095697 0.21989124 -0.03763145 0.19997443 -0.13509989 0.023275852 -0.3448044 0.09620902
-0.37996355 -0.18621919 -0.33516976 0.24538457 0.19116686 0.20060648 -0.44735748 -0.50333685
-0.09987802 -0.107403405 0.36345306 -0.18475252 0.36625502 0.21197745 -0.24061137 0.49049243
-0.017682582 -0.23820597 0.089895114 0.12733863 0.17964482 -0.33045197 0.18128079 -0.13522792

fc2.bias f4 [6]
00000000: fbf8 173d 0f49 bb3c 61d0 403b a32c 0c3c
00000010: 134c df3c de96 5c3d
0.03710268 0.022861985 0.0029421079 0.008555564 0.027257955 0.053854816
