results/alpha_0.75/agent_1500.pt (torch, 43191 bytes, 8 tensors)

fc1.weight f4 [32, 104]
000000 49 f5 63 3e 53 e1 81 be dc f6 60 bc c8 b9 44 bc
       0.22261538 -0.2536722 -0.013730731 -0.012007184
000010 d9 6d a7 3d ee cb 69 bd 72 72 df bd 94 a3 35 3d
       0.08175249 -0.057079248 -0.109105006 0.044345453
000020 1e d0 e7 3d d6 26 45 3e 68 9a 93 3e 38 67 82 bd
       0.11318992 0.19253096 0.2882874 -0.06367344
000030 b1 b6 81 be be f3 e2 3d fc c9 13 3e e0 22 87 bd
       -0.25334695 0.110816464 0.1443252 -0.06598449
000040 cb ed 97 be 37 e6 de 3d 43 04 5a bd 9e 3b a8 bc
       -0.2967361 0.10883754 -0.05322672 -0.02053624
000050 0b 8e 59 bd 96 16 4d bd 02 72 fa 3d d3 49 1a 3d
       -0.05311398 -0.050070368 0.122287765 0.03766806
000060 eb cc 82 be b6 b6 80 be 2e 25 06 be 8a c5 ff bb
       -0.25546965 -0.25139397 -0.1310012 -0.007805531
000070 f4 43 86 bd aa f7 43 be b9 42 20 bd c8 d5 19 3e
       -0.0655593 -0.19137445 -0.03912613 0.15022957
000080 38 b2 22 be 67 09 8a bd 84 c0 62 be 32 e3 b8 3d
       -0.15888298 -0.067400746 -0.22143751 0.09027709
000090 e4 f8 e3 3c 57 f2 10 bc b6 7b ed bd 80 00 77 be
       0.027828641 -0.008846841 -0.115958616 -0.24121284
0000a0 af ee 5d 3c 94 22 67 3d 18 4a 26 3e 3e 4f e1 bd
       0.013545676 0.05642946 0.16239202 -0.110014424
0000b0 d3 d1 05 be c5 2d 14 be f8 c9 18 3d ba c2 3a 3b
       -0.13068323 -0.14470585 0.037301987 0.0028497414
0000c0 e3 84 83 3d a2 21 09 3c 95 8b a3 3d 40 53 1c be
       0.064218305 0.008369835 0.079856075 -0.15266132
0000d0 ee 75 31 bd f8 ac 20 be 83 6d 28 bd a7 2b 15 bd
       -0.043325357 -0.15690982 -0.041120064 -0.036418583
0000e0 e3 16 35 bd 29 55 c0 3d 44 0b 1d 3d 38 55 27 3d
       -0.04421128 0.09391243 0.03834082 0.040852755
0000f0 15 c6 9b bd 5b 52 92 bd b3 77 e9 bc eb 53 2f 3d
       -0.076061405 -0.07144614 -0.02849946 0.04280464
000100 29 ac c2 3d 2b e6 2c 3e 6f 90 88 3d 2c 62 eb bd
       0.09505493 0.16884677 0.066681735 -0.11493334
000110 10 22 c1 bc 29 04 2e be 1f 21 03 be 9a fa a3 bd
       -0.023575813 -0.16993774 -0.12805603 -0.08006783
000120 b8 01 23 be c7 63 86 bd e1 6a 84 bd c5 49 0a be
       -0.15918624 -0.06562 -0.06465698 -0.13504703
000130 25 a2 1a bc 1e 81 a5 bc ca 29 8d bd f6 61 12 bd
       -0.009438072 -0.02020317 -0.06892736 -0.035737954
000140 0b 72 ad bd 0d 74 8a bd b9 15 6e 3d ad e2 21 be
       -0.084690176 -0.06760416 0.058126185 -0.15809126
000150 ab 09 03 3e ee a0 02 3d 70 2b f5 3c 40 51 bc 3d
       0.12796657 0.031891756 0.02992794 0.09195185
000160 95 3c 79 3d f7 fd be 3c a1 89 04 3d 90 86 92 bd
       0.06084879 0.02331446 0.032357816 -0.07154572
000170 cc f2 3b 3d a8 f0 c4 3d 39 e1 a1 bd 53 29 25 bd
       0.045885846 0.09616214 -0.07904286 -0.040322613
000180 1f 66 90 3d 6e 5b 15 bc 32 43 4e be 56 e2 f0 3d
       0.07050728 -0.009116037 -0.2014282 0.1176192
000190 7b f7 8d 3b 8b 1e 83 bc 71 1e 83 3c 9d a4 04 3e
       0.0043324805 -0.016005775 0.016005727 0.1295342
0001a0 d0 ad df bd d6 40 99 3d 29 43 e7 bd 55 32 f6 bd
       -0.10921824 0.074830696 -0.11292107 -0.12021319
0001b0 7d b8 ea 3d da 06 b9 bd 92 09 a2 be c3 24 a3 3d
       0.114609696 -0.0903451 -0.31647927 0.07965996
0001c0 8a e1 d2 bd c3 5c 31 3e 07 52 b4 bc 25 a0 a4 bd
       -0.102969244 0.17320542 -0.02201177 -0.08038358
0001d0 cc 49 1b 3d d9 f9 8a 3d 55 fd 06 3e 09 80 09 bd
       0.037912175 0.06785936 0.13182576 -0.03356937
0001e0 b5 2a e3 bd 1d 59 96 bd df 2a ab be f2 14 18 be
       -0.1109213 -0.07341216 -0.33431146 -0.1485174
0001f0 e9 7b a0 3d 46 91 a3 3c dd 62 fc 3d b5 1d 05 3c
       0.07836134 0.019966733 0.12323544 0.0081247585
000200 1f a3 7f 3e d6 20 4e 3d 7a da 4d bd 37 c9 13 3d
       0.2496457 0.050324284 -0.050257184 0.036080565
000210 38 04 c4 bd 51 b5 f0 bd a4 0b 9e be 55 ec 35 bd
       -0.09571117 -0.11753333 -0.30868256 -0.044414837
000220 db 7e b5 bd be e8 03 3e 34 89 de bd e4 06 c7 3d
       -0.088620864 0.12881753 -0.10866013 0.09718111
000230 ab 55 4a bd 36 bf 01 3e a7 96 b7 bc c8 a9 0e 3e
       -0.049398106 0.12670597 -0.022410704 0.13931954
000240 e2 24 f4 bc 9c 9c 50 3d a2 05 00 3c 80 fa cb 3d
       -0.029802743 0.050930604 0.007813843 0.099598885
000250 4a b7 ba 3e 00 67 a4 3d ab c0 a3 bd 32 90 be bd
       0.36467963 0.08027458 -0.07995733 -0.09304847
000260 3a 80 72 bd bb ba ca bd 1d ee 53 be 50 43 99 3a
       -0.059204318 -0.09898897 -0.20696302 0.0011693034
000270 39 48 14 be 6b aa fb 3c 50 76 2c 3d 7d e1 06 bd
       -0.14480676 0.03072091 0.04210502 -0.032929886
000280 83 ef d6 bd 42 d8 d9 3d ab 78 ba 3d 64 9a 1a bb
       -0.10494902 0.10636951 0.09105047 -0.002359056
000290 a5 1e 0c bc 25 92 43 be ea 37 8f bd 20 23 b2 bc
       -0.008552228 -0.19098718 -0.06993087 -0.021745265
0002a0 6e 16 f9 bd e4 c0 04 bd 2f 39 e7 ba 0f 31 d7 bb
       -0.12162481 -0.032410517 -0.0017640943 -0.0065671275
0002b0 ea b4 c7 bb d1 05 6d bd 10 a8 93 bd 22 d5 37 bc
       -0.0060945647 -0.057866875 -0.0720979 -0.011220248
0002c0 96 86 f3 3d 06 77 83 be 10 cc 11 be 7a be 08 3d
       0.118909046 -0.25676745 -0.14238 0.033384778
0002d0 91 f3 37 be 88 b9 6d 3d e8 e2 cc 3d 3b 49 33 3d
       -0.17964007 0.058038265 0.100042164 0.04377101
0002e0 68 12 8b 3d fe 1b cf 3c a6 7d dc 3a 1f ae 9d bd
       0.0679062 0.025281902 0.0016822114 -0.076992266
0002f0 d5 41 4b bd 20 2e 2f 3e 50 3f 4e bd 84 8b cd bd
       -0.04962333 0.17107439 -0.05035335 -0.10036376
000300 1a 87 98 3d 24 07 e5 3d c8 b9 02 bd bc 53 fe bc
       0.074476436 0.111830026 -0.031915456 -0.031045787
000310 ef 1f 14 be 44 0c 4e bd 95 40 33 3e 14 dd 98 bd
       -0.14465307 -0.050304666 0.17505105 -0.07464042
000320 e9 86 f9 bd 86 34 d6 3c ad ca db 3c 71 1c b2 3d
       -0.12183935 0.026148092 0.026830042 0.08696831
000330 38 c4 b5 bd 11 8d 03 bd eb 81 c5 bd b6 74 17 be
       -0.088753164 -0.032116953 -0.096439205 -0.14790615
000340 95 91 bc bd a5 ba f7 3c 93 a6 be bd 33 c6 3b 3d
       -0.09207455 0.030240366 -0.09309115 0.045843314
000350 c7 54 05 be 27 b5 e2 3d 2a dd 74 bc f0 d1 3a 39
       -0.13020621 0.11069708 -0.014945308 0.0001781655
000360 26 78 ef bd a8 48 3a 3e 1a 8e 95 3d 58 2d 89 3d
       -0.11692838 0.18191779 0.07302494 0.06698102
000370 38 20 1a bd e4 12 93 bd 1b ea 2b 3e ff 02 1b 3c
       -0.037628382 -0.071813375 0.16788523 0.009461164
000380 97 97 71 bd 3b 93 45 3e 9e ec 9c bd c6 41 92 3d
       -0.058982458 0.19294445 -0.07662319 0.071414515
000390 f8 c4 89 bd 90 0a 82 3d 41 a4 26 bd 2d c7 00 3e
       -0.06727022 0.06349671 -0.04068399 0.1257598
0003a0 df 08 ea bd 5e ad d4 bb 7f 22 7f 3e c3 e8 3a be
       -0.11427473 -0.0064903935 0.24915503 -0.18252854
0003b0 0c cb b9 3d 55 9a 8d 3d fc a0 fb bd df d7 ec bc
       0.09071931 0.06914202 -0.12286565 -0.02891153
0003c0 d0 e7 86 3a 7a 67 f6 3c 4a bb 91 bd fa e1 26 bd
       0.0010292474 0.030078638 -0.07115801 -0.04074285
0003d0 7c e0 fe 3b 0d 68 56 bd 04 9b 9c 3d e0 0f 3c be
       0.0077782255 -0.052345324 0.076467544 -0.18365431
0003e0 2f 91 7f 3e 52 d8 e0 bd 6e df b9 3d 60 4c b5 3d
       0.24957727 -0.1097876 0.09075819 0.08852458
0003f0 78 07 9e 3d 8e 94 53 be 49 e0 1f bd 72 f9 c6 bc
       0.07716268 -0.20662138 -0.039032254 -0.024288867

fc1.bias f4 [32]
000000 20 71 02 3d e1 40 3f bd 37 fe 86 bc 95 fe e0 3c
       0.031846166 -0.046692733 -0.016478641 0.027465144
000010 78 ce 7e b9 0b ec 73 3d 9f fc 7b 3c 01 ff 94 bc
       -0.00024300243 0.05955128 0.015380054 -0.018188002
000020 30 48 07 3d 65 81 9a 3c 58 97 0e 3d cc 1b 2e 3c
       0.033027828 0.018860528 0.0348123 0.0106267445
000030 1e e6 be 3c 26 d8 d2 3d 09 41 01 3b 55 a3 1d 3d
       0.023303088 0.10295133 0.0019722602 0.038485844
000040 8d fc 2a 3d 40 09 83 bd 73 fc a3 3d a4 a1 95 3d
       0.041744757 -0.06398249 0.08007135 0.07306221
000050 c1 60 b8 3d 94 b1 c2 bb 11 2d cf 3c 2e b7 0f 3d
       0.09002829 -0.005941579 0.025290044 0.035086803
000060 27 9f 69 3c e2 0e 9a 3c 5c 0b 32 3d 16 11 a5 3d
       0.014259136 0.018805925 0.043467864 0.080598995
000070 23 01 96 3a ae ae c4 3c c1 ec 50 3c 0a ce 95 3d
       0.001144443 0.024009075 0.012751759 0.073146895

rnn.weight_ih f4 [96, 32]
000000 fd 76 2e be 08 6a 67 bd 0c 4c 2f bd 57 03 4b be
       -0.17037578 -0.056497604 -0.042797133 -0.19825493
000010 3c 19 2a 3e 80 03 fc 3c 55 7d 00 bd 43 8a 4d be
       0.16611189 0.030763388 -0.031369526 -0.20072274
000020 7c ef ab bc 8d bf 60 be 34 ef 4a be 73 3e 74 bd
       -0.020988218 -0.21948071 -0.19817811 -0.05962987
000030 f0 da bc 3d 1f a2 d0 bd ce b7 09 be b1 32 38 bd
       0.092214465 -0.10187172 -0.13449022 -0.044970218
000040 31 1c ea bd f3 18 56 bc ec 39 10 3e 81 82 dc bd
       -0.11431158 -0.013067472 0.14084595 -0.10767079
000050 7c 6d 85 3d 4e c7 1a 3b 0d cd 18 3d 0e f5 10 3d
       0.06515023 0.002361733 0.037304927 0.035389952
000060 96 5a 6a be 78 39 05 be c2 8c 0f 3e 2c 8d db bd
       -0.22886118 -0.13010204 0.14018539 -0.10720286
000070 9a 34 27 3d a5 e3 2d 3e 1d ee 59 be f9 a9 63 bd
       0.04082165 0.16981371 -0.2128224 -0.05558202
000080 9b 55 0a 3d df fc 69 be 08 83 cf bd 51 de d9 bd
       0.033773046 -0.22850369 -0.10132414 -0.106381066
000090 e0 20 d8 bd 14 22 47 3e e9 64 8d 3d 55 11 ce 3d
       -0.105531454 0.19446594 0.06904013 0.100618996
0000a0 31 95 a3 3d df 52 3c bd 0c 27 02 be 88 11 92 bd
       0.079874404 -0.04597747 -0.12710208 -0.0713225
0000b0 0a a9 bd 3d 9f 91 12 3d df 2d 70 be 24 ee 82 3e
       0.09260757 0.035783406 -0.23454998 0.25572312
0000c0 ed 56 7a 3d 3b 23 80 bd 11 72 f6 3d ec 59 cb 3d
       0.061118055 -0.0625672 0.12033475 0.099292606
0000d0 cc 1c 19 be ea 72 fd bc 00 ff 0a 3e 99 af 84 be
       -0.14952391 -0.030938584 0.13573837 -0.2591522
0000e0 8d b5 bb 3d cf c8 63 3c c7 17 c2 3d 4e b8 02 3e
       0.091654874 0.013902857 0.094771914 0.12765619
0000f0 b0 25 bf 3c dc 20 76 3d 41 4f 78 be 20 80 90 be
       0.0233334 0.06008993 -0.24248983 -0.28222752
000100 4b 62 4b 3c a8 73 87 bd 9d f7 dd bd 32 2b 07 be
       0.012413572 -0.066138566 -0.10838244 -0.13200071
000110 d2 88 ae 3d aa 62 e1 bd f1 c3 1f 3d fe 00 bb bd
       0.0852219 -0.11005147 0.039005224 -0.091310486
000120 1d 3e 5c be bc aa b7 3c 29 08 93 be ae 68 23 3d
       -0.2150807 0.02242028 -0.28717163 0.039894752
000130 3d 2f fe bd ac c8 8e bd a5 22 cd bd e2 a9 91 be
       -0.12411354 -0.06971869 -0.100163735 -0.28449923
000140 b0 17 26 3e 87 16 31 be 06 41 51 be fb fd 03 3d
       0.16219974 -0.1729375 -0.2043496 0.032224637
000150 6c 4e 2c be 16 53 a4 bd bc 09 5c be 7d 0c 8d 3d
       -0.1682679 -0.0802366 -0.21488088 0.068871476
000160 cd fe 43 bd cc b5 92 be 56 08 eb bc d7 2d cc bd
       -0.04785042 -0.28654325 -0.028690498 -0.09969681
000170 11 56 a3 3c 77 75 2e 3e f4 51 37 be 06 5a 55 3e
       0.0199385 0.17036997 -0.17902356 0.20835122
000180 c2 d3 28 bd e2 c9 b7 be 6a 40 39 3d 58 e0 d6 ba
       -0.041217573 -0.35896212 0.045227446 -0.0016393764
000190 2c 8c 01 3e 3e af 8a bd f1 5b 26 3d 23 a2 45 3e
       0.12651128 -0.06771706 0.040615026 0.19300131
0001a0 27 df f5 bd bb d0 1f 3c 3f 8a 8c 3e 93 7c b6 3d
       -0.120054536 0.009754355 0.27449223 0.089104794
0001b0 dd f4 f8 bd 06 f5 e9 3d 7e 5f 46 bd 4c b6 9c be
       -0.12156079 0.11423688 -0.048430912 -0.3060783
0001c0 12 a6 6a bd bc e0 8a 3d 0d cb b3 3c ab 4d 77 3c
       -0.057287283 0.06781146 0.021947408 0.015094201
0001d0 6c 34 57 bd e2 e8 52 3d 38 21 aa bc 57 f8 50 3e
       -0.052540228 0.051491626 -0.020767793 0.20407234
0001e0 3c bb 80 be a5 15 56 be f1 d7 07 3e 98 90 00 be
       -0.25142848 -0.20906694 0.13265969 -0.12555158
0001f0 b5 c7 15 be fa d7 0a 3e 59 c1 a0 bd 29 33 9c 3c
       -0.14626963 0.13558951 -0.07849378 0.019067364
000200 74 37 99 bd 16 44 5f be fc f9 b4 3d 63 4c 26 bd
       -0.0748128 -0.21803316 0.08836743 -0.04060019
000210 e3 cb 7e bd ad 10 31 3c ed 12 45 3c cd 13 f9 bd
       -0.06220616 0.0108071985 0.012028438 -0.1216198
000220 d7 bc 91 3e 9f 05 d7 3d 77 43 a5 bb 48 19 0c bd
       0.28464386 0.10499119 -0.005043443 -0.034203798
000230 b4 14 74 3e 7d e4 69 3d d1 cc 93 bc 8f 6f 61 3e
       0.23836023 0.05710267 -0.018042 0.22015212
000240 cc 92 20 3e 98 2e a2 39 d9 6f 8d bd b5 e5 db 3d
       0.15680999 0.00030933763 -0.06906099 0.107371725
000250 cc c3 30 3e 75 22 1b 3d b9 49 fd bd 4c 9a ca bd
       0.1726219 0.037874658 -0.12367577 -0.09892711
000260 5c d9 a3 bd 2c fe 0a 3c dd e7 67 3e 1d ad f5 3d
       -0.080004424 0.008483451 0.22647043 0.11995909
000270 06 30 26 bd 6a e4 99 3d af 19 24 bb 79 51 76 3d
       -0.040573142 0.0751427 -0.0025039723 0.060136292
000280 e0 6d 40 3e 0e 20 00 3e 27 45 2a 3d fd d8 44 3e
       0.18791914 0.12512228 0.041569855 0.192234
000290 93 77 8c bc 24 3c 85 3d 71 f0 65 bd 1c 6b 57 3e
       -0.017146861 0.065056115 -0.056137506 0.21036953
0002a0 7b a1 de 3d d9 65 2d 3e e2 cb a1 bd cf ef 56 3e
       0.10870644 0.16933383 -0.07900216 0.20989917
0002b0 b3 ab 54 bd 9b 6b 74 3d c3 48 76 3d 2b 18 82 3e
       -0.051921558 0.059672933 0.060127985 0.25409064
0002c0 ec 59 d1 3d b5 b2 35 3e 63 a6 1d 3e 5a cd 41 3e
       0.10222229 0.17743953 0.15395503 0.18925992
0002d0 1c cc 46 3e e0 c9 c1 bc b8 e3 fc bd 77 f4 2f 3e
       0.19413799 -0.023655832 -0.123481214 0.171831
0002e0 e2 41 26 bc c6 f8 d4 3d 1f 25 8d bd b2 70 7c bd
       -0.010147544 0.10399012 -0.06891846 -0.061630912
0002f0 2f d4 32 bd 5f 83 2f 3e c2 63 3a bd fa 9a dc 3d
       -0.043659385 0.17139958 -0.045505293 0.10771747
000300 86 54 48 3d 70 cf a2 bd 37 24 e2 be 67 c6 b2 bb
       0.048908733 -0.07949722 -0.44168255 -0.0054557803
000310 11 89 b7 be c4 aa a3 bd 55 45 7b 3d c5 ef 4f be
       -0.3584676 -0.07991555 0.061345417 -0.20306309
000320 95 94 ef bc a2 dd da bd e8 2e b2 3d ad 1d 1f 3e
       -0.029245654 -0.10686804 0.08700353 0.15538664
000330 b8 1b 67 be 97 b9 72 bd 44 20 85 3d b4 9b 7a be
       -0.22569168 -0.059259024 0.06500295 -0.24473459
000340 9e fa aa bd 1b 56 4e bd 1e 38 52 3c 60 6c 11 3d
       -0.08348583 -0.050375085 0.012830762 0.035503745
000350 48 6f ff 3b 9c 70 e5 bd 6c aa 1a be 36 7b a6 bd
       0.007795248 -0.11203119 -0.15104073 -0.08128969
000360 54 c4 92 be 64 8a b1 be 6f bb 04 3e 29 2a 6e be
       -0.2866541 -0.34675896 0.12962125 -0.2325827
000370 10 69 a9 be 69 3b 23 3c 71 d5 cb bd 42 6d 4a 3e
       -0.3308797 0.009962895 -0.0995282 0.19768241
000380 1d 2d 94 be a8 16 4f 3d 08 c7 ea 3d 99 ca e5 bd
       -0.2894067 0.050558716 0.114637434 -0.11220283
000390 d6 46 47 3e 39 ab 83 be 72 ea 90 3b 0b 62 6d be
       0.19460616 -0.2571657 0.0044224793 -0.23181932
0003a0 47 25 13 be b0 42 a5 bd 70 b7 23 be b1 16 e3 bd
       -0.14369689 -0.0806936 -0.15987945 -0.110883124
0003b0 04 56 55 be b1 e1 c3 bd 01 08 23 3d 65 19 a7 3e
       -0.20833594 -0.095645316 0.039802555 0.32636562
0003c0 55 c6 f6 bb e8 56 47 bd 3c fb 3e be b8 bc 82 be
       -0.0075309672 -0.048666865 -0.18650526 -0.25534606
0003d0 21 6e 26 3c 6d d0 de bd 5e 10 42 3d eb 97 38 3e
       0.010158093 -0.10879598 0.04737889 0.18026702
0003e0 3a ed 8b be 68 54 d8 3d 61 08 46 3d 62 ba 8a be
       -0.27329427 0.10562974 0.048347834 -0.27095324
0003f0 3c a1 9a 3d 00 df 6b be 47 08 7b bd c7 08 eb 3d
       0.07550284 -0.23034286 -0.06128719 0.114762835

rnn.weight_hh f4 [96, 32]
000000 a7 fb c1 bd cd 0c b1 be df 33 33 3d 6b 20 1a bd
       -0.09471827 -0.3458008 0.04375064 -0.037628572
000010 7b 36 39 be 21 c4 1e bd 06 b5 b2 bd b1 23 da bd
       -0.18087189 -0.03876126 -0.08725934 -0.10651339
000020 16 33 b4 bd ef 9d 9f 3d 59 97 a9 3d a7 5c 6a 3e
       -0.08798806 0.07793795 0.082808204 0.22886907
000030 96 93 e7 3d 47 e2 5c bd 17 a9 3e 38 5a 93 b3 bc
       0.11307447 -0.053926732 4.5457007e-05 -0.021920849
000040 13 69 37 3d 74 ab 0c 3e 24 b9 90 be d5 20 9c 3d
       0.04477794 0.13737279 -0.2826625 0.0762345
000050 31 e8 f4 3d 25 ed e3 bd c1 db ac 3d 09 5e 53 3e
       0.119583495 -0.11129216 0.08440352 0.2064134
000060 81 36 5c 3e 86 47 2f be be 01 aa 3d 55 e6 3e 3e
       0.21505167 -0.17117128 0.083011135 0.18642552
000070 00 f0 d4 3d 36 01 56 be 60 0e 33 3d b4 f2 b1 bd
       0.10397339 -0.208989 0.04371488 -0.0868887
000080 b0 a4 fe bc 76 d0 e6 3b a8 95 bb bd ba ca a9 bd
       -0.031084388 0.0070438934 -0.09159404 -0.0829062
000090 8b 96 16 be e3 ec b1 3d 70 66 b1 bd e3 0f 73 be
       -0.14705865 0.08687761 -0.086621165 -0.23736529
0000a0 7b c3 74 3d 5f ed 31 be dc 0f c5 bd 13 17 06 3e
       0.059756737 -0.17375706 -0.096221656 0.1309474
0000b0 e2 1c a7 3d fb e4 6d bd e9 eb 12 3d 87 a0 56 be
       0.08159806 -0.0580797 0.035869513 -0.20959674
0000c0 ca ad 67 be 31 9e 14 bc 0f 19 28 be 5a 59 ba bd
       -0.22624889 -0.009070919 -0.16415809 -0.09099074
0000d0 59 83 6a be c5 76 6c 3c 48 df 11 bc fb ce 98 bd
       -0.22901668 0.014432614 -0.008903332 -0.074613534
0000e0 31 02 20 3c 45 9a f1 3d 23 de da bd 8b 05 01 bc
       0.0097661475 0.11797003 -0.106869005 -0.007874857
0000f0 ba d6 ad 3d a3 3b 52 3e 09 80 03 3d ab da 99 bd
       0.084882215 0.20530562 0.032104526 -0.07512411
000100 3c a6 e3 ba 99 82 72 bd 51 e3 0e 3e ec 6f ca 3d
       -0.0017368267 -0.05920658 0.13953902 0.09884629
000110 0b 79 29 3e 4c c6 0a 3e a2 c4 82 be 16 a1 ab bc
       0.1655008 0.13552207 -0.25540644 -0.020950835
000120 61 0c 43 be fa 0f fd 3d b8 03 60 3e 10 59 96 3d
       -0.19047691 0.12356563 0.21876419 0.07341206
000130 cf f6 c7 3d 30 e9 99 bd bf e0 95 3d f6 63 1a be
       0.09763872 -0.0751518 0.073182575 -0.15077195
000140 04 c5 0e 3d 5f e5 18 3d 4c 5a 78 be 3b 68 55 3e
       0.034855857 0.03732812 -0.24253196 0.20840542
000150 4e 3f f6 bd 9c 26 3f be 0c cf 83 3d cb 6f 56 bd
       -0.12023793 -0.18667072 0.064359754 -0.052352708
000160 9a a5 4f 3e c9 cd c4 bc cc d3 8b bd 26 dd 5b 3e
       0.20278016 -0.024023907 -0.068275064 0.2147108
000170 a6 e9 13 3d 71 94 b6 bd e4 68 fa 3d 4b 9f d3 3d
       0.036111496 -0.08915032 0.122270375 0.10333117
000180 94 c0 86 3e d9 f1 99 bd d6 8c 04 3e 3e 5e ec 3c
       0.263188 -0.07516832 0.1294435 0.028853532
000190 02 27 d1 bd 0c b0 bd 3d ae f1 12 3e 78 e8 62 3d
       -0.10212518 0.09262094 0.14350006 0.05539748
0001a0 89 ae 3e be 39 20 fa bd 43 10 ef 3d c4 da 32 be
       -0.18621267 -0.12213177 0.116730236 -0.17466265
0001b0 e3 b4 42 3d ee ec f6 bd a1 b4 02 bd 9d 26 b1 3d
       0.04753579 -0.120569095 -0.031910542 0.08649943
0001c0 a1 7f 6f 3e c0 85 12 3e 80 ab c9 3d 85 05 14 3e
       0.2338853 0.14308834 0.09847164 0.1445523
0001d0 8c f7 b8 3d 2a c0 1e 3c 1d 3d b3 3d 67 f1 f7 bc
       0.09031591 0.00968937 0.08751891 -0.030266477
0001e0 65 3a 18 3d 5d ac 15 be 88 ce 98 bc 4d 10 a2 3d
       0.037165064 -0.14616533 -0.01865317 0.079132654
0001f0 70 9f cd 3d 96 6d 25 bd 94 e1 ab 3d 07 55 0e 3c
       0.10040176 -0.040387712 0.08392635 0.008687264
000200 0b c1 bd bc 04 ea 2d 3d d8 31 12 be 0e 27 59 be
       -0.02316334 0.042459503 -0.14276826 -0.21206304
000210 46 55 60 be 22 50 a8 bd 4f bd ab bc ef 70 bd bc
       -0.21907529 -0.08218409 -0.020964293 -0.02312514
000220 62 d2 f3 bb f8 cf fd bd 1b f6 11 3e 21 02 8d 3c
       -0.007440851 -0.123931825 0.14254038 0.01721293
000230 e2 02 58 bc 70 4b 3e bd 8b 33 f0 bd 16 4c 5e 3e
       -0.013184281 -0.04645866 -0.11728581 0.21708712
000240 f6 6c 25 3e ed 50 43 3d ae a8 12 3e ed 37 4e bc
       0.16154847 0.0476846 0.14322159 -0.012586576
000250 9c 41 8e bc 9e b1 02 3b c3 4c 8a bc 89 83 d4 bd
       -0.01736527 0.0019942294 -0.016882306 -0.10376651
000260 89 eb 14 bd 9d 58 82 bd b0 4c a7 bc 33 a6 dd bd
       -0.036357436 -0.06364558 -0.02042231 -0.108227156
000270 04 53 4d bd 17 35 83 3e 1c 06 5d 3d 67 c1 81 3d
       -0.050127998 0.25626442 0.053960904 0.06335717
000280 42 57 1d 3e 05 df 2e 3d 9c 28 22 be 17 b8 04 be
       0.15365317 0.042693157 -0.15835804 -0.1296085
000290 f1 99 f1 3d 49 56 3b be b3 4d bb 3d 05 a5 ed bd
       0.1179694 -0.18294634 0.09145679 -0.116037406
0002a0 d3 85 91 bd bc bb 15 be 85 67 70 3e 37 b9 48 be
       -0.07105603 -0.14622396 0.2347699 -0.19601904
0002b0 4f 96 cb 3d 82 1a 85 bd a4 3a 4e bd ff 8e 58 3e
       0.099407785 -0.064991966 -0.050348893 0.21148299
0002c0 6e 4c 07 3e 79 7b e8 3c f8 b1 24 3e 7b d0 c1 bd
       0.1321275 0.028379189 0.16083515 -0.094635926
0002d0 c6 83 19 3d 55 a2 71 3b b4 e4 6b bd a3 b8 ce 3d
       0.037479185 0.003687044 -0.057591155 0.100938104
0002e0 a8 71 42 be 1c 7d 55 be 80 34 50 3e d5 9b 26 be
       -0.18988669 -0.20848507 0.20332527 -0.16270383
0002f0 31 04 22 be 75 d4 5a 3e d3 5f 62 3d d7 2d e0 3d
       -0.15821911 0.21370108 0.055267166 0.10946243
000300 40 33 05 bd 1e c0 09 bd a8 6b 9e be 80 ff 4a 3e
       -0.03251958 -0.033630483 -0.3094151 0.19824028
000310 70 ec 16 3d f0 73 b9 3d 66 cb ff 3c ae fa a7 be
       0.036846578 0.090553164 0.031224918 -0.3280844
000320 2e 3d 96 be cb eb 6d 3d 4c 81 69 3e 5e 82 67 3d
       -0.2934355 0.058086198 0.22803229 0.056520812
000330 0d 4a ca 3d 37 84 3e be 6f 41 5b 3d 7c ff f6 3c
       0.09877405 -0.18605123 0.0535292 0.030151121
000340 80 67 1a be 92 a4 13 be c8 cc c2 3d b1 50 9d 3d
       -0.15078545 -0.14418247 0.09511715 0.07681406
000350 cd 77 cf bd 8d cb 4d be c0 44 50 3e 3b 78 44 bd
       -0.10130272 -0.2009718 0.20338726 -0.047966223
000360 0b e6 a8 3d 46 c5 5f 3c 3f 19 94 be 24 1f 83 3e
       0.08247002 0.0136578735 -0.2892551 0.25609696
000370 28 1f f8 3c 0b 1d 82 bc 57 96 af 3d 9c 4d 38 be
       0.030288294 -0.01588299 0.08573597 -0.17998356
000380 e5 67 d6 3c 2f 52 b1 3d 3b 03 73 be 8b 86 49 be
       0.026172588 0.086582534 -0.23731701 -0.1968023
000390 89 6f 1c bc 39 cb f8 bc 4e f8 b0 3d 9e 3c b0 3a
       -0.009548076 -0.030370342 0.0864111 0.00134458
0003a0 24 f7 fe bc db 67 f5 bc 91 66 00 3d de 5e 91 3d
       -0.031123705 -0.029956749 0.031347815 0.070981726
0003b0 cf 3c a5 3b 7f 7d a1 bd c3 a0 fc bc 63 2d 05 be
       0.0050426493 -0.078852646 -0.030838376 -0.13005595
0003c0 06 a1 e9 bd 46 53 26 bd 53 e6 d8 3d e5 1b 73 3e
       -0.11407666 -0.04060676 0.10590806 0.2374111
0003d0 59 67 1b bd 0d 67 01 be cf 08 13 bc b1 dd 30 bd
       -0.037940357 -0.12636967 -0.008974268 -0.04318017
0003e0 39 96 90 3d c5 69 f4 3d 68 7f 72 3d 08 0b a6 3b
       0.07059903 0.119342364 0.059203535 0.005067233
0003f0 b8 90 9e 3d 3a 20 9b 3d 18 ac 05 bd 46 2a 89 bd
       0.07742447 0.07574506 -0.032634825 -0.06697516

rnn.bias_ih f4 [96]
000000 fc 96 13 be 6d d1 d7 3d ba 3f 17 be 4c ea 55 3d
       -0.14413065 0.10537992 -0.14770404 0.052225396
000010 10 9b 04 3e b0 33 b8 3d 02 61 d2 3d 56 8b ac 3d
       0.12949777 0.089942336 0.10272409 0.08425014
000020 5e 52 52 3e ea 1e 13 bd 30 2c ce bd bd c5 f1 3d
       0.20539233 -0.035918154 -0.10067022 0.11805294
000030 2a 61 0a be b2 05 17 3e cb fb 24 3d d1 3e 80 3d
       -0.13513628 0.14748266 0.04027919 0.06261981
000040 ba da ce bd 9a 86 d1 bd cc d0 b1 3d 05 25 4c 3d
       -0.101003125 -0.10230751 0.08682403 0.049839992
000050 a5 1f f1 bd a8 5e fd 3c 78 63 00 be b9 c5 cd 3d
       -0.11773614 0.030928925 -0.12537944 0.10047478
000060 a4 b1 53 3d a3 06 1c bd 3b 97 23 be d6 e5 8a 3d
       0.051683083 -0.038092267 -0.15975659 0.06782119
000070 19 a9 ac 3c b8 5e d8 3b 7a c0 2a 3e d3 9a 02 3e
       0.021076726 0.006603088 0.16674986 0.12754373
000080 65 de c9 bd 33 b4 92 be 24 d7 c6 3c 5b a7 79 be
       -0.098568715 -0.28653106 0.024272509 -0.24380247
000090 ad c6 10 be 55 50 38 be 22 4c 73 bd 3b 65 c7 3d
       -0.14138289 -0.17999394 -0.059398778 0.09736105
0000a0 e4 42 1d 3d 2b a2 84 be f7 34 54 bd 38 21 08 be
       0.03839387 -0.25904974 -0.051808324 -0.13293922
0000b0 4f 37 fc bd 3d e9 ef b9 a0 15 cc bd 5d c6 36 be
       -0.12315237 -0.00045759408 -0.09965062 -0.17849107
0000c0 20 c8 9c be e3 41 17 be e5 b1 8d be 8d b0 1b bd
       -0.30621433 -0.14771228 -0.27674785 -0.03801017
0000d0 8f 4e 47 be d2 4d 9b be 51 d0 af bd 1a 7a a1 3c
       -0.19463561 -0.3033281 -0.08584655 0.019711543
0000e0 03 e9 51 be 7b a6 66 bd a6 42 02 be 22 dc 73 be
       -0.20499043 -0.056311112 -0.12720737 -0.23814443
0000f0 77 0d 0d 3a a5 90 97 bd 2f b3 f1 bd 16 9c 05 be
       0.00053807296 -0.07400636 -0.11801755 -0.13047823
000100 1a 3d c8 3d 44 d9 f2 bd be f3 75 3c 05 24 2f bd
       0.09777279 -0.118578464 0.015011726 -0.04275896
000110 cd 50 07 bb 9d 55 9c 3c 17 33 b2 3d 10 86 03 3e
       -0.0020647526 0.019083792 0.08701151 0.1284411
000120 2f ac da bc 4c cd 0a be f1 75 40 3e 91 17 f0 bc
       -0.026693432 -0.13554877 0.18794991 -0.029308112
000130 07 5b 1b 3d 6e 22 22 3e 73 db be bd 14 95 3d bc
       0.037928607 0.15833446 -0.093192 -0.0115711875
000140 2a 0b cf 3d ed ad ef bc ae 83 33 3e 66 0c e2 bd
       0.10109551 -0.029257739 0.175307 -0.11037521
000150 1b bc 00 be 37 c5 29 be 0b 9c 1b be 13 b7 8d bd
       -0.12571757 -0.16579138 -0.15196244 -0.06919684
000160 47 3d 8e 3d 47 4d e7 3d 65 5e c1 3d 70 2f 02 be
       0.069452815 0.11294036 0.094418325 -0.12713408
000170 1c ac 19 3e e5 77 1d 3e d9 a4 d4 bd df bb 5d 3e
       0.15007061 0.15377767 -0.10383005 0.21653698

rnn.bias_hh f4 [96]
000000 13 d4 25 bd 5c da a6 bd 34 13 01 3e 25 95 9e 3d
       -0.040485453 -0.081471175 0.12604982 0.07743291
000010 39 7a 76 3d 50 3a 2c 3e 7c 48 4a be 82 02 e0 3d
       0.060175154 0.1681912 -0.19754213 0.10937978
000020 bd ff 39 3d ee 64 1d 3e 11 aa 6a bd 21 86 f6 3d
       0.045409907 0.15370533 -0.057291094 0.12037302
000030 ca 1f 4b 3e f1 d4 cb 3d ad 23 50 3e 2d da ab 3d
       0.19836345 0.09952725 0.20326109 0.08391223
000040 2c b0 e9 3b aa 4e 4c 3e 39 8b 03 3d 9b 2a fa bd
       0.007131597 0.19951883 0.032115195 -0.122151576
000050 ba 60 0a 3e 79 60 3f be df 21 ed 3d 2a 53 d4 bd
       0.13513461 -0.18689145 0.11578726 -0.10367425
000060 ac fa 16 3e 76 34 8b 3d 66 93 9c 3d f9 8c a0 3d
       0.14744061 0.067971155 0.076453015 0.078393884
000070 f7 9e 11 3e 86 07 c6 3c c0 dc 23 3e 45 9e bf 3c
       0.14220797 0.02417351 0.16002178 0.023390898
000080 e9 89 ff bd 4a 40 4e be f0 68 2c 3e 87 27 34 be
       -0.12477476 -0.20141712 0.16836905 -0.17593203
000090 7e 93 e6 3d 4e da 06 be 49 e3 68 be f6 76 d6 bd
       0.11258601 -0.13169214 -0.22742952 -0.10471909
0000a0 85 e0 52 3d 91 c9 cc 3c 40 08 35 3d cc ce ed bd
       0.05148365 0.024998458 0.04419732 -0.11611709
0000b0 05 53 ca bd 55 9c 03 be 04 31 6d be ea 72 8d be
       -0.09879116 -0.12852605 -0.23163229 -0.27626735
0000c0 c6 ed 2e be 7b 16 26 be 49 ef 65 be 9a f1 44 bd
       -0.17082891 -0.16219513 -0.22454561 -0.04808197
0000d0 20 a4 5d be 2e 5c 10 bd ab 31 1c be 75 da 00 bc
       -0.2164464 -0.03524416 -0.15253322 -0.007864584
0000e0 a3 27 64 bc 0c 25 63 be 47 8f c0 bd cc d0 f3 bd
       -0.013925466 -0.22182101 -0.09402328 -0.11905059
0000f0 fd c2 f4 bc 24 f7 33 be 36 9a 0f bd 35 a1 f9 bd
       -0.029878134 -0.17574745 -0.035059176 -0.12188951
000100 6e 4a 0b be 4f 55 27 bd 3e 1c 87 3d cd 94 1f bd
       -0.13602611 -0.04085284 0.06597184 -0.038960267
000110 e1 2a f8 3c 0c 1d 0f be 63 76 ab 3d 19 cf 73 3d
       0.030293884 -0.13975924 0.0837219 0.059523676
000120 fc c4 0b be 5e fa 0e bd 05 ed 56 3d 13 1f 33 3e
       -0.13649362 -0.034906738 0.052472133 0.17492323
000130 9c 1b 37 bd 68 6e dc bd 84 73 85 3d 25 d9 22 3e
       -0.044704065 -0.10763246 0.065161735 0.15903147
000140 c1 ea f0 3d ad 33 00 3e 2d ba 06 bd bd 0d 1f be
       0.11763526 0.12519713 -0.032892395 -0.15532584
000150 9b 82 0e 3e 04 da 0f be fc c8 bb bc b8 c9 30 be
       0.1391701 -0.1404801 -0.022922985 -0.1726445
000160 e7 1c 4b be b1 49 29 be df b9 69 3e 21 8a d4 3c
       -0.19835244 -0.16532017 0.2282481 0.025944771
000170 83 04 15 be fa 8d 4c 3d 7a 6e d0 3d b5 e2 94 bd
       -0.14552502 0.049940087 0.10177322 -0.072698034

fc2.weight f4 [6, 32]
000000 3e cf 82 3e 89 d1 c5 3d 55 79 e9 3d 1e ad c4 3e
       0.25548738 0.09659106 0.114000954 0.38413328
000010 a6 3d d3 3d 49 2e 6c be 71 3c 46 be 3d 6d 83 3b
       0.10314493 -0.23064531 -0.19358994 0.004010825
000020 df a7 22 3e 79 bb 14 bd 1d c5 97 3e 4a 20 8c 3c
       0.1588435 -0.0363116 0.29642573 0.01710524
000030 db 24 06 3e 2b 6f 7d 3d 8b 18 2b be 33 70 29 3d
       0.13099997 0.061873596 -0.16708581 0.041366767
000040 2b 3f 84 3d 91 f2 af 3e 6a 30 10 be 26 8f 23 be
       0.06457361 0.3436475 -0.14080968 -0.15972576
000050 ef 06 a0 bc 83 6e 56 3c b6 e0 97 bd 45 0c 77 3d
       -0.019534556 0.0130878715 -0.07415907 0.060314436
000060 e3 15 4f bd e1 45 a6 be 4e 03 d7 3d 05 6f bc 3b
       -0.050557982 -0.32475188 0.10498677 0.0057505392
000070 f8 f7 26 3c 78 36 7c be 6f 32 9c bc 3f 9b 29 be
       0.010190956 -0.24630153 -0.019067017 -0.16563128
000080 0d a8 0c 3d f4 93 e7 bd b0 33 63 bd 3c e5 4f bd
       0.034339953 -0.11307517 -0.055469215 -0.050755724
000090 aa 03 63 bd 17 dc 43 3e 8d f9 ba 3c 4b 1d 96 3e
       -0.055423416 0.19126926 0.022824073 0.29319224
0000a0 f4 bc 48 be 22 11 6c 3c 95 66 7f 3d ee bb 4e be
       -0.1960333 0.014408382 0.06235369 -0.20188877
0000b0 1c a9 27 3e 7d 85 8a 3c c3 1a 9e bd 99 cb b5 be
       0.16373104 0.016909355 -0.07719948 -0.35506895
0000c0 b1 c7 d9 bd ee f6 7a 3e d3 d3 46 be 91 b2 83 bd
       -0.10633791 0.24508259 -0.19416742 -0.06430543
0000d0 72 87 06 3e eb 7b 86 bd 39 cd 85 3e 79 53 0a be
       0.13137606 -0.06566604 0.26133135 -0.13508405
0000e0 90 0e cc be aa fd 1d be 40 65 89 bc 19 6a 01 be
       -0.3985486 -0.15428796 -0.016771913 -0.1263813
0000f0 89 2d 91 be 13 e8 5f be 80 15 e4 bc 78 1b c7 3d
       -0.28355053 -0.21865873 -0.027842283 0.09722036
000100 c1 be 0b 3b fd 10 28 3e 9b 84 12 be 50 ad 9c be
       0.0021323415 0.1641273 -0.14308397 -0.30600977
000110 8e d9 c4 bd 89 80 26 be 62 0a 97 be e8 60 2c 3d
       -0.09611808 -0.1625997 -0.2950011 0.042084605
000120 12 3f 9f 3d 0b 74 2d 3e a5 d9 a6 bd 8d 79 26 3e
       0.077757016 0.16938798 -0.08146981 0.16257305
000130 f8 3f 66 3e f3 91 1f 3e 6a f4 f1 3c 4d 0b 0d be
       0.2248534 0.15583019 0.029535491 -0.13773842
000140 1a a1 9a bd b7 fc ad bd 95 7b de 3e 2d 7c 88 bd
       -0.07550259 -0.08495467 0.4345366 -0.0666431
000150 fe 17 71 3d 69 90 10 3e 61 d3 a8 be e8 43 d7 3d
       0.05886077 0.14117588 -0.3297377 0.10510999
000160 50 c7 25 be 7c 5c 98 3e 6e c7 69 3e d7 ec 51 3d
       -0.16189313 0.2975806 0.22829983 0.05125126
000170 0e d8 2a be 58 da 4d be 61 b6 df 3d 29 24 9f be
       -0.16683981 -0.20102823 0.10923458 -0.31082276
000180 94 1f d1 be c4 d2 64 3e 2d 7f 30 bd 14 db c7 bd
       -0.40844405 0.22346026 -0.043090034 -0.09758583
000190 1d 90 ec 3d 09 02 69 be b3 ee e4 3d fe ba a3 3d
       0.11550925 -0.22754683 0.11178341 0.0799465
0001a0 3c c8 13 3e ec 35 87 3e 10 cb 8b be f1 f5 ad bd
       0.14431852 0.26408327 -0.27303362 -0.08494175
0001b0 0c e4 91 bc 80 af 76 3e a5 27 1c bd 4f f7 85 3e
       -0.017808937 0.24090385 -0.038123745 0.26165244
0001c0 02 ea 11 be cb c7 92 3e 8f fa ed 3d ab 39 74 be
       -0.14249423 0.28668055 0.11620056 -0.23850124
0001d0 40 6f 54 bd 26 b1 33 3e f9 53 84 3d 02 f2 38 bc
       -0.05186391 0.17548046 0.06461329 -0.011288168
0001e0 8b f6 f9 bd 0f 61 fb 3d d7 24 8f bc df 9f 3d 3e
       -0.122052275 0.12274372 -0.017473621 0.18518017
0001f0 4d 77 79 be 93 6c 3f bd 03 3f a7 be a1 52 8f 3d
       -0.24361916 -0.046734404 -0.32665262 0.06998182
000200 cc 88 be 3e 3d 6b 3a be c4 dc 8e 3d d8 f1 6c be
       0.37213743 -0.1820497 0.069757015 -0.23139131
000210 89 99 52 be 32 2d b8 3c e5 0b 24 bd 57 59 3a 3e
       -0.20566382 0.022482488 -0.040050406 0.18198143
000220 48 5a 11 be 63 6f 1d 3e af 94 0c 3e 62 48 90 3e
       -0.14194596 0.15374522 0.13728593 0.28180224
000230 da 7d 80 bd 70 c6 3a 3e 05 87 ea 3d c6 f3 41 3d
       -0.06274004 0.1823976 0.11451534 0.04735162
000240 f9 6c 3c 3d f1 b9 1f 3e b0 11 66 be 4e a8 80 be
       0.046002362 0.15598275 -0.22467685 -0.25128406
000250 90 58 92 3c a1 8d 00 3e d0 72 c5 bd 1e 3c 9d be
       0.017864496 0.12554027 -0.09641039 -0.30709928
000260 97 35 8c 3e 6d e3 5f bc 32 36 fd 3c 11 a9 39 3a
       0.27384636 -0.013665062 0.030909631 0.0007082383
000270 25 03 a1 bd b8 04 3b 3d 5b df e9 bd 7e 4a f8 3d
       -0.07861928 0.045658797 -0.11419555 0.12123583
000280 28 7d a4 3e 0b 4d 1e 3e c1 07 89 be fc 75 8c 3e
       0.32126737 0.15459077 -0.26763728 0.27433765
000290 6d 93 9a 3c 53 44 b5 be ba 05 d9 ba db 1e c6 3d
       0.018869126 -0.3540369 -0.0016557493 0.09673854
0002a0 d6 d1 3b be 85 d2 26 3d 3f 9f c6 3b fb 96 48 bd
       -0.18341765 0.04072811 0.006061464 -0.04897211
0002b0 55 e7 44 3e 87 4e 96 be 07 f4 24 be 83 44 9a 3e
       0.19228871 -0.29356787 -0.16108714 0.30130395
0002c0 fa ad 99 3e 79 91 eb 3d 6b b9 b2 bd de 72 c8 3d
       0.30015546 0.11502356 -0.08726772 0.09787534
0002d0 2f bb 04 3f 70 ff da 3d 4f d2 a6 bd 5f c9 8c be
       0.5184812 0.10693252 -0.08145582 -0.27497384
0002e0 c6 fc 33 3e 39 2c 99 3e 3f a9 26 bf de 19 b0 3c
       0.17576894 0.29916552 -0.65102 0.02149671
0002f0 45 0f 8f 3c 51 83 cf 3b b6 6f 9d 3e 69 57 cb 3d
       0.017463336 0.006332793 0.3074929 0.099287815

fc2.bias f4 [6]
000000 49 fa a0 3c 2d 56 6e 3c bd b5 b1 bb 82 36 8a 3c
       0.019650595 0.014546913 -0.005423276 0.016871694
000010 2b bf ff 3c 9b 17 33 3d
       0.031219086 0.043723684
