results/alpha_0.75/agent_final.pt (torch, 43205 bytes, 8 tensors)

fc1.weight f4 [32, 104]
00000000: d426 703e cf25 89be 231a 18bd 166a 06bd
00000010: ce9c 423d bf0c 35bb 3ecc 92bd 94a3 353d
00000020: f647 c03d a18c 223e 689a 933e 3867 82bd
00000030: b4d4 7cbe cb8b d23d fcc9 133e e022 87bd
00000040: fb9d 6fbe 37e6 de3d afee 7bbd ca30 dcbc
00000050: 0b8e 59bd 9616 4dbd c7ee ec3d 0897 a23c
00000060: 8ddf 85be 7f26 81be 7735 0dbe 2668 a8bb
00000070: f443 86bd 475d 44be 8adf 2dbd bdf3 203e
00000080: 38b2 22be 6709 8abd 84c0 62be 32e3 b83d
00000090: e4f8 e33c 57f2 10bc b67b edbd 8000 77be
000000a0: afee 5d3c 9422 673d 6022 203e 0ecd f0bd
000000b0: 0224 11be e62b 2abe 063e 163d 709c 0fbc
000000c0: 45b2 563d 4f40 ba3b 39ee 743d 6f4a 28be
000000d0: c3e4 94bd f8ac 20be acd3 12bd eb89 36bd
000000e0: e316 35bd 2955 c03d 7abe 303d 1958 283d
000000f0: 15c6 9bbd 5b52 92bd 09fe 10bd eb53 2f3d
00000100: d40b b73d 25f0 253e 6f90 883d 2c62 ebbd
00000110: f02e f7bc c143 40be 6846 09be f0b9 a5bd
00000120: 0112 2abe f4ed 80bd e16a 84bd 62af 0abe
00000130: 4480 31bc 7bc9 62bc ca29 8dbd f661 12bd
00000140: 0b72 adbd 0d74 8abd b915 6e3d ade2 21be
00000150: ab09 033e eea0 023d 702b f53c 4051 bc3d
00000160: 4161 5c3d 3e4d 8f3c 4b08 eb3c d499 98bd
00000170: be24 383d 174f bc3d 5bb0 adbd 19a1 41bd
00000180: c38e 8c3d 027b 90bc 50af 5ebe 18ab b73d
00000190: 0141 7c3c d0fa 9abc ad71 53ba 63c8 043e
000001a0: 9882 e8bd 05e2 943d 97bd e2bd 400c ccbd
000001b0: fdf2 953d f341 b1bc ad45 9bbe c324 a33d
000001c0: 1068 5ebd f5c5 f03d 0752 b4bc 25a0 a4bd
000001d0: c21c 183d 0cdf 863d 55fd 063e 0980 09bd
000001e0: ce21 3ebd 1d59 96bd 272b abbe 2d73 19be
000001f0: e97b a03d 4691 a33c 254f ff3d 8daa 6f3c
00000200: 17b6 7d3e d6ab 633d 5f7f 80bd 2e88 e33c
00000210: 3804 c4bd a6d1 edbd 43cd 9ebe e884 4abd
00000220: db7e b5bd bee8 033e 3489 debd e406 c73d
00000230: ab55 4abd 36bf 013e a796 b7bc c8a9 0e3e
00000240: e224 f4bc 9c9c 503d 59db 2e3b a23d eb3d
00000250: d078 bb3e 0067 a43d feca bfbd 5ac6 83bd
00000260: 5aee 94bd 3df9 c0bd eced 52be 0fa2 4c3c
00000270: 262e 20be 6baa fb3c 928f 163d 4391 43bd
00000280: 83ef d6bd 42d8 d93d d785 bd3d f611 c5ba
00000290: a51e 0cbc 2592 43be 379b 61bd 2023 b2bc
000002a0: 2f23 e8bd c824 15bd 2f39 e7ba 0f31 d7bb
000002b0: 06f1 98bb 9962 52bd 2182 97bd 1552 c3bb
000002c0: 74f4 d93d abb7 87be 10cc 11be f585 0e3d
000002d0: f26c 20be c72e 543d e8e2 cc3d 3b49 333d
000002e0: 6812 8b3d fe1b cf3c a67d dc3a 1fae 9dbd
000002f0: d541 4bbd 202e 2f3e 503f 4ebd 848b cdbd
00000300: 47cb 6e3d d7d6 003e 8fe0 1abd b9e0 7abc
00000310: 12d0 1cbe 3330 27bd 67bf 343e ce90 8ebd
00000320: 4dbf 0cbe 6c29 e43c e121 043d 47a3 c93d
00000330: a63b aebd 4d92 e9bc 3cc8 e5bd 4c8a 0dbe
00000340: fa6e f0bd d03a 443d e253 69bd 316e 143d
00000350: 8def c6bd aa40 053e 0764 5e3b f0d1 3a39
00000360: b471 f1bd b9e9 063e 1a8e 953d 582d 893d
00000370: c7ae 19bd b4e0 a2bd 1bea 2b3e ff02 1b3c
00000380: 14d4 24bd 3b93 453e 2790 92bd 44d4 853d
00000390: f8c4 89bd 900a 823d 73a1 24bd 5acd 013e
000003a0: 6e66 e6bd 05d4 a5bb 545f 803e a6cb 3bbe
000003b0: 0ccb b93d 26ae 8e3d dffa ecbd d80c 1fbd
000003c0: d0e7 863a 7a67 f63c 4abb 91bd fae1 26bd
000003d0: 7ce0 fe3b 0d68 56bd 049b 9c3d e00f 3cbe
000003e0: 2f91 7f3e 52d8 e0bd ed3e 9d3d 5b86 ff3d
000003f0: c8e2 a33d 3266 29be c991 efbc 1405 34bc
0.23452312 -0.26786658 -0.0371343 -0.032816015 0.04751282 -0.0027626005 -0.07167862 0.044345453
0.093887255 0.15873958 0.2882874 -0.06367344 -0.24690515 0.1028057 0.1443252 -0.06598449
-0.23400109 0.10883754 -0.061506923 -0.026878733 -0.05311398 -0.050070368 0.11568981 0.019847408
-0.26147118 -0.25224683 -0.13789926 -0.0051393686 -0.0655593 -0.19176207 -0.04244951 0.15717979
-0.15888298 -0.067400746 -0.22143751 0.09027709 0.027828641 -0.008846841 -0.115958616 -0.24121284
0.013545676 0.05642946 0.15638113 -0.11757861 -0.14173892 -0.16618308 0.036680244 -0.008765325
0.052416105 0.0056839357 0.0597975 -0.16434644 -0.07270195 -0.15690982 -0.035846397 -0.044565123
-0.04421128 0.09391243 0.043150403 0.04109964 -0.076061405 -0.07144614 -0.035398517 0.04280464
0.08937803 0.16204889 0.066681735 -0.11493334 -0.030173749 -0.18775846 -0.13405764 -0.080921054
-0.1660843 -0.06295386 -0.06465698 -0.13543466 -0.010833804 -0.013841982 -0.06892736 -0.035737954
-0.084690176 -0.06760416 0.058126185 -0.15809126 0.12796657 0.031891756 0.02992794 0.09195185
0.053803686 0.017492887 0.028690478 -0.074512154 0.044956915 0.09194773 -0.08480903 -0.047272775
0.06863167 -0.01763678 -0.21746564 0.089681804 0.0153963575 -0.018918425 -0.000806595 0.12967066
-0.11353034 0.07269672 -0.11071318 -0.09963274 0.07321737 -0.021637892 -0.30326596 0.07965996
-0.05429846 0.11756507 -0.02201177 -0.08038358 0.0371368 0.065855116 0.13182576 -0.03356937
-0.046418957 -0.07341216 -0.3343136 -0.14985342 0.07836134 0.019966733 0.124662675 0.014628065
0.24776493 0.055583797 -0.06274294 0.027774896 -0.09571117 -0.11612253 -0.31015977 -0.049443156
-0.088620864 0.12881753 -0.10866013 0.09718111 -0.049398106 0.12670597 -0.022410704 0.13931954
-0.029802743 0.050930604 0.0026681034 0.11486365 0.3661561 0.08027458 -0.093648896 -0.06434317
-0.072720245 -0.094225384 -0.20598572 0.01248981 -0.15642604 0.03072091 0.036758013 -0.047745954
-0.10494902 0.10636951 0.092540435 -0.001503526 -0.008552228 -0.19098718 -0.055079665 -0.021745265
-0.11334836 -0.03641203 -0.0017640943 -0.0065671275 -0.004667404 -0.05136356 -0.07397867 -0.0059607127
0.10642329 -0.26507315 -0.14238 0.03479572 -0.1566656 0.051802423 0.100042164 0.04377101
0.0679062 0.025281902 0.0016822114 -0.076992266 -0.04962333 0.17107439 -0.05035335 -0.10036376
0.05829933 0.12581955 -0.037811812 -0.015312367 -0.15313748 -0.04081745 0.17651139 -0.06961213
-0.1374485 0.027851783 0.032258872 0.09845596 -0.08507471 -0.028512144 -0.11219832 -0.13822287
-0.11739917 0.04790765 -0.056964763 0.0362379 -0.097136594 0.13012949 0.0033934133 0.0001781655
-0.11789265 0.13175096 0.07302494 0.06698102 -0.037520196 -0.07953015 0.16788523 0.009461164
-0.040241316 0.19294445 -0.07156401 0.06534627 -0.06727022 0.06349671 -0.040193032 0.12675992
-0.11250006 -0.005060675 0.2507273 -0.18339404 0.09071931 0.0696681 -0.11571287 -0.038830608
0.0010292474 0.030078638 -0.07115801 -0.04074285 0.0077782255 -0.052345324 0.076467544 -0.18365431
0.24957727 -0.1097876 0.07678018 0.12476798 0.080022395 -0.1654289 -0.02924432 -0.010987539

fc1.bias f4 [32]
00000000: 5fd5 ce3c 5e68 39bd a3f8 82bc 2b9d dc3c
00000010: 5378 12bb 3ea8 783d 3024 853c 1e91 76bc
00000020: f2c7 023d 855e d23c db1d 253d 1212 d63b
00000030: e9c7 eb3c 7771 e63d 5b40 76ba 34ac 243d
00000040: 8045 4f3d 9bd8 8ebd 70c8 b73d 7b06 953d
00000050: 3393 be3d 0eed 62bb 3cf4 e43c 8f81 083d
00000060: c590 193c 6abe a43c eb7a 483d ddde ba3d
00000070: 1702 43bb 647f ee3c 5f5b d43b 6e81 9a3d
0.025248228 -0.045265548 -0.0159877 0.026930412 -0.002234955 0.060707323 0.016252607 -0.015049247
0.031928964 0.025679836 0.040311676 0.006532916 0.028781848 0.112521105 -0.0009393745 0.04020329
0.05060339 -0.06974908 0.08973777 0.07276627 0.0930542 -0.003462616 0.027948491 0.03332668
0.009372895 0.020110328 0.04894535 0.09124539 -0.0029755884 0.029113479 0.006480619 0.07544218

rnn.weight_ih f4 [96, 32]
00000000: 39e2 1bbe 956b 83bd 29b5 3abd ee4a 51be
00000010: 96d8 213e ede2 233d 079d aabc f5e3 49be
00000020: a48e 7cbc f12a 69be 28b3 65be a04d 67bd
00000030: f94c d33d 8cb2 debd b586 0abe 71bb 17bd
00000040: e02b dbbd 3a37 61bc 2752 0b3e 98b0 e6bd
00000050: 4aa7 833d e3d0 9d3c a2f0 0b3d 5ea2 293d
00000060: 5b96 6bbe 1a21 0bbe a2b5 0f3e fd66 e6bd
00000070: 906a 283d 9865 2d3e 0230 5ebe 9d6d 1cbd
00000080: f6e7 b23c 0d0a 54be dddc debd 9378 d6bd
00000090: bf1d cdbd c7dd 4a3e 7199 853d 4f03 c73d
000000a0: 01c1 b03d 5861 15bd ce8c f4bd 62b4 99bd
000000b0: 2dc7 c33d aca3 263d 386e 77be f815 863e
000000c0: 4b8c 623d ada1 4fbd 60bf f53d 5589 ce3d
000000d0: 8453 12be aff2 55bd 1e95 023e 0b8d 82be
000000e0: a6e7 c13d 45dc c63c d564 c13d a4f0 073e
000000f0: 120c e03c 001c 463c 5a90 85be ee7b 8cbe
00000100: cc85 403c b88c 89bd b9f1 e1bd e289 08be
00000110: 5c8d ab3d 87dd e2bd 36e1 263d 0506 babd
00000120: 0834 59be 6cac c03c 270d 93be 8cdb 213d
00000130: 4dab fabd 03d4 8cbd 0bb2 cdbd 1f63 91be
00000140: 5004 283e c290 32be a39b 50be 3f46 053d
00000150: 5fcd 29be 15d8 a2bd 5172 5ebe f9d2 8e3d
00000160: f5d5 41bd 005f 92be 6d0b e4bc 3e54 c9bd
00000170: 6633 ae3c 2abe 2e3e d08d 3abe 3bd3 583e
00000180: 7403 d2bc 0b4b babe e51c 6f3d 32ac 42bb
00000190: 59da 033e 4717 48bd 312d e93c 484f 843e
000001a0: 3deb 03be e8c9 84bb b5a0 933e a67c d43d
000001b0: d04b 03be 191c de3d 1d57 b8bc 5426 95be
000001c0: e182 40bd 4d23 883d 355d b43c 09fe 5a3c
000001d0: d5fe b1bd 247e 773d 8e0e f6bc 6911 4b3e
000001e0: 7086 64be a211 4dbe 30cd 123e 3442 04be
000001f0: 7a37 23be 232a 173e f2d1 9dbd 3232 a33a
00000200: 8426 a0bd 0774 64be 8472 b33d ba13 35bd
00000210: f5fc 83bd ab2d 743b 465e 2b3c ffd9 f9bd
00000220: 5ba3 913e 3acf d63d d197 afbb 5dd0 0dbd
00000230: 7f73 6f3e a442 513d be3e 8ebc e941 603e
00000240: cb46 193e 0041 f5b8 5dcc 9cbd 72d7 d43d
00000250: 0a45 2d3e 197a 133d 7dcf 05be af45 cfbd
00000260: d9f4 a7bd d710 0b3c 1efa 633e c599 e83d
00000270: 5f3d 31bd d020 993d f066 a3bb 18e2 743d
00000280: f535 403e 0e23 003e a3ce 293d 46ac 443e
00000290: cb72 91bc cbd8 883d c691 65bd 9e78 573e
000002a0: ccfa e03d ab84 2d3e dc7b a1bd d208 573e
000002b0: b940 53bd e9a6 763d 132b 763d a76f 823e
000002c0: 2ab5 d13d cc9d 353e de3b 1e3e 772b 423e
000002d0: dff4 463e 1e98 c1bc 9b25 fdbd 250e 303e
000002e0: daef 1dbc c9de d53d adfd 8cbd bcd4 79bd
000002f0: b9f7 2ebd e782 2f3e e5ea 3ebd 0df2 dc3d
00000300: 9cb9 533d 4d9e 8bbd 421b e4be 5500 abbb
00000310: 8123 b4be 0835 b5bd fdb5 8b3d 7513 58be
00000320: ffb3 06bd b018 dfbd 5bfc b93d 8dea 1c3e
00000330: 46fb 6ebe 3a9c 7cbd e015 903d 217d 82be
00000340: 50e1 afbd 882f 6fbd 00f5 013c abb7 fd3c
00000350: e9a6 7b3b 4193 ecbd d044 25be 8ada a7bd
00000360: 6e4a 9abe 50a9 b4be 016f 003e df4c 75be
00000370: 52fb a7be f50b 653b 8cce e0bd e5a7 4d3e
00000380: 4e4e 98be e5d1 733c 42b8 ef3d b980 f7bd
00000390: b9cd 383e dd97 83be 1b0e bcbb eeaa 6cbe
000003a0: ea78 11be 0e28 acbd 9710 2fbe 5b66 d1bd
000003b0: 4345 58be 64da d3bd 8cbc 623d 1d20 a33e
000003c0: 6756 83bc 2924 13bd 3218 44be 2475 83be
000003d0: b945 563a f689 f2bd 90e5 3c3d 515b 343e
000003e0: 1a19 82be 2066 db3d 0dbd 403d 401c 8cbe
000003f0: f8bb 813d d283 58be 5fa1 4cbd 8d5d de3d
-0.15223016 -0.06417004 -0.045582924 -0.2043874 0.15805277 0.040011335 -0.02082683 -0.19715865
-0.015414868 -0.22770287 -0.22431624 -0.056470513 0.10317416 -0.10873899 -0.13527949 -0.037043992
-0.10701728 -0.013746077 0.13605557 -0.11264151 0.06428392 0.019264644 0.034165032 0.04141461
-0.23006575 -0.13586846 0.14034131 -0.11250112 0.04111725 0.16933286 -0.21698001 -0.038190473
0.021839123 -0.20706959 -0.1088197 -0.104722165 -0.10015439 0.19811164 0.06523407 0.09717428
0.086305626 -0.036469787 -0.11940919 -0.075051084 0.09559474 0.040683433 -0.24163139 0.26188636
0.055309575 -0.050691295 0.119993925 0.10084788 -0.14289671 -0.052233394 0.12752196 -0.25498232
0.094680116 0.024274955 0.0944306 0.13275391 0.027349506 0.012091637 -0.26086694 -0.274383
0.01175065 -0.06716293 -0.11032433 -0.13333848 0.083765715 -0.11077409 0.04074212 -0.090831794
-0.21211255 0.023519717 -0.28720972 0.039516017 -0.12239704 -0.068763755 -0.100437246 -0.28395936
0.16407895 -0.17438033 -0.2037187 0.032537695 -0.16582249 -0.079513706 -0.21723296 0.069738336
-0.047323186 -0.28588104 -0.02783748 -0.09830521 0.021264743 0.1706473 -0.1821816 0.21174328
-0.025636412 -0.36385378 0.058377165 -0.0029704687 0.12876262 -0.048850324 0.028463932 0.25841737
-0.12882705 -0.0040523894 0.28833547 0.10375337 -0.12821889 0.10845203 -0.022502476 -0.29130805
-0.046999816 0.06647358 0.0220171 0.013366231 -0.086911835 0.06042303 -0.030036237 0.1983086
-0.22316909 -0.20026258 0.14336085 -0.1291588 -0.15939131 0.14762168 -0.077060595 0.0012450872
-0.07819846 -0.22309886 0.087620765 -0.044208266 -0.06444732 0.0037258666 0.010459488 -0.121997826
0.28444943 0.10488744 -0.005358674 -0.03462254 0.23383902 0.051088944 -0.017363902 0.21900143
0.14968412 -0.000116946176 -0.07656167 0.103926554 0.16920868 0.036005113 -0.13067432 -0.10120713
-0.08200998 0.008487902 0.22263381 0.11357454 -0.04327142 0.074769616 -0.0049866363 0.059785932
0.18770583 0.12513372 0.04145683 0.19206342 -0.017754933 0.06681975 -0.056047224 0.21042106
0.10985336 0.1694514 -0.078849524 0.20999458 -0.051575396 0.06021777 0.060099673 0.2547581
0.102396324 0.17735976 0.15452525 0.18961893 0.19429348 -0.023632105 -0.12360688 0.17192896
-0.009639705 0.104428835 -0.06884322 -0.060993895 -0.042716715 0.17139779 -0.04661073 0.10788355
0.051690683 -0.06817303 -0.44552046 -0.0052185454 -0.35183337 -0.088480055 0.06821821 -0.21101172
-0.0328865 -0.10893381 0.09081336 0.15323849 -0.2333804 -0.061672427 0.07035422 -0.2548609
-0.08587897 -0.05839494 0.007931948 0.030971369 0.0038399047 -0.11551524 -0.16139531 -0.0819598
-0.3013491 -0.35285425 0.12542345 -0.23955105 -0.3280893 0.0034949754 -0.10976896 0.20083578
-0.29747242 0.014881586 0.11705066 -0.12085099 0.18047227 -0.257018 -0.005738986 -0.2311208
-0.14206281 -0.08406077 -0.17096172 -0.10224601 -0.21120171 -0.10344389 0.055355594 0.31860438
-0.01603241 -0.035923157 -0.19149855 -0.2567531 0.00081738416 -0.1184272 0.046117365 0.1761296
-0.25409776 0.10712838 0.047055293 -0.27365303 0.0633468 -0.21144035 -0.049958583 0.10857687

rnn.weight_hh f4 [96, 32]
00000000: 1063 bebd 0268 b1be 5886 393d 2e62 1dbd
00000010: 21c1 39be 83cb 21bd 080e afbd b008 f7bd
00000020: 796f c9bd 32c4 a23d a934 a13d e5f1 6a3e
00000030: fcf2 e63d f037 5bbd 0782 95ba 72f5 a9bc
00000040: d815 293d 185b 0d3e d27a 90be 86d5 9b3d
00000050: 7645 f93d ea23 f2bd 291b af3d 00ab 533e
00000060: ec6f 5c3e f8c8 2dbe a2ae aa3d 88d9 403e
00000070: e2b6 e23d d350 54be 4648 3c3d 5ae4 b1bd
00000080: cd9b edbc 49b9 123c 7e10 bdbd 2017 afbd
00000090: d733 19be d8c2 ac3d 5b26 abbd 2431 74be
000000a0: da5e 4d3d efeb 34be 1883 c1bd c3de 043e
000000b0: 2a16 ad3d e193 62bd d022 083d 4760 54be
000000c0: b649 69be 010b d7bb 629d 25be c9d8 bfbd
000000d0: 2db1 67be 7b3b 3e3c f7e4 14bc 21b1 a0bd
000000e0: 9915 e33b 72e8 ea3d 6bf7 d4bd 87e2 8abc
000000f0: 907c a33d ffa2 543e 54a1 0a3d f9c4 94bd
00000100: 973f 0b38 c3f3 64bd f571 0e3e cc33 c43d
00000110: 7896 263e 9365 093e ed48 80be 2432 c9bc
00000120: e848 49be e93d f63d 565d 623e 9b79 933d
00000130: 1936 cc3d 8342 96bd 177c 923d e0ba 18be
00000140: b433 023d f5b7 1f3d 962e 75be baee 533e
00000150: 85a1 f2bd 699a 3ebe afff 803d 482c 5bbd
00000160: b8f8 4d3e d790 dabc 13d1 88bd 8650 5d3e
00000170: 7e66 0d3d 0bfc aebd ce9e ff3d 92c1 d73d
00000180: 19e6 863e 217e 94bd cff8 003e 060a fe3c
00000190: a225 cfbd 4352 bf3d 6fea 0d3e 5bda 983d
000001a0: 8fda 2fbe e2d7 f7bd 8295 023e 1a20 35be
000001b0: aec5 393d 40e9 f8bd 0699 00bd 1db5 ad3d
000001c0: 684e 793e 0da9 113e 9d55 c73d 951c 153e
000001d0: b472 ae3d ad22 013d bbbc bb3d 9fb8 e7bc
000001e0: 98eb 1d3d 08a6 0bbe 2c6c a0bc 87f9 653d
000001f0: bd5d ce3d 6e7a 2ebd a995 aa3d 496d fd3b
00000200: 963f debc d93e 0d3d 769d 11be 21ee 53be
00000210: 7e13 5bbe 07ca a2bd d5a5 eebc 83e2 87bc
00000220: e9a8 a63b b6ce f4bd db9d 0d3e 8a88 a33c
00000230: 4f55 85bc 9d6e 4dbd d47e e9bd d585 5b3e
00000240: 5871 2a3e 89d4 343d 7575 0d3e dcb6 1ebc
00000250: 9479 aabc b1e7 9cb9 5e1a 5abc a4d1 cebd
00000260: 3ea5 04bd d8f2 71bd 5b4f bebc 5d37 d9bd
00000270: bd8a 3dbd 0734 7f3e a4e5 473d d6f3 723d
00000280: 889d 1d3e fa66 343d c934 22be ab00 05be
00000290: 3db9 f03d 5b7a 3bbe 50a9 bc3d 2e4d eebd
000002a0: d90a 92bd c811 16be 36d5 703e 34e2 48be
000002b0: a4db cb3d cc90 84bd 4a11 4fbd f6a4 583e
000002c0: 2d0f 073e 2266 eb3c 1552 253e bf34 c2bd
000002d0: 0f00 1a3d fb84 863b e75e 6cbd 1e79 ce3d
000002e0: 4fbf 42be 97bf 55be 9b5a 503e 0fbe 26be
000002f0: 413d 22be b41d 5b3e fe14 643d f405 e13d
00000300: 67a1 0fbd 3f79 18bd 265f 9ebe 7bff 4d3e
00000310: f7bc 223d c7d4 be3d 7007 e93c 8562 a8be
00000320: 4ffb 99be d9c7 7d3d bd91 633e 28d3 713d
00000330: 342a cc3d dd87 41be 6421 663d 8045 f13c
00000340: 9cb0 16be e297 16be bf88 bc3d 2ef0 a23d
00000350: 9a74 cdbd e52b 5abe bf46 583e a66e 39bd
00000360: 2a58 af3d dfc4 843c 2c99 95be 9074 853e
00000370: 6a23 083d f755 9dbc 8754 a93d 2304 3bbe
00000380: 72b5 b83c df0b a73d d3ff 72be 1966 46be
00000390: f310 d3bb 7f13 e0bc ea7b a43d 7fe4 dd3b
000003a0: a207 14bc acc2 e2bc ab06 f23c 4095 983d
000003b0: ab99 ffba 9983 a8bd 08d7 e2bc 1fdd 0abe
000003c0: 6acb dfbd 7efb 32bd 7858 d33d cf7a 763e
000003d0: b231 3ebd ca5a 03be 2381 b2bb 886c 18bd
000003e0: 8161 983d c525 fd3d 2cf7 623d be06 353c
000003f0: f498 b53d 4b56 913d 6d2e 15bd b0b0 8fbd
-0.092962384 -0.34649664 0.045294136 -0.03842371 -0.18140079 -0.039500725 -0.08547598 -0.12062204
-0.09835715 0.079475775 0.07871372 0.22943838 0.11276814 -0.053520143 -0.0011406549 -0.02074692
0.041280597 0.13804281 -0.28218704 0.07609086 0.12171452 -0.11823256 0.08550102 0.206707
0.2152707 -0.16971195 0.0833409 0.18832982 0.110700384 -0.20733957 0.045967363 -0.08686133
-0.029004956 0.008955308 -0.09231661 -0.085493326 -0.14961182 0.08435601 -0.08356925 -0.2384687
0.050139286 -0.17668127 -0.09448832 0.12975602 0.08451493 -0.05531681 0.033236325 -0.20739852
-0.22782025 -0.006562591 -0.16173318 -0.0936752 -0.22626181 0.011610861 -0.009087793 -0.07846285
0.006930065 0.11470117 -0.10398754 -0.01695372 0.07982743 0.20765303 0.03384526 -0.07264132
3.3199405e-05 -0.05589653 0.13910659 0.09580192 0.16268337 0.13417654 -0.25055638 -0.024560042
-0.19656718 0.12023527 0.22105917 0.07200929 0.09971256 -0.07336905 0.071525745 -0.14915037
0.03178759 0.038993794 -0.23943552 0.20696536 -0.11847214 -0.1861359 0.06298768 -0.053509027
0.2011441 -0.026680393 -0.06680503 0.21612749 0.034521572 -0.08544167 0.124814615 0.105349675
0.26347426 -0.0725062 0.12594913 0.031010639 -0.101146 0.09341862 0.1385896 0.07463523
-0.17173217 -0.12101723 0.12752345 -0.17688027 0.045354538 -0.12153864 -0.031395935 0.0848181
0.24346316 0.14224644 0.09733126 0.14561684 0.08517972 0.03152721 0.09166857 -0.028286276
0.038554758 -0.13637555 -0.01958283 0.05614617 0.10076473 -0.042597227 0.08329327 0.007733975
-0.02712993 0.034483764 -0.14220223 -0.20696308 -0.21394154 -0.0794869 -0.02913181 -0.016587501
0.0050860536 -0.119534895 0.13829748 0.019962568 -0.01627603 -0.050154317 -0.11401144 0.21437772
0.166448 0.044148 0.13814338 -0.009687152 -0.020809926 -0.00029927262 -0.0133119505 -0.100985795
-0.03238415 -0.059069484 -0.023231199 -0.10606263 -0.04627489 0.2492219 0.048802987 0.05931457
0.15392125 0.04404352 -0.15840448 -0.12988536 0.117540814 -0.18308394 0.09211981 -0.116358146
-0.07130975 -0.1465522 0.23518834 -0.1961754 0.099540025 -0.0647293 -0.050553598 0.21156678
0.13189383 0.028735224 0.16144593 -0.09482717 0.037597712 0.004105208 -0.057707693 0.10081695
-0.19018291 -0.20873867 0.20347063 -0.16283439 -0.15843679 0.2139805 0.055684082 0.109874636
-0.035066035 -0.037225004 -0.30931967 0.2011699 0.039730992 0.09317928 0.02844593 -0.32887664
-0.30074546 0.061958168 0.22223563 0.059039265 0.09968987 -0.18899484 0.056184188 0.029452085
-0.14715809 -0.14706376 0.0920577 0.07955967 -0.100320056 -0.21305807 0.21120737 -0.04527154
0.08561738 0.016207157 -0.29218423 0.26065493 0.0332369 -0.01920603 0.082680754 -0.18263297
0.022547457 0.08156561 -0.23730402 -0.19374885 -0.0064412295 -0.027353046 0.08031447 0.0067716236
-0.009035023 -0.027680717 0.029544195 0.07450342 -0.0019500753 -0.08228225 -0.027690426 -0.13560914
-0.1092747 -0.043696873 0.103196084 0.24070285 -0.046434112 -0.12827602 -0.005447523 -0.03721288
0.074404724 0.123607196 0.055411503 0.011048971 0.08867064 0.07096537 -0.03642123 -0.07016122

rnn.bias_ih f4 [96]
00000000: 92d2 12be 3eed dc3d 0ac4 16be 1fbf 523d
00000010: 07c3 013e 627e b83d 6032 cc3d 90b0 a63d
00000020: 65cd 593e 9c47 16bd aa11 e0bd e104 e23d
00000030: 3cc8 04be b8b7 1a3e 0fd8 1b3d 3ed3 7d3d
00000040: 7917 c7bd 2d16 cdbd 254a be3d 6b47 613d
00000050: a142 e9bd 96e7 fd3c 4eb3 ddbd 61ab d83d
00000060: 8afa 6c3d 31a5 05bd ec90 20be 22b9 8e3d
00000070: a099 e33c b85f 0c3c ecc0 293e 5805 023e
00000080: 6460 c3bd 1b6c 92be 01d5 dd3c 743f 78be
00000090: 1564 28be c25e 38be ff93 38bd 5b98 e03d
000000a0: b43a fe3c defd 7abe 1816 67bd c5b9 1fbe
000000b0: 1e27 00be 85cb 153b 0d78 e4bd 2f82 33be
000000c0: 5e5f 96be 8a3b 17be e333 92be 7c7e 15bd
000000d0: 9e58 4abe 56a3 9cbe b1df a1bd 6518 863c
000000e0: 2381 56be aadd 77bd b30f 0dbe ffd3 72be
000000f0: 1924 d93b 721e 92bd 8d9a 00be 901e 07be
00000100: f248 d13d 3140 eebd 5ea1 3f3c 7915 2fbd
00000110: 0fc3 0634 4076 973c 6c05 be3d b1a1 033e
00000120: e276 22bd 8213 0bbe d4a2 443e 592e 0cbd
00000130: d997 303d d175 213e 25fd c3bd 3ed3 68bc
00000140: 1294 cb3d 3ad5 e0bc 5178 353e d540 e7bd
00000150: 4751 03be 4275 25be 3006 25be 01fe 9bbd
00000160: 5fd1 833d f6dd e43d f6fb c13d f056 01be
00000170: b01a 143e 2757 1e3e 7bf3 cdbd 8f67 623e
-0.14338139 0.10787438 -0.1472322 0.0514518 0.12672053 0.090084806 0.09970546 0.081391454
0.21269758 -0.036689386 -0.10940869 0.11036087 -0.12967008 0.15109146 0.038047846 0.061969034
-0.09721274 -0.10013995 0.09291486 0.05499975 -0.113896616 0.030994218 -0.10825215 0.10579563
0.05785612 -0.032628242 -0.15680283 0.06968905 0.027783215 0.008567743 0.165775 0.12697351
-0.095398694 -0.28598103 0.027079107 -0.24242955 -0.16444428 -0.18004897 -0.045063015 0.109665595
0.031033851 -0.24510905 -0.056417555 -0.15598209 -0.12514922 0.0022856903 -0.1115571 -0.1753013
-0.29369634 -0.14768806 -0.2855521 -0.036497578 -0.19760367 -0.30593365 -0.07903994 0.016369054
-0.20947699 -0.06051413 -0.1377552 -0.23713683 0.0066266176 -0.07134713 -0.12558956 -0.13195252
0.10218991 -0.11633337 0.011696188 -0.042745087 1.2550684e-07 0.018489003 0.09278378 0.12854649
-0.039664157 -0.1358166 0.19202739 -0.034223888 0.043113563 0.157676 -0.09569768 -0.01421052
0.099403515 -0.027445424 0.17721678 -0.112916626 -0.12823974 -0.16158012 -0.16115642 -0.07616807
0.06436419 0.11175148 0.09471886 -0.1263082 0.14463305 0.15462933 -0.10056206 0.22109817

rnn.bias_hh f4 [96]
00000000: 7bc2 22bd 8bbe a1bd e48e 013e 8eff 9c3d
00000010: 041a 6b3d ae5f 2c3e cc5f 4dbe bc27 da3d
00000020: ceeb 573d cc9a 1c3e 7f3a 87bd 45c5 e63d
00000030: b8b8 503e e738 d33d cdda 4d3e f884 aa3d
00000040: 20f2 323c dc86 4e3e e57d 1c3d 5c99 efbd
00000050: 444f 0e3e 584f 3fbe b41a 083e 826d c9bd
00000060: e14c 1d3e 3065 963d fa9f a23d 4560 a43d
00000070: 0d7d 183e b61f d63c 32dd 223e 57f2 ba3c
00000080: e80b f9bd 08b0 4dbe a848 2f3e a0bf 32be
00000090: a958 b73d bbe8 06be 3235 5abe d643 bdbd
000000a0: f8ba 343d 907e 1f3d 1f27 223d f57f 0ebe
000000b0: eb69 cebd 31cd 00be 4162 79be d6d0 8bbe
000000c0: 471c 22be 2210 26be 5df3 6ebe 89bf 3ebd
000000d0: 2fae 60be 5608 1bbd 5e39 15be d09d 37bc
000000e0: 88d4 96bc cb72 67be 6529 d6bd 8ec0 f1bd
000000f0: 69e2 c2bc 0c3e 31be 0a9e 2ebd 17a6 fcbd
00000100: 2370 0cbe 497b 1ebd 425c 813d 3f65 27bd
00000110: e5cf 103d f8d6 0fbe 6a95 b93d 5674 703d
00000120: c667 11be 7531 11bd 8a02 433d 5658 2f3e
00000130: 0ca0 22bd acc1 d3bd 1da5 7d3d 9b7d 223e
00000140: ee5c ee3d ff53 023e bfb3 05bd 0e22 22be
00000150: 6100 233e 9ce7 0ebe 0e4f 1cbd ff6c 33be
00000160: 6e34 51be b8d9 2bbe 9872 703e 4389 da3c
00000170: 6642 1bbe 08aa 503d 24e7 d53d 10c5 92bd
-0.039736252 -0.07897671 0.12652165 0.07665931 0.057397857 0.16833374 -0.20056075 0.1065211
0.052715115 0.15293425 -0.06602954 0.11268095 0.20382965 0.10313588 0.20102997 0.08326143
0.010921985 0.20168632 0.038206 -0.11699173 0.13897425 -0.18682611 0.13291436 -0.0983534
0.15361358 0.07343519 0.07940669 0.080261745 0.14891453 0.026138168 0.15904692 0.022820635
-0.12160474 -0.20086682 0.1711756 -0.17455912 0.089524575 -0.13174717 -0.21309355 -0.09241454
0.04412362 0.03893906 0.03958809 -0.13915999 -0.10078796 -0.12578274 -0.24353887 -0.27307767
-0.158311 -0.16217092 -0.23335023 -0.04656938 -0.21941446 -0.037849747 -0.14572665 -0.011207059
-0.01841189 -0.22602384 -0.10457114 -0.11804305 -0.023789601 -0.17308825 -0.042631187 -0.123363666
-0.13714652 -0.038691793 0.06316425 -0.04086804 0.035354514 -0.14046848 0.090617016 0.058704697
-0.14199743 -0.035447557 0.047609843 0.17123541 -0.039703414 -0.10339674 0.061925042 0.15868227
0.11638819 0.12727354 -0.032642122 -0.15833303 0.15918113 -0.1395554 -0.03816133 -0.17522047
-0.20430157 -0.16782272 0.23481214 0.02667678 -0.15162048 0.050943404 0.10444477 -0.07166493

fc2.weight f4 [6, 32]
00000000: 5040 823e ce8a c73d e5d5 f03d 35c8 c53e
00000010: 1dcc d63d 887e 6abe aef6 42be 158f 9b3b
00000020: 1e13 163e c85d 08bd 65de 933e 6a30 883c
00000030: 7e08 033e dd33 763d 2611 29be 47d8 fe3c
00000040: df84 863d b6fa ae3e 29f0 11be 732a 22be
00000050: 3d4d dabc 043f 773c c2f3 94bd 4cbe 733d
00000060: 3ecf 49bd 8549 a5be 375d d73d a936 e73b
00000070: d796 aebb cb42 7abe b0b6 9bbc 24b7 2abe
00000080: 807e 0a3d c7d3 e9bd 13f1 66bd 7373 4fbd
00000090: 4e1e 61bd 1046 443e 9241 953c 8d40 983e
000000a0: 18cd 31be c6a3 843c b92c 8b3d 09fe 4bbe
000000b0: 6659 253e effc 813c 6073 9cbd 6786 b3be
000000c0: da54 d7bd a783 7a3e 6076 47be 6aaf 81bd
000000d0: 4d25 073e 809a 54bd 8c69 833e 93e7 07be
000000e0: 5970 cbbe 3729 1ebe abfa 95bc eb27 f9bd
000000f0: 2226 8bbe 1061 63be 8873 ecbc 946c c43d
00000100: 5d7a fb3a 69e2 233e 81a0 15be 2f75 9cbe
00000110: 7096 c2bd 0da3 25be 2f4a 98be 910f 0d3d
00000120: 26d1 a53d a0e8 2d3e 015f a4bd 4194 2a3e
00000130: 2000 633e 6170 1e3e 9c67 fd3c 4d9f 13be
00000140: 89c0 92bd b9ec afbd db89 dd3e 9c77 86bd
00000150: 2dc0 2f3d 74a3 ff3d d0e0 a3be 9c32 d73d
00000160: 4934 25be d4a8 963e 4bb6 673e 6ac7 473d
00000170: eea1 25be 6b3a 50be 50ee dc3d 25c7 9fbe
00000180: ee39 d0be 7ee0 673e abed 32bd 06fd cbbd
00000190: eb2e e73d 5079 6bbe c39f ea3d 6ce2 b33d
000001a0: 696d 1b3e 7da7 853e da2a 8bbe f025 b4bd
000001b0: ca97 93bc 8829 793e 1bdc 26bd ec44 813e
000001c0: f803 12be 6e02 943e 49c9 f43d 675f 76be
000001d0: cd7e 96bd 5529 373e 4637 853d acd0 42bc
000001e0: 224a fdbd a675 003e 333e 57bc 0350 323e
000001f0: 4165 76be 6674 30bd be78 a5be 84be 953d
00000200: a414 be3e e013 3abe c60d 883d eee1 6bbe
00000210: a894 52be fe4c b83c 9aa7 28bd 7f2f 3a3e
00000220: e781 e8bd d5aa 1c3e d547 083e 1da8 8f3e
00000230: 4c7f 73bd 0b26 3b3e 86fc e93d 4183 203d
00000240: e6cf 513d 87a9 1f3e 7443 66be 42a1 80be
00000250: ad5b 233b f745 e53d 63b4 bbbd d61b 9bbe
00000260: 5582 8c3e afe8 16bc c74a d13c 22fd 99bb
00000270: 8597 9cbd ccb1 3b3d f812 e8bd 8129 f83d
00000280: d9de a13e 5798 1a3e 07f4 86be a3d5 8d3e
00000290: 5c2e b23c cbfe b3be 4a84 9bbb 8e6d d93d
000002a0: 656d 2bbe 62a9 393d 136c f33a cdf1 30bd
000002b0: 7d0d 423e 07d3 97be 2839 22be 189e 9e3e
000002c0: 6469 9d3e a4ce e53d 4f1f bbbd c289 ce3d
000002d0: a877 0c3f 62bb c13d 9a61 9ebd 743d 8cbe
000002e0: 2893 363e abb6 9b3e 64ab 27bf 7d51 643c
000002f0: 9051 ec3c 31b2 783b 4677 9b3e ba87 c43d
0.25439692 0.09743272 0.11759547 0.38629308 0.1048815 -0.2289983 -0.19039413 0.0047472813
0.1465573 -0.03329256 0.2888061 0.016624648 0.12796208 0.060108054 -0.16510448 0.031108988
0.06568312 0.34175652 -0.1425177 -0.15836506 -0.026648158 0.015090708 -0.072730556 0.059507653
-0.049269907 -0.32282653 0.10515826 0.0070560765 -0.00532804 -0.24439542 -0.01900801 -0.16671425
0.033812046 -0.114173464 -0.05638225 -0.05064721 -0.05496054 0.19167352 0.018219743 0.29736748
-0.17363393 0.016191375 0.067956395 -0.19921125 0.16147384 0.015867678 -0.076391935 -0.35063478
-0.10514231 0.24464284 -0.1947875 -0.06332286 0.13197823 -0.051905155 0.25666463 -0.13271932
-0.39734152 -0.1544541 -0.018308004 -0.12165817 -0.2717753 -0.22204995 -0.028863683 0.09591022
0.0019186247 0.16004337 -0.14612009 -0.30558154 -0.0950135 -0.1617548 -0.29744098 0.034438673
0.080965325 0.1698327 -0.08025933 0.16658117 0.22168016 0.15472557 0.030933194 -0.14416237
-0.071656294 -0.08590073 0.43269238 -0.065657824 0.042907882 0.12482348 -0.32007456 0.105077
-0.16133226 0.2942568 0.22628133 0.04877416 -0.16175053 -0.20334785 0.10787642 -0.31206623
-0.40669197 0.2264423 -0.04368369 -0.0996037 0.11288246 -0.22995496 0.114562534 0.08783421
0.15178455 0.26104346 -0.2718113 -0.087962985 -0.018016715 0.24332249 -0.040737253 0.25247896
-0.14259326 0.28908104 0.119524546 -0.2405983 -0.07348404 0.1788686 0.06504683 -0.011890572
-0.12367655 0.1254488 -0.013137388 0.17413335 -0.24062063 -0.043079756 -0.3231868 0.073117286
0.37125123 -0.18171644 0.06643252 -0.23035404 -0.2056452 0.02249765 -0.041175462 0.18182181
-0.11352902 0.15299542 0.13308652 0.28057948 -0.05944757 0.18276231 0.11425118 0.039187673
0.051223658 0.15592013 -0.22486669 -0.2512303 0.002492647 0.11194985 -0.091652654 -0.30294675
0.27443185 -0.0092107495 0.025548352 -0.0046993652 -0.076460876 0.045823857 -0.11331743 0.12117291
0.31615332 0.15097176 -0.26358053 0.27702054 0.021750621 -0.3515533 -0.0047459947 0.10616599
-0.1674095 0.04532755 0.0018571637 -0.04319935 0.18950458 -0.2965319 -0.15842116 0.3097999
0.3074447 0.11221054 -0.09136831 0.10084869 0.5487008 0.094595686 -0.0773346 -0.27390635
0.17829573 0.30412802 -0.65495896 0.013935444 0.028847486 0.0037948007 0.30364436 0.095962

fc2.bias f4 [6]
00000000: 7697 933c e801 683c dac7 ccbb 6c00 9e3c
00000010: 155d ff3c 5afe 283d
0.018016558 0.014160611 -0.00624941 0.01928731 0.031172315 0.041258194
