results/alpha_0.75/agent_1000.pt (torch, 43191 bytes, 8 tensors)

fc1.weight f4 [32, 104]
0.20155849 -0.22695749 -5.919539e-05 -0.013157954 0.11792245 0.017966468 -0.025983207 0.044345453
0.16016346 0.035365533 0.2882874 -0.06367344 -0.24842477 0.10375149 0.1443252 -0.06598449
-0.23581198 0.10883754 -0.060810655 -0.024083657 -0.05311398 -0.050070368 0.11662238 0.057230506
-0.24946283 -0.24532439 -0.10562352 0.008507297 -0.0655593 -0.18834154 -0.04368237 0.15950584
-0.15888298 -0.067400746 -0.22143751 0.09027709 0.027828641 -0.008846841 -0.115958616 -0.24121284
0.013545676 0.05642946 0.16119368 -0.14222497 -0.13894892 -0.16294724 0.025582144 0.010624363
0.08044379 -0.020075224 0.10125112 -0.16721533 -0.0008175222 -0.15690982 -0.015814904 -0.02091545
-0.04421128 0.09391243 0.06021937 0.013115099 -0.076061405 -0.07144614 -0.059496317 0.04280464
0.09173683 0.16127168 0.066681735 -0.11493334 -0.02924112 -0.15037526 -0.12204874 -0.07399835
-0.13380866 -0.049307138 -0.06465698 -0.13201413 -0.0039901356 -0.01638687 -0.06892736 -0.035737954
-0.084690176 -0.06760416 0.058126185 -0.15809126 0.12796657 0.031891756 0.02992794 0.09195185
0.04944783 0.022897458 0.04396436 -0.061894115 0.038212497 0.10645571 -0.08376672 -0.04959883
0.09970549 0.03492856 -0.19734548 0.11713836 -0.0044098697 -0.07556199 -0.0028170594 0.13338685
-0.11971222 0.05356664 -0.077354066 -0.1550675 0.11696072 -0.070982404 -0.3351094 0.07965996
-0.099423446 -0.0039107976 -0.02201177 -0.08038358 0.030204816 0.0759636 0.13182576 -0.03356937
-0.08872919 -0.07341216 -0.33543128 -0.14184776 0.07836134 0.019966733 0.1289961 0.02202502
0.24068037 0.04628135 -0.047023002 0.030516937 -0.09571117 -0.12020843 -0.3153315 -0.049023997
-0.088620864 0.12881753 -0.10866013 0.09718111 -0.049398106 0.12670597 -0.022410704 0.13931954
-0.029802743 0.050930604 0.015743736 0.10119318 0.37132275 0.08027458 -0.058082633 -0.07639056
-0.026230084 -0.16292039 -0.24845427 0.037932258 -0.040244486 0.03072091 0.01825244 -0.059825115
-0.10494902 0.10636951 0.09072371 -0.043604553 -0.008552228 -0.19098718 -0.053300153 -0.021745265
-0.13088727 -0.028349396 -0.0017640943 -0.0065671275 -0.00033365135 -0.04396655 -0.08106337 -0.015263201
0.1221433 -0.26233104 -0.14238 0.030709684 -0.2231038 0.050779793 0.100042164 0.04377101
0.0679062 0.025281902 0.0016822114 -0.076992266 -0.04962333 0.17107439 -0.05035335 -0.10036376
0.07505727 0.1212947 -0.01339023 -0.05654757 -0.13562937 -0.03524365 0.18120326 -0.07003133
-0.07748174 0.008952097 0.030443946 0.08865676 -0.044079293 -0.004198488 -0.12171017 -0.12453483
-0.054972257 0.0743905 -0.061685514 -0.07540796 -0.0857049 0.27567792 0.13756321 0.0001781655
-0.22436377 -0.0077022742 0.07302494 0.06698102 -0.05834204 -0.0872766 0.16788523 0.009461164
0.09439074 0.19294445 -0.11285227 0.07268435 -0.06727022 0.06349671 -0.027571907 0.10512683
-0.095278755 0.0050878907 0.26747057 -0.12819333 0.09071931 0.072463974 -0.20808569 -0.057570923
0.0010292474 0.030078638 -0.07115801 -0.04074285 0.0077782255 -0.052345324 0.076467544 -0.18365431
0.24957727 -0.1097876 0.0766791 0.15316279 0.14503966 -0.28680968 -0.037820086 0.022760242
00000000: 5965 4e3e 8b67 68be 9148 78b8 7694 57bc
00000010: 5381 f13d 6a2e 933c bcda d4bc 94a3 353d
00000020: e401 243e 73db 103d 689a 933e 3867 82bd
00000030: 1063 7ebe a97b d43d fcc9 133e e022 87bd
00000040: b278 71be 37e6 de3d 9814 79bd 174b c5bc
00000050: 0b8e 59bd 9616 4dbd b7d7 ee3d 896a 6a3d
00000060: 2f73 7fbe 5136 7bbe 2551 d8bd 3162 0b3c
00000070: f443 86bd 9bdc 40be 49ec 32bd 8055 233e
00000080: 38b2 22be 6709 8abd 84c0 62be 32e3 b83d
00000090: e4f8 e33c 57f2 10bc b67b edbd 8000 77be
000000a0: afee 5d3c 9422 673d f50f 253e 6ca3 11be
000000b0: a048 0ebe a4db 26be a591 d13c cf11 2e3c
000000c0: b7bf a43d cc74 a4bc bf5c cf3d 7f3a 2bbe
000000d0: fc4e 56ba f8ac 20be 428e 81bc e156 abbc
000000e0: e316 35bd 2955 c03d 96a8 763d b6e0 563c
000000f0: 15c6 9bbd 5b52 92bd 69b2 73bd eb53 2f3d
00000100: 85e0 bb3d 6724 253e 6f90 883d 2c62 ebbd
00000110: 138b efbc f9fb 19be b1f4 f9bd 728c 97bd
00000120: 2305 09be 48f6 49bd e16a 84bd b62e 07be
00000130: afbf 82bb c23d 86bc ca29 8dbd f661 12bd
00000140: 0b72 adbd 0d74 8abd b915 6e3d ade2 21be
00000150: ab09 033e eea0 023d 702b f53c 4051 bc3d
00000160: cf89 4a3d 7393 bb3c f913 343d af84 7dbd
00000170: b584 1c3d 7405 da3d e38d abbd 2528 4bbd
00000180: 6432 cc3d 4011 0f3d ef14 4abe 3de6 ef3d
00000190: ab80 90bb 3fc0 9abd 6a9e 38bb 9096 083e
000001a0: ae2b f5bd b168 5b3d cf6b 9ebd 04ca 1ebe
000001b0: 1a89 ef3d 395f 91bd 7693 abbe c324 a33d
000001c0: 859e cbbd 2626 80bb 0752 b4bc 25a0 a4bd
000001d0: 1770 f73c ce92 9b3d 55fd 063e 0980 09bd
000001e0: a6b7 b5bd 1d59 96bd a6bd abbe 8a40 11be
000001f0: e97b a03d 4691 a33c 8e17 043e d16d b43c
00000200: ea74 763e 8391 3d3d 319b 40bd a8fe f93c
00000210: 3804 c4bd d62f f6bd 2173 a1be 63cd 48bd
00000220: db7e b5bd bee8 033e 3489 debd e406 c73d
00000230: ab55 4abd 36bf 013e a796 b7bc c8a9 0e3e
00000240: e224 f4bc 9c9c 503d 02f9 803c 5f3e cf3d
00000250: 041e be3e 0067 a43d 0ee8 6dbd a772 9cbd
00000260: 79e0 d6bc 9ad4 26be cc6a 7ebe db5e 1b3d
00000270: 67d7 24bd 6baa fb3c 2486 953c 2e0b 75bd
00000280: 83ef d6bd 42d8 d93d 5acd b93d b09a 32bd
00000290: a51e 0cbc 2592 43be 4351 5abd 2023 b2bc
000002a0: 5007 06be fe3c e8bc 2f39 e7ba 0f31 d7bb
000002b0: eded aeb9 4516 34bd 8d04 a6bd 8112 7abc
000002c0: 4426 fa3d 4150 86be 10cc 11be e092 fb3c
000002d0: 5375 64be 79fe 4f3d e8e2 cc3d 3b49 333d
000002e0: 6812 8b3d fe1b cf3c a67d dc3a 1fae 9dbd
000002f0: d541 4bbd 202e 2f3e 503f 4ebd 848b cdbd
00000300: a0b7 993d 5b69 f83d b262 5bbc 6d9e 67bd
00000310: 6de2 0abe a55b 10bd 598d 393e 966c 8fbd
00000320: bfae 9ebd d1ab 123c 9565 f93c ad91 b53d
00000330: 7d8c 34bd 7893 89bb 2e43 f9bd 1e0c ffbd
00000340: 972a 61bd 0c5a 983d f3a9 7cbd 7d6f 9abd
00000350: 0d86 afbd a825 8d3e 5fdd 0c3e f0d1 3a39
00000360: 9ebf 65be 5c63 fcbb 1a8e 953d 582d 893d
00000370: 10f8 6ebd 13be b2bd 1bea 2b3e ff02 1b3c
00000380: ef4f c13d 3b93 453e 171f e7bd 88db 943d
00000390: f8c4 89bd 900a 823d 7bde e1bc bc4c d73d
000003a0: 8221 c3bd 52b8 a63b e7f1 883e 1d45 03be
000003b0: 0ccb b93d fe67 943d 6a14 55be 7dcf 6bbd
000003c0: d0e7 863a 7a67 f63c 4abb 91bd fae1 26bd
000003d0: 7ce0 fe3b 0d68 56bd 049b 9c3d e00f 3cbe
000003e0: 2f91 7f3e 52d8 e0bd ef09 9d3d b5d6 1c3e
000003f0: 4785 143e b8d8 92be 3ce9 1abd b073 ba3c

fc1.bias f4 [32]
0.026180834 -0.04093182 -0.0033665895 0.017935416 0.00047723186 0.06656221 0.008973045 -0.027593426
0.027591772 0.030408042 0.028442884 0.027277593 0.026822703 0.06393534 0.003759082 0.030701157
0.032560434 -0.041151103 0.05768947 0.061248478 0.084048726 -0.009689617 0.02120388 0.026670404
0.014702099 0.019087726 0.029221267 0.059367687 0.0016980157 0.021101914 0.024837261 0.06607624
00000000: 3079 d63c 20a8 27bd 00a2 5cbb 4bed 923c
00000010: fa34 fa39 c551 883d ae03 133c 9c0b e2bc
00000020: 2408 e23c 491a f93c 0d01 e93c 4275 df3c
00000030: 49bb db3c 88f0 823d ee5a 763b fe80 fb3c
00000040: 175e 053d 0f8e 28bd cb4b 6c3d afdf 7a3d
00000050: bd21 ac3d 33c1 1ebc c2b3 ad3c e47b da3c
00000060: 13e1 703c dd5d 9c3c 7061 ef3c 882b 733d
00000070: f48f de3a ecdd ac3c 8377 cb3c fb52 873d

rnn.weight_ih f4 [96, 32]
-0.15141886 -0.052052718 -0.0004863605 -0.20916863 0.08804108 0.032359462 -0.010889007 -0.20416391
0.0023043589 -0.20921208 -0.21257155 -0.051358342 0.091104604 -0.10415327 -0.115168504 0.023612801
-0.101319194 0.009743722 0.129302 -0.1076078 0.050824333 0.0067516384 0.06699489 0.045140587
-0.23064218 -0.1016362 0.14047986 -0.085108414 0.06109298 0.17622906 -0.22335741 -0.026069688
0.067529164 -0.20269135 -0.07541838 -0.09396684 -0.11761788 0.14582705 0.042117283 0.14542337
0.09307926 -0.052020315 -0.14116368 -0.050924532 0.07607372 0.011924319 -0.17979647 0.37430105
0.076925784 -0.07705573 0.10347031 0.0796711 -0.14940111 0.0039069937 0.123027235 -0.22820261
0.078893684 0.039935414 0.102215834 0.121355005 0.015220446 0.056244444 -0.23213695 -0.23571591
0.009024055 -0.05646957 -0.101703815 -0.123927146 0.09935608 -0.107997164 0.018687818 -0.09376483
-0.20847988 0.021944227 -0.28374314 0.037323352 -0.12089486 -0.06292185 -0.099912785 -0.2708632
0.16239783 -0.16329771 -0.20277737 0.036025994 -0.16492862 -0.08391806 -0.21433604 0.07588806
-0.048248325 -0.28057382 -0.028118161 -0.096885525 0.025625808 0.1660911 -0.17990775 0.19068263
-0.06689342 -0.3838365 0.010320221 -0.05214436 0.050523866 -0.122899875 -0.0050392984 0.07883192
-0.12185658 -0.02865966 0.23187333 0.015336707 -0.14185691 0.06841103 0.028672554 -0.2840239
-0.08462752 -4.7172703e-05 -0.025379052 -0.025292227 -0.06920167 0.019689359 -0.046542965 0.1859018
-0.28058857 -0.23967303 0.10430836 -0.16999786 -0.16277477 0.084722705 -0.12753813 0.02608647
-0.1539676 -0.29348007 0.014583052 -0.14664702 -0.18661806 -0.05292001 -0.039717246 -0.11689577
0.25719216 0.083263084 -0.06428712 -0.040352188 0.21757181 -0.037895735 -0.011505202 0.1959032
0.08071294 -0.040690776 -0.16593112 0.057829913 0.1230591 0.0122418925 -0.20956519 -0.18981801
-0.04512004 0.0046843784 0.16740888 0.06309355 -0.08530787 0.094128974 -0.07998304 0.04814207
0.18789406 0.12490193 0.034530494 0.18916355 -0.021440918 0.044572774 -0.05931717 0.21082404
0.10773423 0.16862375 -0.07910883 0.20753343 -0.053218376 0.053371325 0.06010074 0.25933716
0.101523906 0.17526267 0.1430399 0.18445322 0.19343281 -0.023846306 -0.13203275 0.17587344
-0.011321913 0.1032095 -0.070005074 -0.064453915 -0.049920667 0.17086983 -0.05866708 0.11194624
0.0006674284 -0.08848495 -0.39078876 -0.03682609 -0.39136925 -0.09003376 0.018670833 -0.21320425
-0.06316836 -0.121097706 0.04067345 0.14365205 -0.22573462 -0.080089 0.061401878 -0.25563896
-0.111588135 -0.042541455 -0.0017849469 0.028462868 -0.010106378 -0.13378811 -0.12060482 -0.12488537
-0.26212084 -0.3550616 0.11589857 -0.24358721 -0.3587594 0.010707247 -0.06176194 0.13213494
-0.25843254 0.020872097 0.11008856 -0.1210336 0.17142604 -0.23961005 0.027334899 -0.22853868
-0.2012579 -0.085444964 -0.15373856 -0.10715792 -0.20496298 -0.108741656 0.017717836 0.24085748
0.0038749874 -0.11759924 -0.17112803 -0.25632408 -0.027551321 -0.06596073 0.077123016 0.12322948
-0.2721788 0.05292858 0.051501215 -0.28667215 0.040271893 -0.20748541 -0.016704869 0.0782644
00000000: 8c0d 1bbe 3b35 55bd 34fe feb9 4d30 56be
00000010: e24e b43d 5b8b 043d ce67 32bc 5810 51be
00000020: ba04 173b b13b 56be 5bac 59be 205d 52bd
00000030: 0d95 ba3d 4f4e d5bd 77dd ebbd a26f c13c
00000040: 7080 cfbd 22a4 1f3c be67 043e 7a61 dcbd
00000050: 2d2d 503d d93c dd3b 9e34 893d 56e5 383d
00000060: 772d 6cbe a426 d0bd f4d9 0f3e 524d aebd
00000070: a23c 7a3d 6475 343e ceb7 64be 1990 d5bc
00000080: bb4c 8a3d 528e 4fbe f474 9abd b071 c0bd
00000090: a5e1 f0bd b053 153e 2c83 2c3d dde9 143e
000000a0: 57a0 be3d 4113 55bd 368d 10be 3e96 50bd
000000b0: 8acc 9b3d 385e 433c 911c 38be 63a4 bf3e
000000c0: 448b 9d3d 65cf 9dbd 3ee8 d33d 9a2a a33d
000000d0: 9bfc 18be 3d06 803b b4f5 fb3d f2ad 69be
000000e0: 0393 a13d 5193 233d 8956 d13d f988 f83d
000000f0: 2d5f 793c 9360 663d 4fb5 6dbe 835f 71be
00000100: a1d9 133c a34c 67bd 174a d0bd 84cd fdbd
00000110: 337b cb3d 9e2d ddbd 3217 993c c607 c0bd
00000120: c07b 55be 61c4 b33c c846 91be 5fe0 183d
00000130: b997 f7bd 2cdd 80bd 139f ccbd 95ae 8abe
00000140: 9e4b 263e 8437 27be dfa4 4fbe fe8f 133d
00000150: 0ce3 28be 3bdd abbd e87a 5bbe 336b 9b3d
00000160: 09a0 45bd 5fa7 8fbe 0f58 e6bc eb6b c6bd
00000170: 37ed d13c c913 2a3e bd39 38be 4f42 433e
00000180: 6bff 88bd 3886 c4be 2516 293c 5395 55bd
00000190: 1df2 4e3d eeb2 fbbd b320 a5bb a172 a13d
000001a0: f18f f9bd aac7 eabc 3470 6d3e d046 7b3c
000001b0: f042 11be 151b 8c3d b4e2 ea3c 956b 91be
000001c0: 3151 adbd 4edb 45b8 bbe7 cfbc a531 cfbc
000001d0: 9bb9 8dbd 944b a13c d6a3 3ebd 0b5d 3e3e
000001e0: 4ea9 8fbe d96c 75be 9f9f d53d eb13 2ebe
000001f0: 6eae 26be 1983 ad3d 5b99 02be 4bb3 d53c
00000200: afa9 1dbe 0543 96be c1ed 6e3c a32a 16be
00000210: ce18 3fbe a7c2 58bd 8dae 22bd 0d67 efbd
00000220: b1ae 833e d685 aa3d f7a8 83bd 5648 25bd
00000230: 25cb 5e3e 8f38 1bbd 5180 3cbc d99a 483e
00000240: d34c a53d 5fab 26bd d9e9 29be 0fdf 6c3d
00000250: 6906 fc3d 3892 483c 4298 56be a75f 42be
00000260: cbcf 38bd 6a7f 993b 3c6d 2b3e 3137 813d
00000270: e4b5 aebd b1c6 c03d 26ce a3bd 9f30 453d
00000280: 4d67 403e 95cc ff3d d96f 0d3d 17b4 413e
00000290: dda4 afbc f191 363d 90f6 72bd 42e2 573e
000002a0: c4a3 dc3d b4ab 2c3e cf03 a2bd a583 543e
000002b0: 83fb 59bd e49b 5a3d 322c 763d d7c7 843e
000002c0: c4eb cf3d 0f78 333e 0d79 123e 4ee1 3c3e
000002d0: 4013 463e 5459 c3bc 9833 07be 2b18 343e
000002e0: 8c7f 39bc 815f d33d d25e 8fbd 6a00 84bd
000002f0: 9d79 4cbd 80f8 2e3e e44c 70bd 1244 e53d
00000300: 5df6 2e3a 9937 b5bd 7715 c8be f4d6 16bd
00000310: 8d61 c8be 9f63 b8bd 93f3 983c 3752 5abe
00000320: 6a5e 81bd 1302 f8bd 3499 263d 8619 133e
00000330: fa26 67be b405 a4bd 8980 7b3d 1ce3 82be
00000340: 5288 e4bd f33f 2ebd e1f4 e9ba f62a e93c
00000350: 3995 25bc c0ff 08be a9ff f6bd e7c3 ffbd
00000360: b434 86be a2ca b5be 3b5c ed3d ed6e 79be
00000370: 50af b7be 736d 2f3c 17fa 7cbd 624e 073e
00000380: 4551 84be f6fb aa3c 1c76 e13d 77e0 f7bd
00000390: 4f8a 2f3e 565c 75be 70ed df3c 0b06 6abe
000003a0: 8d16 4ebe c5fd aebd a46d 1dbe 9d75 dbbd
000003b0: d1e1 51be f2b3 debd ff24 913c 58a3 763e
000003c0: 80f3 7d3b dfd7 f0bd 303c 2fbe e93c 83be
000003d0: 4fb3 e1bc 6b16 87bd acf2 9d3d bd5f fc3d
000003e0: 055b 8bbe a4cb 583d f0f2 523d b1c6 92be
000003f0: 24f4 243d 0e77 54be a6d8 88bc 1649 a03d

rnn.weight_hh f4 [96, 32]
-0.10627119 -0.33444366 -0.0015747881 -0.04367267 -0.19173765 -0.040989082 -0.1271158 -0.05172139
-0.097276725 0.062931255 0.08647643 0.23336475 0.11843652 -0.0457863 -0.0010042983 -0.019323446
0.06457254 0.13820912 -0.2672217 0.07095891 0.12639092 -0.073179334 0.08245658 0.20113812
0.20393975 -0.17857331 0.090641476 0.18747817 0.07129267 -0.22697316 0.03565842 -0.09127331
-0.042988364 -0.015653146 -0.05314028 -0.07496709 -0.13839279 0.09229297 -0.11252655 -0.16575879
0.0902095 -0.1475869 -0.100364126 0.14206503 0.08365978 -0.06837876 0.040514108 -0.21027845
-0.18203048 -0.018120833 -0.17394197 -0.08439865 -0.23132725 0.016731383 -0.0051020207 -0.064623624
0.019399589 0.126576 -0.113015145 0.044040367 0.08253501 0.17946169 -0.0045562773 -0.0840035
-0.0017850257 -0.04821652 0.13804904 0.095095225 0.16519934 0.13383782 -0.25199613 -0.0115615055
-0.19120464 0.12166184 0.22689304 0.07270288 0.099980764 -0.073142655 0.071369015 -0.14916445
0.036280975 0.039494444 -0.24086861 0.2058679 -0.118126065 -0.18331037 0.06463589 -0.057384036
0.19949378 -0.028061448 -0.061917085 0.20620434 0.03169596 -0.08664383 0.12073872 0.10477757
0.22897437 -0.11741253 0.11172486 0.064795576 -0.073796436 0.12603153 0.088964246 0.046209097
-0.1862975 -0.08604613 0.05447665 -0.14184478 0.01659523 -0.14650364 0.0034424064 0.053440694
0.25349554 0.10431527 0.06805751 0.17724173 0.07598706 -0.006682712 0.108552076 0.007420123
0.06035207 -0.14227608 -0.048295073 0.13767278 0.068969876 -0.09486505 0.0100693805 -0.031488694
-0.08492559 -0.06275465 -0.119543634 -0.11176114 -0.14495464 -0.031607546 -0.11712049 0.017140046
0.08619121 -0.0838686 0.03607344 0.056068834 -0.07613454 -0.10309566 -0.05488977 0.16710073
0.22379792 -0.01660202 0.060549147 0.037501305 -0.08100611 0.013569343 0.0028739406 -0.06182825
0.019144764 -0.014124865 -0.07392426 -0.09415778 -0.029410316 0.1661436 0.013773413 -0.015385424
0.15335824 0.035792258 -0.15721424 -0.13035414 0.11624769 -0.18348359 0.087904155 -0.11094377
-0.071770184 -0.14546065 0.23775704 -0.19565412 0.10206555 -0.06422114 -0.05129112 0.21306118
0.13615996 0.02918156 0.16274644 -0.09543162 0.03826822 0.002738572 -0.05577843 0.10048043
-0.1907156 -0.21119745 0.2040745 -0.16168715 -0.15915145 0.21243574 0.051993605 0.10979826
-0.055467583 -0.05271005 -0.29545844 0.22755222 0.061639514 0.11017228 -0.0030373787 -0.29522476
-0.22716467 0.07875518 0.19898179 0.071371906 0.06544645 -0.2104174 0.07689077 0.003591651
-0.12453964 -0.16635902 0.07023762 0.09560126 -0.12603182 -0.18155405 0.1857421 -0.03571048
0.10083109 0.053794563 -0.30713913 0.22668514 0.04589451 -0.044738352 0.07014102 -0.2066641
0.03255014 0.097399205 -0.21274914 -0.18815468 -0.005708316 -0.022762762 0.09929434 -0.03654178
-0.054235987 -0.022512285 0.030808827 0.058059745 -0.003769942 -0.08798349 -0.02466771 -0.13619308
-0.11666779 -0.046650916 0.09831366 0.24440162 -0.04015953 -0.11615616 -0.025163693 -0.03672758
0.07641445 0.13027738 0.051431302 0.038698677 0.10624962 0.08362556 -0.0099030975 -0.06861365
00000000: b6a4 d9bd 333c abbe 1f69 ceba 1de2 32bd
00000010: e056 44be 2be4 27bd a52a 02be cfd9 53bd
00000020: 0539 c7bd 1ae2 803d 8e1a b13d 2bf7 6e3e
00000030: d98e f23d 6a8a 3bbd a9a2 83ba 344c 9ebc
00000040: 9c3e 843d b186 0d3e 48d1 88be e852 913d
00000050: 9f6c 013e 0cdf 95bd ffde a83d 27f7 4d3e
00000060: 95d5 503e ecdb 36be 3da2 b93d 47fa 3f3e
00000070: e401 923d a76b 68be 900e 123d 80ed babd
00000080: 9114 30bd 073b 80bc 9fa9 59bd 5888 99bd
00000090: d7b6 0dbe 1904 bd3d 5274 e6bd acbc 29be
000000a0: c2bf b83d 0521 17be b58b cdbd 7f79 113e
000000b0: d255 ab3d 2a0a 8cbd 1ff2 253d 3c53 57be
000000c0: 3366 3abe 2472 94bc d81d 32be 33d9 acbd
000000d0: 0de1 6cbe 4110 893c da2e a7bb 6459 84bd
000000e0: e3eb 9e3c 249d 013e 7c74 e7bd ac63 343d
000000f0: 1e08 a93d cec4 373e d34c 95bb 070a acbd
00000100: 86f7 e9ba b07e 45bd ba5c 0d3e 49c1 c23d
00000110: 042a 293e c80c 093e a305 81be 786c 3dbc
00000120: 26cb 43be d829 f93d a656 683e 3fe5 943d
00000130: b7c2 cc3d d1cb 95bd eb29 923d 91be 18be
00000140: 5c9b 143d edc4 213d 43a6 76be 09cf 523e
00000150: 14ec f1bd b7b5 3bbe d25f 843d 860b 6bbd
00000160: 1948 4c3e 1fe1 e5bc c59c 7dbd 3b27 533e
00000170: 9fd3 013d 5272 b1bd dd45 f73d 9f95 d63d
00000180: 4278 6a3e fb75 f0bd 01d0 e43d 8bb3 843d
00000190: 9622 97bd 690e 013e e332 b63d c045 3d3d
000001a0: c6c4 3ebe f438 b0bd e822 5f3d c23f 11be
000001b0: b8f2 873c 0d05 16be ff99 613b a1e4 5a3d
000001c0: 2bca 813e 3fa3 d53d bc61 8b3d db7e 353e
000001d0: 1b9f 9b3d a7fa dabb 8d50 de3d 8124 f33b
000001e0: bb33 773d d2b0 11be 0ed1 45bd 18fa 0c3e
000001f0: 1440 8d3d 9b48 c2bd 0bfa 243c 4afa 00bd
00000200: 78ed adbd 8385 80bd 4bd3 f4bd 06e3 e4bd
00000210: fd6e 14be ea76 01bd dedc efbd 4869 8c3c
00000220: 0485 b03d 4dc3 abbd bec1 133d 6fa8 653d
00000230: 6dec 9bbd d123 d3bd 18d4 60bd 741c 2b3e
00000240: 482b 653e f600 88bc 6202 783d f89a 193d
00000250: 88e6 a5bd f351 5e3c b958 3c3b 9e3f 7dbd
00000260: 7bd5 9c3c fa6b 67bc 9a65 97bd cbd5 c0bd
00000270: e7ed f0bc 8c21 2a3e e2a9 613c 2513 7cbc
00000280: f109 1d3e e79a 123d c5fc 20be 8e7b 05be
00000290: 4513 ee3d 1fe3 3bbe 1807 b43d 7d36 e3bd
000002a0: 3ffc 92bd a3f3 14be 9576 733e 8e59 48be
000002b0: be07 d13d 6086 83bd a316 52bd b62c 5a3e
000002c0: 846d 0b3e 2b0e ef3c 01a7 263e a771 c3bd
000002d0: 23bf 1c3d 9d79 333b ec77 64bd afc8 cd3d
000002e0: f34a 43be 2544 58be e8f8 503e 5191 25be
000002f0: 99f8 22be c188 593e 3ff7 543d e9dd e03d
00000300: fa31 63bd 7ee6 57bd 5446 97be 7303 693e
00000310: b779 7c3d 01a2 e13d c20e 47bb b327 97be
00000320: db9d 68be 654a a13d e2c1 4b3e 6f2b 923d
00000330: ca08 863d a977 57be e878 9d3d e861 6b3b
00000340: a40e ffbd 055a 2abe bed8 8f3d 98ca c33d
00000350: 7c0e 01be 4ee9 39be 2d33 3e3e 2745 12bd
00000360: 8880 ce3d b057 5c3d 5741 9dbe 2620 683e
00000370: e2fb 3b3d 903f 37bd 18a6 8f3d c19f 53be
00000380: 4c53 053d 3c79 c73d e9da 59be 9fab 40be
00000390: d30c bbbb f978 babc d55a cb3d d5ac 15bd
000003a0: 8e26 5ebd af6b b8bc cb62 fc3c 0ed0 6d3d
000003b0: 2211 77bb b030 b4bd f013 cabc 3376 0bbe
000003c0: 86ef eebd 0815 3fbd ac58 c93d 6b44 7a3e
000003d0: 527e 24bd 48e3 edbd 1724 cebc a96f 16bd
000003e0: 2e7f 9c3d 6f67 053e a1a9 523d 8182 1e3d
000003f0: 6799 d93d e143 ab3d 9a40 22bc 5085 8cbd

rnn.bias_ih f4 [96]
-0.1405887 0.10056235 -0.14573461 0.019444805 0.079940856 0.0886361 0.08863674 0.07520112
0.21700749 -0.04334118 -0.069356345 0.08444776 -0.13199359 0.13999552 0.04453621 0.049883246
-0.114060916 -0.10404503 0.06954427 0.049577106 -0.11919221 0.059396304 -0.15282947 0.09854142
0.04164824 -0.041041587 -0.17525409 0.07270189 0.023972128 -0.0031541602 0.17738366 0.14112814
-0.05837926 -0.25386164 0.012164193 -0.2631687 -0.113390155 -0.12019499 -0.072800435 0.06455076
0.11214634 -0.23436166 -0.054257106 -0.09772025 -0.18260786 0.019028448 -0.04493031 -0.16893782
-0.31125754 -0.06406725 -0.30471957 0.048888836 -0.15956439 -0.25765732 -0.04489074 0.07268302
-0.18489492 -0.008732401 -0.17755537 -0.20276615 -0.0046849647 -0.05048405 -0.101112425 -0.10710286
0.10165729 -0.12388429 0.021338165 -0.031561308 0.025572991 0.024577077 0.08473138 0.13384901
-0.026740033 -0.13307351 0.18839924 -0.0223753 0.03291746 0.1356184 -0.08790302 -0.01804749
0.109029606 -0.03615634 0.170138 -0.10370367 -0.12932366 -0.16018005 -0.14358206 -0.07440299
0.079583615 0.12304803 0.089930765 -0.12536028 0.16065237 0.1507624 -0.11626684 0.18498862
00000000: 7cf6 0fbe a2f3 cd3d 743b 15be b64a 9f3c
00000010: 08b8 a33d d886 b53d 2e87 b53d 0b03 9a3d
00000020: 3637 5e3e 8586 31bd b30a 8ebd f2f2 ac3d
00000030: 5429 07be fc5a 0f3e 9a6b 363d 6052 4c3d
00000040: c598 e9bd 9015 d5bd 3a6d 8e3d 5d11 4b3d
00000050: 0c1b f4bd 8a49 733d 547f 1cbe 16d0 c93d
00000060: 5897 2a3d 391b 28bd cf75 33be bae4 943d
00000070: 3261 c43c 07b6 4ebb 10a4 353e e583 103e
00000080: 171f 6fbd 27fa 81be 534c 473c 0cbe 86be
00000090: 1939 e8bd ca28 f6bd 6518 95bd 3033 843d
000000a0: fbac e53d 81fc 6fbe b33c 5ebd 8e21 c8bd
000000b0: 8efd 3abe 8ce1 9b3c d808 38bd 09fe 2cbe
000000c0: 265d 9fbe b135 83bd 3404 9cbe a93f 483d
000000d0: d964 23be a9eb 83be 5adf 37bd d6da 943d
000000e0: 1855 3dbe 5812 0fbc 13d1 35be eea1 4fbe
000000f0: 5584 99bb 5dc8 4ebd 0814 cfbd bf58 dbbd
00000100: b231 d03d 0cb7 fdbd 60cd ae3c 6e46 01bd
00000110: 737e d13c de55 c93c a587 ad3d b70f 093e
00000120: ea0d dbbc 6c44 08be bbeb 403e 684c b7bc
00000130: 75d4 063d 8ddf 0a3e 8006 b4bd 54d8 93bc
00000140: ea4a df3d ac18 14bd a838 2e3e 9762 d4bd
00000150: 6c6d 04be 3d06 24be 2d07 13be 9860 98bd
00000160: bcfc a23d 9b00 fc3d 9f2d b83d 725e 00be
00000170: 0e82 243e 7561 1a3e 4f1d eebd a86d 3d3e

rnn.bias_hh f4 [96]
-0.036943417 -0.08628874 0.12801926 0.044652257 0.010618244 0.16688478 -0.21162944 0.10033076
0.057025034 0.14628214 -0.025977133 0.08676784 0.20150614 0.092040055 0.2075181 0.07117572
-0.005926243 0.19778116 0.0148354 -0.122414574 0.13367836 -0.15842423 0.08833712 -0.10560761
0.13740571 0.06502177 0.060955577 0.08327458 0.14510329 0.014416268 0.17065558 0.036975235
-0.08458529 -0.16874778 0.15626079 -0.19529827 0.14057863 -0.07189308 -0.24083106 -0.13752936
0.12523612 0.049686674 0.041748505 -0.08089816 -0.15824664 -0.109039895 -0.17691192 -0.26671398
-0.1758721 -0.078550115 -0.25251713 0.03881702 -0.18137518 0.010426674 -0.11157749 0.045106914
0.0061699506 -0.17424227 -0.14437133 -0.08367228 -0.035101157 -0.15222497 -0.01815409 -0.09851404
-0.13093181 -0.051899612 0.06827704 -0.012002808 0.066567235 -0.13411543 0.09782979 0.042103734
-0.12912455 -0.029463666 0.026356814 0.16288091 -0.05033652 -0.11866729 0.07110207 0.13536052
0.13326512 0.11560967 -0.046480775 -0.15335247 0.093288004 -0.14924073 -0.017992686 -0.16931793
-0.18616726 -0.16238557 0.22287317 0.025304466 -0.13576007 0.05156863 0.07673486 -0.08740616
00000000: fb51 17bd 27b8 b0bd 7b17 033e 49e5 363d
00000010: 25f8 2d3c d8e3 2a3e 63b5 58be 377a cd3d
00000020: 1593 693d fcca 153e ffcd d4bc 56b3 b13d
00000030: a057 4e3e 7f7f bc3d a07f 543e 93c4 913d
00000040: ee30 c2bb 2587 4a3e 2d10 733c 7eb4 fabd
00000050: fbe2 083e f639 22be 18ea b43d cd48 d8bd
00000060: 15b4 0c3e 222a 853d 8eac 793d dd8b aa3d
00000070: f595 143e 3632 6c3c 56c0 2e3e 5873 173d
00000080: 0d3b adbd 38cc 2cbe d402 203e 45fc 47be
00000090: d8f3 0f3e ae3c 93bd 6b9c 76be 7fd4 0cbe
000000a0: e63d 003e 4184 4b3d 7b00 2b3d efad a5bd
000000b0: 680b 22be 4f50 dfbd 6628 35be bc8e 88be
000000c0: d117 34be e2de a0bd ed49 81be 98fe 1e3d
000000d0: 6aba 39be a4d4 2a3c bd82 e4bd 07c2 383d
000000e0: 4c2d ca3b 916c 32be 14d6 13be 5f5c abbd
000000f0: 3bc6 0fbd dde0 1bbe e3b7 94bc bbc1 c9bd
00000100: fd12 06be b094 54bd d5d4 8b3d 6da7 44bc
00000110: 6754 883d 8e55 09be fc5a c83d f774 2c3d
00000120: 3a39 04be c95d f1bc 3fea d73c 41ca 263e
00000130: ab2d 4ebd d607 f3bd f69d 913d f39b 0a3e
00000140: a776 083e c3c4 ec3d a062 3ebd 6e08 1dbe
00000150: c80d bf3d 90d2 18be 6665 93bc ae61 2dbe
00000160: a1a2 3ebe 6748 26be dd38 643e 504b cf3c
00000170: b004 0bbe a139 533d 2b27 9d3d 0002 b3bd

fc2.weight f4 [6, 32]
0.2455065 0.079824485 0.1675852 0.38575327 0.10691154 -0.23355012 -0.16379538 -0.015716301
0.083702125 -0.033082064 0.30946288 0.0150920665 0.10807281 0.063486606 -0.17140916 0.025301263
0.07102205 0.34711525 -0.14655548 -0.16212153 -0.04975495 -0.0039772526 -0.03401446 0.055023465
-0.055761304 -0.3682166 0.11413069 0.03559618 -0.023279851 -0.25227654 -0.04383254 -0.16194881
0.039321464 -0.094079524 -0.05745677 -0.049658686 -0.064101644 0.18973137 0.020600792 0.32833022
-0.2219055 0.0007273486 0.06270681 -0.2161273 0.18080416 0.015383712 -0.079842195 -0.34317148
-0.065912366 0.2512806 -0.18679258 -0.06605572 0.1690544 -0.05054486 0.25773236 -0.13235135
-0.39368722 -0.088621154 -0.019820083 -0.13265751 -0.27043673 -0.20041358 0.017864853 0.10956588
0.007834375 0.16752633 -0.13363267 -0.3093054 -0.096304245 -0.16273788 -0.30520013 0.051237345
0.13394928 0.16910768 -0.061101086 0.15748893 0.23020211 0.16489744 0.027451308 -0.12726723
-0.09138594 -0.08401618 0.43244267 -0.06927242 0.06992704 0.15849769 -0.35347897 0.10346425
-0.17156619 0.2636701 0.24001634 0.052918043 -0.16120854 -0.2052005 0.09743488 -0.307134
-0.41571313 0.22415215 -0.029759394 -0.09343852 0.121580586 -0.21890897 0.11119771 -0.023279682
0.057065003 0.27364266 -0.2897839 -0.085216686 0.011713439 0.23963554 -0.03021171 0.28079045
-0.19115074 0.2783386 0.108490996 -0.23636958 -0.010310268 0.1759555 0.07309175 -0.010782002
-0.12866352 0.09121835 -0.028761845 0.26031858 -0.31729922 -0.049281977 -0.36054698 0.06671947
0.38227394 -0.18655936 0.120426774 -0.23415487 -0.20709218 0.022590192 -0.031295303 0.19297607
-0.16667841 0.16323872 0.15088376 0.27042547 -0.07192791 0.18561295 0.112167224 0.054997865
0.041447908 0.15693584 -0.2274354 -0.25327364 0.022667486 0.14153807 -0.07757791 -0.31123033
0.27268 -0.046076775 0.035792276 0.03636859 -0.064800136 0.051962145 -0.11648522 0.12789789
0.32432365 0.15451156 -0.23695247 0.26878566 0.014544228 -0.35271144 -0.017038548 0.14115915
-0.14819281 0.044558503 0.02056048 -0.053172395 0.17449138 -0.29405206 -0.16226827 0.27374494
0.2678223 0.11459854 -0.08572773 0.096980155 0.42891693 0.117602 -0.10678266 -0.26459542
0.17304453 0.2660189 -0.64384085 0.032414325 0.025518177 0.00021594863 0.2928905 0.09979772
00000000: 0e66 7b3e 057b a33d 749b 2b3e 7481 c53e
00000010: 70f4 da3d c327 6fbe fab9 27be 79bf 80bc
00000020: 056c ab3d 0f81 07bd eb71 9e3e b744 773c
00000030: 4755 dd3d 4405 823d e285 2fbe 9844 cf3c
00000040: 0274 913d 17b9 b13e a412 16be 3003 26be
00000050: d9cb 4bbd 9d53 82bb bf52 0bbd 4960 613d
00000060: f765 64bd e386 bcbe 5abd e93d 4dcd 113d
00000070: 63b5 bebc 642a 81be c089 33bd e9d5 25be
00000080: 8b0f 213d c4ac c0bd ca57 6bbd e866 4bbd
00000090: b947 83bd f148 423e fec2 a83c e61a a83e
000000a0: 323b 63be 8aab 3e3a 6e6c 803d 7a50 5dbe
000000b0: ba24 393e f70b 7c3c 4e84 a3bd 2cb4 afbe
000000c0: 10fd 86bd daa7 803e 8e46 3fbe 3948 87bd
000000d0: 991c 2d3e 2108 4fbd 7ff5 833e 1d87 07be
000000e0: 5f91 c9be 027f b5bd ba5d a2bc 5fd7 07be
000000f0: af76 8abe 3839 4dbe 5059 923c 1364 e03d
00000100: c05b 003c 068c 2b3e 01d7 08be 475d 9ebe
00000110: 293b c5bd c2a4 26be 3143 9cbe 40de 513d
00000120: 002a 093e 902a 2d3e 2245 7abd c744 213e
00000130: 1aba 6b3e e0da 283e 91e1 e03c 5752 02be
00000140: 8d28 bbbd ad10 acbd 2069 dd3e b3de 8dbd
00000150: e835 8f3d 384d 223e 32fb b4be 11e5 d33d
00000160: 0caf 2fbe c4ff 863e d8c6 753e 97c0 583d
00000170: da13 25be 1420 52be f08b c73d ab40 9dbe
00000180: 5ad8 d4be 2488 653e f9c9 f3bc b25c bfbd
00000190: 3eff f83d ac29 60be a0bb e33d 08b5 bebc
000001a0: febc 693d e41a 8c3e 8e5e 94be 1686 aebd
000001b0: b9e9 3f3c 0563 753e 8c7e f7bc c4c3 8f3e
000001c0: 05bd 43be 6682 8e3e 8730 de3d de0a 72be
000001d0: 66ec 28bc ae2d 343e 21b1 953d fea6 30bc
000001e0: 5fc0 03be b0d0 ba3d f69d ebbc 7a48 853e
000001f0: 0b75 a2be e6db 49bd 9d99 b8be 38a4 883d
00000200: 69b9 c33e 6b09 3fbe 50a2 f63d 4bc6 6fbe
00000210: f90f 54be 110f b93c 812f 00bd 859b 453e
00000220: bfad 2abe 0d28 273e 4681 1a3e 3575 8a3e
00000230: f14e 93bd 5211 3e3e eeb7 e53d 7145 613d
00000240: 48c5 293d cab3 203e d3e4 68be 15ad 81be
00000250: 2ab1 b93c 5bef 103e 2be1 9ebd 9559 9fbe
00000260: b79c 8b3e 00bb 3cbd ec9a 123d 3bf7 143d
00000270: efb5 84bd 42d6 543d ce8f eebd aaf7 023e
00000280: c00d a63e 4738 1e3e aba3 72be 469e 893e
00000290: ea4a 6e3c 9896 b4be 6d94 8bbc 068c 103e
000002a0: dbbf 17be fa82 363d 746e a83c 4ccb 59bd
000002b0: dead 323e fe8d 96be a729 26be 4c28 8c3e
000002c0: 0120 893e a4b2 ea3d 0592 afbd 889d c63d
000002d0: 009b db3e 51d9 f03d deb0 dabd 0d79 87be
000002e0: 9632 313e a133 883e c1d2 24bf e2c4 043d
000002f0: 7f0b d13c 4570 6239 bef5 953e bf62 cc3d

fc2.bias f4 [6]
0.022312535 0.015759254 -0.005461503 0.007963139 0.030972868 0.042168576
00000000: c7c8 b63c 8d19 813c 68f6 b2bb d377 023c
00000010: d0ba fd3c f5b8 2c3d
