results/alpha_0.75/agent_500.pt (torch, 43177 bytes, 8 tensors)

fc1.weight f4 [32, 104]
0.22011933 -0.21564224 -0.030097391 -0.07274898 0.07397402 0.0872356 0.0014346311 0.044345453
0.13516887 0.06094406 0.2882874 -0.06367344 -0.23076235 0.09934783 0.1443252 -0.06598449
-0.17532292 0.10883754 -0.053077605 -0.027114369 -0.05311398 -0.050070368 0.11185766 0.058327254
-0.2059865 -0.19177006 -0.07290965 0.040150013 -0.0655593 -0.1576967 0.059662633 0.16713448
-0.15888298 -0.067400746 -0.22143751 0.09027709 0.027828641 -0.008846841 -0.115958616 -0.24121284
0.013545676 0.05642946 0.16012236 -0.16372414 -0.17880572 -0.14575368 -0.010369969 0.069902085
0.07921933 -0.038895693 0.12003544 -0.13444744 0.086732194 -0.15690982 -0.008170075 -0.024129717
-0.04421128 0.09391243 0.07975441 -0.0070115468 -0.076061405 -0.07144614 -0.042453066 0.04280464
0.08993082 0.15745588 0.066681735 -0.11493334 -0.034005787 -0.14927854 -0.07857254 -0.020443952
-0.10109488 -0.01766442 -0.06465698 -0.10136933 0.0039355424 -0.010801894 -0.06892736 -0.035737954
-0.084690176 -0.06760416 0.058126185 -0.15809126 0.12796657 0.031891756 0.02992794 0.09195185
0.047741618 0.016162628 0.047842026 -0.0535206 0.08090695 0.106353715 -0.09496207 -0.057227496
0.13866906 0.10384844 -0.24391288 0.08717395 -0.060366668 -0.122684665 -0.019986164 0.13921241
-0.16279887 0.12850024 -0.023806762 -0.1282527 -0.055475026 0.071460366 -0.10115157 0.07965996
0.11323493 -0.06565332 -0.02201177 -0.08038358 0.05386451 0.10173878 0.13182576 -0.03356937
0.049652264 -0.07341216 -0.27015924 -0.089174785 0.07836134 0.019966733 0.17573108 0.04057442
0.2154346 0.052279077 -0.025543146 0.076470405 -0.09571117 -0.10463357 -0.27601242 -0.08809673
-0.088620864 0.12881753 -0.10866013 0.09718111 -0.049398106 0.12670597 -0.022410704 0.13931954
-0.029802743 0.050930604 0.076227665 0.11988773 0.33320534 0.080180645 -0.043998633 0.039745532
-0.03136667 -0.16485913 -0.099683575 0.088203624 0.022395395 0.03072091 0.040632833 -0.058276705
-0.10494902 0.10636951 0.12442369 -0.004041298 -0.008552228 -0.19098718 -0.04249454 -0.021745265
-0.06494005 0.018921461 -0.0017640943 -0.0065671275 0.046401467 -0.02541713 -0.10630918 -0.009265437
0.14362319 -0.21637738 -0.14238 0.046284586 -0.1338268 0.0064832047 0.100042164 0.04377101
0.0679062 0.025281902 0.0016822114 -0.076992266 -0.04962333 0.17107439 -0.05035335 -0.10036376
0.119621366 0.15589102 -0.07182696 -0.013786067 -0.13639222 -0.008648661 0.20961304 -0.030958567
-0.17377894 0.08229538 0.121981084 0.15563448 0.0036864318 0.055866506 -0.13331217 -0.040324498
-0.03786518 0.05259156 -0.037887204 -0.09727568 -0.12197021 0.19049944 -0.08498099 0.0001781655
-0.044811055 0.0038360285 0.07302494 0.06698102 -0.08895782 -0.07252419 0.16788523 0.009461164
-0.0025810332 0.19294445 -0.11979937 0.06960362 -0.06727022 0.06349671 -0.021666622 0.016647667
-0.07564568 -0.0020805758 0.30488208 -0.019853594 0.09071931 0.073825136 -0.23057927 -0.074325636
0.0010292474 0.030078638 -0.07115801 -0.04074285 0.0077782255 -0.052345324 0.076467544 -0.18365431
0.24957727 -0.1097876 0.06083067 0.19366764 0.2109165 0.0062032384 -0.035725314 0.087475166
00000000: f666 613e 52d1 5cbe ce8e f6bc 6bfd 94bd
00000010: b17f 973d 94a8 b23d 3b0a bc3a 94a3 353d
00000020: b569 0a3e 7ba0 793d 689a 933e 3867 82bd
00000030: f74c 6cbe e076 cb3d fcc9 133e e022 87bd
00000040: da87 33be 37e6 de3d e767 59bd f41e debc
00000050: 0b8e 59bd 9616 4dbd a115 e53d 8fe8 6e3d
00000060: 20ee 52be 5f5f 44be a851 95bd 5774 243d
00000070: f443 86bd 3e7b 21be ce60 743d 4d25 2b3e
00000080: 38b2 22be 6709 8abd 84c0 62be 32e3 b83d
00000090: e4f8 e33c 57f2 10bc b67b edbd 8000 77be
000000a0: afee 5d3c 9422 673d 1ef7 233e 4da7 27be
000000b0: d918 37be 7440 15be cde6 29bc d328 8f3d
000000c0: be3d a23d 1751 1fbd 24d5 f53d 97ac 09be
000000d0: a6a0 b13d f8ac 20be c7db 05bc afab c5bc
000000e0: e316 35bd 2955 c03d 4856 a33d 1ec1 e5bb
000000f0: 15c6 9bbd 5b52 92bd 44e3 2dbd eb53 2f3d
00000100: a62d b83d 1d3c 213e 6f90 883d 2c62 ebbd
00000110: a749 0bbd 79dc 18be a4ea a0bd 137a a7bc
00000120: d50a cfbd f9b4 90bc e16a 84bd b99a cfbd
00000130: b9f5 803b 6dfa 30bc ca29 8dbd f661 12bd
00000140: 0b72 adbd 0d74 8abd b915 6e3d ade2 21be
00000150: ab09 033e eea0 023d 702b f53c 4051 bc3d
00000160: b78c 433d 7d67 843c 00f6 433d 6b38 5bbd
00000170: 8bb2 a53d facf d93d 797b c2bd 6167 6abd
00000180: 43ff 0d3e 7eae d43d 4cc4 79be 4288 b23d
00000190: 0a43 77bd 1942 fbbd 06ba a3bc b38d 0e3e
000001a0: bfb4 26be 9195 033e 6606 c3bc ad54 03be
000001b0: c839 63bd d059 923d 8e28 cfbd c324 a33d
000001c0: b7e7 e73d 3f75 86bd 0752 b4bc 25a0 a4bd
000001d0: 08a1 5c3d 6c5c d03d 55fd 063e 0980 09bd
000001e0: 2c60 4b3d 1d59 96bd 5052 8abe 45a1 b6bd
000001f0: e97b a03d 4691 a33c d9f2 333e 5d31 263d
00000200: e39a 5c3e 9622 563d dc3f d1bc 849c 9c3d
00000210: 3804 c4bd 204a d6bd 8051 8dbe 0f6c b4bd
00000220: db7e b5bd bee8 033e 3489 debd e406 c73d
00000230: ab55 4abd 36bf 013e a796 b7bc c8a9 0e3e
00000240: e224 f4bc 9c9c 503d 401d 9c3d b387 f53d
00000250: e499 aa3e c035 a43d e937 34bd 36cc 223d
00000260: 567a 00bd d5d0 28be e726 ccbd 1aa4 b43d
00000270: 8c76 b73c 6baa fb3c 9d6e 263d 8eb3 6ebd
00000280: 83ef d6bd 42d8 d93d d9d1 fe3d dd6c 84bb
00000290: a51e 0cbc 2592 43be c10e 2ebd 2023 b2bc
000002a0: 4aff 84bd 2e01 9b3c 2f39 e7ba 0f31 d7bb
000002b0: 770f 3e3d 9637 d0bc a1b8 d9bd 0fce 17bc
000002c0: f511 133e 0892 5dbe 10cc 11be e894 3d3d
000002d0: e509 09be 1071 d43b e8e2 cc3d 3b49 333d
000002e0: 6812 8b3d fe1b cf3c a67d dc3a 1fae 9dbd
000002f0: d541 4bbd 202e 2f3e 503f 4ebd 848b cdbd
00000300: 0cfc f43d e5a1 1f3e 031a 93bd f5de 61bc
00000310: 67aa 0bbe 1db3 0dbc cda4 563e d29c fdbc
00000320: 1bf3 31be 7b8a a83d 38d1 f93d a55e 1f3e
00000330: 1098 713b 47d4 643d fc82 08be 4d2b 25bd
00000340: 8518 1bbd 3f6a 573d 9d2f 1bbd 7938 c7bd
00000350: 84cb f9bd 4912 433e 830a aebd f0d1 3a39
00000360: cc8b 37bd e165 7b3b 1a8e 953d 582d 893d
00000370: 842f b6bd 9087 94bd 1bea 2b3e ff02 1b3c
00000380: 8d26 29bb 3b93 453e 5f59 f5bd 588c 8e3d
00000390: f8c4 89bd 900a 823d 337e b1bc b060 883c
000003a0: 1fec 9abd 455a 08bb 8119 9c3e 01a4 a2bc
000003b0: 0ccb b93d a231 973d f91c 6cbe 0a38 98bd
000003c0: d0e7 863a 7a67 f63c 4abb 91bd fae1 26bd
000003d0: 7ce0 fe3b 0d68 56bd 049b 9c3d e00f 3cbe
000003e0: 2f91 7f3e 52d8 e0bd 9529 793d cf50 463e
000003f0: 7ffa 573e 8944 cb3b b554 12bd 2e26 b33d

fc1.bias f4 [32]
0.02141616 0.0058032996 0.0025386943 0.016918452 0.010683394 0.010989431 0.018173445 -0.0033656633
0.0061971894 0.025489949 0.024932561 0.025963431 0.012870847 0.036743555 0.03277106 0.026581539
0.0124090845 -0.012386905 0.024172045 0.03325731 0.08424708 0.008017159 0.012377908 0.006911898
0.023767645 0.03481383 0.0035598986 0.0512853 -0.0034142225 0.034739766 0.009905091 0.06168854
00000000: f170 af3c 9b29 be3b 3960 263b 9198 8a3c
00000010: 6709 2f3c 040d 343c 7ae0 943c 7692 5cbb
00000020: cb11 cb3b 4cd0 d03c 5f3f cc3c 43b1 d43c
00000030: 3fe0 523c 6980 163d f23a 063d 87c1 d93c
00000040: 794f 4b3c 72f2 4abc 7404 c63c d138 083d
00000050: bc89 ac3d 675a 033c b6cc 4a3c 347d e23b
00000060: 5db4 c23c f298 0e3d 304d 693b 8910 523d
00000070: 26c1 5fbb 494b 0e3d f648 223c 1fad 7c3d

rnn.weight_ih f4 [96, 32]
-0.16511081 -0.012541724 0.0037529015 -0.2125866 0.11811042 0.063720435 -0.035927877 -0.19529411
0.0104101235 -0.1747868 -0.21878475 -0.05100578 0.097559534 -0.07641423 -0.091391124 0.029186273
-0.10092772 0.0802932 0.12512192 -0.094104014 0.07730461 0.00044549486 0.08547544 0.06244894
-0.20605725 -0.06519543 0.15158625 -0.057920743 0.055814497 0.14565703 -0.10441635 -0.012501093
0.14585753 -0.14414646 -0.19492279 -0.024362078 0.1412272 0.044077855 0.06634876 0.15210715
0.09243951 -0.04979312 -0.14514804 -0.058563072 0.062338322 0.00417307 -0.16305003 0.31175163
0.06800004 -0.14120224 0.053590775 0.07274358 -0.11048942 -0.0066873864 0.03811976 -0.15303904
0.038625285 0.029335931 0.0987758 0.07847083 -0.08277203 0.072195075 -0.094789244 -0.12933764
-0.037852194 0.023843454 0.0019086533 -0.13983443 0.08823556 -0.053856563 0.016419923 -0.086935595
-0.19883108 0.05534078 -0.20431007 0.021840608 -0.12515603 -0.025810523 -0.09599439 -0.17319573
0.14516047 -0.13742952 -0.164032 0.04465192 -0.15310927 -0.10646303 -0.13599491 0.006153085
0.0155710485 -0.2484203 -0.0073370817 -0.053284388 0.04422266 0.15393858 -0.21825211 0.10169726
-0.09531131 -0.2116252 0.02724749 -0.05596594 -0.040877856 -0.01004295 -0.057456527 0.0769033
-0.08968187 -0.066665255 0.16917188 -0.015245887 -0.14782488 0.05313265 0.016731974 -0.11709306
-0.11650379 0.00064835284 0.0125077255 -0.07631384 -0.12339575 0.010825044 0.019531924 0.10764536
-0.23320931 -0.17680107 0.081906356 -0.121273704 -0.17671204 -0.022575753 0.023417346 0.018415248
-0.104568996 -0.2774861 0.050591826 -0.110712625 -0.18232614 0.009016392 -0.06886963 -0.094987564
0.11563108 0.013119033 -0.045959517 0.010504088 0.18469414 -0.050350662 -0.047626458 -0.009618855
0.12137981 -0.06725583 -0.11432121 0.022041742 0.06247559 0.10861111 -0.17356658 -0.19893011
-0.07440236 -0.08108446 0.12937151 0.05213165 0.03990266 0.09748088 -0.03572055 -0.027732626
0.1900396 0.115404755 0.017862523 0.18346119 -0.0006319846 -0.0028349017 -0.0589254 0.20548275
0.06324396 0.15758021 -0.089394026 0.2021436 -0.06431065 0.034673605 0.06079097 0.18777677
0.10179441 0.16250403 0.12243786 0.16849974 0.18200846 -0.025117269 -0.14380433 0.17283319
-0.035335116 0.077973396 -0.08612348 -0.08832299 -0.06902955 0.17682174 -0.090692826 0.112986915
0.02165633 0.052207295 -0.28677237 0.03420187 -0.27484566 -0.08756115 0.0012546573 -0.1839496
-0.062414188 -0.13068879 0.049272146 0.19273716 -0.2064889 -0.003564418 0.09025944 -0.22736846
-0.086992696 -0.0097059375 0.034870043 0.09012792 0.048963495 -0.051028315 -0.03836917 0.024322867
-0.25178906 -0.33942175 0.15872344 -0.20016162 -0.2970355 0.018666985 0.00030979016 0.15804687
-0.21874648 -0.14191896 0.036439758 -0.11850161 0.14068124 -0.18977799 0.062596776 -0.20861617
-0.14880562 -0.09848382 -0.1289357 -0.07746851 -0.16159016 -0.10738456 0.05160427 0.1293439
0.039010897 -0.1467999 -0.17240526 -0.24139331 -0.020332556 -0.0073281955 -0.0003841278 0.14286515
-0.20650034 0.07670372 0.06943314 -0.27301484 0.101158366 -0.13131323 -0.095792845 0.027849576
00000000: cf12 29be ce7b 4dbc 3df3 753b 4db0 59be
00000010: e0e3 f13d dc7f 823d 1c29 13bd 2efb 47be
00000020: 398f 2a3c 50fb 32be 1c09 60be 70eb 50bd
00000030: 4bcd c73d 107f 9cbd 452b bbbd 0d18 ef3c
00000040: 31b3 cebd c370 a43d f61f 003e 9bb9 c0bd
00000050: e151 9e3d 4f91 e939 bf0d af3d 76ca 7f3d
00000060: ac00 53be 2e85 85bd 6d39 1b3e 4d3e 6dbd
00000070: be9d 643d 1e27 153e 3dd8 d5bd 62d1 4cbc
00000080: ad5b 153e 219b 13be d799 47be fb92 c7bc
00000090: dd9d 103e fb8a 343d dce1 873d fac1 1b3e
000000a0: ed50 bd3d dff3 4bbd b0a1 14be d5df 6fbd
000000b0: 7856 7f3d 40be 883b 96f6 26be e99d 9f3e
000000c0: 9b43 8b3d 5297 10be 0082 5b3d 96fa 943d
000000d0: 4748 e2bd dd21 dbbb 7723 1c3d 44b6 1cbe
000000e0: 8c35 1e3d e851 f03c f74a ca3d 51b5 a03d
000000f0: 6284 a9bd 03db 933d dd20 c2bd 1671 04be
00000100: e70a 1bbd 5953 c33c c72b fa3a c230 0fbe
00000110: d8b4 b43d b398 5cbd 1383 863c 4a0b b2bd
00000120: 609a 4bbe 04ad 623d a936 51be 13eb b23c
00000130: e728 00be 9770 d3bc b598 c4bd 395a 31be
00000140: f2a4 143e 53ba 0cbe 01f8 27be efe4 363d
00000150: adc8 1cbe 4a09 dabd 4042 0bbe d19f c93b
00000160: b61d 7f3c e461 7ebe e76b f0bb bb40 5abd
00000170: d222 353d 13a2 1d3e 7b7d 5fbe a746 d03d
00000180: 9332 c3bd 47b4 58be 2136 df3c 8b3c 65bd
00000190: 8a6f 27bd 2f8b 24bc 8957 6bbd 7a7f 9d3d
000001a0: 21ab b7bd cb87 88bd 653b 2d3e e3c9 79bc
000001b0: 685f 17be 9fa1 593d 7e11 893c 7cce efbd
000001c0: 8a99 eebd 39f6 293a 34ed 4c3c 6e4a 9cbd
000001d0: e9b6 fcbd 865b 313c 6a01 a03c 2c75 dc3d
000001e0: 6cce 6ebe 570b 35be 85be a73d 595e f8bd
000001f0: 00f4 34be c9f0 b8bc bcd5 bf3c 93db 963c
00000200: 4528 d6bd a812 8ebe 6039 4f3d 4dbd e2bd
00000210: b4b3 3abe 7db9 133c 850b 8dbd d788 c2bd
00000220: fdcf ec3d 36f1 563c 0c40 3cbd 5719 2c3c
00000230: 7620 3d3e 7f3c 4ebd f613 43bd 6798 1dbc
00000240: fa95 f83d 6dbd 89bd 3d21 eabd e290 b43c
00000250: 67e6 7f3d 806f de3d 70bb 31be 56b4 4bbe
00000260: 4460 98bd 9c0f a6bd f779 043e ff87 553d
00000270: f970 233d 0ea4 c73d b64f 12bd 882f e3bc
00000280: be99 423e 5459 ec3d 6d54 923c 40dd 3b3e
00000290: c5ab 25ba c2c9 39bb c35b 71bd 126a 523e
000002a0: 0d86 813d b55c 213e 3714 b7bd bbfe 4e3e
000002b0: 4db5 83bd e905 0e3d f4ff 783d 8e48 403e
000002c0: 9679 d03d 7567 263e b3c0 fa3d 328b 2c3e
000002d0: 6d60 3a3e bbc2 cdbc 7141 13be 2ffb 303e
000002e0: 8ebb 10bd 84b0 9f3d 8261 b0bd afe2 b4bd
000002f0: 5d5f 8dbd c210 353e 29bd b9bd af65 e73d
00000300: 9e68 b13c 51d7 553d d4d3 92be 4317 0c3d
00000310: 92b8 8cbe 4353 b3bd 5073 a43a 495d 3cbe
00000320: 05a6 7fbd 48d3 05be 97d1 493d e45c 453e
00000330: d471 53be 0399 69bb f1d9 b83d 47d3 68be
00000340: 3a29 b2bd a705 1fbc e4d3 0e3d fd94 b83d
00000350: f28d 483d 1103 51bd fe28 1dbd c040 c73c
00000360: 7fea 80be b0c8 adbe 6688 223e 2bf7 4cbe
00000370: 0915 98be 81eb 983c 556b a239 0ad7 213e
00000380: 14ff 5fbe 3453 11be db41 153d f9b0 f2bd
00000390: be0e 103e 2955 42be bd32 803d 7a9f 55be
000003a0: 8060 18be e3b1 c9bd b807 04be cfa7 9ebd
000003b0: e477 25be 70ec dbbd 005f 533d ba72 043e
000003c0: e4c9 1f3d b752 16be 018b 30be cf2f 77be
000003d0: 7690 a6bc 5c21 f0bb c364 c9b9 3e4b 123e
000003e0: d374 53be d716 9d3d f632 8e3d 9ac8 8bbe
000003f0: 1e2c cf3d fa76 06be 0a2f c4bd cb24 e43c

rnn.weight_hh f4 [96, 32]
-0.10818432 -0.19210325 -0.043646798 -0.10862952 -0.17206019 -0.06466218 -0.13945101 -0.01020311
-0.061261747 0.03722216 0.03851672 0.21051776 0.12998492 -0.012472446 -0.021524847 0.0071097133
0.052281212 0.15377213 -0.15912281 0.04458323 0.14457025 -0.017035007 0.057648607 0.17488505
0.16854295 -0.17807214 0.12412562 0.17288016 0.03406959 -0.18363565 0.061662275 -0.092260145
-0.063090414 -0.069606334 -0.082841836 -0.033854075 -0.13492645 0.09014387 -0.18551105 -0.10289456
0.10636422 -0.09734713 0.0025021501 0.14728881 0.10434582 -0.084011525 0.030475937 -0.1956348
-0.10190256 -0.029408753 -0.21284705 -0.084855534 -0.21129794 -0.016759055 0.002013965 -0.06606821
0.035507087 0.1441154 -0.11450075 0.11692108 0.11308328 0.11626505 -0.0336801 -0.10160618
0.015579942 -0.006956594 0.17782633 0.044736087 0.1267691 0.12657964 -0.14083163 -0.011262348
-0.17288324 0.08293932 0.14332105 0.061481256 0.106329896 -0.055130415 0.06847382 -0.14520536
0.0012147817 0.04646488 -0.19128844 0.19351281 -0.112485826 -0.15536161 0.039862204 -0.064279445
0.16258498 -0.04771164 -0.042189766 0.1663823 0.018094536 -0.021788979 0.11776567 0.14309952
0.21194401 -0.025289461 0.06872937 0.053698674 -0.05067801 0.14674082 0.08768586 -0.04980917
-0.19538587 -0.030775376 -0.038400173 -0.13581759 -0.06089461 -0.14794268 0.03026093 -0.016450612
0.13526669 0.077705614 0.051530495 0.18957753 0.022014087 0.08172759 0.11585104 0.03604504
0.062587775 -0.08666107 -0.06517625 0.14068434 0.012621858 -0.07354394 -0.028750319 -0.026050892
-0.09220139 -0.009262494 -0.055962563 -0.075098455 -0.015683634 -0.0064625484 -0.06958961 -0.07392519
0.04449047 0.00738078 -0.0008796118 0.07941481 -0.12218464 -0.11547838 -0.03863388 0.1377902
0.17284699 -0.02690563 -0.033005994 0.06304752 -0.120946944 -0.012308957 0.046332706 -0.035081774
0.04153127 0.0147355385 -0.10018447 -0.05110889 -0.017915173 0.17317915 -0.01356047 0.04358703
0.14058101 -0.008877327 -0.14865108 -0.115682945 0.13915263 -0.17248347 0.081811756 -0.113724485
-0.08320347 -0.12245807 0.2428373 -0.1814723 0.095703475 -0.08323884 -0.044925198 0.2072012
0.13487601 0.019491898 0.12172663 -0.080367915 0.031140177 -0.025282834 -0.038415987 0.10925324
-0.1648621 -0.19652936 0.19419868 -0.14981213 -0.14340888 0.19960044 0.030109288 0.09319247
-0.018396752 0.029311674 -0.2682258 0.19544736 0.06446286 0.05287202 -0.035400793 -0.2716893
-0.23964773 0.041994695 0.16047646 0.019845992 0.11377896 -0.1345591 0.02072444 0.056531023
-0.11753803 -0.09217351 0.09387693 0.033377502 -0.07708603 -0.14358489 0.13272007 -0.08269967
0.029991584 0.00308503 -0.2592749 0.21166316 -0.011774939 0.019647215 0.1148677 -0.19492997
0.044487577 0.01654335 -0.19533476 -0.13480443 -0.035020154 -0.033355117 0.0984652 -0.01224413
-0.0022470583 -0.080480605 0.054094043 0.042698357 0.023962023 -0.080342114 -0.033379693 -0.1017532
0.070486836 -0.039064426 0.0552782 0.2349048 -0.0030704516 -0.12523158 -0.037087016 -0.063501544
0.06843433 0.096005656 0.06756165 -0.035182197 0.102712 0.09419937 0.026708748 -0.062037807
00000000: be8f ddbd b7b6 44be fcc6 32bd 2779 debd
00000010: 8c30 30be 9b6d 84bd 3fcc 0ebe f22a 27bc
00000020: 99ed 7abd 4376 183d b5c3 1d3d f891 573e
00000030: c41a 053e 3b59 4cbc e054 b0bc 99f8 e83b
00000040: d324 563d 7176 1d3e 17f1 22be e89c 363d
00000050: 390a 143e 008d 8bbc f220 6c3d 1115 333e
00000060: 8696 2c3e 8b58 36be 9335 fe3d 7f07 313e
00000070: 8e8c 0b3d fc0a 3cbe 9591 7c3d e3f2 bcbd
00000080: 8c35 81bd c48d 8ebd fba8 a9bd 92aa 0abd
00000090: 292a 0abe 599d b83d 9cf6 3dbe 62ba d2bd
000000a0: 7cd5 d93d ef5d c7bd 1dfb 233b e1d2 163e
000000b0: 43b3 d53d 3c0e acbd aca8 f93c 7d54 48be
000000c0: 4ab2 d0bd a0ea f0bc 94f4 59be bdc8 adbd
000000d0: 7d5e 58be 494a 89bc bafc 033b c54e 87bd
000000e0: e16f 113d fd92 133e 5f7f eabd 5274 ef3d
000000f0: 3598 e73d 5f1c ee3d 25f4 09bd e716 d0bd
00000100: 0343 7f3c 24f4 e3bb 1b18 363e 303d 373d
00000110: c2cf 013e 189e 013e 2b36 10be b685 38bc
00000120: 4e08 31be 17dc a93d c1c2 123e c5d3 7b3d
00000130: 7dc3 d93d 6ed0 61bd 013c 8c3d b7b0 14be
00000140: 4f39 9f3a f551 3e3d 1ee1 43be 3928 463e
00000150: f85e e6bd 1d17 1fbe 8d46 233d f1a4 83bd
00000160: ad7c 263e 486d 43bd 2dcf 2cbd 1f60 2a3e
00000170: fe3a 943c cd7e b2bc 212f f13d ae88 123e
00000180: da07 593e d82b cfbc fcc1 8c3d 24f3 5b3d
00000190: bf93 4fbd 3a43 163e a594 b33d b304 4cbd
000001a0: 3c13 48be a41c fcbc 8049 1dbd c413 0bbe
000001b0: a06c 79bd 497e 17be c5e5 f73c 6fc3 86bc
000001c0: 5a83 0a3e 1f24 9f3d a411 533d 9d20 423e
000001d0: e356 b43c cb60 a73d 4f43 ed3d f7a3 133d
000001e0: 052e 803d 5c7b b1bd 207b 85bd 8e0f 103e
000001f0: e9cb 4e3c 359e 96bd ca85 ebbc ae68 d5bc
00000200: 15d4 bcbd b7c1 17bc 0039 65bd 38cd 99bd
00000210: f77a 80bc c9c3 d3bb ff84 8ebd 1766 97bd
00000220: a43b 363d 78da f13b c095 66ba 3ba4 a23d
00000230: f13b fabd ee7f ecbd 8f3e 1ebd e018 0d3e
00000240: cdfe 303e 3269 dcbc 4b31 07bd 0f1f 813d
00000250: 08b3 f7bd 82ab 49bc 5dc7 3d3d e8b1 0fbd
00000260: b11c 2a3d 546d 713c 842d cdbd 8e57 51bd
00000270: d7c2 92bc e055 313e bc2c 5ebc 5088 323d
00000280: 78f4 0f3e 3572 11bc fd37 18be 2eeb ecbd
00000290: 077e 0e3e 829f 30be ec8c a73d 62e8 e8bd
000002a0: 9566 aabd 4ccb fabd 57aa 783e e0d3 39be
000002b0: 2f00 c43d 2079 aabd 7c03 38bd 8d2c 543e
000002c0: f01c 0a3e 79ad 9f3c d04b f93d ef97 a4bd
000002d0: af19 ff3c f21d cfbc 155a 1dbd 2ac0 df3d
000002e0: 9cd1 28be fe3e 49be 05dc 463e 5a68 19be
000002f0: c7d9 12be 0f64 4c3e c1a7 f63c b2db be3d
00000300: c9b4 96bc 091f f03c e454 89be 5a23 483e
00000310: 1b05 843d 5590 583d 6c00 11bd dc1a 8bbe
00000320: 3766 75be a102 2c3d f153 243e 1094 a23c
00000330: f204 e93d dcc9 09be 4dc6 a93c 138d 673d
00000340: c7b7 f0bd 77c5 bcbd 8c42 c03d d9b6 083d
00000350: 48df 9dbd eb07 13be c5e7 073e 725e a9bd
00000360: e9b0 f53c 372e 4a3b aebf 84be 3abe 583e
00000370: aceb 40bc 32f3 a03c c23f eb3d b99b 47be
00000380: 9b38 363d eb85 873c d605 48be 2c0a 0abe
00000390: 4b71 0fbd 609f 08bd 1fa8 c93d 9a9b 48bc
000003a0: 6243 13bb 04d3 a4bd b791 5d3d 79e4 2e3d
000003b0: 014c c43c 688a a4bd 25b9 08bd fb63 d0bd
000003c0: 675b 903d 0502 20bd 656b 623d e28a 703e
000003d0: a139 49bb b53c 00be 8ee8 17bd 190d 82bd
000003e0: 4c27 8c3d 9d9e c43d c35d 8a3d 351b 10bd
000003f0: ab5a d23d 99eb c03d 4ecc da3c 5b1b 7ebd

rnn.bias_ih f4 [96]
-0.115810156 0.10359556 -0.13844378 -0.00032938438 0.054846127 0.078311585 0.14752452 0.0847478
0.2047991 -0.07159234 -0.06560313 0.14638998 -0.14182119 0.102316245 0.022304367 0.069489926
-0.10336202 -0.12441897 0.03886189 0.04967883 -0.12200127 0.08608072 -0.09161683 0.11354025
0.0044178977 -0.04076616 -0.13493487 0.07058685 0.041726775 -0.014221118 0.20068866 0.15191999
-0.055382572 -0.20797397 -0.06178914 -0.2254507 -0.163403 -0.039722122 -0.04221889 0.09892914
0.100005485 -0.24084488 -0.043583278 -0.08880677 -0.10675837 0.08137319 0.013576741 -0.07756824
-0.26581165 -0.039493762 -0.27483708 0.028245604 -0.05548807 -0.2024205 -0.014820193 0.18272963
-0.14838973 0.008979591 -0.17159908 -0.20449415 -0.015362713 -0.014088255 -0.0122882435 -0.15796793
0.07198151 -0.12474509 0.035349462 -0.009169688 0.07869531 0.041316617 0.07442976 0.12458776
-0.006804041 -0.13840258 0.16718335 -0.039786477 0.021200933 0.13894396 -0.06886781 0.014077684
0.121429324 -0.056842692 0.14159356 -0.095813125 -0.13177946 -0.16255818 -0.15295058 -0.0875496
0.09354816 0.13300875 0.095745794 -0.12028208 0.15893379 0.15546875 -0.10994646 0.1576091
00000000: e02d edbd e929 d43d 35c4 0dbe 39b1 acb9
00000010: 55a6 603d d361 a03d ab10 173e 4190 ad3d
00000020: dbb6 513e 019f 92bd ef5a 86bd 41e7 153e
00000030: 9339 11be 2e8b d13d a6b7 b63c bc50 8e3d
00000040: 77af d3bd 5fcf febd a52d 1f3d 077c 4b3d
00000050: cddb f9bd 174b b03d 9ba1 bbbd ca87 e83d
00000060: 03c4 903b 6bfa 26bd 5e2c 0abe d78f 903d
00000070: b2e9 2a3d b1ff 68bc 5481 4d3e ea90 1b3e
00000080: d6d8 62bd 21f7 54be 9c16 7dbd 8cdc 66be
00000090: 1e53 27be aab3 22bd b7ed 2cbd 5c9b ca3d
000000a0: adcf cc3d 0aa0 76be 6184 32bd 53e0 b5bd
000000b0: 22a4 dabd fda6 a63d fb70 5e3c 19dc 9ebd
000000c0: 7718 88be 36c4 21bd 72b7 8cbe 5363 e73c
000000d0: 7547 63bd 5247 4fbe 65d0 72bc 7a1d 3b3e
000000e0: 7af3 17be 221f 133c abb7 2fbe ea66 51be
000000f0: e3b3 7bbc 6dd2 66bc a154 49bc 58c2 21be
00000100: 0b6b 933d 5b7a ffbd 99ca 103d 763c 16bc
00000110: 022b a13d 9d3b 293d a16e 983d de27 ff3d
00000120: 6ff4 debb 68b9 0dbe 1d32 2b3e 25f7 22bd
00000130: 94ad ad3c 5347 0e3e 910a 8dbd 16a6 663c
00000140: f0af f83d e2d3 68bd e7fd 103e ac39 c4bd
00000150: 32f1 06be a775 26be 149f 1cbe 344d b3bd
00000160: 2d96 bf3d 7233 083e 5f16 c43d 7356 f6bd
00000170: 8abf 223e 3333 1f3e 9c2b e1bd 4864 213e

rnn.bias_hh f4 [96]
-0.01216499 -0.08325553 0.13531008 0.024878036 -0.014476404 0.15656006 -0.15274155 0.109877475
0.044816803 0.11803107 -0.022223933 0.14871004 0.19167854 0.05436069 0.18528634 0.090782456
0.0047726613 0.17740722 -0.015846903 -0.122312754 0.1308693 -0.13173972 0.14954972 -0.09060878
0.100175366 0.065297276 0.101274945 0.08115955 0.16285804 0.0033493016 0.19396058 0.047766924
-0.081588656 -0.12285995 0.08230743 -0.15758036 0.09056573 0.008579761 -0.21024953 -0.103151016
0.113095224 0.043203466 0.05242236 -0.071984716 -0.08239716 -0.046695113 -0.11840482 -0.17534448
-0.13042603 -0.053976614 -0.22263467 0.018173743 -0.077298865 0.065663636 -0.08150692 0.15515357
0.042675167 -0.15653023 -0.13841504 -0.08540015 -0.045778885 -0.11582919 0.0706701 -0.14937909
-0.14734301 -0.06197928 0.06279905 0.03076489 0.10581105 -0.11479261 0.11177088 0.018170426
-0.11707139 -0.031096747 0.0150195025 0.1581647 -0.061440956 -0.14895634 0.09074671 0.13306391
0.12487359 0.09373555 -0.08296216 -0.14227329 0.06738409 -0.16629077 -0.040046204 -0.19237797
-0.16530614 -0.15519582 0.21177064 0.03161015 -0.13153028 0.054980457 0.074821554 -0.09462508
00000000: ab4f 47bc e081 aabd ba8e 0a3e 06cd cb3c
00000010: 702e 6dbc 4851 203e 4868 1cbe 7107 e13d
00000020: d391 373d 46ba f13d f70e b6bc 7247 183e
00000030: 6147 443e 51a9 5e3d b4bb 3d3e 27ec b93d
00000040: fc63 9c3b 3daa 353e 5dd1 81bc 1c7f fabd
00000050: 9a02 063e c7e6 06be 9023 193e 1991 b9bd
00000060: be28 cd3d 94ba 853d 3d69 cf3d fa36 a63d
00000070: 42c4 263e f57f 5b3b 9a9d 463e 40a7 433d
00000080: f417 a7bd ff9d fbbd cc90 a83d bf5c 21be
00000090: 877a b93d 2092 0c3c a74b 57be d740 d3bd
000000a0: 789e e73d 1ef6 303d d4b8 563d b96c 93bd
000000b0: d8bf a8bd 6043 3fbd 3a7e f2bd 818d 33be
000000c0: 678e 05be 9516 5dbd 58fa 63be 1ae1 943c
000000d0: de4e 9ebd a87a 863d 1aed a6bd 94e0 1e3e
000000e0: 28cc 2e3d 7649 20be acbc 0dbe 46e6 aebd
000000f0: a482 3bbd db37 edbd 7cbb 903d d5f6 18be
00000100: 16e1 16be fcdd 7dbd ca9c 803d a706 fc3c
00000110: 77b3 d83d 6318 ebbd 22e8 e43d 25da 943c
00000120: 20c3 efbd 9bbe febc 5c14 763c edf5 213e
00000130: 83a9 7bbd 0388 18be 69d9 b93d e841 083e
00000140: babd ff3d 6df8 bf3d 11e8 a9bd 17b0 11be
00000150: ab00 8a3d 2148 2abe 7d07 24bd bbfe 44be
00000160: 0346 29be a7eb 1ebe 67da 583e a579 013d
00000170: e0af 06be 3033 613d 0b3c 993d cbca c1bd

fc2.weight f4 [6, 32]
0.24159938 0.06188635 0.21200313 0.45153838 0.083733976 -0.22335948 -0.16392477 0.023460006
0.113565534 -0.040852923 0.36425596 0.021072166 0.12762707 0.04141164 -0.15814835 0.026283959
0.121795565 0.33307236 -0.16250716 -0.14965631 -0.012531306 -0.012566541 -0.039497428 0.06580945
-0.053573307 -0.3739873 0.11211795 0.0224617 0.017227309 -0.27128598 -0.04488982 -0.16459788
0.04471402 -0.04284964 -0.117176875 -0.09564484 -0.124525845 0.19851114 0.11809564 0.27996984
-0.1811292 -0.06624997 -0.00555936 -0.22063963 0.17516837 0.016484248 -0.06593972 -0.3727289
-0.04064487 0.24223341 -0.07994764 -0.057939358 0.1360407 -0.017622551 0.2843035 -0.13085446
-0.40023202 -0.09431376 -0.026770705 -0.21154405 -0.28072745 -0.14920318 0.030142933 0.15354313
0.0015818991 0.12966977 -0.17295001 -0.27999157 -0.116384745 -0.15410823 -0.32078606 0.13399568
0.18424326 0.16732126 0.050744507 0.15651819 0.21570389 0.16552587 0.032991864 -0.13330038
-0.0066198083 -0.089349896 0.37925965 -0.06968719 0.05767818 0.16014646 -0.2966228 0.10507792
-0.16640107 0.2400169 0.24407709 0.07745413 -0.18923351 -0.2461911 0.103159405 -0.2493386
-0.40757388 0.121754386 -0.06254497 -0.025623675 0.065956734 -0.2158846 0.15660827 -0.0005296594
0.049575243 0.25026447 -0.26622063 -0.08361515 0.0018371108 0.22835459 -0.033596445 0.27614003
-0.18413557 0.2880397 0.008869119 -0.23340142 -0.02660338 0.15851855 0.06651416 -0.0022601222
-0.11288101 0.12340729 -0.03160715 0.29191515 -0.2697296 -0.040959664 -0.35734758 0.06768607
0.38868248 -0.20977435 0.14457418 -0.2542869 -0.2619153 0.03664761 0.0005736671 0.20741388
-0.18942294 0.15630849 0.116518416 0.27861196 -0.08684908 0.17165205 0.12846328 0.071072005
0.09537759 0.1522334 -0.22981057 -0.23894203 0.06842833 0.12984362 -0.06428273 -0.30510375
0.27856335 -0.026093988 0.036860593 0.050642442 -0.048667595 0.0845407 -0.12107865 0.15689684
0.330757 0.0121449875 -0.24932131 0.18796314 -0.054534867 -0.35143945 -0.13187449 0.027646083
-0.23269163 0.065539025 -0.030033099 -0.030303687 0.13971096 -0.2955349 -0.17984614 0.19876777
0.15079972 0.14652103 -0.1503168 0.10292605 0.27110535 0.06466433 -0.106328845 -0.24313241
0.17636825 0.21838625 -0.6329251 0.120667115 0.002270958 -0.06158286 0.24282792 0.08153935
00000000: d465 773e 8b7c 7d3d 5917 593e 0a30 e73e
00000010: b87c ab3d 59b8 64be e5db 27be 332f c03c
00000020: 0c95 e83d 6555 27bd c27f ba3e 899f ac3c
00000030: acb0 023e 409f 293d a4f1 21be 7551 d73c
00000040: f46f f93d 7688 aa3e 4768 26be 813f 19be
00000050: 1b50 4dbc e5e3 4dbc 0ec8 21bd 1bc7 863d
00000060: af6f 5bbd 437b bfbe 199e e53d 9901 b83c
00000070: 4920 8d3c ffe5 8abe 63de 37bd 598c 28be
00000080: 0c26 373d 1b83 2fbd 6efa efbd 71e1 c3bd
00000090: 6807 ffbd 8146 4b3e 20dc f13d 3558 8f3e
000000a0: ef79 39be 10ae 87bd 4b2b b6bb 5bef 61be
000000b0: 565f 333e f909 873c 670b 87bd 53d6 bebe
000000c0: 3c7b 26bd 090c 783e 97bb a3bd d251 6dbd
000000d0: 414e 0b3e 2b5d 90bc 3a90 913e b6fe 05be
000000e0: 36eb ccbe 9327 c1bd 3d4e dbbc 019f 58be
000000f0: 82bb 8fbe b8c8 18be 50ee f63c 693a 1d3e
00000100: ba57 cf3a 27c8 043e cf19 31be 0e5b 8fbe
00000110: 205b eebd 8cce 1dbe 123e a4be 2a36 093e
00000120: 44aa 3c3e 4456 2b3e 79d9 4f3d 4e46 203e
00000130: 7be1 5c3e 9d7f 293e 7a22 073d e57f 08be
00000140: faea d8bb 14fd b6bd 522e c23e 28b8 8ebd
00000150: f53f 6c3d 6ffd 233e f2de 97be 1833 d73d
00000160: 0b65 2abe fdc6 753e 58ef 793e 45a0 9e3d
00000170: 6ec6 41be 8519 7cbe 3d45 d33d 9e52 7fbe
00000180: 86ad d0be 5d5a f93d 9417 80bd bee8 d1bc
00000190: 5314 873d da10 5dbe eb5d 203e d7d8 0aba
000001a0: 690f 4b3d aa22 803e 124e 88be 6b3e abbd
000001b0: 36cb f03a c9d5 693e 6d9c 09bd 3a62 8d3e
000001c0: 098e 3cbe f179 933e c84f 113c c800 6fbe
000001d0: 55ef d9bc b052 223e 9338 883d 8f1e 14bb
000001e0: 292e e7bd f6bc fc3d 8076 01bd e775 953e
000001f0: 001a 8abe 52c5 27bd 43f6 b6be ff9e 8a3d
00000200: 6401 c73e 16cf 56be 410b 143e e431 82be
00000210: c319 86be ce1b 163d 2662 163a 4e64 543e
00000220: 16f8 41be 550f 203e 35a1 ee3d 3aa6 8e3e
00000230: eedd b1bd 8ec5 2f3e e18b 033e 338e 913d
00000240: 5355 c33d 13e3 1b3e 7653 6bbe 38ad 74be
00000250: 2724 8c3d baf5 043e aaa6 83bd 8f36 9cbe
00000260: db9f 8e3e 0fc3 d5bc 22fb 163d 736e 4f3d
00000270: ac57 47bd ad23 ad3d 15f8 f7bd 91a9 203e
00000280: fb58 a93e c5fb 463c 164e 7fbe 6979 403e
00000290: f45f 5fbd dfef b3be 1b0a 07be 0a7a e23c
000002a0: b746 6ebe 5339 863d f907 f6bc 703f f8bc
000002b0: 6410 0f3e 5a50 97be 9629 38be c789 4b3e
000002c0: 3e6b 1a3e 9c09 163e a6ec 19be e5ca d23d
000002d0: 52ce 8a3e bb6e 843d f0c2 d9bd b4f7 78be
000002e0: e199 343e a5a0 5f3e 6107 22bf 5220 f73d
000002f0: 5ad4 143b 4f3e 7cbd e2a7 783e 1afe a63d

fc2.bias f4 [6]
0.011802386 0.0070421477 -0.0136901 0.005506837 0.017652603 0.039120715
00000000: cb5e 413c d1c1 e63b 714c 60bc b272 b43b
00000010: 319c 903c 0b3d 203d
