results/alpha_0.25/agent_1000.pt (torch, 43191 bytes, 8 tensors)

fc1.weight f4 [32, 104]
-0.23847471 0.12983945 0.029346438 -0.008158914 0.05314919 -0.10717416 -0.3804156 0.12454089
0.26773423 0.11665587 -0.00301504 -0.037094783 -0.2138662 0.03528779 -0.09621816 0.069920495
0.05941161 0.11013835 -0.230807 -0.13194162 -0.009556786 -0.03307718 0.025549853 0.07799919
-0.20471653 -0.096336916 -0.017681973 -0.09252585 -5.4441993e-05 -0.15738182 -0.2702836 -0.0028005308
0.0357163 -0.023300726 -0.11772979 0.14837027 0.059048556 -0.08772881 0.08035579 0.055338323
-0.22278094 0.0792208 -0.048323408 0.1835706 0.16297442 0.04996577 -0.0033400774 -0.0278616
0.09126093 -0.012920355 -0.07616486 0.008116427 -0.11605501 0.12597662 0.05802871 -0.0985959
-0.17876403 0.0031760896 0.058948793 -0.17518994 0.04534615 0.01112494 0.09482666 -0.17726909
-0.010748022 -0.01910783 -0.063799426 -0.08229922 0.123873964 0.048144206 -0.14656669 -0.081761055
-0.1206957 -0.040354803 -0.14034696 0.12709175 0.018923944 -0.059399012 0.017447118 -0.12258851
-0.060158357 -0.051471315 -0.07330297 -0.022946179 -0.10578678 -0.21828914 0.028628178 -0.06355472
-0.08756017 -0.20970792 -0.026933504 -0.086805955 -0.12035072 0.027242612 0.13172823 0.08194064
0.008351197 0.1306913 -0.065787785 0.051647756 0.024159033 -0.032097276 0.094912045 0.042006966
0.09953151 -0.29560184 0.07386652 0.0074971463 -0.065589406 0.09686177 0.23533759 -0.07121519
0.042490836 -0.07844758 0.1279891 0.02962355 0.17261818 -0.06801077 -0.0076512024 -0.07193459
-0.025871579 -0.0134361945 0.1275001 -0.0041083517 -0.011705793 -0.124403134 -0.036007546 -0.08686302
0.0011627804 0.071537964 -0.12443094 -0.02364431 -0.06969854 0.019601285 0.29410487 -0.14167854
0.020717135 -0.15771918 -0.16921039 0.13103604 0.14720336 0.0012214566 0.030226318 0.10283145
-0.033970866 -0.054020673 -0.13613328 -0.16901496 -0.20693034 -0.0858429 -0.0319173 0.06126798
0.055212002 -0.012919219 0.04392654 -0.08446242 0.05678059 -0.0060466807 -0.11802038 -0.09546616
0.030965546 -0.14400253 -0.19568363 0.032855846 0.04651719 -0.006949563 -0.18644495 -0.016136833
0.13929272 0.037416156 0.10026468 -0.029581945 -0.085569605 -0.10810681 0.16074783 0.25998074
0.08722997 0.15634826 0.070126936 0.05252064 -0.08345485 -0.047236077 -0.04553224 -0.28628474
0.12082789 0.015712967 -0.06484983 0.02422735 -0.08046821 -0.12904957 0.030420806 0.02228422
0.16597494 0.06280053 0.04233824 0.06273497 0.1706372 0.08137574 0.11766177 -0.018529406
0.33950996 -0.04784701 -0.02407413 0.25963718 0.06566973 0.07679689 0.06050695 0.06093966
0.16500378 -0.2745161 -0.2518172 -0.18762964 0.12127328 -0.374457 -0.4458225 -0.008980442
-0.21798594 0.057179786 0.080739245 -0.014938836 -0.18825439 -0.013000202 0.078677416 -0.148605
-0.09365511 -0.21045913 -0.07152439 0.08416129 0.09452094 -0.05072218 0.009063865 0.00420555
0.14638458 -0.10086698 -0.25927386 0.0130968895 0.19584604 0.08811601 0.084067546 -0.04162892
-0.04506835 0.04579627 -0.079965524 -0.018421393 -0.06174216 0.06659782 0.16007228 -0.15757802
0.01597053 -0.09979016 0.06607687 -0.1690582 -0.017023051 0.06293105 0.036973756 0.03414191
00000000: b732 74be a2f4 043e f167 f03c f7ac 05bc
00000010: f7b2 593d 207e dbbd d5c5 c2be 4b0f ff3d
00000020: 7614 893e 46e9 ee3d fa97 45bb b3f0 17bd
00000030: beff 5abe ee89 103d 070e c5bd 7a32 8f3d
00000040: 9759 733d 3790 e13d ac58 6cbe b41b 07be
00000050: 1194 1cbc f07b 07bd ed4d d13c 0abe 9f3d
00000060: 36a1 51be 4a4c c5bd c9d9 90bc 317e bdbd
00000070: a558 64b8 b328 21be 9d62 8abe 1c89 37bb
00000080: 414b 123d 2ae1 bebc 511c f1bd 60ee 173e
00000090: e6dc 713d 2aab b3bd 9491 a43d 70aa 623d
000000a0: b020 64be 843e a23d c4ee 45bd eef9 3b3e
000000b0: c4e2 263e e8a8 4c3d 33e5 5abb 033e e4bc
000000c0: 03e7 ba3d e6af 53bc 52fc 9bbd c3fa 043c
000000d0: 40ae edbd 0400 013e 83af 6d3d a6ec c9bd
000000e0: eb0d 37be f125 503b 4a74 713d fe64 33be
000000f0: e2bc 393d 6145 363c 7b34 c23d 0786 35be
00000100: 7918 30bc 0688 9cbc 46a9 82bd 7e8c a8bd
00000110: a2b1 fd3d dc32 453d 9415 16be 5772 a7bd
00000120: 4f2f f7bd 144b 25bd 1db7 0fbe 5724 023e
00000130: 6306 9b3c 614c 73bd 42ed 8e3c af0f fbbd
00000140: 9c68 76bd 96d3 52bd de1f 96bd a0f9 bbbc
00000150: bda6 d8bd 3087 5fbe a485 ea3c fa28 82bd
00000160: bf52 b3bd acbd 56be a7a3 dcbc 52c7 b1bd
00000170: 707a f6bd e62b df3c c4e3 063e 7fd0 a73d
00000180: 75d3 083c f1d3 053e bfbb 86bd 998c 533d
00000190: 2ae9 c53c 6f78 03bd 3f61 c23d 7f0f 2c3d
000001a0: 2dd7 cb3d 2059 97be 5447 973d 9faa f53b
000001b0: bd53 86bd 775f c63d 56fc 703e 45d9 91bd
000001c0: df0a 2e3d 20a9 a0bd 930f 033e 16ad f23c
000001d0: d2c2 303e 3b49 8bbd f0b6 fabb 7152 93bd
000001e0: a2f0 d3bc 7c23 5cbc 638f 023e 5a9f 86bb
000001f0: a8c9 3fbc 12c7 febd a67c 13bd 3de5 b1bd
00000200: 7068 983a 7f82 923d a6d5 febd b6b1 c1bc
00000210: 1cbe 8ebd e092 a03c ea94 963e 2e14 11be
00000220: fbb6 a93c 2381 21be 7d45 2dbe 502e 063e
00000230: 7abc 163e 4819 a03a 2f9d f73c 4c99 d23d
00000240: 0925 0bbd c844 5dbd 8666 0bbe 4212 2dbe
00000250: 8ce5 53be 67ce afbd b7bb 02bd 22f4 7a3d
00000260: fb25 623d 22ab 53bc 51ec 333d a2fa acbd
00000270: c492 683d 3c23 c6bb abb4 f1bd c383 c3bd
00000280: 75ab fd3c 6675 13be 4a61 48be da93 063d
00000290: cf88 3e3d 29b9 e3bb 6deb 3ebe 6431 84bc
000002a0: c0a2 0e3e af41 193d 9257 cd3d d655 f2bc
000002b0: 1e3f afbd 1a67 ddbd 149b 243e 321c 853e
000002c0: a0a5 b23d c219 203e b69e 8f3d e21f 573d
000002d0: 60ea aabd 9e7a 41bd 0480 3abd ea93 92be
000002e0: 9d74 f73d 7bb8 803c fdcf 84bd 6f78 c63c
000002f0: 84cc a4bd 9225 04be 0e35 f93c 668d b63c
00000300: 56f5 293e 909d 803d dd6a 2d3d 317b 803d
00000310: 85bb 2e3e 53a8 a63d a7f8 f03d fbca 97bc
00000320: 40d4 ad3e 3afb 43bd 1c37 c5bc 2aef 843e
00000330: da7d 863d b047 9d3d 23d6 773d dd9b 793d
00000340: c0f6 283e 608d 8cbe 2fee 80be fc21 40be
00000350: 205e f83d d4b8 bfbe d942 e4be b422 13bc
00000360: b537 5fbe 5a35 6a3d 9e5a a53d 05c2 74bc
00000370: c2c5 40be cdfe 54bc a021 a13d e92b 18be
00000380: 40ce bfbd 9982 57be 617b 92bd c15c ac3d
00000390: 3294 c13d 10c2 4fbd 9b80 143c b6ce 893b
000003a0: d7e5 153e 5993 cebd 8bbf 84be 5694 563c
000003b0: dd8b 483e 2b76 b43d 9b2b ac3d 1683 2abd
000003c0: 9799 38bd df94 3b3d f7c4 a3bd 76e8 96bc
000003d0: 59e5 7cbd 7064 883d fde9 233e 225c 21be
000003e0: a1d4 823c c95e ccbd 4f53 873d 981d 2dbe
000003f0: ed73 8bbc ffe1 803d cb71 173d 63d8 0b3d

fc1.bias f4 [32]
-0.0047492427 0.02297491 0.04062064 0.0012655277 0.034619417 0.01514158 0.06737149 0.017076457
0.029403228 0.011740776 -0.00086026854 -0.010367954 0.031755105 0.014152708 0.033390753 0.025184872
0.009585832 -0.015867932 0.018792339 0.03749053 0.063728414 0.07452602 0.110565536 0.024389355
-0.0028626611 0.08033589 0.0035455958 0.0054233624 0.035188943 0.04435118 0.0051964526 0.037445426
00000000: 899f 9bbb e135 bc3c d461 263d 10e0 a53a
00000010: 17cd 0d3d 6414 783c 10fa 893d ede3 8b3c
00000020: 0adf f03c 625c 403c a583 61ba 5ade 29bc
00000030: a411 023d c3e0 673c bec4 083d 8150 ce3c
00000040: e50d 1d3c 77fd 81bc 64f2 993c ac8f 193d
00000050: 0b84 823d 19a1 983d 2f70 e23d 2fcc c73c
00000060: 7c9b 3bbb 2587 a43d 3a5d 683b 76b6 b13b
00000070: 4822 103d 95a9 353d 0147 aa3b 6060 193d

rnn.weight_ih f4 [96, 32]
-0.12134873 0.038259637 0.15938552 -0.012500265 -0.1832209 -0.12518263 -0.17552486 0.0984971
0.0015335664 -0.09504899 -0.049501058 -0.12311947 0.055185534 -0.019254591 -0.15987892 0.17258465
-0.09916439 -0.07879854 -0.15570107 0.05997738 -0.16758466 0.11978536 -0.061650477 0.047975495
0.011367705 0.10874679 -0.106358185 0.019753749 0.10205694 0.009087655 -0.09078753 -0.018598594
-0.024634859 0.179774 -0.047191355 -0.022208298 0.040572975 -0.1781502 0.0032373958 0.14054017
0.030088391 -0.12192717 0.13084751 0.10105368 -0.12344728 -0.10874053 -0.015878208 0.01445859
-0.13680083 0.057835493 -0.027848829 -0.03411427 -0.1648701 0.25280645 -0.23147132 -0.07049222
0.31952572 -0.016502189 -0.16261801 0.11138644 0.120741665 0.0572862 0.0030962098 -0.05546477
0.22223912 0.016803982 -0.020800821 -0.28383994 -0.17169423 -0.17314513 0.14921275 -0.018165557
0.23810756 0.21651411 -0.14247248 -0.16904822 -0.037758794 0.39592865 0.023177605 -0.22489582
-0.14164324 0.05331208 0.07074306 0.050709933 0.017289955 0.17657878 -0.010454687 0.03821934
-0.2015867 -0.3236868 -0.01434194 -0.1545013 -0.021442987 -0.21425456 0.08305183 0.16172893
0.30070287 -0.23498741 0.21137707 -0.01627435 -0.022328863 0.10782913 -0.21193829 -0.038977418
-0.19318594 0.091403835 0.040758684 0.111899264 0.1793597 0.018825665 0.21905832 0.03346503
-0.026713375 -0.057681378 -0.08583925 0.07210344 -0.43358004 -0.2646599 0.1606481 0.07925898
0.0055828798 -0.19238168 0.066911206 0.10843575 -0.029262945 0.0049826293 -0.038529597 -0.055647593
-0.12634847 0.3763029 -0.085185215 0.2812003 0.13476326 0.18517649 -0.08921049 -0.016366756
0.024642248 0.09351839 0.08746889 0.0034140567 -0.16830482 0.20226766 -0.18403503 -0.15262511
0.092034355 -0.12296638 -0.0170646 0.060423072 -0.09874958 0.062775634 -0.010795471 -0.22313601
-0.24816793 -0.1634451 0.11562393 0.13112724 0.060027227 -0.383654 -0.25090784 -0.010129254
0.06910582 -0.18989739 -0.22377735 -0.004309048 0.054048333 0.07008625 -0.13808143 0.028767345
-0.088704176 -0.088090196 -0.06648154 0.1371764 0.030198751 -0.14474992 -0.17161466 -0.012744793
-0.13965909 0.028727999 0.08368577 -0.08303054 -0.28321463 0.08710356 -0.26241252 -0.04614979
0.32651326 0.0051455875 0.10738775 0.03303861 0.015727406 0.029011201 0.009357781 -0.015942626
0.12264212 -0.043054778 0.16619484 -0.06812362 -0.30666038 -0.18564911 -0.0037610775 0.11002682
0.10289934 0.14948265 0.024165746 -0.15848449 -0.3291451 0.021926826 -0.016126394 -0.011726919
-0.24868824 0.19731882 -0.04027348 -0.13747604 0.00033634936 0.081247315 -0.08863104 -0.10012643
0.024343181 -0.30458835 0.0004922926 -0.19767958 0.028140886 -0.115485884 -0.08143676 0.15614608
-0.12848717 0.008564612 -0.10298017 0.034671415 0.15410042 0.29545316 -0.07549482 -0.042407375
-0.019559234 -0.19178206 0.032773986 0.08590004 0.1124622 -0.025212867 -0.057206683 0.16719702
0.121890604 0.028649895 0.07944522 -0.029472673 -0.08489956 0.2350496 -0.0051108813 0.041416407
0.23066843 0.14799017 0.16449898 -0.20458062 -0.2057681 -0.1155269 -0.03037296 0.092325814
00000000: af85 f8bd 23b6 1c3d f535 233e e9cd 4cbc
00000010: 429e 3bbe e02f 00be cabc 33be d9b8 c93d
00000020: f301 c93a 0ba9 c2bd 9fc1 4abd 1026 fcbd
00000030: 3a0a 623d cebb 9dbc 4db7 23be 08ba 303e
00000040: b316 cbbd 2161 a1bd 1a70 1fbe d7aa 753d
00000050: 509b 2bbe 0752 f53d 3685 7cbd f481 443d
00000060: 9c3f 3a3c a3b6 de3d 52d2 d9bd 9dd2 a13c
00000070: 3b03 d13d 63e4 143c d0ee b9bd 145c 98bc
00000080: 0bcf c9bc ad16 383e b94b 41bd 2dee b5bc
00000090: d92f 263d 026d 36be 7d2a 543b c3e9 0f3e
000000a0: ee7b f63c f4b4 f9bd e4fc 053e 3bf5 ce3d
000000b0: edd1 fcbd 5bb3 debd 0413 82bc b9e3 6c3c
000000c0: 8415 0cbe e9e4 6c3d 3a23 e4bc 68bb 0bbd
000000d0: b5d3 28be d96f 813e d106 6dbe 3a5e 90bd
000000e0: e098 a33e 992f 87bc 5685 26be 931e e43d
000000f0: 6847 f73d efa4 6a3d c8e9 4a3b 072f 63bd
00000100: a792 633e 81a8 893c 7c66 aabc 7853 91be
00000110: 9dd0 2fbe f54c 31be 3acb 183e efcf 94bc
00000120: 78d2 733e e0b5 5d3e 4ee4 11be fa1a 2dbe
00000130: f7a8 1abd 29b7 ca3e f6de bd3c 174b 66be
00000140: ed0a 11be c55d 5a3d bde1 903d 38b5 4f3d
00000150: aaa3 8d3c 11d1 343e 234a 2bbc e28b 1c3d
00000160: be6c 4ebe 47ba a5be 75fa 6abc 9735 1ebe
00000170: 34a9 afbc 8c65 5bbe 1417 aa3d 459c 253e
00000180: baf5 993e 8aa0 70be 3b73 583e c951 85bc
00000190: 05eb b6bc 85d5 dc3d 5a06 59be c9a6 1fbd
000001a0: 89d2 45be ef31 bb3d 94f2 263d 712b e53d
000001b0: 12aa 373e 4838 9a3c d350 603e a112 093d
000001c0: 02d6 dabc 4f43 6cbd 7dcc afbd f8aa 933d
000001d0: 34fe ddbe 8181 87be ef80 243e 8852 a23d
000001e0: 97f0 b63b b4ff 44be be08 893d 9013 de3d
000001f0: d8b8 efbc 5345 a33b 36d1 1dbd bbee 63bd
00000200: 7e61 01be c6aa c03e 9675 aebd 7cf9 8f3e
00000210: 61ff 093e e89e 3d3e fdb3 b6bd 9313 86bc
00000220: 8ade c93c 9286 bf3d e422 b33d 5ebe 5f3b
00000230: 1958 2cbe 411f 4f3e ae73 3cbe c249 1cbe
00000240: 827c bc3d ccd5 fbbd 0fcb 8bbc 2f7e 773d
00000250: 383d cabd 8390 803d 7ddf 30bc c47d 64be
00000260: bc1f 7ebe 275e 27be 3dcc ec3d 3846 063e
00000270: 1cdf 753d 4c6e c4be fe76 80be 2cf5 25bc
00000280: 5a87 8d3d 7674 42be e425 65be ea32 8dbb
00000290: c961 5d3d 6189 8f3d 3865 0dbe 7fa9 eb3c
000002a0: 89aa b5bd a268 b4bd 7927 88bd f877 0c3e
000002b0: 5f63 f73c 5339 14be c1bb 2fbe 89cf 50bc
000002c0: cb02 0fbe fb56 eb3c 7263 ab3d ea0b aabd
000002d0: 8201 91be 5a63 b23d ef5a 86be 9007 3dbd
000002e0: bf2c a73e 519c a83b 1cee db3d 7e53 073d
000002f0: c3d6 803c e6a8 ed3c 6151 193c 1c9a 82bc
00000300: cb2b fb3d 355a 30bd fb2e 2a3e 6584 8bbd
00000310: 9702 9dbe cd1a 3ebe 697c 76bb be55 e13d
00000320: e4bc d23d fb11 193e 3ef7 c53c c249 22be
00000330: b585 a8be e39f b33c 801b 84bc 4322 40bc
00000340: 21a8 7ebe f20d 4a3e cef5 24bd 85c6 0cbe
00000350: 0c58 b039 fe64 a63d 3184 b5bd 160f cdbd
00000360: 5a6b c73c 01f3 9bbe 320d 013a 846c 4abe
00000370: b787 e63c dd83 ecbd 51c8 a6bd c2e4 1f3e
00000380: 2492 03be 9652 0c3c 44e7 d2bd 9d03 0e3d
00000390: 80cc 1d3e a345 973e 079d 9abd 5bb3 2dbd
000003a0: b03a a0bc 8462 44be 043e 063d 5cec af3d
000003b0: 9552 e63d 378b cebc 8e51 6abd b235 2b3e
000003c0: c8a1 f93d 2fb3 ea3c 2db4 a23d ad70 f1bc
000003d0: d2df adbd d8b0 703e 2e79 a7bb 40a4 293d
000003e0: 5834 6c3e bc8a 173e 6c72 283e 957d 51be
000003f0: dfb4 52be 5e99 ecbd b7d0 f8bc 5115 bd3d

rnn.weight_hh f4 [96, 32]
0.15572856 0.04406764 -0.017789558 0.19303611 0.07680436 0.16822326 -0.15346101 0.07694263
-0.13534586 -0.055173684 -0.030435357 0.117886394 -0.08626041 -0.020643132 0.0490053 -0.13022667
-0.04628663 0.16047637 0.032915965 0.00023233298 -0.06393967 0.12928286 0.18130253 -0.050632242
-0.09415893 -0.09055646 0.11103193 -0.027304426 0.07189467 0.06331656 -0.17330968 -0.050610263
0.16821022 0.08428833 0.2239085 -0.012077553 -0.012399248 -0.05773514 0.03612308 -0.049174678
0.0030674534 0.0147646675 0.085370995 0.06620626 -0.045095697 0.14106336 -0.022283297 0.037880536
-0.12606657 0.23896421 0.23103282 0.14177668 0.101494 -0.17220561 -0.0067649055 0.18634874
-0.18871982 -0.14975691 0.034047063 0.067467466 -0.1387164 -0.15321834 0.09790144 0.09151769
-0.050074376 -0.17412497 -0.043714285 0.17031714 -0.0015064258 -0.10303756 0.043587435 0.2096979
0.10754573 0.05635326 0.12596858 -0.22148365 0.05795583 0.08735881 -0.12058411 -0.06717516
0.038173888 0.119628124 -0.14936632 -0.06111134 0.08990662 0.13289176 -0.1633966 0.15255933
0.15126114 -0.11753092 0.057046007 -0.0062779146 0.19053073 -0.066772185 -0.32546353 -0.11433835
0.064499006 -0.010837097 0.24426912 -0.09918508 0.19622175 -0.21629576 0.110820316 -0.085698776
-0.010281661 -0.06807117 -0.09372102 0.011570396 0.028761439 0.17216854 0.0018386241 -0.08109094
0.20092674 0.11066768 0.0047196792 -0.09845663 0.02150658 -0.012752001 0.03672923 -0.21893981
0.13730168 0.09455293 -0.12419176 0.14929603 0.028127335 0.17730147 -0.17895591 -0.13759935
0.07373697 0.196342 -0.011919437 -0.1582187 0.00083500426 -0.0004255468 -0.09810478 -0.17882797
-0.027213152 -0.09685402 0.15955994 -0.02718379 0.015426082 0.01474973 0.11358956 -0.35868734
0.05370377 0.12774616 -0.068356685 -0.0029344587 -0.07814695 0.30078056 -0.16893902 -0.00060211483
-0.09533276 0.17612167 -0.06329904 -0.22462168 -0.072757825 0.025931051 0.12354936 0.057519116
-0.047574963 -0.05981324 0.18881936 0.06341779 -0.02315894 -0.03675491 -0.17340885 -0.038068797
-0.044709954 0.1880326 0.08711616 0.0392999 -0.009635851 -0.030139236 0.043547314 -0.10553622
0.08109595 0.10679483 -0.19418365 0.19498871 0.07836773 0.06082512 -0.12757507 0.10398341
0.0038956278 0.08441965 -0.084374085 -0.06767684 -0.2699838 -0.0037860961 -0.1098146 0.10473085
0.091032274 0.00988143 -0.06185274 -0.015924592 -0.12329922 0.14679186 0.13367082 -0.09716221
-0.17760786 -0.004745228 -0.11392755 -0.07513598 -0.03358308 -0.058870267 0.011923926 -0.18023781
0.17611523 0.12075109 -0.07415102 -0.011160105 0.029997354 -0.267832 0.13829643 0.32923803
-0.00851806 0.16879922 -0.047088724 -0.031460866 -0.03527606 0.11760023 0.08423643 -0.032234896
-0.16529132 -0.02599317 -0.041034587 0.117727466 0.029533638 0.013663825 -0.12793411 0.014328401
0.16107291 -0.043345615 -0.049962457 0.051248133 0.03939638 -0.08429314 0.03711162 -0.051737733
-0.16658951 -0.12111352 0.0100837285 0.20225555 0.006817497 0.13011771 0.08992889 0.088643104
0.13845088 -0.09578754 -0.11707147 0.051884137 -0.016573075 0.052553404 -0.008988218 -0.0959009
00000000: 4f77 1f3e 4580 343d 68bb 91bc 42ab 453e
00000010: 9b4b 9d3d b842 2c3e e224 1dbe 1994 9d3d
00000020: 1b98 0abe cdfd 61bd 9253 f9bc 6c6e f13d
00000030: 4ca9 b0bd c91b a9bc c8b9 483d 245a 05be
00000040: 0d97 3dbd eb53 243e e4d2 063d 699e 7339
00000050: cdf2 82bd ba62 043e 5fa7 393e c163 4fbd
00000060: 66d6 c0bd aa75 b9bd b564 e33d 88ad dfbc
00000070: 833d 933d 1dac 813d 1878 31be b54c 4fbd
00000080: 4d3f 2c3e 5c9f ac3d 4548 653e eee0 45bc
00000090: 3726 4bbc af7b 6cbd cbf5 133d 636b 49bd
000000a0: 5407 493b 81e7 713c fdd6 ae3d 2697 873d
000000b0: 44b6 38bd ea72 103e 768b b6bc 9f28 1b3d
000000c0: 9817 01be 09b3 743e de93 6c3e e82d 113e
000000d0: 16dc cf3d ab56 30be 24ac ddbb 34d2 3e3e
000000e0: c53f 41be e059 19be ef74 0b3d 622c 8a3d
000000f0: ac0b 0ebe 45e5 1cbe 8d80 c83d a06d bb3d
00000100: ca1a 4dbd d14d 32be c00d 33bd 9e67 2e3e
00000110: 4373 c5ba 5b05 d3bd bd88 323d 0cbb 563e
00000120: f040 dc3d add2 663d e8fd 003e 9ccc 62be
00000130: 1863 6d3d 2de9 b23d cdf4 f6bd 2193 89bd
00000140: 395c 1c3d 97ff f43d 7cf3 18be e24f 7abd
00000150: f620 b83d c714 083e 7051 27be 8338 1c3e
00000160: 33e4 1a3e 0db4 f0bd 13a9 693d f7b6 cdbb
00000170: 7d1a 433e dbbf 88bd 28a3 a6be 3a2a eabd
00000180: 0e18 843d 148e 31bc af21 7a3e 8c21 cbbd
00000190: 5bee 483e a37c 5dbe c3f5 e23d d782 afbd
000001a0: 6974 28bc e668 8bbd cef0 bfbd c291 3d3c
000001b0: 1c9d eb3c f34c 303e fdfd f03a 0213 a6bd
000001c0: bdbf 4d3e bda5 e23d 8aa7 9a3b a1a3 c9bd
000001d0: 912e b03c c5ed 50bc 6471 163d c231 60be
000001e0: d098 0c3e f7a4 c13d 4058 febd 0fe1 183e
000001f0: 4c6b e63c 848e 353e 3840 37be d8e6 0cbe
00000200: 6903 973d e10d 493e be49 43bc 1504 22be
00000210: 30e4 5a3a ed1b dfb9 29eb c8bd ae1e 37be
00000220: 1eee debc 675b c6bd ae63 233e 8ab0 debc
00000230: adbd 7c3c daa8 713c a5a1 e83d dea5 b7be
00000240: 7cf8 5b3d e4cf 023e 97fe 8bbd 0c50 40bb
00000250: 820b a0bd e9ff 993e 5afe 2cbe 3ed7 1dba
00000260: d23d c3bd 3d59 343e eda2 81bd 3a03 66be
00000270: 0e02 95bd 5b6d d43c 7207 fd3d 2a99 6b3d
00000280: f7dd 42bd bafe 74bd dd59 413e 30e1 813d
00000290: d1b7 bdbc 518c 16bd 1792 31be 07ee 1bbd
000002a0: c921 37bd 9e8b 403e f569 b23d eff8 203d
000002b0: b0df 1dbc 8fe6 f6bc ab5e 323d 6023 d8bd
000002c0: a215 a63d 3fb7 da3d 14d8 46be 1fab 473e
000002d0: 437f a03d c323 793d 0aa3 02be 41f5 d43d
000002e0: ca4d 7f3b 36e4 ac3d 52cc acbd 289a 8abd
000002f0: 513b 8abe 2720 78bb 7ae6 e0bd 217d d63d
00000300: 216f ba3d b9e5 213c 4c59 7dbd 4a74 82bc
00000310: 4d84 fcbd 9b50 163e 01e1 083e fbfc c6bd
00000320: d6de 35be dc7d 9bbb d952 e9bd e5e0 99bd
00000330: 698e 09bd f321 71bd 925c 433c 4390 38be
00000340: 8d57 343e 594c f73d 7ddc 97bd dfd8 36bc
00000350: 03bd f53c 4721 89be 949d 0d3e e391 a83e
00000360: 558f 0bbc b4d9 2c3e 1be0 40bd 1cdd 00bd
00000370: a17d 10bd 64d8 f03d 2684 ac3d bd08 04bd
00000380: 2142 29be a1ef d4bc e213 28bd 191b f13d
00000390: 87f0 f13c 3cde 5f3c 2901 03be abc1 6a3c
000003a0: 4cf0 243e 2c8b 31bd 6fa5 4cbd 90e9 513d
000003b0: 195e 213d e2a1 acbd 5b02 183d f2ea 53bd
000003c0: 7196 2abe 5d0a f8bd 3936 253c 141c 4f3e
000003d0: 4f65 df3b 943d 053e a32c b83d 848a b53d
000003e0: 11c6 0d3e 422c c4bd 2bc3 efbd 7684 543d
000003f0: 42c4 87bc 3d42 573d 5243 13bc b167 c4bd

rnn.bias_ih f4 [96]
-0.10148089 0.12796335 -0.109275945 0.044527713 0.16727422 -0.025531242 0.15122698 0.05861991
0.013654816 -9.650056e-05 -0.028122285 -0.07353241 0.16232733 -0.08328258 0.05953137 0.17565699
0.15478596 0.12236806 -0.11985434 -0.087435596 0.071461625 -0.050826326 -0.005866156 -0.15174675
0.016896313 -0.102902964 -0.1328185 -0.15209164 0.11652168 0.046315428 -0.17363694 -0.051191732
-0.12509304 -0.10751775 -0.20738609 -0.058100104 -0.11203856 0.016758086 -0.11346945 -0.16975935
-0.20022012 -0.22667 -0.06907825 0.07483891 -0.17427883 0.020779807 -0.05227379 -0.07051683
-0.15091167 -0.2036616 -0.12031713 0.023774715 -0.16091327 -0.14986154 0.058618568 0.059867244
-0.06622369 -0.049031284 -0.23634972 -0.15662925 -0.24449305 0.039417263 0.08727779 0.0073361443
0.014109641 -0.08373941 -0.111194886 0.11146207 -0.13260892 0.016013537 -0.20644243 -0.12549798
0.014180071 -0.11200182 0.15343659 -0.11971224 0.12931676 -0.113654286 -0.03949287 0.094934925
-0.19297004 -0.14583966 0.0779608 0.06348131 -0.13592385 0.06176615 0.12774123 -0.007015226
-0.07969885 0.14369196 0.16768876 0.12754135 0.12664165 -0.0878093 -0.07555194 -0.081073985
00000000: 36d5 cfbd d308 033e 11cc dfbd b162 363d
00000010: ef49 2b3e e526 d1bc 3fdb 1a3e 6e1b 703d
00000020: 73b8 5f3c 5860 cab8 b560 e6bc 2998 96bd
00000030: 2339 263e 0f90 aabd 2ad7 733d 6ddf 333e
00000040: 3680 1e3e 1b9c fa3d 3176 f5bd 6f11 b3bd
00000050: 795a 923d 442f 50bd e238 c0bb 8063 1bbe
00000060: 236a 8a3c cabe d2bd 9301 08be e9bd 1bbe
00000070: eba2 ee3d 3fb5 3d3d e2cd 31be 6cae 51bd
00000080: 6418 00be 4432 dcbd 055d 54be 60fa 6dbd
00000090: 7974 e5bd 4148 893c ac62 e8bd 65d5 2dbe
000000a0: 8106 4dbe 2e1c 68be e678 8dbd 2445 993d
000000b0: 2676 32be 6a3a aa3c 0b1d 56bd 216b 90bd
000000c0: 9788 1abe ab8c 50be d468 f6bd 31c3 c23c
000000d0: 73c6 24be 4e75 19be 061a 703d 5b37 753d
000000e0: 49a0 87bd 07d5 48bd a905 72be 6b63 20be
000000f0: 635c 7abe ff73 213d b3be b23d 0a64 f03b
00000100: 202c 673c 917f abbd 25ba e3bd 3a46 e43d
00000110: a2ca 07be d22e 833c a565 53be 8b82 00be
00000120: 8753 683c 3661 e5bd 7b1e 1d3e b12b f5bd
00000130: 9d6b 043e 94c3 e8bd 47c3 21bd 3e6d c23d
00000140: f099 45be fe56 15be e9a9 9f3d 7d02 823d
00000150: 9f2f 0bbe 81fe 7c3d 99ce 023e fbdf e5bb
00000160: 2739 a3bd fc23 133e 9ab6 2b3e 339a 023e
00000170: 59ae 013e 5dd5 b3bd faba 9abd 1e0a a6bd

rnn.bias_hh f4 [96]
-0.0095060505 0.04208912 0.036789156 0.016878946 -0.13927187 -0.0032170329 -0.049311034 0.077582374
0.09787958 0.1319985 0.04508349 0.06310648 0.06205063 -0.030260753 -0.018311584 -0.097189106
0.01115236 -0.047812957 -0.04526248 0.14912777 0.027389599 -0.18145442 0.11271544 0.0751153
-0.19436005 0.1811018 0.15065746 0.016231103 0.06224018 0.10600357 -0.072349966 0.09290971
-0.076825894 0.03940918 -0.037514277 0.12946716 -0.12432463 0.060057797 -0.00028477504 -0.08912136
-0.01607973 -0.064647734 0.03693506 -0.004560309 0.012427551 -0.15517257 -0.12487252 -0.0682938
-0.13331158 -0.05697607 -0.22112691 0.025167543 -0.023975892 -0.16247216 0.07411591 0.02220681
-0.113511 0.09167575 0.012279297 0.130357 -0.065511316 -0.2076422 0.08304657 -0.09571331
-0.019876162 0.057415754 0.024764348 -0.1298456 0.060996577 -0.057702363 -0.02472545 -0.19008024
-0.020348277 -0.10659063 -0.00557124 0.15066046 0.005008112 0.03868114 -0.1281431 -0.124173455
-0.15608834 -0.024566555 -0.18744445 -0.18479231 0.14355116 -0.035511922 -0.028784046 -0.1066023
0.046195928 0.041460678 0.11197711 0.004797373 -0.14086325 -0.18257834 -0.046982404 -0.12841676
00000000: 44bf 1bbc a465 2c3d 3ab0 163d b745 8a3c
00000010: 499d 0ebe dbd4 52bb 5efa 49bd 82e3 9e3d
00000020: 1775 c83d 9d2a 073e 77a9 383d f83d 813d
00000030: cd28 7e3d 66e5 f7bc 2d02 96bc 150b c7bd
00000040: 63b8 363c 85d7 43bd 2665 39bd f3b4 183e
00000050: 2760 e03c 30cf 39be 5ad7 e63d 0dd6 993d
00000060: 5206 47be c072 393e f345 1a3e 17f7 843c
00000070: 8fef 7e3d 6618 d93d 382c 94bd 7247 be3d
00000080: e556 9dbd 856b 213d 92a8 19bd 0a93 043e
00000090: e99d febd 2aff 753d dc4d 95b9 4285 b6bd
000000a0: a3b9 83bc 0866 84bd 3849 173d a56e 95bb
000000b0: ed9c 4b3c 8fe5 1ebe 2abd ffbd 9fdd 8bbd
000000c0: d582 08be bd5f 69bd 186f 62be 2a2c ce3c
000000d0: 1769 c4bc 1a5f 26be 15ca 973d 0eeb b53c
000000e0: 7578 e8bd 7fc0 bb3d 1b2f 493c 4e7c 053e
000000f0: cc2a 86bd 28a0 54be 5214 aa3d 5705 c4bd
00000100: 55d3 a2bc c82c 6b3d 9ade ca3c 3ff6 04be
00000110: 8cd7 793d 5059 6cbd 078d cabc 65a4 42be
00000120: 6eb1 a6bc 304c dabd f38e b6bb bc46 1a3e
00000130: 171b a43b 1d70 1e3d f237 03be a74e febd
00000140: 9fd5 1fbe cd3f c9bc 70f1 3fbe 323a 3dbe
00000150: 13ff 123e f374 11bd 85cc ebbc 4f52 dabd
00000160: f137 3d3d acd2 293d 4154 e53d 4833 9d3b
00000170: 753e 10be d1f5 3abe 9f70 40bd af7f 03be

fc2.weight f4 [6, 32]
0.077858984 0.12696496 -0.017141525 -0.15379074 -0.13174279 0.14750786 -0.13633879 -0.034988884
-0.093220115 0.04300769 -0.23459376 0.16547316 0.3456473 -0.120062694 0.068156876 -0.11395411
-0.1247912 -0.1665074 -0.084509954 -0.1668203 -0.15375724 -0.17042962 0.12314213 -0.17385353
-0.099757135 0.22063237 0.0958332 -0.27110153 0.08246727 0.21031868 0.049913872 0.58454025
0.118120044 0.1947664 -0.18070358 -0.19006994 0.07664203 0.039313994 -0.02173944 -0.047644004
0.136912 -0.08411712 0.06359708 0.07099064 -0.04891059 -0.09573816 -0.060917113 -0.021690993
0.17603406 0.059831824 0.11928316 0.11013848 -0.13898425 -0.03809153 0.061256472 -0.043267794
-0.12489682 -0.05492922 -0.03722834 -0.27615225 0.08996089 -0.65665424 0.058920044 0.27988312
0.16741922 0.102592714 0.12554914 0.26892138 -0.054778807 -0.004046909 0.020419879 -0.009789727
-0.27799755 -0.14360122 0.15855129 -0.06927608 -0.28195244 0.07490747 0.12939718 0.02872357
-0.12307551 -0.0857422 0.04122495 -0.092048 -0.02425677 -0.57071763 -0.1092415 0.26420397
-0.07668505 0.29159668 -0.28841886 0.19898391 -0.052267358 -0.040372986 0.3126583 0.11820949
0.22821619 -0.25509995 0.16291215 0.060253672 -0.042230193 0.19831702 0.07747859 0.1082513
-0.2975301 0.11194224 -0.00027387042 0.0039557354 0.07360484 0.22692312 -0.031021556 0.120351456
0.119007 0.10022678 0.14873524 -0.21652685 0.38227916 0.09818428 -0.02800186 -0.010644138
-0.14963414 0.028506383 -0.43741086 -0.062502146 -0.2822376 -0.16394435 -0.28862786 0.21313678
-0.10344675 0.09166361 0.061680514 0.018396322 -0.054072604 -0.1908909 0.15705158 -0.03356576
0.093119 -0.10711881 -0.15543872 -0.08335886 -0.024908438 -0.094975695 0.013866178 -0.09575771
-0.24340773 -0.3618518 -0.2725759 -0.19389907 0.19745104 0.17297566 -0.30709526 -0.12329034
-0.40394706 0.17853914 -0.05332505 -0.17169863 0.025077399 -0.16980068 0.14438157 -0.08439821
0.12114534 -0.25422156 0.38553438 0.031400643 0.2282782 0.18856801 -0.43329826 -0.34345102
0.2918766 -0.33139247 -0.18994199 0.12045518 0.028108835 -0.18106402 0.12352223 0.29022834
-0.18138409 -0.33028728 -0.35910496 -0.205271 -0.44143787 0.31964594 0.073836654 0.21558319
0.011856356 0.20773904 -0.061898615 -0.16511816 -0.26093793 -0.1409871 0.085615166 -0.27944177
00000000: 8874 9f3d 1a03 023e 626c 8cbc 527b 1dbe
00000010: 95e7 06be 4d0c 173e 659c 0bbe 8150 0fbd
00000020: 30ea bebd d528 303d 5939 70be cc71 293e
00000030: aff8 b03e 6ee3 f5bd d595 8b3d c660 e9bd
00000040: 8792 ffbd ea80 2abe 8e13 adbd f1d2 2abe
00000050: 8a72 1dbe 1a85 2ebe f131 fc3d a906 32be
00000060: 784d ccbd 74ed 613e 3244 c43d d2cd 8abe
00000070: 9ae4 a83d c85d 573e 7d72 4c3d 6ea4 153f
00000080: ece8 f13d d870 473e 5c0a 39be b2a1 42be
00000090: 7ff6 9c3d b607 213d e916 b2bc 5c26 43bd
000000a0: a932 0c3e 9945 acbd 303f 823d 8a63 913d
000000b0: 7956 48bd 5e12 c4bd 3984 79bd 4fb1 b1bc
000000c0: 4642 343e 3712 753d bb4a f43d 4990 e13d
000000d0: e351 0ebe dd05 1cbd 11e8 7a3d 9239 31bd
000000e0: e7c9 ffbd 76fd 60bd be7c 18bd d463 8dbe
000000f0: 6a3d b83d 7e1a 28bf 2556 713d d74c 8f3e
00000100: f26f 2b3e 211c d23d f48f 003e 10b0 893e
00000110: be5f 60bd ef9b 84bb 9747 a73c 1765 20bc
00000120: b255 8ebe 330c 13be 455b 223e 9ee0 8dbd
00000130: 125c 90be 1669 993d b280 043e b14d eb3c
00000140: 030f fcbd 9b99 afbd 7edb 283d a983 bcbd
00000150: 22b6 c6bc 8d1a 12bf 02ba dfbd be45 873e
00000160: 0d0d 9dbd 294c 953e a3ab 93be 70c2 4b3e
00000170: 4c16 56bd 255e 25bd c014 a03e d117 f23d
00000180: 81b1 693e 769c 82be 71d2 263e 8ecc 763d
00000190: 91f9 2cbd 9e13 4b3e 18ad 9e3d dcb2 dd3d
000001a0: de55 98be f941 e53d 4496 8fb9 1d9f 813b
000001b0: 22be 963d 895e 683e eb20 febc d37a f63d
000001c0: f1b9 f33d b343 cd3d 0d4e 183e 37b9 5dbe
000001d0: 18ba c33e d714 c93d 2864 e5bc c064 2ebc
000001e0: b139 19be 3886 e93c 51f4 dfbe 2001 80bd
000001f0: 7281 90be 07e1 27be 08c7 93be 8740 5a3e
00000200: e4db d3bd 21ba bb3d b5a4 7c3d e2b3 963c
00000210: 3c7b 5dbd e778 43be 21d2 203e 407c 09bd
00000220: 2db5 be3d 1b61 dbbd 542b 1fbe 0db8 aabd
00000230: c80c ccbc 9e82 c2bd f72e 633c 9e1c c4bd
00000240: e03f 79be a444 b9be 128f 8bbe 7a8d 46be
00000250: 9b30 4a3e 8820 313e 973b 9dbe a57f fcbd
00000260: 26d2 cebe f7d2 363e 5e6b 5abd c4d1 2fbe
00000270: 1e6f cd3c 3be0 2dbe c3d8 133e f8d8 acbd
00000280: 0c1b f83d 5429 82be c364 c53e f69d 003d
00000290: c3c1 693e f917 413e 45d9 ddbe d0d8 afbe
000002a0: da70 953e 46ac a9be 2780 42be 35b1 f63d
000002b0: 8044 e63c d968 39be 39f9 fc3d cf98 943e
000002c0: c0bc 39be 6a1b a9be 9bdc b7be 9032 52be
000002d0: 2504 e2be a2a8 a33e ac37 973d d7c1 5c3e
000002e0: 2941 423c 8bb9 543e 6789 7dbd bc14 29be
000002f0: a899 85be ec5e 10be 0157 af3d fe12 8fbe

fc2.bias f4 [6]
0.038799573 -0.00045647344 0.02160808 0.002419159 0.030396184 0.04990894
00000000: 4dec 1e3d d452 efb9 6e03 b13c c18a 1e3b
00000010: 6b01 f93c 516d 4c3d
