results/alpha_0.25/agent_final.pt (torch, 43205 bytes, 8 tensors)

fc1.weight f4 [32, 104]
000000 f9 2d 9b be 35 76 ec 3d 7c e7 b5 3d 06 0f 37 bc
       -0.30308512 0.11545984 0.08882043 -0.011173015
000010 3b 19 8c bd e4 e8 87 be 25 6a d7 be 4b 0f ff 3d
       -0.0684075 -0.2654487 -0.4207317 0.12454089
000020 1a 95 e5 3e d0 1a 69 3e fa 97 45 bb b3 f0 17 bd
       0.44840318 0.22764134 -0.00301504 -0.037094783
000030 d0 a2 54 be 25 a7 24 3d 07 0e c5 bd 7a 32 8f 3d
       -0.20765233 0.040198464 -0.09621816 0.069920495
000040 f3 3d f2 bd 37 90 e1 3d b6 2c 83 be f4 18 03 be
       -0.11828222 0.11013835 -0.2562005 -0.12802488
000050 11 94 1c bc f0 7b 07 bd 16 dd 10 3c f0 bb 44 3d
       -0.009556786 -0.03307718 0.0088417735 0.048030794
000060 a9 0d 2c be e0 7f fc bd 36 b5 25 3d 74 88 d7 bd
       -0.16802086 -0.12329078 0.04045602 -0.10524073
000070 a5 58 64 b8 1c 8d ce bd 87 cb 8b be b3 1e 12 3d
       -5.4441993e-05 -0.10085508 -0.27303717 0.03567381
000080 41 4b 12 3d 2a e1 be bc 51 1c f1 bd 60 ee 17 3e
       0.0357163 -0.023300726 -0.11772979 0.14837027
000090 e6 dc 71 3d 2a ab b3 bd 94 91 a4 3d 70 aa 62 3d
       0.059048556 -0.08772881 0.08035579 0.055338323
0000a0 b0 20 64 be 84 3e a2 3d c8 1b 81 bc 19 98 ea 3d
       -0.22278094 0.0792208 -0.015760317 0.114547916
0000b0 57 94 28 3e c0 a6 2c 3d c8 83 4b 3c 90 e1 20 bd
       0.16462837 0.042151213 0.012421556 -0.039277613
0000c0 b6 2b 4f 3d 24 19 e2 bc 62 6c bf bd 3b 4b 01 3c
       0.050578795 -0.027599879 -0.09346844 0.0078914715
0000d0 41 68 01 be 04 00 01 3e e7 f1 ae 3d 32 db f7 bc
       -0.12637426 0.12597662 0.08542233 -0.030255888
0000e0 eb 0d 37 be f1 25 50 3b cb a7 a8 3d 36 56 39 be
       -0.17876403 0.0031760896 0.08235129 -0.18099293
0000f0 e2 bc 39 3d 61 45 36 3c 92 df d8 3d 07 86 35 be
       0.04534615 0.01112494 0.10589518 -0.17726909
000100 d2 67 14 bd 8b 8c e4 bc 46 a9 82 bd 7e 8c a8 bd
       -0.036231823 -0.027899047 -0.063799426 -0.08229922
000110 cb 79 db 3d 74 e5 94 3c 02 04 e1 bd 11 a6 de bd
       0.107165895 0.018175818 -0.109870926 -0.108715184
000120 5d 1e 80 bd b2 5f 59 bd 1d b7 0f be 70 06 3c 3e
       -0.06255791 -0.053069778 -0.14034696 0.1836183
000130 c9 6c 64 bc f3 6d 13 bd 42 ed 8e 3c af 0f fb bd
       -0.013941952 -0.035993528 0.017447118 -0.12258851
000140 9c 68 76 bd 96 d3 52 bd de 1f 96 bd a0 f9 bb bc
       -0.060158357 -0.051471315 -0.07330297 -0.022946179
000150 bd a6 d8 bd 30 87 5f be a4 85 ea 3c fa 28 82 bd
       -0.10578678 -0.21828914 0.028628178 -0.06355472
000160 8a 0e a4 bd 43 ee 77 be 68 78 aa bc 0e c8 e6 bd
       -0.080105856 -0.24211983 -0.020809367 -0.11268626
000170 d7 67 da bd 1d 73 73 3d 15 eb f4 3d ae 09 32 3d
       -0.10664337 0.059435952 0.11958901 0.043466263
000180 cc 06 66 bd 41 13 33 3d 9c 1d f5 bc 13 a7 6b bb
       -0.056158826 0.043719534 -0.029921345 -0.0035957738
000190 57 2b 88 3d 4a 2a 14 3d 81 1e f4 3c 50 cb 84 3d
       0.066488914 0.036173142 0.029799702 0.06484091
0001a0 28 51 a0 3d a1 20 9b be ef 26 21 3e 79 dc 5d bc
       0.07827979 -0.3029833 0.15737508 -0.013541334
0001b0 02 65 dd 3c 99 49 0f 3e 50 57 a9 3e 45 d9 91 bd
       0.027025703 0.13992919 0.33074427 -0.07121519
0001c0 a2 0d 40 3d b7 1b ba 3c 93 0f 03 3e 16 ad f2 3c
       0.046888 0.022718294 0.1279891 0.02962355
0001d0 14 d3 32 3e 31 65 c3 bd f0 b6 fa bb 71 52 93 bd
       0.17463332 -0.09540785 -0.0076512024 -0.07193459
0001e0 a7 54 f4 bb 7c 23 5c bc 6d 9a 09 3e 38 d3 90 bc
       -0.0074563804 -0.0134361945 0.13437815 -0.017678842
0001f0 a8 c9 3f bc 12 c7 fe bd 4e 37 13 bd de 3a 22 be
       -0.011705793 -0.124403134 -0.035941415 -0.15842769
000200 d3 b2 25 bd 50 47 d2 3d 17 a4 ad bd a7 c1 d0 3c
       -0.040453743 0.10267508 -0.08478563 0.025482966
000210 1c be 8e bd 42 11 cc 3c 8c 85 a1 3e c3 e9 23 be
       -0.06969854 0.024910573 0.315472 -0.16007142
000220 fb b6 a9 3c 23 81 21 be 7d 45 2d be 50 2e 06 3e
       0.020717135 -0.15771918 -0.16921039 0.13103604
000230 7a bc 16 3e 48 19 a0 3a 2f 9d f7 3c 4c 99 d2 3d
       0.14720336 0.0012214566 0.030226318 0.10283145
000240 09 25 0b bd c8 44 5d bd cd b7 2a be 89 e9 db bd
       -0.033970866 -0.054020673 -0.16671677 -0.10737903
000250 3b 2a 84 be ec 40 cc bd d7 5a 13 bc 64 8e ab 3d
       -0.2581347 -0.0997332 -0.008993826 0.08376768
000260 23 bc 26 bc b1 0d 34 3c 9a 6c d9 3d b7 26 93 bd
       -0.010176691 0.010989592 0.10616417 -0.07185119
000270 de f1 88 3d 3c 23 c6 bb 33 cc e2 bd 36 70 a1 bd
       0.066867575 -0.0060466807 -0.11074104 -0.07882731
000280 75 ab fd 3c 66 75 13 be 4c a5 42 be ca 98 76 3c
       0.030965546 -0.14400253 -0.19008368 0.015051076
000290 cf 88 3e 3d 29 b9 e3 bb e7 69 42 be 64 31 84 bc
       0.04651719 -0.006949563 -0.18985711 -0.016136833
0002a0 a9 7f 23 3e 2b 89 e5 3c 92 57 cd 3d d6 55 f2 bc
       0.15966667 0.028019508 0.10026468 -0.029581945
0002b0 6d 1c af bd d0 fb 37 be 18 fb f3 3d 6d 0d 95 3e
       -0.08550344 -0.17967153 0.11913127 0.29111806
0002c0 99 eb 01 3e 24 68 52 3e b6 9e 8f 3d 0d df 6c 3d
       0.1268753 0.20547539 0.070126936 0.057829905
0002d0 61 43 e2 bc 74 f9 65 bd 04 80 3a bd ea 93 92 be
       -0.02762002 -0.0561461 -0.04553224 -0.28628474
0002e0 9d 74 f7 3d 7b b8 80 3c fd cf 84 bd 6f 78 c6 3c
       0.12082789 0.015712967 -0.06484983 0.02422735
0002f0 84 cc a4 bd 92 25 04 be 0e 35 f9 3c 66 8d b6 3c
       -0.08046821 -0.12904957 0.030420806 0.02228422
000300 5b 50 0d 3e 17 de b0 3d f3 90 82 3d 1a 7e 08 3e
       0.13800184 0.0863611 0.06375303 0.13329354
000310 9b 9b 15 3e a0 1d 74 3d 06 fc e9 3d f5 25 0f b9
       0.1461014 0.059598565 0.11425023 -0.00013651683
000320 fa 79 8e 3e 45 4e df bb 97 7f f3 3d 11 ec 62 3e
       0.27827436 -0.0068147504 0.1188957 0.22160365
000330 0a 1f 80 3d bc 51 a5 3d 59 31 5b 3d 33 81 88 3d
       0.0625592 0.0807223 0.05351386 0.06665268
000340 fd a9 6f 3e a3 56 a9 be 9f 31 89 be b6 d9 8c be
       0.23404689 -0.3307391 -0.2679567 -0.2750985
000350 87 e3 bc 3c 0d 8d e3 be 82 3f 27 bf b4 22 13 bc
       0.023057712 -0.4444355 -0.6533128 -0.008980442
000360 f9 4b 59 be d8 d7 3a bd 9e 5a a5 3d 05 c2 74 bc
       -0.21220388 -0.045616 0.080739245 -0.014938836
000370 0d ae 26 be 92 b2 78 bb a0 21 a1 3d e9 2b 18 be
       -0.16277333 -0.0037948233 0.078677416 -0.148605
000380 b2 94 05 be 99 82 57 be d0 24 52 bd 21 5d 9b 3d
       -0.13045004 -0.21045913 -0.05130464 0.07586122
000390 32 94 c1 3d 10 c2 4f bd 10 dd 91 3b 8c cc 7a bc
       0.09452094 -0.05072218 0.0044514015 -0.015307557
0003a0 cb a5 bb 3c b5 83 fe bd e5 42 f8 be 71 39 6e 3d
       0.022906205 -0.12427465 -0.48488536 0.05816025
0003b0 dd 8b 48 3e 66 92 a8 3d 37 0f 14 3e 61 cc 2b bd
       0.19584604 0.08231048 0.14458929 -0.041942958
0003c0 97 99 38 bd df 94 3b 3d f7 c4 a3 bd 76 e8 96 bc
       -0.04506835 0.04579627 -0.079965524 -0.018421393
0003d0 59 e5 7c bd 70 64 88 3d fd e9 23 3e 22 5c 21 be
       -0.06174216 0.06659782 0.16007228 -0.15757802
0003e0 a1 d4 82 3c c9 5e cc bd e2 0a 59 3d 61 33 1f be
       0.01597053 -0.09979016 0.052988894 -0.15546943
0003f0 52 5c de bd 66 69 0f 3d 8f 55 fd 3c 06 f7 a2 bc
       -0.108574525 0.035012625 0.030924587 -0.01989318

fc1.bias f4 [32]
000000 4e c7 af bc c1 c0 bc 3c 4a 7d 13 3d 17 12 a9 3b
       -0.02145734 0.023041131 0.036008157 0.005159627
000010 55 24 2f 3d aa 05 79 3c 57 de 94 3d 5c 9e 1e 3d
       0.04275926 0.015199104 0.072689705 0.038725242
000020 31 93 07 3c 39 04 be 3c a5 a7 0a bc 5a de 29 bc
       0.008274839 0.023195373 -0.008462821 -0.010367954
000030 75 4b 48 3d 0b 2d df 3b a9 0e 3d 3d b1 80 dd 3c
       0.048900086 0.0068107895 0.04615656 0.027038904
000040 38 8d 58 3c 04 a1 8c bb ff 33 c6 3c a6 ac 8b 3d
       0.013217263 -0.0042916555 0.024194716 0.068200395
000050 33 eb 8b 3d 47 5b a2 3d 8e a9 0a 3e ee 7d ad ba
       0.0683197 0.07927566 0.13541242 -0.0013236383
000060 00 05 13 bd 20 a9 b3 3d 55 6b 0a 3b a1 b2 64 3c
       -0.03589344 0.087724924 0.0021121104 0.013958604
000070 c0 28 3f 3d 21 a1 b4 3c b7 a9 ba 3b b9 70 40 3d
       0.04666972 0.022049488 0.005696501 0.0469825

rnn.weight_ih f4 [96, 32]
000000 a2 13 1c be e3 eb 36 3c 0c c9 12 3e 50 da fe bc
       -0.15241864 0.011164638 0.14334506 -0.031109959
000010 a9 c4 61 be d3 ef 2e be 45 2c 48 be b9 7b 4b 3d
       -0.22047676 -0.17083673 -0.19548137 0.049678538
000020 4f d2 82 bc 7e e7 02 be e2 2c 81 bd 10 26 fc bd
       -0.015969424 -0.1278362 -0.06307389 -0.12311947
000030 68 43 e6 3c eb cf b8 bc 68 90 43 be 63 ed 25 3e
       0.028108314 -0.02256008 -0.19098055 0.16203837
000040 14 1d 09 be 81 67 f0 bd cd cc 49 be 12 26 16 bb
       -0.13389999 -0.11738492 -0.19707032 -0.0022910875
000050 fa 62 45 be 70 fb b2 3d dd 38 cb bd 30 11 3a 3d
       -0.19276038 0.08739364 -0.09922955 0.045426548
000060 93 c2 06 bc 0b 9e 9c 3d 1b c8 04 be e3 1d f3 3c
       -0.008225101 0.07647332 -0.12966959 0.029677337
000070 80 cb 82 3d b3 02 4b 3c 39 5f d7 bd e4 0e 3c bd
       0.06386471 0.01239078 -0.10516209 -0.04591264
000080 87 e6 ae bd ae 45 52 3e 70 45 c1 bc 62 bf 91 bd
       -0.08540063 0.20534393 -0.02359268 -0.071165815
000090 12 3c 9a 3c 15 3c 0e be 55 10 60 3a 85 b7 37 3d
       0.018827472 -0.13890107 0.00085473555 0.044852752
0000a0 d6 66 88 3d 38 78 b9 bd 9f a0 8c 3d 3b f5 ce 3d
       0.066602394 -0.09056133 0.068665735 0.10105368
0000b0 79 e8 58 be 45 19 fc bd da ac 8f 3b 77 eb 9e bb
       -0.21182431 -0.12309507 0.004384619 -0.004849847
0000c0 e3 cb e8 bd ed 47 5f bd 15 55 b2 bd 64 28 7c bd
       -0.11367013 -0.054511953 -0.08707634 -0.061561957
0000d0 ed 7e 2b be cb be 78 3e 26 a3 7e be c1 18 76 bd
       -0.16747637 0.24291532 -0.24866924 -0.0600822
0000e0 0d c4 9c 3e e5 8a d9 bc 61 be 0d be 38 01 14 3e
       0.30618325 -0.026555488 -0.13842155 0.1445359
0000f0 36 1e 2e 3e 36 83 bc 3c f9 6c aa 3c d7 89 92 bd
       0.17003712 0.023011785 0.020803915 -0.07155197
000100 66 fb 94 3e 85 78 90 3d 84 2e 82 3d b9 5c 97 be
       0.29098052 0.07054237 0.063565284 -0.2956293
000110 4e d9 6c be d5 9d f6 bd 5d ae 3b 3e 04 bb f2 bd
       -0.2312977 -0.12041823 0.18328233 -0.11852077
000120 8c 90 8d 3e 06 d1 9a 3e 7f 17 14 be fa 1a 2d be
       0.27649343 0.30237597 -0.14462088 -0.16904822
000130 33 92 b6 bd a5 78 f0 3e 8a 37 4d 3c 95 8a 82 be
       -0.08914604 0.46967044 0.012525449 -0.25496355
000140 90 e1 37 be d1 fe 1d 3e 16 76 f1 3d cd 4c 0e 3c
       -0.17957139 0.15429236 0.11790101 0.008685303
000150 06 39 20 3d 7c 47 59 3e 95 c8 0f bc f6 19 f0 3d
       0.03911688 0.21218675 -0.00877585 0.11723702
000160 1f 9d 3a be 40 2c c2 be 87 cc fd bc 6c e8 78 be
       -0.18224 -0.37924385 -0.030981315 -0.24307412
000170 43 ef e5 3c 3a f7 6c be 6b ca b0 3d cc 26 49 3e
       0.02806819 -0.23141184 0.08632358 0.19643706
000180 78 3d 96 3e 7c 46 8d be 09 d1 56 3e 1c 89 ca bd
       0.29343772 -0.27592838 0.20978178 -0.09889433
000190 a3 12 13 3c 45 6d 05 3e 61 3f 4b be e4 df 0b be
       0.008976611 0.13029964 -0.19848396 -0.13659626
0001a0 d5 85 5c be 29 e2 07 3d b5 93 b8 bb 71 2b e5 3d
       -0.21535428 0.033174668 -0.0056328424 0.111899264
0001b0 90 73 1a 3e cd 80 25 3e 57 af 3d 3e b6 2e 8f 3d
       0.15083146 0.16162415 0.18523918 0.06991331
0001c0 90 d7 c5 bd 04 3d 1b be 65 39 ba bd 03 47 fd 3c
       -0.09660256 -0.15159994 -0.090929784 0.03091765
0001d0 79 6a cf be 02 da 90 be 53 a0 10 3e 1b f3 3c 3e
       -0.4051092 -0.28291327 0.14123659 0.18452112
0001e0 5d 1b 01 3d 14 ea 41 be 8d eb 8d 3d 49 16 23 3e
       0.031520236 -0.1893695 0.06929693 0.1592647
0001f0 cf ac bc 3c fa 0f ad 3c 50 6e 17 bd c1 4e dd bd
       0.02303162 0.021125782 -0.036970437 -0.10806037
000200 1d da 50 be fd ef b6 3e bf b1 00 be 82 06 04 3f
       -0.20395704 0.35729972 -0.12567805 0.5157243
000210 02 0a 16 3e 9e de b8 3e b3 91 a0 bd 41 7d a4 3d
       0.14652255 0.36107343 -0.0784029 0.08031703
000220 2d 80 d4 3b f2 74 28 3d ca 21 00 3e 5e be 5f 3b
       0.0064850063 0.041127153 0.1251289 0.0034140567
000230 9f ed 02 be 9a 32 c9 3e 26 d6 11 be 85 9d 11 be
       -0.12785958 0.39296418 -0.14241847 -0.14220245
000240 33 c3 5b 3e 1c 2b 23 be 91 22 38 bd d5 61 04 3d
       0.21461181 -0.15934414 -0.04495484 0.032319862
000250 49 22 e8 bd d0 6b de bb 51 eb 67 3b 4b 9d 2b be
       -0.113346644 -0.0067877546 0.0035388062 -0.16759221
000260 37 11 7a be 20 0b 1a be 24 10 4b 3e d3 f1 87 3e
       -0.2442063 -0.15043306 0.19830376 0.26551685
000270 ca d4 bf 3d 67 4a ca be d9 7e 57 be 9b 01 e0 bb
       0.09366758 -0.3950989 -0.21044482 -0.006836129
000280 a1 86 8d 3d 1d ae 6f be 01 7e 87 be 5e d5 dd bd
       0.06910444 -0.23406263 -0.2646332 -0.10831712
000290 61 63 83 3d b9 10 6e 3d 66 29 1b be 53 f0 48 3d
       0.064154394 0.058121417 -0.15152511 0.049057316
0002a0 a7 d1 df bd 28 8f fb bd c4 e4 f6 bd f8 77 0c 3e
       -0.1092866 -0.12283164 -0.12055352 0.1371764
0002b0 79 a1 14 3d 07 2a 84 be dd 94 2d be fc fa 0d bc
       0.036286805 -0.25813314 -0.16951318 -0.008665796
0002c0 27 28 03 be d7 4e fb 3c 0e 85 f6 3c 54 67 c5 bd
       -0.12808286 0.030677242 0.030092742 -0.09638849
0002d0 f9 47 92 be c1 3d 46 3d 6e 02 8b be 38 0c fb 3c
       -0.28570536 0.048398737 -0.2715029 0.030645475
0002e0 16 8b a3 3e 9c 27 d4 bb e6 8c d2 3d fd 3d 44 3d
       0.31942052 -0.0064744484 0.102807805 0.04791068
0002f0 e6 55 db 3c 2a 76 31 3d 3e f3 f4 bc 90 de d1 bc
       0.026774358 0.04332558 -0.029901143 -0.025618821
000300 60 f5 31 3d 14 f7 86 bd 53 b2 41 3e 38 38 c0 bd
       0.0434469 -0.06590095 0.18915682 -0.09385723
000310 6d 5c be be 6f b2 a1 be b3 b2 16 3d 84 69 b7 3d
       -0.3717989 -0.31581447 0.036791515 0.089556724
000320 ba be 0a 3e ca e3 41 3e 3a 06 95 3c c2 49 22 be
       0.13549319 0.18934551 0.018191446 -0.15848449
000330 c8 15 9f be f4 a2 c0 3c d0 32 d3 bc d2 ef 3f 3c
       -0.31071305 0.023515202 -0.025781065 0.011714892
000340 88 e8 9f be 8f ed 28 3e 59 29 8a be c8 9b 89 be
       -0.31232095 0.16496871 -0.2698467 -0.26876664
000350 1f ab 44 3d 42 0d a7 3d d8 24 c5 bd 04 4b c9 bd
       0.048014756 0.081568256 -0.09626168 -0.09828761
000360 4f 2e 6c 3d 74 a6 a7 be 84 bd 50 bd 5a 0c 0e be
       0.05766135 -0.3274418 -0.050961986 -0.13871899
000370 22 34 b8 3d 92 41 2a bd 8a 1e ca bd 5f fe 3c 3e
       0.089943185 -0.04156644 -0.09869106 0.1845641
000380 fc e6 fc bd cb a4 d7 bc 51 98 f7 bd c9 a9 92 bc
       -0.12348744 -0.026323697 -0.12089599 -0.017903225
000390 cf d2 34 3e a7 28 dd 3e 12 71 6f bd a3 c8 a5 bd
       0.17658542 0.43195078 -0.05845744 -0.08094909
0003a0 e8 bf c6 bb eb 01 42 be 85 c4 87 bc 5c ec af 3d
       -0.0060653575 -0.18946044 -0.0165732 0.08590004
0003b0 a5 40 24 3e cd 8d 10 3c 9d 0e 4b bd f0 c8 51 3e
       0.16040285 0.00882287 -0.049574483 0.20486808
0003c0 a0 3b 0a 3e 19 8d e7 3d 18 2e db 3d b2 a5 08 bd
       0.13499308 0.11306209 0.10702151 -0.033361144
0003d0 8a 96 9b bd 84 73 65 3e 63 44 20 3c 3e f0 be 3e
       -0.075970724 0.22407347 0.00978193 0.37292665
0003e0 97 95 23 3e 72 84 1e 3e b3 67 2a 3e 45 49 4f be
       0.15975033 0.15480211 0.1664112 -0.20242794
0003f0 fb 1a 6e be 2d 30 4f bd 10 32 64 bb 38 05 fa 3d
       -0.2325248 -0.050583053 -0.0034819879 0.12208027

rnn.weight_hh f4 [96, 32]
000000 22 64 06 3e b6 58 a9 3c 21 f7 4a bb b4 04 30 3e
       0.13124135 0.020672183 -0.0030970054 0.17189294
000010 2e 55 67 3c 93 4f 0d 3e 43 8b 0b be a2 e8 e8 3d
       0.0141194295 0.13799886 -0.13627343 0.11372496
000020 be 1a d8 bd c2 4b 80 bd e5 f7 29 bd 2e 91 b2 3d
       -0.10551976 -0.0626445 -0.041496176 0.08719097
000030 af 46 6a bd 7c 1e 46 bd 07 6a 01 3d d8 63 b4 bd
       -0.057196315 -0.048368916 0.031595256 -0.08808106
000040 ff e0 a7 bc 66 d7 39 3e 35 80 62 3b e7 e7 31 3c
       -0.020493029 0.18148574 0.003456128 0.0108585125
000050 14 0b b6 bd 57 b5 b3 3d c1 fa 42 3e fd b0 0b bc
       -0.08888832 0.08774822 0.19040968 -0.008526084
000060 d4 7d 72 bd 62 7f f3 bd 4b 97 0c 3e 52 73 79 ba
       -0.05920203 -0.11889531 0.13729589 -0.000951578
000070 6e 6c c3 3d 25 7b bd 3d ce 6e 54 be 37 2e 9a bd
       0.09542166 0.092520036 -0.20745394 -0.07528346
000080 c7 f1 42 3e be d3 7f 3d 5c 03 6b 3e 00 02 99 bd
       0.19037543 0.062457792 0.229505 -0.074710846
000090 9d 58 f9 3d cf 7f 92 bd ee 8a c5 3c a8 24 d3 bc
       0.12175105 -0.07153284 0.024114098 -0.025774315
0000a0 80 da bb bb 0d e7 12 bd 45 1b d7 3c f4 a9 6b 3d
       -0.0057328343 -0.03586488 0.02625812 0.057535127
0000b0 0e 6e 10 bd a4 be 82 3e 4c 56 d4 bc 96 dd 89 3c
       -0.035261206 0.25536072 -0.025920056 0.016829293
0000c0 dd 9d ee bd 75 61 7f 3e 59 31 56 3e d6 39 bf 3d
       -0.11651204 0.2493952 0.20917262 0.09337203
0000d0 b4 35 93 3d 97 22 35 be 68 5f db bc 53 fb 53 3e
       0.071879774 -0.17688976 -0.026778892 0.20701341
0000e0 04 07 47 be b8 e4 18 be 8a 95 0b 3d 8c a2 a9 3d
       -0.1943627 -0.14931 0.03407816 0.082829565
0000f0 ce 75 02 be c1 5d 12 be 7c ea ab 3d 31 4c 98 3d
       -0.12740251 -0.14293577 0.08394334 0.07436407
000100 bd d2 34 bd a1 16 19 be 95 8a f2 bd de 94 77 3e
       -0.04414629 -0.14950038 -0.11842839 0.24177882
000110 f5 99 9f bd 86 14 cd bd 63 02 1b 3e e1 ff 5c 3e
       -0.07793037 -0.1001368 0.15137629 0.21581985
000120 15 bf 4f 3d 0e 8e ed 3d 2e 3c 3f 3e 0b 01 52 be
       0.05071934 0.115993604 0.186753 -0.2050821
000130 93 3e 35 3d 4b 59 a1 3b b6 b7 f2 bd 03 a7 26 be
       0.04424913 0.0049239746 -0.11851446 -0.16274647
000140 a8 01 f9 3c e3 83 d5 3d ab 6d f7 bd e7 0a 36 bd
       0.030396298 0.10425546 -0.120814644 -0.04444399
000150 5a d0 df 3d 1a 2b 1a 3e da cd 7c bd f7 d5 1c 3e
       0.10928412 0.15055504 -0.061719753 0.15315996
000160 df 68 67 3e c0 ee af bd cd a9 cc 3d ca 02 ea bc
       0.22598599 -0.0859046 0.099933244 -0.028565783
000170 3c ec 4d 3e dc 82 a8 bd 4b 39 a0 be ff 30 cf bd
       0.20109648 -0.082280844 -0.3129371 -0.10116767
000180 0e 70 80 3d 1d 1f 1c bd 4f c4 d4 3e f3 b0 2a bd
       0.06271373 -0.03811561 0.41556022 -0.04167266
000190 1a 1c c4 3d 32 03 6d be 81 3c 49 3e 2e 44 3e bd
       0.095756724 -0.2314575 0.19651987 -0.04645174
0001a0 02 9e b6 3c d9 b6 87 bd 1a cc b8 bc 35 d8 20 bc
       0.02229214 -0.06626672 -0.02255826 -0.009817173
0001b0 74 50 2e 3d 1f 51 cd 3d f5 fe bd bc 8d a6 7f bc
       0.042557195 0.10025238 -0.023192862 -0.015603674
0001c0 08 43 60 3e 85 93 c0 3d 11 e5 ef bc 94 53 1b be
       0.2190057 0.09403137 -0.029284032 -0.15168601
0001d0 17 26 2a 3b 4f 2a b2 bc 40 34 c8 3d 5c ea 32 be
       0.0025962645 -0.02174869 0.09775591 -0.17472214
0001e0 ad d3 74 3e a0 66 9d 3d f2 41 e4 bd 75 d8 1b 3e
       0.23908873 0.0768559 -0.111453906 0.1521929
0001f0 1b ae 45 3d 35 b6 57 3e e4 2a 52 be b5 44 1f be
       0.048261743 0.210656 -0.20524174 -0.15553553
000200 1a c5 ab 3d c5 9d 44 3e f3 e4 a0 bd 8c d4 02 be
       0.083872035 0.1920081 -0.078561686 -0.12776393
000210 f1 de 9a bd b1 65 01 bd 9c d2 26 3e fd ce d3 bd
       -0.07562054 -0.03159112 0.16291279 -0.10342214
000220 ec 90 22 3b fc af e2 bd de d2 07 3e f3 04 06 bd
       0.0024805618 -0.110687226 0.13264033 -0.032719564
000230 44 5c 94 bb ef 10 ed 3c 0d 7c 30 3d ca 40 a3 be
       -0.0045276005 0.028938739 0.043087054 -0.31885368
000240 0a e9 4d 3d 07 bf d4 3d 12 6c bd bb 9a 4c d5 bc
       0.05027107 0.10387998 -0.0057807053 -0.026037503
000250 e7 3d b4 bc 46 39 a8 3e d1 a9 a9 3d 15 71 dc bc
       -0.022002174 0.32856196 0.08284343 -0.02690939
000260 46 4d 0d 3d 72 b3 33 3e 97 e9 a1 bd 27 80 5d be
       0.03449752 0.17548922 -0.07905882 -0.21630917
000270 6c fb 80 bc e1 1b ba bb 54 34 16 3e ee 8e b0 3d
       -0.015744887 -0.005679593 0.14668399 0.08621012
000280 50 e2 50 bd f9 9c 9b bd 4f 5b 80 3e 56 4e f1 3c
       -0.05099708 -0.075982995 0.25069663 0.029456299
000290 26 a3 88 3c 5d d2 78 bd ac 3b 1e be 31 da 8a bc
       0.016679358 -0.060747493 -0.1545245 -0.016949745
0002a0 9a cf cb bc fb 67 2a 3e 82 8c 84 3d 8b cb 0b 3d
       -0.024879266 0.16641228 0.06472112 0.03412966
0002b0 ff a8 1d 3b 5a dd 18 bd 16 62 2b 3d d2 a1 96 bc
       0.0024057028 -0.037320472 0.04184159 -0.018387709
0002c0 bd df b6 3d 36 8f f5 3d da 03 5b be 75 08 65 3e
       0.089293934 0.11990206 -0.21388188 0.22366507
0002d0 74 f6 48 3d c4 cd 2e 3d 5a 98 15 be b1 67 4f 3e
       0.04906316 0.042676702 -0.14608899 0.20254399
0002e0 f4 77 72 3d b3 7b a4 3d 03 05 9c bd fc 1d 5c bd
       0.059196427 0.08031406 -0.076181434 -0.053739533
0002f0 cc 33 83 be 63 5c d1 bb 77 9a fe bd f7 71 b7 3d
       -0.25625455 -0.006389187 -0.124318056 0.08957284
000300 e9 99 cd 3d d5 1a c4 3c 1c aa d5 3b 00 8b 6a 3d
       0.10039122 0.023938576 0.0065205228 0.057261467
000310 c7 85 5e be 1a 13 1c 3e 6f cc ce 3d 0d 49 02 be
       -0.2173072 0.15241662 0.10097586 -0.12723179
000320 e3 73 a5 bd 70 a9 c7 3c ed 1c c9 bd 5b 8a 8d bd
       -0.08078744 0.024372786 -0.0981997 -0.06911155
000330 7a d0 16 bd a3 61 94 bd 82 3b 0b 3c a9 be a0 bc
       -0.036819912 -0.07245185 0.0084980745 -0.019622164
000340 1d 05 2c 3e 83 0b f1 3d f6 59 b3 bd c8 ad 81 bc
       0.16798826 0.11769774 -0.08757393 -0.015829936
000350 e8 a5 c0 3c 54 33 8b be 4a 44 0e 3e 0c 33 ad 3e
       0.02351661 -0.27187598 0.13893238 0.33828008
000360 0e de c4 3c c5 8d 1c 3e 16 7c 59 bd 54 ef 29 bd
       0.024031665 0.15288456 -0.053096853 -0.041488007
000370 b9 b2 75 bc a0 59 ed 3d a4 17 bc 3d 98 d2 eb bc
       -0.014996224 0.1158936 0.091841966 -0.028786942
000380 18 f6 1a be 69 0f 45 3a b0 8f ad 3d c4 af 2b 3e
       -0.1513294 0.000751725 0.08474672 0.16766268
000390 6e b6 2d be f8 24 ab bc f4 e2 44 3d a0 c0 00 3d
       -0.16964123 -0.020891652 0.048068002 0.0314337
0003a0 13 7f a8 3d f1 a7 54 3c 88 ed 52 bc f2 a4 81 3d
       0.082273625 0.0129794935 -0.012874015 0.06330289
0003b0 88 1e c3 3c 87 b5 71 be 11 dc 8e 3d 02 95 c8 3d
       0.02381827 -0.23604403 0.06975568 0.09794046
0003c0 84 14 34 be f9 30 0e be 93 54 61 3d 60 bf 48 3e
       -0.17585951 -0.13885869 0.055012297 0.19604254
0003d0 84 f6 47 3d 49 90 33 3e e0 a7 48 3e c4 54 57 3e
       0.04881908 0.17535509 0.19595289 0.2102843
0003e0 3b 2e a2 3e 3a fc 7b bd 4d ed cd bd f0 c5 21 3d
       0.31675896 -0.06151984 -0.10055027 0.03949541
0003f0 8d ad 83 bc cd 33 10 3d 22 79 0a 3c 0e 43 9d bd
       -0.016073966 0.03520565 0.008451732 -0.07678805

rnn.bias_ih f4 [96]
000000 55 c0 fc bd 1c 21 fb 3d d2 bf cb bd e8 5a fd 3c
       -0.12341372 0.122621745 -0.09948696 0.030927137
000010 e7 8e 38 3e ab f5 11 bd 70 b1 21 3e fd a0 8c 3d
       0.18023263 -0.035634678 0.15790343 0.068666436
000020 3e 97 d4 3c 39 fc 37 bb b5 1b 46 bd 8c 8f 81 bd
       0.025951024 -0.002807392 -0.048366267 -0.063262075
000030 87 1d 28 3e a5 c2 af bd b6 ae 68 3d 40 c7 17 3e
       0.16417514 -0.085820474 0.056807242 0.14822102
000040 20 7f 0b 3e 22 14 e8 3d a9 f3 07 be a0 78 db bd
       0.13622713 0.11331965 -0.13276543 -0.10716367
000050 8d 01 51 3d 1c f6 6e bd 71 66 05 bd 30 9e 31 be
       0.05102687 -0.058340177 -0.0325684 -0.173455
000060 90 7e f7 3c 18 39 c3 bd 3a 86 08 be 8f 56 19 be
       0.030211717 -0.09532374 -0.13332453 -0.14974426
000070 ad dc e0 3d 77 73 29 3d 50 29 24 be 8a 91 93 bd
       0.109795906 0.04136988 -0.16031384 -0.07205494
000080 01 2d 1f be f7 26 5d be b2 60 5c be e8 ee 77 bd
       -0.15544511 -0.21596895 -0.21521261 -0.060530573
000090 dc c6 c3 bd 67 35 5b 3b 3a 72 97 bd dd 82 48 be
       -0.09559414 0.0033448578 -0.07394834 -0.1958117
0000a0 7c b2 4c be 42 93 45 be 2b 0f a2 bd 06 e3 2b 3d
       -0.19989961 -0.19294456 -0.07913049 0.041964553
0000b0 f3 38 c5 bd 0f 74 60 3d 47 ae ae bd c2 b2 9e bd
       -0.09630003 0.054798182 -0.085293345 -0.07748939
0000c0 d6 91 38 be 35 b1 8f be de f4 e6 bd 0e 92 84 3c
       -0.18024382 -0.28064886 -0.112771735 0.016182926
0000d0 09 4d 23 be 54 15 21 be 0f dc 6d 3d 60 8b e4 3b
       -0.15947355 -0.15730792 0.058071192 0.0069746226
0000e0 8f e1 03 be 30 6e 90 bd 44 82 77 be 57 1e 4f be
       -0.12879013 -0.070522666 -0.24170786 -0.20226417
0000f0 65 62 7e be a7 44 86 bc 46 66 52 3d 82 04 ac bd
       -0.24842222 -0.016390158 0.051367067 -0.08399297
000100 78 5f 1f 3c a0 13 a7 bd 9c c9 de bd d1 b0 da 3d
       0.009727351 -0.0815804 -0.10878298 0.10678256
000110 04 25 e7 bd 08 41 fb 3c a4 13 50 be 99 c8 fc bd
       -0.11286357 0.030670658 -0.20319992 -0.123429485
000120 29 a8 86 bb 77 d7 f3 bd 21 c1 12 3e dc 8c e8 bd
       -0.0041094017 -0.11906331 0.14331485 -0.11354992
000130 bd df fb 3d 95 26 bc bd bf 15 97 bc 3d 89 b6 3d
       0.12298534 -0.091870464 -0.018442987 0.08912895
000140 1b 45 49 be 2f 92 16 be 3c d5 b5 3d c5 a0 90 3d
       -0.19655268 -0.14704202 0.08878562 0.07061914
000150 19 8b 01 be 68 37 a7 3d ea e7 fc 3d 08 38 4d bd
       -0.12650718 0.08164865 0.123489216 -0.050102264
000160 a5 6c bd bd f2 c8 25 3e 60 39 36 3e 4a eb f5 3d
       -0.09249238 0.16189936 0.17795324 0.120077685
000170 cb ea f7 3d 77 9c c5 bd 0c 41 8b bd 9a 05 93 bd
       0.1210533 -0.09648984 -0.06799516 -0.07178803

rnn.bias_hh f4 [96]
000000 0f c6 00 bd a8 84 16 3d bf c8 3e 3d 19 d9 56 3b
       -0.031438883 0.036747605 0.046578165 0.003278321
000010 4d 58 01 be 19 3e 5a bc 64 a1 2e bd c7 76 b3 3d
       -0.1263134 -0.013320469 -0.042634383 0.08762889
000020 df a3 e1 3d f9 63 04 3e 38 7c cb 3c 8c 46 96 3d
       0.11017584 0.12928762 0.024839506 0.073376745
000030 52 dd 82 3d f3 57 06 bd ef 52 ac bc 5c 3b ff bd
       0.0638987 -0.03279872 -0.02103564 -0.12462494
000040 45 b2 f2 bb 8a e7 68 bd 52 47 6e bd 54 81 04 3e
       -0.0074065053 -0.056861438 -0.058173485 0.1293996
000050 f5 e5 e3 3b f7 80 41 be a3 27 b0 3d 45 c1 5a 3d
       0.0069549032 -0.18896852 0.0860131 0.053406972
000060 cb 63 39 be 8a 35 41 3e 4c c1 19 3e 31 32 98 3c
       -0.18104474 0.1886808 0.15015143 0.01857862
000070 09 63 63 3d 97 f7 ce 3d 36 c6 71 bd 13 8d 93 3d
       0.05551437 0.10105818 -0.05902692 0.07204642
000080 3a 80 db bd f4 65 8d bd 19 b7 39 bd ed 15 02 3e
       -0.10717817 -0.06904212 -0.04534063 0.12703677
000090 81 f0 dc bd 4e 0e 3f 3d 3e b6 20 3d 2c e0 eb bd
       -0.1078806 0.0466445 0.0392363 -0.11517367
0000a0 bf 19 81 bc d4 50 fd bc 6e 39 dc 3c 07 55 19 bd
       -0.015759347 -0.03092233 0.026882853 -0.037434604
0000b0 f9 26 b9 3d a1 1f f8 bd 79 ae 21 be 40 25 9a bd
       0.090406366 -0.12115408 -0.15789212 -0.07526636
0000c0 14 8c 26 be a2 2d 09 be 16 b5 5a be 07 fb 8f 3c
       -0.16264373 -0.13396314 -0.21358141 0.017575754
0000d0 bd 9d b8 bc 20 ff 2d be 2a ab 96 3d d7 60 fb bc
       -0.022536153 -0.16991854 0.07356866 -0.030685825
0000e0 ad 4d 34 be cb bc 8f 3d 16 c9 e2 3b ac 82 ad 3d
       -0.17607756 0.07018431 0.006920944 0.08472189
0000f0 bd 36 8e bd df e2 86 be 8e 11 41 3d 09 88 3f be
       -0.06944034 -0.26344964 0.047135882 -0.18704237
000100 60 5a b5 bc 21 52 50 3d 59 8f 5c 3d 29 2a 14 be
       -0.02213782 0.050859574 0.053847644 -0.14469208
000110 5f e2 d3 3d d8 b4 46 bd d0 ca 61 3c 4c 77 60 be
       0.10345911 -0.04851231 0.013781264 -0.21920508
000120 83 6b ac bd 56 89 ec bd 10 3c 4e 39 d3 33 23 3e
       -0.08418944 -0.11549632 0.00019668066 0.15937738
000130 c7 d3 a6 bb 62 ca 44 3d fb a8 77 be 6a d3 0b be
       -0.005091164 0.04804457 -0.24185555 -0.13654867
000140 c7 04 2e be c2 a2 04 bd 36 7d 3c be de b5 34 be
       -0.1699401 -0.03238178 -0.18407139 -0.17647502
000150 c9 b1 f2 3d 6d 1d 0d bd 00 97 f8 bc 50 78 0f be
       0.11850316 -0.03445189 -0.03034544 -0.1401074
000160 79 71 1e 3d 59 ce 79 3d c9 03 ea 3d 68 0c 11 3b
       0.038682435 0.060987804 0.11426503 0.002213264
000170 40 73 31 be 06 3b 3c be 1e 61 e2 bc 0b d2 03 be
       -0.1732912 -0.1838189 -0.0276342 -0.12873094

fc2.weight f4 [6, 32]
000000 b8 82 a1 3d 22 bf f8 3d d0 af c3 bb 06 26 ed bd
       0.07886261 0.12145831 -0.005971886 -0.11579518
000010 21 0c 2a be 89 96 06 3e 1c c5 a4 bd ce 3c be bc
       -0.1660619 0.13143362 -0.08045408 -0.023222353
000020 71 fc 17 be fc fe b5 ba fd d0 38 be ad 1b 30 3e
       -0.14842393 -0.0013885195 -0.18048473 0.17198057
000030 20 d7 aa 3e d8 c1 e4 bd e7 db 95 3d c5 77 ba bd
       0.33367252 -0.11169785 0.07317334 -0.091048755
000040 c8 34 08 be 3f 59 37 be 5c fe 9d bd 12 4a 24 be
       -0.13301384 -0.17905138 -0.07714531 -0.1604388
000050 0b ad 1b be 7f 59 2b be bb 4f 88 3d 79 42 0f be
       -0.1520273 -0.16733359 0.066558324 -0.13990201
000060 a2 c8 61 bd 88 fc 70 3e d9 37 bb 3d a0 2b 8a be
       -0.05512298 0.23533833 0.091415115 -0.26986408
000070 4b a4 d6 3d 37 44 5f 3e f7 20 68 3d ff a8 17 3f
       0.10480555 0.21803366 0.056672063 0.5924224
000080 a1 85 f2 3d b1 7f 33 3e fe e2 ec bc 54 7f 6c be
       0.11841894 0.17529179 -0.028916832 -0.23095447
000090 5d c8 dc 3c c9 81 68 3d 65 b6 a4 bc 9a 3d 97 bd
       0.02695101 0.056764398 -0.020106504 -0.073847964
0000a0 8d 27 01 3e a2 42 53 bd c0 8c ac 3b 8e 04 3e 3d
       0.12612744 -0.051577218 0.005265802 0.046391062
0000b0 d2 3a d5 bc 35 8f 0f be 6b 6c 94 bc a3 58 80 bd
       -0.026029024 -0.14019473 -0.018118104 -0.06266906
0000c0 2e f7 42 3e 7d 1d 9e 3d 51 58 e8 3d c2 66 29 3d
       0.19039604 0.07720468 0.1134497 0.041357763
0000d0 49 29 12 be 70 a2 80 bd 9f ad 01 3c 18 85 bd bd
       -0.14273562 -0.062809825 0.00791493 -0.09253901
0000e0 51 80 0a be 7a f9 90 bd 12 db 8c bc 9a 17 8e be
       -0.13525511 -0.07078834 -0.017194305 -0.27752382
0000f0 d4 5d 13 3d 2d 68 22 bf 77 aa e0 3c 94 91 85 3e
       0.035978153 -0.6344021 0.027425034 0.2608763
000100 dc 15 27 3e a2 3d be 3d 0a ca dc 3d da f9 7b 3e
       0.16316932 0.09289099 0.107807234 0.2460703
000110 2d ca e7 bd 76 a1 09 3b ae ef 19 3d ba 01 b0 3c
       -0.11317859 0.002100078 0.037582092 0.021485198
000120 cb fe 96 be 0d 57 1e be 4e fb 13 3e 82 1f 94 bd
       -0.29491267 -0.15462895 0.14451334 -0.07232572
000130 aa 1d 8e be e3 00 e2 3d b1 0a a5 3d b8 a7 15 3d
       -0.27757007 0.110353254 0.0805868 0.036536902
000140 6e 5a f2 bd ef 3d 94 bd cb 6e 1d 3d e4 0a e2 bd
       -0.11833654 -0.072383754 0.03843574 -0.110372335
000150 1d 22 04 bd 25 be 12 bf 6d 2c 13 be c3 7a 9a 3e
       -0.032259095 -0.5732139 -0.14372416 0.30171785
000160 b6 14 0d be f3 83 8e 3e 0a 67 a0 be 00 64 50 3e
       -0.13777432 0.27835044 -0.31328613 0.20350647
000170 df 6c b7 bc b0 6b 3a bd 6c 41 9f 3e 93 0c e7 3d
       -0.022390781 -0.045512855 0.311046 0.11281695
000180 84 d3 55 3e cb c2 84 be 50 95 cf 3d 61 e1 ac 3d
       0.20881468 -0.25929865 0.10135901 0.08441425
000190 4a 5f 4e bd 34 8c 3c 3e f9 d7 12 3d 11 7e fe 3d
       -0.050383843 0.18412858 0.0358505 0.12426389
0001a0 5b 93 63 be 31 7d 7b 3d 0f 6d 94 3b a9 c5 53 bc
       -0.2222418 0.06139869 0.0045296024 -0.012925544
0001b0 2a 84 ad 3d 53 9f 3d 3e 4e d0 76 bd 6e 7b 12 3e
       0.08472474 0.18517809 -0.06025725 0.14304897
0001c0 9d 13 00 3e 90 a1 dd 3d 80 16 e7 3d 81 62 3b be
       0.12507482 0.10821831 0.112835884 -0.18299295
0001d0 18 48 bb 3e 41 5d 7f 3d c5 e3 c4 bd c0 d7 dd bc
       0.3657844 0.062344793 -0.09613756 -0.027080417
0001e0 69 49 1f be cc ea 8a 3c d2 f9 d1 be ec ba 20 bd
       -0.15555348 0.016957663 -0.4101091 -0.039240763
0001f0 cc f7 74 be 92 f9 09 be 35 44 98 be 23 7d 55 3e
       -0.23922652 -0.1347411 -0.29739538 0.20848517
000200 0c c7 be bd 9c 9a 9a 3d 62 e4 12 3d cc 25 91 3d
       -0.09315309 0.07549021 0.035862334 0.07087287
000210 56 d9 01 bd 6f 56 48 be 89 7e c4 3d 3d 29 11 bd
       -0.03170141 -0.19564222 0.09594447 -0.03543972
000220 56 9f d3 3d 46 f7 c8 bd 84 b7 ff bd 2b 71 bc bd
       0.10333125 -0.09812789 -0.12486175 -0.092012726
000230 69 2a a1 bc c9 68 c2 bd 99 f1 0a 3d 45 7b 60 3c
       -0.019673543 -0.094926424 0.03392181 0.013701265
000240 7a 75 77 be 35 8a b5 be 98 ff 8a be 10 b2 42 be
       -0.24165908 -0.35457006 -0.27148128 -0.19013238
000250 15 26 46 3e c0 3d 22 3e 9a 80 79 be 90 1f d2 bd
       0.19350465 0.15843868 -0.24365464 -0.10259926
000260 75 fa af be c5 32 3e 3e a0 47 17 bd 28 d1 2a be
       -0.3437077 0.18574055 -0.03693354 -0.1668135
000270 31 eb 58 3d 94 e5 2a be 34 d8 0d 3e 46 47 ae bd
       0.05295867 -0.1668914 0.13852006 -0.08509688
000280 88 6a 00 3e 1b 19 84 be c4 cb c4 3e b0 ba 61 3d
       0.12540638 -0.25800404 0.3843671 0.05510968
000290 5c af 5f 3e bc 03 55 3e b2 c1 f6 be 04 bd c1 be
       0.21844238 0.20802206 -0.48194653 -0.3783952
0002a0 ee 25 a9 3e 27 c9 9a be bf 10 47 be 73 42 01 3e
       0.3303675 -0.30231592 -0.19439982 0.12623005
0002b0 d7 0f ca 3c 1c b8 69 be e8 13 58 3e 02 63 c4 3e
       0.024665756 -0.22824138 0.21101344 0.38356787
0002c0 28 e2 43 be 24 96 ac be db b2 b6 be d1 b9 59 be
       -0.1912924 -0.33708298 -0.3568333 -0.2126229
0002d0 17 44 e0 be b8 a4 a9 3e 0a 63 0f 3e d5 c5 84 3e
       -0.43801948 0.33133483 0.14002624 0.25932184
0002e0 fa d7 5a 3d 45 bf 54 3e c8 aa 8a bd cd a3 33 be
       0.053428628 0.20776089 -0.06770855 -0.17542954
0002f0 00 ff a5 be 93 1b 18 be b1 1a bd 3d fc 47 8e be
       -0.32421112 -0.14854269 0.092336066 -0.27789295

fc2.bias f4 [6]
000000 bc fb 47 3d 66 a0 59 bc a3 13 9e 3c b7 35 55 bb
       0.048824057 -0.013282871 0.019296473 -0.0032533237
000010 d3 56 fd 3c f1 b2 60 3d
       0.03092519 0.05485815
