results/alpha_0.25/agent_500.pt (torch, 43177 bytes, 8 tensors)

fc1.weight f4 [32, 104]
000000 40 46 b1 be 26 f6 5c 3d 4c 49 29 3e 65 d1 b8 3d
       -0.3462391 0.053945683 0.16531867 0.09024314
000010 0d 7e a4 bd ec 4b 9d bb ad 1e 14 be 4b 0f ff 3d
       -0.08031855 -0.0048003104 -0.14464827 0.12454089
000020 11 07 d9 3e 8f 04 b8 3d fa 97 45 bb b3 f0 17 bd
       0.42388204 0.089852445 -0.00301504 -0.037094783
000030 21 89 29 be 3f d9 85 3d 07 0e c5 bd 7a 32 8f 3d
       -0.16556217 0.06535577 -0.09621816 0.069920495
000040 19 d7 2b 3e 37 90 e1 3d eb 8d 0c be b8 a9 b7 bd
       0.16781272 0.11013835 -0.13726012 -0.08967918
000050 11 94 1c bc f0 7b 07 bd 31 cc 54 3d 10 aa a8 3d
       -0.009556786 -0.03307718 0.051952545 0.08235562
000060 60 f2 33 be a5 ec e8 bd a9 67 71 3d fb 81 b8 bc
       -0.17572927 -0.11373261 0.05893675 -0.022522917
000070 a5 58 64 b8 86 fd 48 be 09 7e 34 be 83 de 18 bc
       -5.4441993e-05 -0.19627962 -0.17626204 -0.009330395
000080 41 4b 12 3d 2a e1 be bc 51 1c f1 bd 60 ee 17 3e
       0.0357163 -0.023300726 -0.11772979 0.14837027
000090 e6 dc 71 3d 2a ab b3 bd 94 91 a4 3d 70 aa 62 3d
       0.059048556 -0.08772881 0.08035579 0.055338323
0000a0 b0 20 64 be 84 3e a2 3d 10 5b 63 3c 25 53 18 3e
       -0.22278094 0.0792208 0.013876691 0.14875467
0000b0 f5 9a a6 3d bd 2a f0 3d 96 68 f8 3c 68 07 bc 3b
       0.081350245 0.11726902 0.030323308 0.0057381876
0000c0 1f db d5 3d 2d 5e 1a bb 91 c6 31 3d f6 c6 23 3d
       0.10442185 -0.0023554668 0.04340226 0.039984666
0000d0 54 7a c9 bd 04 00 01 3e 01 fc cd 3d 79 23 a2 bd
       -0.09837785 0.12597662 0.100578316 -0.07916922
0000e0 eb 0d 37 be f1 25 50 3b 16 7f 69 3c f7 1c 15 be
       -0.17876403 0.0031760896 0.014251491 -0.1456183
0000f0 e2 bc 39 3d 61 45 36 3c b5 2f f0 3d 07 86 35 be
       0.04534615 0.01112494 0.117278494 -0.17726909
000100 47 ae 52 3c e4 9e a2 3c 46 a9 82 bd 7e 8c a8 bd
       0.012858934 0.019851156 -0.063799426 -0.08229922
000110 13 e2 19 3e e4 0a 57 3d 54 cd f0 bd b2 12 cb bd
       0.15027647 0.05250062 -0.11757913 -0.09915675
000120 f5 89 34 bd 95 e0 f2 3c 1d b7 0f be ff 9e b4 3d
       -0.04407688 0.029648105 -0.14034696 0.088193886
000130 80 f9 ec 3c 58 1c 97 bd 42 ed 8e 3c af 0f fb bd
       0.028927565 -0.07378453 0.017447118 -0.12258851
000140 9c 68 76 bd 96 d3 52 bd de 1f 96 bd a0 f9 bb bc
       -0.060158357 -0.051471315 -0.07330297 -0.022946179
000150 bd a6 d8 bd 30 87 5f be a4 85 ea 3c fa 28 82 bd
       -0.10578678 -0.21828914 0.028628178 -0.06355472
000160 b5 a8 cf bc 91 09 5d be 2c a4 88 bd 75 4d e2 bd
       -0.025349 -0.2158568 -0.06671938 -0.1104993
000170 e5 be 33 bd 4c 4e 72 3d 9e e8 fc 3d 03 30 b5 3d
       -0.043883223 0.0591567 0.12349056 0.08847048
000180 b3 ea 1b be 7b b6 86 3d 5b 5c 94 3d bd f9 1e 3e
       -0.1522625 0.06577774 0.07244178 0.15524955
000190 7f 8f f3 bb 2e c3 c2 3d 21 48 aa 3d da 85 ae 3d
       -0.0074328776 0.09509884 0.08314539 0.08521624
0001a0 1b 23 0a 3e b9 be 8f be 4d 40 d7 bc f7 b5 89 bd
       0.13489954 -0.28075197 -0.026275778 -0.0672416
0001b0 9a 10 da 3b ab 60 db 3d ba 6e bf 3d 45 d9 91 bd
       0.006654811 0.10711797 0.09347291 -0.07121519
0001c0 26 88 cd 3c 14 5d bf bc 93 0f 03 3e 16 ad f2 3c
       0.025089335 -0.023359813 0.1279891 0.02962355
0001d0 e5 91 f3 3d 65 48 69 bd f0 b6 fa bb 71 52 93 bd
       0.118930615 -0.056953806 -0.0076512024 -0.07193459
0001e0 86 3c 58 bc 7c 23 5c bc 19 b7 57 3d 0e ce 7e bc
       -0.013198024 -0.0134361945 0.05266485 -0.015552057
0001f0 a8 c9 3f bc 12 c7 fe bd 02 7b 57 bd 1a 45 ea bb
       -0.011705793 -0.124403134 -0.052607544 -0.007149351
000200 09 82 97 bc 8d 0e a0 3c 20 84 29 be 8e bf b5 bd
       -0.018494623 0.019538188 -0.16554308 -0.08874427
000210 1c be 8e bd c3 f4 04 bd 82 6d c7 3d 5f 68 f1 bd
       -0.06969854 -0.032459985 0.09737684 -0.11787485
000220 fb b6 a9 3c 23 81 21 be 7d 45 2d be 50 2e 06 3e
       0.020717135 -0.15771918 -0.16921039 0.13103604
000230 7a bc 16 3e 48 19 a0 3a 2f 9d f7 3c 4c 99 d2 3d
       0.14720336 0.0012214566 0.030226318 0.10283145
000240 09 25 0b bd c8 44 5d bd 81 d5 10 be 98 1e 4f be
       -0.033970866 -0.054020673 -0.14143945 -0.20226514
000250 3c 8e c7 bd 3c 6b 18 be 44 f7 2a bd 38 50 6d 3d
       -0.09743926 -0.14884657 -0.041739717 0.05793783
000260 22 7e d4 3d b8 a1 d7 bd 87 eb 16 bd 17 6c a7 bd
       0.103756204 -0.10528892 -0.03684571 -0.081749134
000270 02 71 c5 3d 3c 23 c6 bb 62 fa 2c be d5 c0 02 be
       0.09640695 -0.0060466807 -0.16892388 -0.12768872
000280 75 ab fd 3c 66 75 13 be 34 c4 18 be ae 10 86 bb
       0.030965546 -0.14400253 -0.14918596 -0.004091344
000290 cf 88 3e 3d 29 b9 e3 bb b4 f3 3a be 64 31 84 bc
       0.04651719 -0.006949563 -0.18257028 -0.016136833
0002a0 47 9b ea 3d c1 d2 52 3c 92 57 cd 3d d6 55 f2 bc
       0.11455398 0.01286763 0.10026468 -0.029581945
0002b0 4d 3e d1 bd c8 98 e8 bc f6 79 10 3e f1 f8 54 3e
       -0.10216961 -0.028393164 0.14109024 0.20798089
0002c0 1f e6 3c 3d 5d e0 ba 3d b6 9e 8f 3d 22 d2 f0 39
       0.046117898 0.09124825 0.070126936 0.00045932928
0002d0 39 a5 e1 bd e2 c0 1d bd 04 80 3a bd ea 93 92 be
       -0.11017842 -0.038514026 -0.04553224 -0.28628474
0002e0 9d 74 f7 3d 7b b8 80 3c fd cf 84 bd 6f 78 c6 3c
       0.12082789 0.015712967 -0.06484983 0.02422735
0002f0 84 cc a4 bd 92 25 04 be 0e 35 f9 3c 66 8d b6 3c
       -0.08046821 -0.12904957 0.030420806 0.02228422
000300 95 31 02 3e 88 9f 8b 3d 28 9e 57 3d a9 48 37 3d
       0.12714227 0.068175375 0.052641064 0.04474703
000310 42 da 8d 3d 45 a1 e1 3d b8 aa 07 3e 86 65 2d bd
       0.06926395 0.11017088 0.13248718 -0.04233315
000320 c7 44 cc 3e 12 39 c0 3b 4a 59 18 be e4 95 3d 3e
       0.39896223 0.0058661783 -0.14877811 0.1851421
000330 88 e7 9e 3d 86 02 22 ba 67 13 c1 3d 74 5c 88 3b
       0.07759005 -0.00061801856 0.09427529 0.004161412
000340 0d 89 f5 bd 76 18 68 bd 4a 7a 19 be 8a ae f1 bb
       -0.11989031 -0.056663953 -0.14988056 -0.007375543
000350 01 5a 8c bd e5 e4 95 be 23 18 40 be b4 22 13 bc
       -0.068531044 -0.29276195 -0.18759207 -0.008980442
000360 37 a0 f2 bd f8 a3 9e 3c 9e 5a a5 3d 05 c2 74 bc
       -0.11846965 0.019365296 0.080739245 -0.014938836
000370 f3 50 07 be d8 9b ac bd a0 21 a1 3d e9 2b 18 be
       -0.13214473 -0.08428162 0.078677416 -0.148605
000380 85 41 2a bd 99 82 57 be e1 e6 95 bd b2 4f 24 3d
       -0.04156639 -0.21045913 -0.07319427 0.040115066
000390 32 94 c1 3d 10 c2 4f bd 57 8f 89 bc 8e 75 24 bd
       0.09452094 -0.05072218 -0.016791983 -0.04015117
0003a0 23 6c 31 3e 99 5f b6 bd 3a 04 1e be 46 3d c6 bd
       0.17326407 -0.089049526 -0.154313 -0.09679656
0003b0 dd 8b 48 3e b8 e2 bb 3d a5 e9 1d 3e 44 e9 1d bd
       0.19584604 0.091741025 0.1542116 -0.038552538
0003c0 97 99 38 bd df 94 3b 3d f7 c4 a3 bd 76 e8 96 bc
       -0.04506835 0.04579627 -0.079965524 -0.018421393
0003d0 59 e5 7c bd 70 64 88 3d fd e9 23 3e 22 5c 21 be
       -0.06174216 0.06659782 0.16007228 -0.15757802
0003e0 a1 d4 82 3c c9 5e cc bd 56 9f f0 ba 49 18 f9 bd
       0.01597053 -0.09979016 -0.0018358033 -0.12162835
0003f0 af 69 bb bd 09 96 84 3d fb 67 54 bc be df a4 3d
       -0.09151017 0.064739294 -0.012964244 0.08050488

fc1.bias f4 [32]
000000 87 62 b1 3c 03 e5 d0 3b 0d e8 71 3c 3f dd 96 3a
       0.021653427 0.0063749566 0.014764798 0.0011510028
000010 17 29 ac 3c 2d 4f 6e bb 07 82 4b 3d 62 30 26 3c
       0.021015687 -0.003636311 0.04968455 0.010143371
000020 da 31 48 3d 0e 99 0d 3c a5 06 f5 3c 7e 0c 20 bc
       0.048875667 0.008642448 0.029910395 -0.009768603
000030 06 60 0d 3d f9 1a b4 3c 5f 44 de 3c c6 7e 88 3c
       0.034515403 0.021985518 0.027132211 0.016662013
000040 3b 17 68 3c 6c d8 90 bc 93 15 8c 3c 23 61 ec ba
       0.014165695 -0.017681323 0.017100131 -0.001803432
000050 8b d5 0d 3d fa 37 75 3d b6 7d 82 3d 81 f0 c2 3c
       0.03462748 0.059867837 0.06371634 0.023796322
000060 21 6d 63 bc 82 86 26 3d 0c ad 67 3a 7f ed 30 3a
       -0.013880999 0.04065562 0.00088377367 0.0006749257
000070 0c 0f fe 3c eb 80 0b 3d a2 d2 41 bc 32 fb e7 3c
       0.031013034 0.034058493 -0.011830004 0.028318021

rnn.weight_ih f4 [96, 32]
000000 2c db 1e be c7 06 24 3d 8a 22 16 3e ee d2 f6 bb
       -0.15513295 0.040045526 0.14661613 -0.007532469
000010 54 dc 4d be 5c 09 37 be a2 bf 32 be 03 aa 91 3d
       -0.2010358 -0.17874664 -0.17455915 0.07112505
000020 8d f3 2a 3b 46 88 cc bd 79 7a 3a bd 9b 29 fc bd
       0.002608511 -0.099869296 -0.045526955 -0.12312623
000030 05 0c 4f 3d e2 57 34 bb db 70 2a be b5 7f 2b 3e
       0.050548572 -0.0027518203 -0.16644613 0.16747935
000040 86 72 f5 bd d9 d3 a5 bd 55 71 29 be d5 68 34 3d
       -0.11984734 -0.08097047 -0.16547139 0.044045288
000050 49 5c 11 be 48 94 ec 3d ce 87 91 bd b8 b2 68 3d
       -0.1419536 0.1155172 -0.07105981 0.056811064
000060 62 16 15 be 36 2d d2 3d d3 eb 00 be 74 03 34 3c
       -0.1455932 0.102625296 -0.1258996 0.010987151
000070 fa 88 c9 3d 0e 82 d2 3b 87 a0 ac bd b7 44 98 bc
       0.09840579 0.006424195 -0.08429056 -0.018587453
000080 2b 9e 0d be 1c ae 25 3e 0f 20 88 bd 87 64 b1 bd
       -0.13829868 0.16179699 -0.0664674 -0.08661752
000090 31 6e 2e 3a 32 85 07 be ad 8e 86 bd d2 28 17 3e
       0.0006653993 -0.13234404 -0.06570182 0.14761665
0000a0 d4 0a 3a 3c 7c 03 56 bd a7 db 18 3d 79 0e cf 3d
       0.011355121 -0.052249417 0.03731885 0.10110182
0000b0 e2 a2 45 be 90 07 2a be a8 13 46 bb 2b 5b 82 bc
       -0.19300416 -0.16604447 -0.0030224118 -0.015912613
0000c0 35 27 8a bd 3f 56 db 3c e7 00 b6 bc d3 f1 d5 bc
       -0.067457594 0.026774524 -0.022217227 -0.026116287
0000d0 19 6d 68 be c4 8a 7e 3e 6d 0d 94 be 2e ff c2 bc
       -0.22697867 0.24857622 -0.28916493 -0.02380332
0000e0 27 2d 88 3d 2f 06 c4 bd a8 34 d4 bd c9 be 9c 3d
       0.06649237 -0.09571492 -0.10361606 0.07653577
0000f0 5a 3e b1 3d fc 87 9e bc cc 0a b3 bd 4e d4 5c bd
       0.08654471 -0.019351952 -0.08742294 -0.053913407
000100 ad 50 06 3e ec 03 66 3d 96 bf d4 bd 9f 41 2b be
       0.13116713 0.056156084 -0.103881046 -0.16724251
000110 5d 7b 21 bd ae 50 08 3e ba ba c9 3d cb d3 90 bd
       -0.03942429 0.13312027 0.098500684 -0.07071646
000120 ca 56 3f 3e ed a8 fb 3d 97 45 50 bd 8d 20 2d be
       0.18685451 0.122880794 -0.050847616 -0.16906948
000130 74 76 0b 3e fb 1d a9 3e e8 0d 83 3d 8f d4 23 be
       0.13619405 0.33030686 0.06399137 -0.15999053
000140 6f 8b 98 3d f5 7f 3f 3d 9d 39 02 3e 81 08 d6 3d
       0.0744847 0.04675289 0.1271729 0.10450841
000150 40 9f 38 be 65 dc f0 3d 64 94 fa 3c cb be 17 3e
       -0.18029499 0.11760787 0.030588336 0.14818875
000160 5c 31 95 3d fb 48 73 be be 6f 08 3e 6a b4 c8 3d
       0.07284805 -0.23758309 0.13323876 0.09800036
000170 9b 2c 02 be 10 e0 f9 bd 45 be 3b 3d b1 41 f3 3d
       -0.12712328 -0.1220094 0.045835752 0.11877764
000180 01 f3 0a 3e 73 a9 33 be 0a 5f 37 3e cb a0 f0 ba
       0.13569261 -0.17545108 0.17907348 -0.0018358467
000190 8e 5d 18 bd 32 8b 1c bd 57 af 2f be d6 cd ea bd
       -0.037198596 -0.038218684 -0.1715673 -0.11465041
0001a0 bd e0 3d be e3 05 dc 3d 88 79 8f 3d 74 27 e5 3d
       -0.18542762 0.1074331 0.07005602 0.11189166
0001b0 aa f3 40 3e d1 f7 24 3c 7e d6 45 3e 8e a9 8c 3d
       0.1884295 0.01006885 0.19320104 0.068682775
0001c0 b5 80 ff bd 10 f6 07 be cf 13 b4 bd b4 fd ef 3d
       -0.12475721 -0.13277459 -0.08792841 0.11718312
0001d0 6c 0d ae be d5 2e 56 be 34 68 33 3e c8 32 9f 3d
       -0.33994615 -0.20916303 0.17520219 0.07773358
0001e0 8d 82 88 bd ec 3e b9 bd 13 8a 0d bd 4b 7d 81 3d
       -0.066655256 -0.090452045 -0.034555506 0.06322726
0001f0 43 54 b1 bd 86 19 d3 3d e7 43 b5 3d 32 7c 3e bd
       -0.0865865 0.103076026 0.08850842 -0.04650516
000200 80 9f 16 3d 6b b6 59 3e d5 91 8e be 6a eb cf 3d
       0.036773205 0.21260993 -0.27845636 0.101523235
000210 52 4c c4 3d 06 99 d0 3c 32 56 64 bd 7b f7 87 bd
       0.095848694 0.025463592 -0.055746265 -0.06639
000220 76 9d 4d bd 22 49 74 bc 77 34 c2 3d 44 96 51 3b
       -0.050198995 -0.014910014 0.09482663 0.0031980434
000230 76 c7 c4 bd af 8b 32 3d fe 93 80 be 61 55 05 be
       -0.09608357 0.043590244 -0.2511291 -0.1302085
000240 28 a0 1b 3d fd 97 9e bd 52 d0 41 be 91 4d f2 bd
       0.037994534 -0.07743833 -0.18927124 -0.11831201
000250 e3 93 c2 bd dd ee 5a bd d1 ab 9e bd b2 3f 4b be
       -0.095008634 -0.053450454 -0.07747615 -0.19848517
000260 45 c2 d4 bd e1 c6 c7 bd 67 1f cd 3c 67 90 da 3d
       -0.103886165 -0.0975473 0.025039388 0.10672074
000270 cb a7 20 bd 43 db 94 be 30 ca 2d be 54 9f 82 bd
       -0.03922252 -0.29073533 -0.1697166 -0.06378046
000280 a6 01 fb bc 4c 55 20 be 69 c3 4f be c7 28 97 3d
       -0.030640434 -0.15657538 -0.20289387 0.073808245
000290 55 70 1e bd 23 96 36 bc e9 00 12 be 57 0c c6 bd
       -0.038681347 -0.011144194 -0.1425816 -0.096703224
0002a0 04 81 ab bd 14 dd f9 bd 99 95 7f bd d7 a8 0c 3e
       -0.08374217 -0.122003704 -0.062398527 0.13736282
0002b0 25 15 2e bd a1 ee e7 bb a2 c9 50 be 91 62 99 bd
       -0.042500634 -0.0070780073 -0.20389417 -0.07489503
0002c0 48 72 51 be 33 9b e8 bd 09 a2 34 3d fd ef db bd
       -0.20453751 -0.11357727 0.04409984 -0.107391335
0002d0 21 2a 41 be 79 1b aa 3d d9 f7 9e be 11 31 1d be
       -0.18863727 0.08306021 -0.31048468 -0.15350749
0002e0 2b 52 f4 3d 8b bb 2b 3c bf e2 38 3d eb 0b 74 bc
       0.11929735 0.010481725 0.045138117 -0.01489542
0002f0 77 bf 73 bd b9 7e 80 bc 9c 7f 00 3e a6 ae 49 bd
       -0.059508767 -0.015685426 0.12548679 -0.049238823
000300 5c 1b 43 bc 88 a0 d5 bc ab b0 90 3d 50 d5 0c 3d
       -0.011908378 -0.026077524 0.07064947 0.03438312
000310 cf 08 63 be 42 f4 89 bc db a9 59 bd 1c 70 0c 3d
       -0.22171329 -0.016840104 -0.053140502 0.034286603
000320 66 4d 88 3d ed c6 b0 3d b6 5e 07 bc 5c b5 1f be
       0.066553876 0.08631692 -0.008262327 -0.15596527
000330 1f a9 86 be 18 d8 cc 3d e8 d3 8a bd 74 73 ec bb
       -0.26300904 0.10002154 -0.06778699 -0.0072159115
000340 ec 24 6a be ff 0f 1b 3e 54 12 e7 ba 36 7e 61 bd
       -0.22865647 0.15142821 -0.0017629364 -0.055052005
000350 7e 6a a5 3c f4 6b b1 3d 32 fd d1 bd d2 81 85 bd
       0.020192381 0.086631685 -0.10253371 -0.06518902
000360 eb 6f a5 bd 91 b3 4e be 0d 9b e4 3b ce 8f 2f be
       -0.08077987 -0.20185687 0.0069764913 -0.17144701
000370 e0 28 01 be f5 50 95 bd 53 4d 81 bd e3 6b 15 3e
       -0.12613249 -0.07290832 -0.063135765 0.14591937
000380 20 3e 25 be 68 97 fa bb 99 5e b2 bd 5f 87 80 3d
       -0.1613698 -0.0076474436 -0.08709449 0.0627582
000390 94 79 bc 3d 09 63 29 3e 6d 35 cb bd f4 b5 11 bd
       0.09202877 0.16541685 -0.099222995 -0.035573915
0003a0 b6 80 4f bd 6f df 20 be ae 32 40 3d 28 ef af 3d
       -0.050659858 -0.15710233 0.046923332 0.08590537
0003b0 6b 95 86 3d 3e f0 64 3c 56 87 89 bd eb 6e 03 3e
       0.06571468 0.013973294 -0.067152664 0.1283528
0003c0 f5 4f ce 3d 02 9d d5 3c 41 5e d2 3c d8 0d df bd
       0.10073844 0.026075844 0.02567971 -0.10891312
0003d0 e6 01 16 be da 00 36 3e fe ad 81 bd 48 42 8f 3b
       -0.14649162 0.17773762 -0.063320145 0.004371915
0003e0 1c f7 22 3e c3 5f cc 3c ec a2 0d 3e d7 66 26 be
       0.15914577 0.024948006 0.13831681 -0.16250168
0003f0 3a e5 24 be 2e fa 4a be cf ea c6 bd 9a 63 a5 3d
       -0.16103068 -0.19821998 -0.09712755 0.08075638

rnn.weight_hh f4 [96, 32]
000000 5c a6 1a 3e 5d 64 07 3d 5b 6a e5 bc a6 56 45 3e
       0.15102524 0.0330547 -0.028004816 0.19271335
000010 6c 4d 91 3d 24 c0 24 3e 0f 2c 14 be a2 7b d2 3d
       0.07094845 0.16088921 -0.14469932 0.10277487
000020 a6 5e 0b be ef 2c 64 bd 3b 2f db bc c3 5f df 3d
       -0.13610324 -0.055706915 -0.02675592 0.10906937
000030 41 b0 9c bd 44 82 b1 bc ff 22 35 3d 87 45 0e be
       -0.07650805 -0.02166856 0.044222828 -0.1389371
000040 cc 1d 29 bd 37 26 2d 3e 21 74 cb 3c 5d d5 c2 3b
       -0.041288182 0.16909109 0.024835648 0.005945845
000050 b4 21 8d bd c9 c4 c3 3d f5 c6 38 3e c6 9c 42 bd
       -0.06891194 0.09559018 0.18044646 -0.047512792
000060 89 99 9d bd 1d 25 c6 bd fb 74 03 3e b6 74 6e bc
       -0.076953 -0.096750475 0.12837593 -0.014554193
000070 d6 3c a4 3d 02 14 9c 3d fb fe 3b be 94 54 66 bd
       0.08019416 0.07621004 -0.18358986 -0.056233004
000080 49 af f0 3d 67 8f a1 3d 82 0a 01 3e de c8 e6 bd
       0.11752183 0.0788868 0.12601665 -0.11268781
000090 0d 48 ac 3d 7f 53 e5 bd b0 20 93 3d a5 81 f6 bd
       0.0841218 -0.11197566 0.07183969 -0.120364465
0000a0 c9 9a 70 bd d1 af 02 bd 31 4d 41 3d f6 d6 2f 3d
       -0.058741365 -0.031905953 0.047192756 0.042929612
0000b0 7e 67 2b 3d 6e 1e 3c 3e 47 89 77 bd 62 81 c0 bd
       0.041846745 0.18370983 -0.060433652 -0.09399678
0000c0 76 c9 b0 bd 23 d3 87 3e 39 30 2b 3e e5 aa 48 3e
       -0.086321756 0.26528272 0.16717614 0.19596441
0000d0 1c c9 4e 3d 9c 3b ff bd 39 1b 56 3d b8 14 cb 3d
       0.05048476 -0.124625415 0.052272055 0.09916061
0000e0 a5 a6 39 be cf 1c 42 be c4 eb 1e 3e 7f 81 a3 3d
       -0.18129976 -0.18956302 0.15519625 0.07983684
0000f0 e6 0a a4 bd 31 51 e8 bd 69 44 6e 3d 7e f1 3a 3d
       -0.08009891 -0.11343611 0.05817071 0.04564046
000100 a5 4e c1 ba 32 51 df bd 6c d4 7f 3d b7 81 7e 3d
       -0.0014748169 -0.10904159 0.06245844 0.062135424
000110 52 e0 10 3d 9e 2b f3 bb b8 c7 84 bd 08 e9 84 3d
       0.03537018 -0.007420971 -0.06483406 0.0648976
000120 57 a7 e9 3d 01 a9 37 3d 0f 68 93 3d 1e e9 41 be
       0.11408871 0.04483891 0.07197582 -0.18936583
000130 3b 44 ae 3d 5c f8 ad 3d 49 78 55 bd 5e 4f 0b 3d
       0.08509108 0.084946364 -0.052116666 0.034011237
000140 79 d9 88 bc d9 92 dc 3d 89 2b b7 bd 81 6a ca bd
       -0.016705262 0.107701965 -0.089438505 -0.09883595
000150 61 02 12 3e 39 c0 46 3e 1c de 83 be 4d 8f b8 3d
       0.1425872 0.19409265 -0.25755394 0.090117075
000160 76 47 9a 3d 03 6a 9d bd 38 bc a0 3b e1 c9 83 bd
       0.07533161 -0.07686236 0.00490525 -0.0643499
000170 03 eb 93 3d bd c7 ea bd fb 6d 22 be 04 1a 5e bd
       0.07222559 -0.11463878 -0.15862267 -0.05422403
000180 b3 1a 7f 3d f3 68 6d bc 8c 08 6f 3e 04 b5 aa bc
       0.06228132 -0.014490354 0.23343104 -0.020838268
000190 18 16 00 3e 99 20 5c be 05 c4 be 3d cc 91 31 bd
       0.12508428 -0.2149681 0.093147315 -0.043351933
0001a0 6e 1b 58 3d 6a e7 98 bd a4 7f 5d bd a2 a8 7c 3c
       0.052760534 -0.07466014 -0.054076806 0.015421065
0001b0 58 b6 8e bc ff cb ca 3d fa 7a 03 3b 9d 37 7f bd
       -0.017420933 0.099021904 0.0020062313 -0.062308896
0001c0 19 c1 4d 3e ed 90 b3 3d 23 bc 03 bc 40 e6 bd bd
       0.20093192 0.08767877 -0.008040461 -0.09272432
0001d0 da 78 1f 3b e8 a2 b2 bc 28 6d c0 3d 90 a9 ff bd
       0.0024333508 -0.021806195 0.0939582 -0.12483513
0001e0 3f 7c 17 3e c2 11 c5 3d 88 eb ac bd ba 4b 13 3e
       0.1479349 0.09622528 -0.084433615 0.14384356
0001f0 3e a0 00 3d df 18 33 3e d9 07 26 be 33 2f 0b be
       0.03140282 0.17489956 -0.16213931 -0.13592224
000200 06 b5 02 3c 8b d4 b5 3d 16 55 2a 3e 6a 65 1b be
       0.00797773 0.0887843 0.1663402 -0.15175405
000210 04 a0 33 bd 0b a1 98 bd 8e 13 48 3c 95 77 ba bd
       -0.043853775 -0.074525915 0.012211693 -0.0910484
000220 26 01 6e bd a3 04 35 be 32 e9 a0 3d e1 ef af bd
       -0.058106564 -0.1767755 0.078569785 -0.08590675
000230 6f 35 8b 3d 51 a5 e8 bc 66 ce 8b 3d 4c 27 42 be
       0.06797301 -0.028399142 0.06826477 -0.18960303
000240 fe 40 e3 3d d2 1d 4c 3e 4d d4 34 be 1e b1 e6 3d
       0.11096381 0.1993325 -0.17659111 0.11264251
000250 25 2a 53 be 49 51 20 3e d2 ab 55 be a7 de 54 3e
       -0.20621546 0.15656008 -0.20866325 0.2078806
000260 de 9f 56 bc cd 59 de 3d e2 ed 19 bd a7 8f 11 be
       -0.013099639 0.10856972 -0.03758038 -0.14214955
000270 e9 88 4d bd 08 b1 f5 3d 74 fa e4 bc 42 e7 18 bd
       -0.050179396 0.11996657 -0.027951457 -0.03732992
000280 2b 97 b4 bd fc 6a be bd 41 be 82 3d a2 95 c2 3d
       -0.088178955 -0.092977494 0.06383944 0.095011964
000290 e9 07 b3 bd dc 8c c9 bd 6d 79 fc bd d7 0d 71 3d
       -0.08741743 -0.0984132 -0.12327848 0.05885109
0002a0 11 f3 a3 bd 35 6a 48 3e 5f af c1 3d 63 bb cf bc
       -0.080053456 0.19571765 0.094572775 -0.025357908
0002b0 38 4b 94 3c c5 07 56 3c 2e a7 a5 bb aa 5a 8c bd
       0.018102273 0.013063376 -0.0050553298 -0.0685323
0002c0 30 6f fe 3d a6 f6 0e 3e 00 73 5b be e9 e0 63 3e
       0.12423551 0.13961276 -0.21430588 0.22253765
0002d0 8e 0c 7a 3d a2 aa 21 3c 4a 47 eb bd 36 35 c2 3d
       0.06104713 0.009867342 -0.11488207 0.094828054
0002e0 78 12 9f 3d d4 d7 22 3d 55 53 a4 bd 45 b8 93 bc
       0.077671945 0.03975661 -0.08023707 -0.018032202
0002f0 7b c1 56 be 7b 21 05 3d 76 0f 0d be a4 a0 84 3d
       -0.20972244 0.032502633 -0.13775429 0.06475952
000300 65 24 98 3d 25 2f 01 3b 90 3c c9 bc 11 f4 3c 3d
       0.07428817 0.0019711938 -0.024565011 0.046131197
000310 61 e5 62 be 34 e0 09 3e 44 c5 7b 3d 6a 19 0a be
       -0.22157814 0.13464433 0.061467424 -0.13486257
000320 43 00 01 be bc 5c 31 3d 80 cc e3 bc 57 ec b8 bd
       -0.12597756 0.04330133 -0.027807474 -0.09029453
000330 c2 58 08 bd 67 3e f3 bd 2e 52 2d 3c 76 dd 10 be
       -0.03328777 -0.11877137 0.010578675 -0.1414698
000340 55 e8 42 3e 7a 14 01 3e c7 c5 45 bd 96 16 2b bc
       0.1903394 0.12605467 -0.04828432 -0.010442397
000350 86 58 4c 3d c2 10 71 be 05 50 f8 3d 66 01 30 3e
       0.04988911 -0.23541549 0.121246375 0.17188033
000360 f2 b3 ae 3c 58 83 1b 3e 3d 36 b7 bd 5e 54 fb bc
       0.021326039 0.15186822 -0.08945892 -0.030679878
000370 10 ee 6b bd a2 5f 07 3e 1a f2 ec 3d 12 f0 0d bd
       -0.05760008 0.13220075 0.11569615 -0.034652777
000380 c9 e6 41 be 10 ff 40 bd db 11 44 bd e7 c3 87 3c
       -0.18935694 -0.047118247 -0.04786859 0.016572906
000390 8d 19 0f 3e 3c 22 85 bc bc f2 f7 bd 05 be 6e bd
       0.1397459 -0.016251676 -0.12106845 -0.058286685
0003a0 72 20 17 3e f0 30 ed bd 52 70 02 be 65 a0 39 3d
       0.1475847 -0.115816 -0.1273816 0.04531898
0003b0 5a 55 be 3d 51 43 81 bd f2 90 93 3c 8a 0f f1 bd
       0.09293623 -0.06311668 0.018013451 -0.11770542
0003c0 03 2c 15 be 4f 1c c8 bd db 67 2c bd 58 24 70 3e
       -0.1456757 -0.097710244 -0.04209123 0.23451364
0003d0 8a b5 2a bd a4 b6 e7 3d 02 66 7c 3d 2b bd e2 3c
       -0.041677035 0.11314133 0.06162072 0.027678093
0003e0 39 ca a3 3d 41 9c eb bd a5 35 58 3c d2 38 7a 3d
       0.07997555 -0.115044124 0.013196384 0.061089344
0003f0 0c 46 b7 3b 1e 63 a2 3d c3 a3 94 bd 2d 15 00 be
       0.005593067 0.07929061 -0.072577976 -0.12508078

rnn.bias_ih f4 [96]
000000 32 9c d7 bd 58 eb c3 3d 1d af 78 bd c2 1b 3e 3d
       -0.10527839 0.09566373 -0.060713876 0.04641319
000010 3b 8e f0 3d 16 7e 84 bd 2f 2e 12 3e f3 98 1c 3d
       0.11745878 -0.064693615 0.1427543 0.0382318
000020 00 3e 16 3d d8 41 0f 3b ae 48 5b bc db db 97 bd
       0.03668022 0.0021859314 -0.013384027 -0.07414981
000030 fe d5 0c 3e 7c de d1 bd 7d 58 a2 3d 91 08 14 3e
       0.13753507 -0.10247514 0.07927034 0.14456393
000040 5f 94 16 3e 14 3a 0c 3e 94 4e fd bd 07 af b0 bd
       0.14705037 0.1369403 -0.12368503 -0.08627134
000050 97 8f a7 3d c7 32 13 bd 84 8f 65 bc 35 52 0f be
       0.081816845 -0.035937097 -0.014011268 -0.13996203
000060 4a 6e 5d 3d ff 9b ca bd 61 d5 ef bd 0b 27 2b be
       0.054060258 -0.09893035 -0.11710621 -0.16714112
000070 31 cd f7 3d 46 e7 b5 3c 1f 97 33 be 47 3f 93 bd
       0.12099684 0.022205006 -0.17538117 -0.071898036
000080 e8 8e 06 be 18 14 ea bd ac 97 0a be 4a 70 96 bd
       -0.13140452 -0.11429614 -0.1353442 -0.07345636
000090 14 47 99 bc f7 96 23 3d db 6c 89 bd 96 67 00 be
       -0.01871065 0.039938893 -0.06710216 -0.12539515
0000a0 2e 34 d2 bd 7b 5f 29 be f9 d3 90 bd 22 44 20 3d
       -0.10263859 -0.16540329 -0.070716806 0.039127477
0000b0 ad b9 33 be ee 47 04 3d 50 66 2d bb cf cc 21 bd
       -0.17551298 0.03229516 -0.0026458688 -0.03950196
0000c0 d5 bc ee bd d2 37 55 be f7 63 b1 bd e1 de 7a bc
       -0.116571106 -0.20822075 -0.08661645 -0.015311928
0000d0 a9 a6 08 be 8a 3e 1e be f9 e2 d7 3d 95 2a cd 3d
       -0.13344826 -0.15453544 0.105413385 0.100178875
0000e0 ff 47 61 bd d0 e7 92 bc 9d eb 63 be 5c bb 1f be
       -0.0550003 -0.017932802 -0.22257848 -0.15598816
0000f0 b3 41 64 be d4 61 26 3d fe 44 09 3e 8d 13 f6 3c
       -0.22290687 0.04062064 0.13405225 0.03003862
000100 bc 4b 1c 3c 14 38 ca bd 7b 24 f3 bd 40 56 bb 3d
       0.009539541 -0.09873977 -0.118721925 0.0914731
000110 69 9d fb bd 43 96 ce 3c f8 12 48 be b2 fb f1 bd
       -0.12285883 0.025218135 -0.19538486 -0.11815585
000120 4e de 83 3d 25 bf dd bd f2 f5 f5 3d fb 95 0e be
       0.06438886 -0.108274736 0.12009801 -0.139244
000130 a9 1f 1c 3e 77 30 20 be c0 18 6b bd c5 c7 ec 3d
       0.15246452 -0.15643488 -0.05739665 0.115615405
000140 a7 b1 40 be 2e 79 fd bd 3c b1 a2 3d b9 fc 92 3d
       -0.18817769 -0.12376629 0.07943961 0.07177109
000150 21 60 01 be ed 20 36 3d ac 04 09 3e 35 e4 1e 3a
       -0.12634327 0.044464994 0.13380688 0.0006061227
000160 d2 a1 a5 bd cb 40 06 3e 3a b6 3b 3e 2f d6 1d 3e
       -0.080875054 0.13110654 0.18331233 0.15413736
000170 67 d0 0a 3e d2 ae 89 bd 29 53 d5 bd a8 ba be bd
       0.13556062 -0.067227975 -0.10416252 -0.093129456

rnn.bias_hh f4 [96]
000000 25 f7 59 bc 75 64 20 3c 9b cc ae 3d d8 b7 99 3c
       -0.013303553 0.009789576 0.08535119 0.018764421
000010 17 a0 41 be 05 96 2d bd c6 ae 6c bd 54 44 6a 3d
       -0.18908726 -0.042379398 -0.057783864 0.05719407
000020 09 9d f7 3d ef 80 09 3e aa 07 75 3d 84 f4 7f 3d
       0.12090499 0.1342809 0.059821762 0.062489048
000030 29 9c 18 3d 82 8f 4a bd 1b 19 bb 3a 69 5c 03 be
       0.0372583 -0.049453266 0.001427445 -0.1282822
000040 73 ec 5f 3b 6e 27 08 bd e5 15 49 bd 2b e6 19 3e
       0.0034168034 -0.033240728 -0.049093146 0.15029208
000050 67 9a 1a 3d 1d 90 2a be 01 29 d6 3d b8 f8 b1 3d
       0.037744906 -0.16656537 0.104570396 0.086900175
000060 02 f8 20 be 2e 84 3d 3e d3 5c 2a 3e 6c e2 9a 3a
       -0.15719607 0.18507454 0.16636972 0.0011816747
000070 12 a2 88 3d 94 b7 a7 3d c3 be 97 bd 5b df 93 3d
       0.066715375 0.081893116 -0.07409432 0.07220336
000080 dd 43 aa bd f1 a7 05 3d cf 6c 0d 3d f0 b2 e9 3d
       -0.08313725 0.032630865 0.034527596 0.11411083
000090 c5 ec fd bc 03 79 aa 3d 11 c1 3c 3d 49 53 37 bd
       -0.03099669 0.083238624 0.04608256 -0.04475716
0000a0 6a ea a6 3d c2 93 5d bb 2e 93 10 3d fb f3 24 bd
       0.0815018 -0.0033809994 0.03529661 -0.04027174
0000b0 54 64 37 3c e3 1a 13 be d6 19 9a bd c9 b1 18 bd
       0.011193354 -0.14365725 -0.07524459 -0.037278924
0000c0 55 b1 ca bd 75 0c 7c bd b0 ec 3f be f1 0c 64 bc
       -0.09897105 -0.061535317 -0.18742633 -0.013919101
0000d0 81 a9 64 3b 56 28 2b be 0b a0 f7 3d b9 09 80 3d
       0.0034891071 -0.16714606 0.12091073 0.062518544
0000e0 39 7c d1 bd 04 71 fb 3d df 67 d5 3c 5d 24 06 3e
       -0.10228772 0.122774154 0.026050506 0.13099809
0000f0 da ea 33 bd b5 64 53 be ce ef 04 3e bb 86 95 bd
       -0.043925144 -0.20643885 0.12982103 -0.073010884
000100 39 6c ae bc 95 e3 34 3d c2 cf e3 3c e7 2d 01 be
       -0.021291839 0.04416235 0.027809028 -0.12615167
000110 79 3e 68 3c 7e 6e 1b bd 66 ea a5 bd fd 09 2e be
       0.014175051 -0.03794717 -0.081013486 -0.16995998
000120 bd f6 3b 3b 5b 23 dd bd d5 80 27 bb 99 c3 05 3e
       0.0028681003 -0.10797759 -0.0025558968 0.13062896
000130 be 26 fb 3c bc 1c 8a 3d 31 f2 fb bd bb 2d c4 bd
       0.030658122 0.06743762 -0.12302054 -0.09579035
000140 9a d4 10 be 39 6d 60 bc 68 b5 33 be e2 9f 33 be
       -0.14143601 -0.013697916 -0.1754967 -0.17541459
000150 a2 a8 13 3e f7 93 d9 bc 89 60 e8 bc 7b ba f3 bd
       0.14419797 -0.026559813 -0.028366344 -0.11900803
000160 a1 96 5e 3d 97 a3 b9 3c 0d b2 e7 3d cc 0c 8d 3c
       0.05434287 0.022661014 0.11313257 0.017218016
000170 b0 79 f2 bd bb f3 26 be ca 37 ca bd 23 5d 11 be
       -0.11839616 -0.16303913 -0.09873922 -0.14195685

fc2.weight f4 [6, 32]
000000 63 93 6f 3d ef 6c 04 3e ac db 16 bc 24 79 69 be
       0.05849017 0.1293218 -0.009207647 -0.22800118
000010 d4 1e cd bd 37 9a f8 3d 3c d6 21 be 94 79 f9 bd
       -0.100156456 0.12138789 -0.1580438 -0.12181392
000020 e1 b0 a8 bd 7c 9e 3a 3d 10 3a 8e be e8 e6 32 3e
       -0.08236862 0.0455613 -0.27778673 0.17470896
000030 3a 23 c4 3e e8 7e 28 be 26 c8 8c 3d 2d a0 fe bd
       0.38308126 -0.16454661 0.06874113 -0.12432895
000040 81 70 e3 bd 3c 19 25 be 57 7b e2 bd fc a2 18 be
       -0.11105443 -0.16122907 -0.110586815 -0.14905924
000050 f7 a7 36 be dd 71 14 be 5b fd 1f 3e 0c 8e 71 be
       -0.17837511 -0.1449656 0.15623991 -0.23589343
000060 f5 50 f2 bd 81 fc 51 3e ad ac 53 3e 4f 28 97 be
       -0.118318476 0.20506479 0.2067134 -0.2952294
000070 91 4b 8a 3d ef d5 62 3e 5d b1 6b 3d e0 72 13 3f
       0.067526944 0.22151922 0.057542194 0.5759716
000080 95 bc e4 3d 4e b0 50 3e 31 97 69 be 4f f9 d6 bd
       0.11168782 0.20379755 -0.22811581 -0.104967706
000090 1e c2 8e 3d 9a 07 92 3b 21 46 a7 39 d1 6c 50 bc
       0.06970619 0.0044564726 0.00031904972 -0.012721256
0000a0 53 c8 19 3e 10 78 7b bd b1 20 01 3e c4 ae 74 3d
       0.15017824 -0.061393797 0.12610127 0.059736982
0000b0 01 3d e6 bd 2e aa ee bd 84 cf 9d bd b2 f7 f5 3c
       -0.11242104 -0.11653553 -0.07705596 0.030025337
0000c0 2f 17 41 3e 5d 4d 0b 3d 7e a5 05 3e c0 7c 01 3e
       0.188565 0.034009326 0.13051412 0.12645245
0000d0 9a ca 0d be 52 4d ef bb 6f 90 09 3e 33 7c a0 3c
       -0.13846818 -0.0073029185 0.13434003 0.019590473
0000e0 65 be 8c bd da 2a 6f bd 3b d0 3d bd 28 22 94 be
       -0.068722524 -0.058390476 -0.046341162 -0.2893231
0000f0 03 eb 1a 3e 6c b8 2a bf 94 21 e4 3d da 69 8c 3e
       0.15128712 -0.66687655 0.11139217 0.27424508
000100 32 ac 19 3e 7d 81 c7 3d 28 bb 12 3e 61 29 84 3e
       0.15007094 0.09741495 0.14329207 0.2581282
000110 d3 0b 21 be 1b dc 28 bc 9b 29 0b bd 99 1f 35 bc
       -0.15727167 -0.0103063835 -0.033975225 -0.011054897
000120 a2 79 5f be 82 29 d9 bd b2 f3 21 3e 7a 6d 6f bd
       -0.21823743 -0.1060362 0.15815619 -0.058454014
000130 29 5f 62 be 89 56 69 bb d1 3a f5 3d 74 6a 9d 3c
       -0.22106613 -0.0035604557 0.11974109 0.0192158
000140 25 78 e3 bd 62 67 d5 bd 65 14 02 3c 39 59 9c bd
       -0.111069 -0.10420109 0.007939433 -0.07634205
000150 26 d9 2b bd 63 0a 14 bf 47 b6 96 bd 55 45 a2 3e
       -0.041955136 -0.5782835 -0.073589854 0.3169352
000160 6c cb b1 bd 43 b7 8a 3e d0 c2 85 be 15 50 31 3e
       -0.08681378 0.27092943 -0.26125193 0.17315705
000170 5f 5f be bd 4e 6d eb bc 17 fe ac 3e 65 85 d4 3d
       -0.09295534 -0.028738644 0.33787605 0.103770055
000180 12 4d 6a 3e 90 a9 7d be 5b 7a 0e 3e ec ea 2b ba
       0.22880962 -0.24771714 0.13913862 -0.00065581384
000190 bd 14 84 3d b0 63 40 3e f0 95 42 3d 36 7c a5 3d
       0.06449268 0.18788028 0.047506273 0.08080332
0001a0 19 47 a6 be 4c 64 80 3d 9c 6e a4 bc 95 e8 de 3c
       -0.32476118 0.0626913 -0.020072274 0.027210513
0001b0 d9 b8 b1 3d a3 eb 83 3e f7 36 c6 bc be c8 f5 3d
       0.08677835 0.25765714 -0.024196131 0.12001179
0001c0 e2 37 f3 3d 1b bb 59 3d c4 74 14 3e 79 64 62 be
       0.11875893 0.053156953 0.14497668 -0.2210864
0001d0 f4 ce c3 3e 0a c3 22 3e 71 93 49 bb 60 c7 0d bd
       0.3824383 0.15894714 -0.0030758048 -0.034613967
0001e0 45 ae 00 be 73 9b 11 3d f4 b7 cc be f4 ce c1 bd
       -0.12566479 0.03554864 -0.39984095 -0.09463301
0001f0 1f a4 85 be ec 5f 2a be a5 6d 65 be ad 12 64 3e
       -0.26101777 -0.16638154 -0.22405107 0.22272749
000200 35 d3 ee bd fb 19 ca 3d 2d 78 86 3d 49 f4 d3 3d
       -0.11661378 0.09868237 0.065658905 0.10349328
000210 50 e4 1a bc cb 1d 6f be 3f 57 60 3e 4b 33 11 bd
       -0.009453848 -0.23351209 0.21908282 -0.035449307
000220 cb dc ba 3d 54 f9 f4 bd 3f 4b 0b be ef de 94 bd
       0.09124144 -0.11961618 -0.13602923 -0.07269084
000230 5d 35 91 bd 79 41 e6 bd 5b a6 95 39 98 84 00 be
       -0.07090256 -0.11242957 0.0002854344 -0.1255058
000240 d4 88 6b be 89 5f c5 be 43 1d 94 be 99 ac 43 be
       -0.23001415 -0.3854945 -0.28928575 -0.1910881
000250 61 e0 38 3e 8e b6 7b 3e 16 29 94 be c3 13 19 be
       0.18054344 0.24581358 -0.28937596 -0.14948945
000260 c1 6d c9 be 03 1a 2d 3e 4f a0 64 bc 09 2e 36 be
       -0.39341548 0.16904454 -0.013954236 -0.17790999
000270 68 ce 9f 3d bd f2 34 be f3 22 95 3d 8c 62 c9 bd
       0.07803041 -0.17670722 0.07282057 -0.098332494
000280 68 b0 e7 3d ab 87 80 be 05 19 71 3e 4d e1 82 3b
       0.11312944 -0.25103506 0.235447 0.003994143
000290 65 14 17 3e e6 e8 24 3e da a3 9b be 6f 6b 91 be
       0.14753874 0.16104469 -0.30398446 -0.28402278
0002a0 f7 96 66 3e 25 be a8 be 1e c7 4d be e0 a3 09 3e
       0.22518526 -0.3295757 -0.20095488 0.1344142
0002b0 c6 bb 24 3d 9e 89 08 be f6 0d bd 3d 28 7a d3 3d
       0.040218137 -0.13333747 0.092311785 0.10326034
0002c0 2d 87 29 be 6d f9 ae be 4b d0 a7 be 87 82 4d be
       -0.16555472 -0.34174672 -0.32776102 -0.20069323
0002d0 60 e3 d9 be 56 66 a9 3e 74 b9 02 3e 8c f6 17 3e
       -0.42556286 0.3308589 0.12766057 0.14840144
0002e0 bf 89 8a 3c 66 5e 59 3e 37 75 ab 3c de 72 2e be
       0.016911386 0.21227416 0.020929916 -0.17036006
0002f0 5e 0e 07 be 5f 84 0f be b5 2e c1 3a 2d 6a 8c be
       -0.13189074 -0.1401534 0.0014738651 -0.27424756

fc2.bias f4 [6]
000000 6b 56 e1 3c 5a 73 71 bb f8 55 a6 3b 70 d7 78 3b
       0.027507028 -0.0036842437 0.0050761662 0.0037970208
000010 66 21 bf 3c 9e a5 3b 3d
       0.023331355 0.04581224
