results/alpha_0.25/agent_1500.pt (torch, 43191 bytes, 8 tensors)

fc1.weight f4 [32, 104]
00000000: 7ffa 78be 22e7 093e fe2f 373d 8b27 2cbd
00000010: 7fdb 25bd 9ae4 3abe b3b1 ddbe 4b0f ff3d
00000020: e645 d93e 057c 2f3e fa97 45bb b3f0 17bd
00000030: 9a8f 5cbe 4d75 f13c 070e c5bd 7a32 8f3d
00000040: 4dbe f5bc 3790 e13d 4624 7abe b425 0fbe
00000050: 1194 1cbc f07b 07bd b40e 993c 37f6 9f3d
00000060: 25b2 3dbe 7fb5 01be 983d 623c bb1f 10be
00000070: a558 64b8 5b4b efbd eca2 8cbe 6e89 1c3b
00000080: 414b 123d 2ae1 bebc 511c f1bd 60ee 173e
00000090: e6dc 713d 2aab b3bd 9491 a43d 70aa 623d
000000a0: b020 64be 843e a23d bafc 68bd da63 3b3e
000000b0: 4c43 2a3e c0a6 2c3d cf2b 9c3b 0c53 02bd
000000c0: f2b3 a23d 53e4 d8bc 8bb1 12be 47dc b6bc
000000d0: 02cc 13be 0400 013e 5256 643d 7f52 bcbd
000000e0: eb0d 37be f125 503b 42fe 9a3d d7d3 2cbe
000000f0: e2bc 393d 6145 363c 6a4e 923d 0786 35be
00000100: 741b afbc c0d3 bdbc 46a9 82bd 7e8c a8bd
00000110: d4a1 ef3d 2ba3 453d 8326 02be 1e91 e5bd
00000120: 3cb1 b6bd e066 b5bd 1db7 0fbe 62a7 2b3e
00000130: 3eaf a23b a086 4dbd 42ed 8e3c af0f fbbd
00000140: 9c68 76bd 96d3 52bd de1f 96bd a0f9 bbbc
00000150: bda6 d8bd 3087 5fbe a485 ea3c fa28 82bd
00000160: 81ac afbd 0c68 63be ad53 efbc efde cebd
00000170: c59e efbd 09a7 2c3c 91cb 023e e92f 9d3d
00000180: 39c4 aebc 7337 8e3d 0b89 47bd 5145 5abc
00000190: 694a a23d 51ff 463c ec70 1e3d 9218 953d
000001a0: c6ab a23d 3e16 8fbe 38a7 113e 56ca bcbc
000001b0: 0686 703a 5efb 023e 195b 9f3e 45d9 91bd
000001c0: a3e4 393d 27a3 5cbd 930f 033e 16ad f23c
000001d0: a38e 373e b0a5 c5bd f0b6 fabb 7152 93bd
000001e0: 4578 aabb 7c23 5cbc b1e1 083e 6f7e aebc
000001f0: a8c9 3fbc 12c7 febd 6a66 16bd 5754 1cbe
00000200: 1ad8 44bd 8677 be3d 7b49 e4bd 69ad 713c
00000210: 1cbe 8ebd cd77 bd3c 8361 a13e 9ff7 26be
00000220: fbb6 a93c 2381 21be 7d45 2dbe 502e 063e
00000230: 7abc 163e 4819 a03a 2f9d f73c 4c99 d23d
00000240: 0925 0bbd c844 5dbd 402f 32be 5fc6 c2bd
00000250: 84d5 7abe eb9c bdbd e060 a2bc 9284 a03d
00000260: 2d66 773b 6e23 323c 054b d23d 26c5 9dbd
00000270: e99c 6b3d 3c23 c6bb d6ec d2bd a4d9 b1bd
00000280: 75ab fd3c 6675 13be 846b 46be 04b6 793c
00000290: cf88 3e3d 29b9 e3bb 8844 39be 6431 84bc
000002a0: ae08 1a3e 3051 dc3c 9257 cd3d d655 f2bc
000002b0: fdb3 b0bd 4915 32be 7268 e43d 7519 903e
000002c0: cb31 cd3d ca6a 473e b69e 8f3d 5b92 653d
000002d0: 6ebe 52bd b42f 64bd 0480 3abd ea93 92be
000002e0: 9d74 f73d 7bb8 803c fdcf 84bd 6f78 c63c
000002f0: 84cc a4bd 9225 04be 0e35 f93c 668d b63c
00000300: 4881 0b3e be36 b13d df96 833d 0aab e53d
00000310: a9fd 243e 17b6 453d e16e e83d 8583 3a3b
00000320: fd9f 903e dd39 29bc 73c0 cc3d f2f7 533e
00000330: 8df5 a63d c91a af3d b102 333d 150d 983d
00000340: b17a 583e 154c a2be 7afc 86be acb1 80be
00000350: 91ea 423d 5b3a ddbe e1fd 1dbf b422 13bc
00000360: 4e62 5ebe dfaa bcbc 9e5a a53d 05c2 74bc
00000370: 9b19 27be b2af 9ebb a021 a13d e92b 18be
00000380: 51d3 05be 9982 57be e08d 55bd 1776 a03d
00000390: 3294 c13d 10c2 4fbd 5865 983b 5bb8 f9bb
000003a0: 847b d23d 8891 edbd 9821 bcbe ef0a 443d
000003b0: dd8b 483e f517 ac3d a356 113e 0ba9 20bd
000003c0: 9799 38bd df94 3b3d f7c4 a3bd 76e8 96bc
000003d0: 59e5 7cbd 7064 883d fde9 233e 225c 21be
000003e0: a1d4 823c c95e ccbd c3df 6f3d 342b 29be
000003f0: 1c0e aabd dae9 5d3d 63cd 0d3d 4616 2cbb
-0.24314307 0.13467076 0.044723503 -0.0420299 -0.04049253 -0.18251267 -0.43299636 0.12454089
0.4243614 0.17137153 -0.00301504 -0.037094783 -0.21539155 0.029474879 -0.09621816 0.069920495
-0.029997969 0.11013835 -0.244279 -0.13979226 -0.009556786 -0.03307718 0.018683769 0.07810634
-0.18524988 -0.12666892 0.01380863 -0.14074604 -5.4441993e-05 -0.11684295 -0.2746805 0.0023885625
0.0357163 -0.023300726 -0.11772979 0.14837027 0.059048556 -0.08772881 0.08035579 0.055338323
-0.22278094 0.0792208 -0.056881644 0.18299809 0.16627234 0.042151213 0.0047659646 -0.03181748
0.07944478 -0.026476061 -0.1432554 -0.022321833 -0.14433292 0.12597662 0.055746384 -0.091954224
-0.17876403 0.0031760896 0.07568027 -0.16877685 0.04534615 0.01112494 0.071438625 -0.17726909
-0.021375395 -0.02317226 -0.063799426 -0.08229922 0.11700788 0.048251312 -0.12710004 -0.112093195
-0.089205235 -0.088575125 -0.14034696 0.1676307 0.004964738 -0.050177217 0.017447118 -0.12258851
-0.060158357 -0.051471315 -0.07330297 -0.022946179 -0.10578678 -0.21828914 0.028628178 -0.06355472
-0.085778244 -0.2220766 -0.029214704 -0.10101115 -0.11700205 0.010537871 0.12772967 0.07675154
-0.0213338 0.0694417 -0.04871468 -0.01332219 0.07924349 0.012145833 0.03868191 0.07280077
0.079429194 -0.27946657 0.14223945 -0.0230457 0.00091752445 0.12791201 0.3112419 -0.07121519
0.04538406 -0.05386653 0.1279891 0.02962355 0.17925505 -0.09650743 -0.0076512024 -0.07193459
-0.0052023255 -0.0134361945 0.13367344 -0.021300523 -0.011705793 -0.124403134 -0.036718763 -0.15266548
-0.048057653 0.09300141 -0.11146828 0.014750817 -0.06969854 0.023128415 0.31519708 -0.16305397
0.020717135 -0.15771918 -0.16921039 0.13103604 0.14720336 0.0012214566 0.030226318 0.10283145
-0.033970866 -0.054020673 -0.17400837 -0.095104925 -0.24495512 -0.09258445 -0.019821584 0.07837786
0.003775011 0.010872705 0.10268215 -0.07703619 0.057522688 -0.0060466807 -0.10299079 -0.0868409
0.030965546 -0.14400253 -0.19376951 0.01524115 0.04651719 -0.006949563 -0.18092549 -0.016136833
0.15042374 0.026894182 0.10026468 -0.029581945 -0.0862808 -0.17390932 0.11152734 0.28144422
0.10019263 0.1947433 0.070126936 0.05604778 -0.05145114 -0.055709556 -0.04553224 -0.28628474
0.12082789 0.015712967 -0.06484983 0.02422735 -0.08046821 -0.12904957 0.030420806 0.02228422
0.13623536 0.08653019 0.06425261 0.11214264 0.16112389 0.048269358 0.113492735 0.002845974
0.2824706 -0.010328737 0.09997644 0.20700052 0.08152304 0.08550031 0.04370374 0.0742437
0.21140553 -0.3169867 -0.263645 -0.25135553 0.04758698 -0.43208584 -0.61715513 -0.008980442
-0.21717188 -0.023030696 0.080739245 -0.014938836 -0.16318361 -0.004842722 0.078677416 -0.148605
-0.13068892 -0.21045913 -0.052137256 0.07835024 0.09452094 -0.05072218 0.004650753 -0.007620854
0.10277465 -0.116000235 -0.3674438 0.04786199 0.19584604 0.08403007 0.14193206 -0.039223712
-0.04506835 0.04579627 -0.079965524 -0.018421393 -0.06174216 0.06659782 0.16007228 -0.15757802
0.01597053 -0.09979016 0.058563005 -0.16520387 -0.083034724 0.054178096 0.0346197 -0.0026258393

fc1.bias f4 [32]
00000000: 3f4e 3ebc 7662 b63c 504e 143d 8bf3 7b3b
00000010: bec4 1f3d 7777 4b3c 6f23 8f3d 0308 193d
00000020: c83d 323c af34 af3c 290f 5cbb 5ade 29bc
00000030: 54d2 3a3d 3303 583c 989f 383d faaf dc3c
00000040: 48c4 4a3c 6948 02bc 30d3 9a3c fd8b 6b3d
00000050: a0a9 8b3d 1819 9c3d 949a 023e dd93 313c
00000060: 6ecd febc cabb a43d 8231 143c 6b6b 233c
00000070: 9dad 333d 3c99 a73c 8393 a63b 2f8d 353d
-0.011615335 0.022263747 0.036207497 0.0038444723 0.039005987 0.012418619 0.0698918 0.037361156
0.010878988 0.021387426 -0.0033578372 -0.010367954 0.04561074 0.0131843565 0.045074075 0.02693938
0.012375899 -0.007951834 0.01889953 0.05750655 0.06819463 0.07621974 0.1275428 0.010838476
-0.031103816 0.080436304 0.009045007 0.009974341 0.043866742 0.02045881 0.0050835027 0.044324096

rnn.weight_ih f4 [96, 32]
00000000: 2005 12be bfa7 ac3c 3445 173e 3b40 78bc
00000010: c21f 54be 983d 22be dd95 41be d8dc 873d
00000020: a200 30bc 2d5a f0bd 89c1 60bd 1026 fcbd
00000030: c669 223d b954 9abc 1132 39be 505c 2b3e
00000040: 7651 00be 64d2 d3bd 66a1 3dbe d493 863c
00000050: ebd6 38be 5aa8 c63d 82b7 b3bd 9066 2d3d
00000060: 9f5f 0ebb 131b b43d fcd3 fdbd d8ba db3c
00000070: 570d 933d 11dc 513c d799 c5bd 46c5 0fbd
00000080: e347 6cbd a680 4f3e dcf0 36bd b493 8ebc
00000090: d300 a93b 494e 3ebe 05ad 723c 5122 b13d
000000a0: 19d8 193d 62e3 e7bd 952f c63d 3bf5 ce3d
000000b0: 571a 44be b04e aebd 4190 bcbc f3af 62bc
000000c0: b6e4 0ebe 0683 fabc eeda febd 2c9f 8abd
000000d0: 2476 22be 16ff 693e ccc6 7abe 25f5 c3bd
000000e0: e94b 9a3e a85e fabc aee3 32be 1ada 283e
000000f0: 4981 d93d ef38 ac3c 307e ef3c 9fc7 94bd
00000100: b451 8e3e c6f9 893d d217 863d e32c 9cbe
00000110: 750f 6cbe ffc3 11be ac55 383e 98a8 06be
00000120: 8536 8f3e 774b 963e 5cb5 22be fa1a 2dbe
00000130: ae81 b1bd bc0c f03e e389 1e3c 0f2e 80be
00000140: e5ff 3fbe 41c2 053e 732d a53d 260f 1bba
00000150: 882c 2a3d 20a6 4d3e d2f9 68bc c0f4 c53d
00000160: 47f7 2fbe 628f bfbe 2a46 91bc f87f 61be
00000170: c06a e83c c975 62be 0b30 b63d 7835 4c3e
00000180: de9b 9b3e 3977 97be 2607 5c3e bf53 adbd
00000190: d78b 9d3c 1878 193e 2f0a 43be b44c e0bd
000001a0: 95f3 4ebe 30af 673d 4a76 923b 712b e53d
000001b0: dba2 333e ef77 113e 685b 543e e386 b63d
000001c0: 425c 9abd 8f56 eebd b37d b4bd ae53 443d
000001d0: a011 d5be 17f3 8fbe 4a1f 1e3e b967 3b3e
000001e0: ebb5 babc 569c 41be c089 a83d c86a 143e
000001f0: 373c 933c f505 d73c 97b4 03bd d9d9 bbbd
00000200: b3a5 52be ca0b c03e bedc dabd 106a e03e
00000210: 50e5 0b3e e61b 8c3e 979f a3bd 612d 1e3d
00000220: 7b0c 123d 1d6c 483d 226f 973d 5ebe 5f3b
00000230: cb3a 11be 94c6 cc3e ddf6 1ebe f845 0cbe
00000240: e90a 453e ec87 61be 308b 83ba a1e0 d63c
00000250: f700 d4bd 6a9f 9d3c edd6 d93b 9fed 54be
00000260: aa16 78be 2c84 0abe 2028 543e dc94 8b3e
00000270: 92d9 d43d 68e7 d0be 7074 52be 455e 1cbc
00000280: fc94 923d 4446 6fbe 4167 85be e42b ddbd
00000290: 5cae 883d 0d2d 733d c119 16be 08b9 513d
000002a0: 9237 d6bd d8fa ecbd 9aa9 f4bd f877 0c3e
000002b0: 27bc 1f3d 69b1 84be 08ea 2abe ca8a ccbb
000002c0: 0233 03be e836 023d fd72 0b3d 971a bfbd
000002d0: c646 8ebe b2de 623d d2b4 88be 92d8 0b3d
000002e0: 11b4 a63e 02db 20b9 ae44 d73d bedb 583d
000002f0: 046c 053d f3e9 413d 631a debc 79f6 a8bc
00000300: 8572 6c3d 06da 6abd 59db 3e3e f0cc a9bd
00000310: be81 b9be a547 97be e5cd 193d 7a7c b73d
00000320: c20c 0b3e b962 3a3e 4bf2 3a3c c249 22be
00000330: 148e 9cbe 9488 243d dc0b d0bc 7f5b 6a3c
00000340: 0907 99be 8c49 203e a884 3bbe c7c3 80be
00000350: 9134 5d3d cafa b03d e026 b5bd 4845 aabd
00000360: cb1d 5b3d ddc7 9ebe 9370 3bbd 3d30 0cbe
00000370: 272c 9b3d efed 25bd 9d8f 9fbd 9e9a 3a3e
00000380: b058 fdbd 1699 03bd 2d2f dfbd 618a dbbc
00000390: eaf0 343e 8327 d03e 7f55 7cbd 7c9f b0bd
000003a0: eae6 143c 46ef 30be 23b2 4ebc 5cec af3d
000003b0: 0bb7 193e c51e b5bc 2528 33bd 3b46 533e
000003c0: 0fb3 053e 6e94 c33d 4fd7 803d 1479 37bd
000003d0: 010b b0bd 573b 6d3e 1eaa c93b 75e7 a23e
000003e0: 2550 263e 360b 133e 9c6b 3c3e 1ae6 5fbe
000003f0: 6059 3bbe 83ea 8cbd eb7f eabc ab4f 003e
-0.14259768 0.021076081 0.14772493 -0.0151520325 -0.2071524 -0.15843809 -0.18904825 0.066339195
-0.010742338 -0.1173595 -0.05487207 -0.12311947 0.039651655 -0.018839227 -0.18085505 0.16734433
-0.12531075 -0.10342863 -0.185186 0.016427912 -0.18050735 0.09700079 -0.08775236 0.04233414
-0.0021724475 0.087942265 -0.123939484 0.026822492 0.07180279 0.012808816 -0.09648483 -0.035100244
-0.057685744 0.20263919 -0.044663295 -0.017404415 0.005157569 -0.18584551 0.014811759 0.086491235
0.037559602 -0.11322667 0.09677044 0.10105368 -0.19150673 -0.08511102 -0.023018004 -0.013835895
-0.13954434 -0.030580055 -0.12444101 -0.06768641 -0.1586538 0.22851214 -0.24489897 -0.09568242
0.3013604 -0.030562714 -0.17469665 0.16489449 0.10620362 0.021023242 0.029234976 -0.07264637
0.2779671 0.067370936 0.06547512 -0.30502996 -0.23052771 -0.14234923 0.18001431 -0.13150251
0.27971283 0.2935445 -0.15889496 -0.16904822 -0.086673126 0.46884716 0.009676429 -0.2503514
-0.1874996 0.13062383 0.080653094 -0.0005915038 0.041546375 0.20082903 -0.014219718 0.09665823
-0.17184173 -0.3741408 -0.017733652 -0.22021472 0.028371215 -0.22115244 0.08895882 0.19942272
0.30392355 -0.29583147 0.21487102 -0.08463239 0.01923172 0.14987218 -0.19046853 -0.1095213
-0.20210107 0.056563556 0.0044696676 0.111899264 0.17542593 0.14205907 0.20737994 0.08912446
-0.07537128 -0.116376035 -0.08813038 0.047931366 -0.4161501 -0.2811515 0.15441623 0.18301286
-0.022791823 -0.18907294 0.08229399 0.14493859 0.017973049 0.026247958 -0.032154646 -0.091724105
-0.20571022 0.37508994 -0.106866345 0.4383092 0.13661695 0.27365035 -0.07989424 0.038617495
0.035656434 0.04893123 0.07394244 0.0034140567 -0.14182584 0.39995253 -0.15523858 -0.13698566
0.19242443 -0.22024506 -0.0010035988 0.026230158 -0.103517465 0.019241054 0.0066479356 -0.2079377
-0.24227396 -0.13526982 0.20718431 0.27262008 0.10393061 -0.4080155 -0.2055223 -0.00954396
0.07157323 -0.23366648 -0.2605534 -0.10799387 0.066738814 0.059369136 -0.14658262 0.05120185
-0.10459818 -0.11571282 -0.119464114 0.1371764 0.038997795 -0.25916603 -0.16690838 -0.006242131
-0.12812427 0.031790644 0.03404521 -0.093312435 -0.2778837 0.05538816 -0.26700455 0.034142084
0.32559255 -0.00015340376 0.105111465 0.052943937 0.032573715 0.047342252 -0.027112192 -0.02062534
0.0577264 -0.05733683 0.18638362 -0.08291042 -0.36231798 -0.29546848 0.037549872 0.08959289
0.13579085 0.18201722 0.011410306 -0.15848449 -0.30577147 0.040169314 -0.02539628 0.014304041
-0.2988818 0.15653056 -0.18312323 -0.25149366 0.05400521 0.08641584 -0.088453054 -0.083139956
0.05349521 -0.3101186 -0.045761656 -0.13690276 0.07576781 -0.040510114 -0.07791064 0.18223044
-0.123704314 -0.032128416 -0.1089767 -0.026799383 0.17670026 0.40655145 -0.061604973 -0.08624169
0.009088257 -0.17278776 -0.012615713 0.08590004 0.15011232 -0.022109399 -0.043739457 0.2063226
0.13056587 0.09549795 0.06291067 -0.044793203 -0.08595849 0.23167168 0.0061543128 0.31817213
0.1624151 0.14359745 0.18400425 -0.2186512 -0.18295813 -0.06880667 -0.02862545 0.12530391

rnn.weight_hh f4 [96, 32]
00000000: 8f6b 0f3e e72e e73c 5a3e d0bb 1119 3b3e
00000010: 10b1 063d 76f1 173e c720 13be 0c9d d03d
00000020: 60d0 e9bd d993 71bd debc 1abd d33d c83d
00000030: 9b26 8abd 2d78 27bd b2da 173d 7a47 cbbd
00000040: 34f2 f0bc f303 323e e8f6 633c 1804 ac3b
00000050: 61b7 a3bd c26b cd3d ac8f 3f3e 832a afbc
00000060: de60 8ebd 3afa debd ed6d 023e 1a06 2fbc
00000070: b594 b03d 2111 a83d 81eb 48be 86d4 87bd
00000080: 7d0f 2d3e 806e 833d aec0 6f3e 810e 43bd
00000090: 37b2 9d3d e9d3 8cbd 613e 303d 0782 cebc
000000a0: e7d4 783b d33c b4bb 9263 4a3d b304 643d
000000b0: fd2c 07bd ae29 3c3e a7e0 f1bc c2fa 923c
000000c0: abd3 e9bd e378 7f3e 3128 573e f4a1 e33d
000000d0: e9e6 a03d 5211 37be fe32 63bc 3edc 563e
000000e0: 7b0b 3ebe e576 21be 6530 043d 1bc8 a13d
000000f0: c171 03be b862 13be 95cb a73d d705 9c3d
00000100: eb5a 28bd 6caf 1cbe dbdd cabd ef29 713e
00000110: 04f3 d9bd 5f99 d0bd fe70 103e 3cbf 593e
00000120: eb3d 523d d60f dd3d 48df 343e ab84 54be
00000130: fcb5 3c3d f094 653c 4cbb fabd eeb1 04be
00000140: d92b fd3c d8ae dd3d cc7e ffbd 64d4 65bd
00000150: 0884 d83d 803c 163e c506 b0bd 80d5 1e3e
00000160: 73f0 5a3e 7b77 b5bd 3f6e c13d 6f82 d0bc
00000170: 06cd 513e cd69 a4bd d96e a1be 56a0 d5bd
00000180: 0ab1 8d3d 60d8 aabc c48e cc3e 7dcd a0bd
00000190: a739 e43d df7a 5fbe b415 373e d26b 75bd
000001a0: 8a4b c83b 22eb 8cbd d8e6 63bd 118f 143b
000001b0: 7a4b 023d 2489 de3d a0d1 1abc 3736 37bd
000001c0: 29a2 533e 9ad5 b73d 3eef 61bc 4001 11be
000001d0: 7175 6f3c a137 07bc b60f a43d 0a44 43be
000001e0: 4cac 5d3e fb25 b43d 447f 02be 4113 113e
000001f0: 785e 093d e86c 4a3e 96eb 45be c0f0 13be
00000200: 9dfb b83d 239a 403e 3c7c 54bd 56e2 fcbd
00000210: 6b4c c0bd efdf 9abc 1c52 5a3d a605 01be
00000220: dcbb 0cbc c1ef ddbd 8506 253e f8ff cebc
00000230: 4e4c 45bc af1b 083d d81a 733d b56c c1be
00000240: 507f 2f3d 72b9 ce3d 8d27 f7bb fd57 06bd
00000250: 2f65 eabc 588c ab3e 2af1 133d 4abc 07bd
00000260: 4ba7 febc 9b20 343e b701 d2bd f306 5fbe
00000270: 3111 09bd 4c85 e2bb f714 183e bd77 ac3d
00000280: eac9 46bd f136 90bd 7323 833e b70f 393d
00000290: e64b 823c ef5d 67bd c83f 18be 3a68 b1bc
000002a0: dab0 fbbc 9ab6 313e 7891 953d 68e7 1b3d
000002b0: 61fa eaba 10c4 30bd 8ba6 3a3d 70c3 4dbc
000002c0: 7652 af3d 9c64 eb3d d989 55be 729b 643e
000002d0: 5f5b 5f3d ea5b 493d df30 05be ed03 493e
000002e0: 4f91 793d 2868 ad3d 6763 a0bd 1e6f 74bd
000002f0: dd4d 85be db41 2dbc b50e f5bd 9c26 c13d
00000300: 792b c33d 69ea ec3c 2716 193d 134d 653d
00000310: 69a9 77be 8ff6 1d3e 9e13 ee3d 66e5 01be
00000320: 10d3 a5bd 5893 c83c 5005 a5bd 5ec8 87bd
00000330: f786 23bd 88b7 f1bd b4cc a23c 1e3f 24bc
00000340: 3ea5 293e 7578 e63d eac8 a4bd 93c4 e6bb
00000350: 54a1 ff3c ff18 88be 059d 243e fe44 ab3e
00000360: 0692 f23c e7dd 1d3e 0c62 6bbd 623c 30bd
00000370: 959d abbc c75a e73d 9d9e c53d a3c6 c2bc
00000380: 126d 14be bb59 98ba 6225 253d 44b2 293e
00000390: 2fa2 f7bd 5a8f 9bbc 0264 003d e805 cc3c
000003a0: b54c 9b3d 29b5 f0b9 fdb1 f1bc 982b 883d
000003b0: c03e a23c 18e2 2fbe fbf3 8b3d 3860 7c3d
000003c0: 3464 38be aa16 0ebe b121 593d 9bc3 413e
000003d0: 9b7b 323d 070b 353e b7fe 3d3e adc2 523e
000003e0: f748 953e 7542 6cbd c965 d3bd 7d94 203d
000003f0: 3519 9ebc a376 053d 0122 1b3c f70c 9ebd
0.14005874 0.028220607 -0.006355089 0.18271281 0.032883704 0.14838204 -0.14367972 0.10186204
-0.114166975 -0.05897889 -0.037777774 0.09777417 -0.06745645 -0.040886093 0.0370738 -0.099257424
-0.029412366 0.17384319 0.0139138475 0.0052495115 -0.07993961 0.10030319 0.1870715 -0.021382576
-0.0695207 -0.10887571 0.12737246 -0.010682607 0.086221136 0.08206392 -0.19621088 -0.066323325
0.1690044 0.064175606 0.23413345 -0.047621254 0.077000074 -0.06876356 0.04302824 -0.025208486
0.0037968697 -0.005500415 0.049411364 0.055668544 -0.03300189 0.18375275 -0.029526068 0.017941836
-0.114173256 0.24948458 0.21011426 0.111148745 0.078565426 -0.17877701 -0.013867138 0.20982453
-0.18559067 -0.15768011 0.032272715 0.07899495 -0.12836362 -0.14393127 0.08193127 0.07618301
-0.04110233 -0.15301293 -0.09905597 0.23551153 -0.10642055 -0.10185503 0.14105603 0.21264356
0.05132858 0.10794036 0.176633 -0.20753734 0.04607199 0.01401256 -0.12242755 -0.129585
0.030904697 0.108243644 -0.124753565 -0.056110755 0.10572058 0.14671516 -0.08595041 0.15511131
0.21380787 -0.0886068 0.09444856 -0.02545282 0.20488366 -0.080279924 -0.31529883 -0.10430972
0.06918533 -0.020855129 0.39952672 -0.07851694 0.11143809 -0.21824215 0.17879373 -0.05991728
0.0061125206 -0.068807855 -0.05564007 0.0022668282 0.03181026 0.10866001 -0.009449393 -0.044729438
0.20667328 0.08976288 -0.01378995 -0.14160633 0.014615403 -0.008253009 0.08010809 -0.19068924
0.21647757 0.08796307 -0.1274386 0.14167501 0.033537358 0.19768107 -0.1932815 -0.14447308
0.090323664 0.18808798 -0.05187629 -0.12347858 -0.093895756 -0.018905608 0.05330096 -0.12599811
-0.008589711 -0.10836745 0.16115768 -0.02526854 -0.012042118 0.033229526 0.059351772 -0.3777825
0.042846024 0.10093965 -0.0075425566 -0.032798756 -0.028612701 0.3350551 0.036118664 -0.03313855
-0.03108563 0.17590563 -0.10254233 -0.21779995 -0.03346366 -0.006912863 0.14851747 0.08421276
-0.048532404 -0.07041729 0.25612983 0.045181002 0.015905332 -0.056486066 -0.1486808 -0.021656144
-0.030723978 0.17354813 0.073031366 0.038062483 -0.0017927402 -0.04315573 0.045568984 -0.012558803
0.0856065 0.11493799 -0.20853366 0.22324923 0.054530498 0.04915992 -0.13006924 0.19630404
0.060929593 0.08467132 -0.078314595 -0.059676282 -0.26035967 -0.010574783 -0.11965696 0.09431192
0.09529776 0.02892037 0.03737464 0.055981707 -0.24185719 0.15426086 0.116248354 -0.12685165
-0.080968976 0.024484321 -0.08057654 -0.06630014 -0.039923634 -0.11802584 0.019873 -0.010024814
0.16566941 0.11253444 -0.08046134 -0.0070424764 0.031204857 -0.2658157 0.16075523 0.33451074
0.029610645 0.1541668 -0.05746655 -0.043026336 -0.020949164 0.11296611 0.09649394 -0.023776358
-0.14494732 -0.0011623421 0.040318854 0.16571909 -0.12091481 -0.018989254 0.031345375 0.02490516
0.0758299 -0.00045911342 -0.029503817 0.0664894 0.019805312 -0.17176092 0.06833645 0.0616152
-0.18006974 -0.13875833 0.053010646 0.18922274 0.04357491 0.17679988 0.18554197 0.20582075
0.2915723 -0.057680566 -0.10322148 0.03920411 -0.019299129 0.032583844 0.009468556 -0.077173166

rnn.bias_ih f4 [96]
00000000: 715c ecbd 3dd4 f43d 8c2d cfbd 5629 283d
00000010: 0306 393e 214a 00bd 747a 243e 5a54 903d
00000020: 1901 ad3c c90d 523b 2a29 37bd 73ef 86bd
00000030: 4c40 263e 96c9 8abd 8b8f 623d 0139 1c3e
00000040: b115 183e bbca ea3d 5809 08be 5ab7 b9bd
00000050: 66db 673d 2be8 6cbd 3e0c eebc 45f6 2fbe
00000060: a660 043c c6bd cdbd 6b4a 05be 0bdc 14be
00000070: 3e3c f23d 5f17 1d3d d6d6 1cbe 6875 82bd
00000080: b18f 12be 3c96 35be 352c 5dbe a7e9 51bd
00000090: 24d1 e8bd aa16 14bb 5988 96bd 4f31 40be
000000a0: cbde 50be aca8 4bbe 97e0 8dbd 4ae4 843d
000000b0: 921a 82bd 9bf3 12bc 5c37 92bd f06e a5bd
000000c0: 05c7 35be 1c9b 8ebe f505 f2bd 89bc c53c
000000d0: 3f37 29be 6127 1ebe 0a95 4a3d be2b 953b
000000e0: 6778 f4bd d746 9cbd c9bc 79be f7f5 48be
000000f0: be4c 7ebe 211a 813b c982 c73d 2263 85bd
00000100: b572 443c 4dc7 b0bd 102d dcbd 6972 e83d
00000110: 654a f7bd 7f49 cb3c a20e 4ebe dd45 00be
00000120: a70a 11bc b3f1 edbd c664 0f3e 6b0b e6bd
00000130: fc67 023e c6d7 c1bd 1f65 04bd 5415 bb3d
00000140: 2d55 4abe 9603 14be cfb5 ad3d 7d6a 873d
00000150: b5c0 01be 1f5a a33d 2a9c 013e 0421 2abd
00000160: b027 b2bd 4d84 1f3e 646a 383e 05e3 003e
00000170: 79c1 f23d 5295 b3bd 0fa6 90bd 9493 96bd
-0.11541069 0.11954544 -0.10116109 0.041055046 0.180687 -0.031320695 0.16062337 0.07047339
0.021118687 0.0032051674 -0.04471699 -0.0658864 0.16235465 -0.06776731 0.055312674 0.1525612
0.14852025 0.11464449 -0.13284814 -0.09068175 0.05660572 -0.0578386 -0.029058572 -0.17183788
0.008079683 -0.10045962 -0.1301667 -0.14537065 0.118278965 0.038352367 -0.15316328 -0.0637005
-0.14312626 -0.17733091 -0.21598895 -0.05124822 -0.113680154 -0.0022596517 -0.07350225 -0.1876881
-0.20397489 -0.19888562 -0.06927603 0.06488855 -0.06352724 -0.008969213 -0.07139465 -0.080778
-0.17751701 -0.27852714 -0.118175425 0.024137752 -0.16524981 -0.1544471 0.04945854 0.0045523336
-0.119370274 -0.07630699 -0.24388422 -0.19625078 -0.24833962 0.0039398824 0.09741742 -0.06513049
0.011990239 -0.086317636 -0.107507825 0.11349947 -0.120747365 0.02481532 -0.2012277 -0.1252665
-0.008852637 -0.11618366 0.14003286 -0.112326466 0.1273498 -0.09464984 -0.032323 0.091349274
-0.19759054 -0.14454493 0.08481943 0.06612108 -0.12671168 0.079761736 0.12657228 -0.041535392
-0.08698976 0.15577812 0.18009335 0.12586601 0.11853308 -0.08768715 -0.07062923 -0.07352367

rnn.bias_hh f4 [96]
00000000: 76fc bfbc dbea 093d 4ded 373d e4a5 5b3c
00000010: 35e1 00be ed8f 13bc 757d 23bd 242a b73d
00000020: 4bbe d73d 1d8c 0a3e 5561 e93c a5e6 903d
00000030: 7645 7e3d 1897 71bc 6491 b8bc ee57 f6bd
00000040: d020 a03b 4b7a 63bd 119e 6ebd 0462 153e
00000050: 435a 4d3c 70fd 40be d357 b73d 1061 613d
00000060: 940d 50be 3cf3 3b3e 1bfd 1c3e 5906 bc3c
00000070: 1c11 833d 76c9 c83d 647c 54bd 35a9 a43d
00000080: 8a45 c2bd 0a12 f9bc 14e5 3cbd 3e97 0b3e
00000090: 61fd 00be 9419 283d 0c8a 223d 1b3d dbbd
000000a0: e87b a2bc 15fe 16bd eb79 163d f3bd 6dbc
000000b0: 5a45 fc3d 145c 3dbe 0373 13be 6ee1 a0bd
000000c0: 43c1 23be 7801 07be a33d 60be 8225 d13c
000000d0: 4cef e7bc 2d11 2bbe 9d07 853d 609c 07bd
000000e0: 4ea8 2abe 2ae4 833d 3f79 9b3b 72d3 b93d
000000f0: 770b 8ebd 57f4 78be 68d8 be3d 5e37 2cbe
00000100: e292 aebc 79f6 2d3d 4136 383d 1752 0dbe
00000110: 1a62 c73d 30de 5ebd 3f9c b03b cf9c 54be
00000120: 99e0 9fbd 5643 e7bd ab94 1dbb 210e 253e
00000130: 9161 8bba 7fa7 323d fe14 53be 115f 0dbe
00000140: 787f 29be f805 f5bc 7478 3dbe 883a 39be
00000150: 277c fb3d ac9d 09bd 4183 dcbc 90d0 08be
00000160: 6001 253d d224 693d 7a76 f03d 1c38 183c
00000170: 2dc8 24be d86e 35be bb4e 09bd 37d5 00be
-0.023435812 0.03367124 0.044904042 0.013406251 -0.1258591 -0.009006483 -0.039914567 0.089435846
0.105343424 0.13530011 0.028488794 0.07075242 0.06207796 -0.014745496 -0.022530265 -0.1202849
0.004886724 -0.05553655 -0.058256213 0.14588171 0.012533727 -0.18846679 0.08952298 0.055024207
-0.2031768 0.18354505 0.15330927 0.022952246 0.06399748 0.098040506 -0.05187644 0.08040086
-0.0948592 -0.03040411 -0.046116903 0.13631913 -0.12596656 0.04104002 0.039682433 -0.10705014
-0.019834474 -0.036863405 0.036737364 -0.014510619 0.12317915 -0.18492156 -0.14399342 -0.07855497
-0.15991692 -0.13184154 -0.21898513 0.02553058 -0.028312348 -0.16705771 0.06495593 -0.033108115
-0.16665766 0.06440003 0.0047446783 0.09073533 -0.069357805 -0.24311958 0.0931862 -0.16817996
-0.021310274 0.042471383 0.044973616 -0.13800846 0.09735508 -0.054411113 0.0053897197 -0.20762943
-0.078065105 -0.1129214 -0.0024044912 0.16118671 -0.0010633935 0.043616768 -0.20613477 -0.13805796
-0.16552532 -0.029910073 -0.1850298 -0.18088734 0.122795396 -0.033597633 -0.026918055 -0.1336081
0.040284514 0.05691988 0.117413476 0.009290721 -0.16091986 -0.17718065 -0.03352235 -0.12581335

fc2.weight f4 [6, 32]
00000000: 3b6d 9f3d 820d 003e cecf ccbc 280a f1bd
00000010: b652 33be 678a 003e 20de bcbd 0e2b a1bc
00000020: ae84 15be 384f 843c 0fc2 43be 5cc2 293e
00000030: 47a2 ad3e 6cfe f3bd 3a2f 9a3d ecf0 dabd
00000040: 2ade 03be a012 37be 8c72 a6bd 4e9c 26be
00000050: c032 1cbe 6334 30be e10d cd3d 314d 09be
00000060: 83e0 24bd eb1f 6f3e 9c3f e03d 044b 8abe
00000070: 2fe4 dd3d d46e 623e 27d8 543d 5666 163f
00000080: aae6 df3d 4ae4 2b3e 35db b5bd 0015 6ebe
00000090: 91bd 613d d848 653d e1e1 c7bc 229e 77bd
000000a0: 6613 073e 1ff7 86bd 77a4 8a3c 38d9 4d3d
000000b0: 008d e9bc 6dc6 0bbe 5e6f 0cbd 3c2e cdbd
000000c0: ea37 433e e574 9f3d 128b ea3d 2e09 783d
000000d0: 21d2 18be 932c 7ebd 1030 a63c 27e2 c1bd
000000e0: e761 1cbe e6d6 94bd dd7b e9bc e087 8dbe
000000f0: b164 3b3d c7d8 22bf ff9d eb3c e176 863e
00000100: bba7 243e affe b03d 3ad5 c53d 30a5 823e
00000110: 81fb babd 5627 a838 e461 d23c a6c1 1e3c
00000120: 8e89 95be 6dc1 1dbe d9d7 1b3e 2a4c 93bd
00000130: 3b17 8fbe a85d bf3d c64f df3d 1963 7b3d
00000140: 7c21 f5bd dc43 9bbd a1b2 1e3d a3ab d7bd
00000150: e955 06bd d883 12bf 59d4 03be c225 9b3e
00000160: 424c fcbd 9218 8f3e 731a 9ebe f663 513e
00000170: 9ca2 27bd 68ec 3dbd 9396 9f3e 7c72 e83d
00000180: fade 563e 31a9 86be c6cb 133e a413 bd3d
00000190: f668 2bbd 0ec8 403e 4d6d 4d3d c1da f93d
000001a0: 0d6e 61be 6c41 8d3d a1a1 293b 0e4a 5fbc
000001b0: eb41 b13d 0e5c 3d3e c5ee 50bd 579e 253e
000001c0: a6f5 013e 0ca6 dd3d 72e8 e73d d5d4 41be
000001d0: 7840 b93e d61e 7a3d 66ed 9cbd c68f d0bc
000001e0: 4330 1fbe a0b5 743c 694d d3be 1967 28bd
000001f0: de45 7bbe a68e 0cbe f7df 98be 73e8 533e
00000200: efa0 d0bd 9daf a93d 3633 193d 5868 a03d
00000210: 8efa 1bbd 964f 4abe 0719 033e 0151 1bbd
00000220: 3924 cb3d 1ec3 d2bd a934 06be 84e4 b7bd
00000230: a1c9 b8bc c53f c9bd 12d7 c93c 790c e73b
00000240: b0e7 78be 125d b6be 3e0a 8abe 8928 3cbe
00000250: 53d8 4c3e 85f5 253e 443e 90be a6b7 d6bd
00000260: 6ab9 b1be 82db 3e3e cebb 25bd bf76 2dbe
00000270: 7f31 693d 2bdb 2cbe 6e02 103e fb93 aabd
00000280: a78b 093e b80f 82be 385d d53e 5e17 593d
00000290: 8635 5d3e a6af 553e 6d01 f1be a586 bfbe
000002a0: a6f9 a43e a9f9 9dbe fd21 47be e48e 053e
000002b0: 1be2 973c 8940 65be 7d98 3a3e 4bae bd3e
000002c0: eeb5 46be 2475 afbe b9ca b4be ed82 66be
000002d0: 47de ddbe 5762 ac3e 051c 073e ac5c 823e
000002e0: 4b65 453d 6a4a 593e e652 92bd 13e0 34be
000002f0: 9a23 9fbe 918a 1cbe f38b c33d b60c 8cbe
0.07784506 0.12505153 -0.025001433 -0.11769515 -0.1751202 0.12552796 -0.092220545 -0.01967385
-0.14601395 0.016151056 -0.19116996 0.16578048 0.3391287 -0.119137615 0.07528539 -0.106904835
-0.12877718 -0.17878199 -0.08127317 -0.16270563 -0.15253735 -0.17207484 0.10012413 -0.13408352
-0.040253174 0.2335202 0.109496325 -0.27010357 0.10834538 0.2211259 0.05196395 0.587499
0.109326676 0.16786304 -0.08879701 -0.23250198 0.055112425 0.055977672 -0.0243997 -0.06045354
0.13190994 -0.06590103 0.016924126 0.050255984 -0.028509617 -0.13649912 -0.034285896 -0.10018584
0.19064298 0.07785968 0.11452307 0.06055563 -0.14923908 -0.062054228 0.02028659 -0.09466963
-0.15271722 -0.07267551 -0.028501445 -0.27642727 0.045750324 -0.63612026 0.028761862 0.26262572
0.16079609 0.08642327 0.0965981 0.25516653 -0.09130002 8.018191e-05 0.025681444 0.009689724
-0.29206508 -0.15405817 0.15219058 -0.071922615 -0.2794741 0.093440354 0.109038875 0.061373804
-0.11969277 -0.075813025 0.038744573 -0.10530784 -0.032796774 -0.5723243 -0.12873973 0.30302244
-0.123192325 0.27948433 -0.30879554 0.20448288 -0.04092656 -0.046368033 0.31169567 0.11349961
0.20983496 -0.26300958 0.14433202 0.09232262 -0.041848145 0.18826315 0.050153065 0.12199927
-0.22014637 0.06897244 0.0025883692 -0.013628496 0.08655151 0.18492147 -0.05100896 0.16173683
0.12691364 0.108226866 0.11323632 -0.18928845 0.36181998 0.061064564 -0.07662468 -0.025459182
-0.15545754 0.014935881 -0.41269997 -0.041113947 -0.24538371 -0.13726291 -0.29858372 0.20694141
-0.10186946 0.08285449 0.037402354 0.07832402 -0.038080744 -0.19756922 0.12802516 -0.03791905
0.09919018 -0.10291122 -0.13106026 -0.08979133 -0.022557082 -0.09826616 0.024638686 0.0070510474
-0.24307132 -0.35617882 -0.2696094 -0.18374838 0.20004396 0.1620694 -0.28172505 -0.10484247
-0.34711772 0.18638423 -0.040462308 -0.1693983 0.05693197 -0.16880481 0.14063427 -0.08329006
0.1343218 -0.25402617 0.41672683 0.0530008 0.21602449 0.20867786 -0.470714 -0.37407413
0.32221717 -0.30854538 -0.19446559 0.1304279 0.018540433 -0.223879 0.18222232 0.37047037
-0.19405338 -0.3426906 -0.35310915 -0.22510882 -0.43333647 0.33668777 0.13194282 0.25461328
0.048192304 0.21219793 -0.07144718 -0.17663603 -0.3108185 -0.15287234 0.095481776 -0.27353448

fc2.bias f4 [6]
00000000: 7916 363d 263c 67bc d306 a13c 7d66 7fbb
00000010: 3b9a 043d 0080 6e3d
0.044455025 -0.014113462 0.019656574 -0.0038971 0.032373648 0.05822754
